…
      sampler {
        min_scale: 0.3
        max_scale: 1
        min_aspect_ratio: 0.5
        max_aspect_ratio: 2
      }
      sample_constraint {
        min_jaccard_overlap: 0.9
      }
      max_sample: 1
      max_trials: 50
    }
    batch_sampler {
      sampler {
        min_scale: 0.3
        max_scale: 1
        min_aspect_ratio: 0.5
        max_aspect_ratio: 2
      }
      sample_constraint {
        max_jaccard_overlap: 1
      }
      max_sample: 1
      max_trials: 50
    }
    label_map_file: "data/WIDERFACE_2016/labelmap_voc.prototxt"
  }
}
layer {
  name: "conv1_1"
  type: "Convolution"
  bottom: "data"
  top: "conv1_1"
  param {
    lr_mult: 1
    decay_mult: 1
  }
  param {
    lr_mult: 2
    decay_mult: 0
  }
  convolution_param {
    num_output: 64
    pad: 1
    kernel_size: 3
    weight_filler {
      type: "xavier"
    }
    bias_filler {
      type: "constant"
      value: 0
    }
  }
}
layer {
  name: "relu1_1"
  type: "ReLU"
  bottom: "conv1_1"
  top: "conv1_1"
}
layer {
  name: "conv1_2"
  type: "Convolution"
  bottom: "conv1_1"
  top: "conv1_2"
  param {
    lr_mult: 1
    decay_mult: 1
  }
  param {
    lr_mult: 2
    decay_mult: 0
  }
  convolution_param {
    num_output: 64
    pad: 1
    kernel_size: 3
    weight_filler {
      type: "xavier"
    }
    bias_filler {
      type: "constant"
      value: 0
    }
  }
}
layer {
  name: "relu1_2"
  type: "ReLU"
  bottom: "conv1_2"
  top: "conv1_2"
}
layer {
  name: "pool1"
  type: "Pooling"
  bottom: "conv1_2"
  top: "pool1"
  pooling_param {
    pool: MAX
    kernel_size: 2
    stride: 2
  }
}
layer {
  name: "conv2_1"
  type: "Convolution"
  bottom: "pool1"
  top: "conv2_1"
  param {
    lr_mult: 1
    decay_mult: 1
  }
  param {
    lr_mult: 2
    decay_mult: 0
  }
  convolution_param {
    num_output: 128
    pad: 1
    kernel_size: 3
    weight_filler {
      type: "xavier"
    }
    bias_filler {
      type: "constant"
      value: 0
    }
  }
}
layer {
  name: "relu2_1"
  type: "ReLU"
  bottom: "conv2_1"
  top: "conv2_1"
}
layer {
  name: "conv2_2"
  type: "Convolution"
  bottom: "conv2_1"
  top: "conv2_2"
  param {
    lr_mult: 1
    decay_mult: 1
  }
  param {
    lr_mult: 2
    decay_mult: 0
  }
  convolution_param {
    num_output: 128
    pad: 1
    kernel_size: 3
    weight_filler {
      type: "xavier"
    }
    bias_filler {
      type: "constant"
      value: 0
    }
  }
}
layer {
  name: "relu2_2"
  type: "ReLU"
  bottom: "conv2_2"
  top: "conv2_2"
}
layer {
  name: "pool2"
  type: "Pooling"
  bottom: "conv2_2"
  top: "pool2"
  pooling_param {
    pool: MAX
    kernel_size: 2
    stride: 2
  }
}
layer {
  name: "conv3_1"
  type: "Convolution"
  bottom: "pool2"
  top: "conv3_1"
  param {
    lr_mult: 1
    decay_mult: 1
  }
  param {
    lr_mult: 2
    decay_mult: 0
  }
  convolution_param {
    num_output: 256
    pad: 1
    kernel_size: 3
    weight_filler {
      type: "xavier"
    }
    bias_filler {
      type: "constant"
      value: 0
    }
  }
}
layer {
  name: "relu3_1"
  type: "ReLU"
  bottom: "conv3_1"
  top: "conv3_1"
}
layer {
  name: "conv3_2"
  type: "Convolution"
  bottom: "conv3_1"
  top: "conv3_2"
  param {
    lr_mult: 1
    decay_mult: 1
  }
  param {
    lr_mult: 2
    decay_mult: 0
  }
  convolution_param {
    num_output: 256
    pad: 1
    kernel_size: 3
    weight_filler {
      type: "xavier"
    }
    bias_filler {
      type: "constant"
      value: 0
    }
  }
}
layer {
  name: "relu3_2"
  type: "ReLU"
  bottom: "conv3_2"
  top: "conv3_2"
}
layer {
  name: "conv3_3"
  type: "Convolution"
  bottom: "conv3_2"
  top: "conv3_3"
  param {
    lr_mult: 1
    decay_mult: 1
  }
  param {
    lr_mult: 2
    decay_mult: 0
  }
  convolution_param {
    num_output: 256
    pad: 1
    kernel_size: 3
    weight_filler {
      type: "xavier"
    }
    bias_filler {
      type: "constant"
      value: 0
    }
  }
}
layer {
  name: "relu3_3"
  type: "ReLU"
  bottom: "conv3_3"
  top: "conv3_3"
}
layer {
  name: "pool3"
  type: "Pooling"
  bottom: "conv3_3"
  top: "pool3"
  pooling_param {
    pool: MAX
    kernel_size: 2
    stride: 2
  }
}
layer {
  name: "conv4_1"
  type: "Convolution"
  bottom: "pool3"
  top: "conv4_1"
  param {
    lr_mult: 1
    decay_mult: 1
  }
  param {
    lr_mult: 2
    decay_mult: 0
  }
  convolution_param {
    num_output: 512
    pad: 1
    kernel_size: 3
    weight_filler {
      type: "xavier"
    }
    bias_filler {
      type: "constant"
      value: 0
    }
  }
}
layer {
  name: "relu4_1"
  type: "ReLU"
  bottom: "conv4_1"
  top: "conv4_1"
}
layer {
  name: "conv4_2"
  type: "Convolution"
  bottom: "conv4_1"
  top: "conv4_2"
  param {
    lr_mult: 1
    decay_mult: 1
  }
  param {
    lr_mult: 2
    decay_mult: 0
  }
  convolution_param {
    num_output: 512
    pad: 1
    kernel_size: 3
    weight_filler {
      type: "xavier"
    }
    bias_filler {
      type: "constant"
      value: 0
    }
  }
}
layer {
  name: "relu4_2"
  type: "ReLU"
  bottom: "conv4_2"
  top: "conv4_2"
}
layer {
  name: "conv4_3"
  type: "Convolution"
  bottom: "conv4_2"
  top: "conv4_3"
  param {
    lr_mult: 1
    decay_mult: 1
  }
  param {
    lr_mult: 2
    decay_mult: 0
  }
  convolution_param {
    num_output: 512
    pad: 1
    kernel_size: 3
    weight_filler {
      type: "xavier"
    }
    bias_filler {
      type: "constant"
      value: 0
    }
  }
}
layer {
  name: "relu4_3"
  type: "ReLU"
  bottom: "conv4_3"
  top: "conv4_3"
}
layer {
  name: "pool4"
  type: "Pooling"
  bottom: "conv4_3"
  top: "pool4"
  pooling_param {
    pool: MAX
    kernel_size: 2
    stride: 2
  }
}
layer {
  name: "conv5_1"
  type: "Convolution"
  bottom: "pool4"
  top: "conv5_1"
  param {
    lr_mult: 1
    decay_mult: 1
  }
  param {
    lr_mult: 2
    decay_mult: 0
  }
  convolution_param {
    num_output: 512
    pad: 1
    kernel_size: 3
    weight_filler {
      type: "xavier"
    }
    bias_filler {
      type: "constant"
      value: 0
    }
    dilation: 1
  }
}
layer {
  name: "relu5_1"
  type: "ReLU"
  bottom: "conv5_1"
  top: "conv5_1"
}
layer {
  name: "conv5_2"
  type: "Convolution"
  bottom: "conv5_1"
  top: "conv5_2"
  param {
    lr_mult: 1
    decay_mult: 1
  }
  param {
    lr_mult: 2
    decay_mult: 0
  }
  convolution_param {
    num_output: 512
    pad: 1
    kernel_size: 3
    weight_filler {
      type: "xavier"
    }
    bias_filler {
      type: "constant"
      value: 0
    }
    dilation: 1
  }
}
layer {
  name: "relu5_2"
  type: "ReLU"
  bottom: "conv5_2"
  top: "conv5_2"
}
layer {
  name: "conv5_3"
  type: "Convolution"
  bottom: "conv5_2"
  top: "conv5_3"
  param {
    lr_mult: 1
    decay_mult: 1
  }
  param {
    lr_mult: 2
    decay_mult: 0
  }
  convolution_param {
    num_output: 512
    pad: 1
    kernel_size: 3
    weight_filler {
      type: "xavier"
    }
    bias_filler {
      type: "constant"
      value: 0
    }
    dilation: 1
  }
}
layer {
  name: "relu5_3"
  type: "ReLU"
  bottom: "conv5_3"
  top: "conv5_3"
}
layer {
  name: "pool5"
  type: "Pooling"
  bottom: "conv5_3"
  top: "pool5"
  pooling_param {
    pool: MAX
    kernel_size: 3
    stride: 1
    pad: 1
  }
}
layer {
  name: "fc6"
  type: "Convolution"
  bottom: "pool5"
  top: "fc6"
  param {
    lr_mult: 1
    decay_mult: 1
  }
  param {
    lr_mult: 2
    decay_mult: 0
  }
  convolution_param {
    num_output: 1024
    pad: 6
    kernel_size: 3
    weight_filler {
      type: "xavier"
    }
    bias_filler {
      type: "constant"
      value: 0
    }
    dilation: 6
  }
}
layer {
  name: "relu6"
  type: "ReLU"
  bottom: "fc6"
  top: "fc6"
}
layer {
  name: "fc7"
  type: "Convolution"
  bottom: "fc6"
  top: "fc7"
  param {
    lr_mult: 1
    decay_mult: 1
  }
  param {
    lr_mult: 2
    decay_mult: 0
  }
  convolution_param {
    num_output: 1024
    kernel_size: 1
    weight_filler {
      type: "xavier"
    }
    bias_filler {
      type: "constant"
      value: 0
    }
  }
}
layer {
  name: "relu7"
  type: "ReLU"
  bottom: "fc7"
  top: "fc7"
}
layer {
  name: "conv6_1"
  type: "Convolution"
  bottom: "fc7"
  top: "conv6_1"
  param {
    lr_mult: 1
    decay_mult: 1
  }
  param {
    lr_mult: 2
    decay_mult: 0
  }
  convolution_param {
    num_output: 256
    pad: 0
    kernel_size: 1
    stride: 1
    weight_filler {
      type: "xavier"
    }
    bias_filler {
      type: "constant"
      value: 0
    }
  }
}
layer {
  name: "conv6_1_relu"
  type: "ReLU"
  bottom: "conv6_1"
  top: "conv6_1"
}
layer {
  name: "conv6_2"
  type: "Convolution"
  bottom: "conv6_1"
  top: "conv6_2"
  param {
    lr_mult: 1
    decay_mult: 1
  }
  param {
    lr_mult: 2
    decay_mult: 0
  }
  convolution_param {
    num_output: 512
    pad: 1
    kernel_size: 3
    stride: 2
    weight_filler {
      type: "xavier"
    }
    bias_filler {
      type: "constant"
      value: 0
    }
  }
}
layer {
  name: "conv6_2_relu"
  type: "ReLU"
  bottom: "conv6_2"
  top: "conv6_2"
}
layer {
  name: "conv7_1"
  type: "Convolution"
  bottom: "conv6_2"
  top: "conv7_1"
  param {
    lr_mult: 1
    decay_mult: 1
  }
  param {
    lr_mult: 2
    decay_mult: 0
  }
  convolution_param {
    num_output: 128
    pad: 0
    kernel_size: 1
    stride: 1
    weight_filler {
      type: "xavier"
    }
    bias_filler {
      type: "constant"
      value: 0
    }
  }
}
layer {
  name: "conv7_1_relu"
  type: "ReLU"
  bottom: "conv7_1"
  top: "conv7_1"
}
layer {
  name: "conv7_2"
  type: "Convolution"
  bottom: "conv7_1"
  top: "conv7_2"
  param {
    lr_mult: 1
    decay_mult: 1
  }
  param {
    lr_mult: 2
    decay_mult: 0
  }
  convolution_param {
    num_output: 256
    pad: 1
    kernel_size: 3
    stride: 2
    weight_filler {
      type: "xavier"
    }
    bias_filler {
      type: "constant"
      value: 0
    }
  }
}
layer {
  name: "conv7_2_relu"
  type: "ReLU"
  bottom: "conv7_2"
  top: "conv7_2"
}
layer {
  name: "conv8_1"
  type: "Convolution"
  bottom: "conv7_2"
  top: "conv8_1"
  param {
    lr_mult: 1
    decay_mult: 1
  }
  param {
    lr_mult: 2
    decay_mult: 0
  }
  convolution_param {
    num_output: 128
    pad: 0
    kernel_size: 1
    stride: 1
    weight_filler {
      type: "xavier"
    }
    bias_filler {
      type: "constant"
      value: 0
    }
  }
}
layer {
  name: "conv8_1_relu"
  type: "ReLU"
  bottom: "conv8_1"
  top: "conv8_1"
}
layer {
  name: "conv8_2"
  type: "Convolution"
  bottom: "conv8_1"
  top: "conv8_2"
  param {
    lr_mult: 1
    decay_mult: 1
  }
  param {
    lr_mult: 2
    decay_mult: 0
  }
  convolution_param {
    num_output: 256
    pad: 0
    kernel_size: 3
    stride: 1
    weight_filler {
      type: "xavier"
    }
    bias_filler {
      type: "constant"
      value: 0
    }
  }
}
layer {
  name: "conv8_2_relu"
  type: "ReLU"
  bottom: "conv8_2"
  top: "conv8_2"
}
layer {
  name: "conv9_1"
  type: "Convolution"
  bottom: "conv8_2"
  top: "conv9_1"
  param {
    lr_mult: 1
    decay_mult: 1
  }
  param {
    lr_mult: 2
    decay_mult: 0
  }
  convolution_param {
    num_output: 128
    pad: 0
    kernel_size: 1
    stride: 1
    weight_filler {
      type: "xavier"
    }
    bias_filler {
      type: "constant"
      value: 0
    }
  }
}
layer {
  name: "conv9_1_relu"
  type: "ReLU"
  bottom: "conv9_1"
  top: "conv9_1"
}
layer {
  name: "conv9_2"
  type: "Convolution"
  bottom: "conv9_1"
  top: "conv9_2"
  param {
    lr_mult: 1
    decay_mult: 1
  }
  param {
    lr_mult: 2
    decay_mult: 0
  }
  convolution_param {
    num_output: 256
    pad: 0
    kernel_size: 3
    stride: 1
    weight_filler {
      type: "xavier"
    }
    bias_filler {
      type: "constant"
      value: 0
    }
  }
}
layer {
  name: "conv9_2_relu"
  type: "ReLU"
  bottom: "conv9_2"
  top: "conv9_2"
}
layer {
  name: "conv4_3_norm"
  type: "Normalize"
  bottom: "conv4_3"
  top: "conv4_3_norm"
  norm_param {
    across_spatial: false
    scale_filler {
      type: "constant"
      value: 20
    }
    channel_shared: false
  }
}
layer {
  name: "conv4_3_norm_mbox_loc"
  type: "Convolution"
  bottom: "conv4_3_norm"
  top: "conv4_3_norm_mbox_loc"
  param {
    lr_mult: 1
    decay_mult: 1
  }
  param {
    lr_mult: 2
    decay_mult: 0
  }
  convolution_param {
    num_output: 16
    pad: 1
    kernel_size: 3
    stride: 1
    weight_filler {
      type: "xavier"
    }
    bias_filler {
      type: "constant"
      value: 0
    }
  }
}
layer {
  name: "conv4_3_norm_mbox_loc_perm"
  type: "Permute"
  bottom: "conv4_3_norm_mbox_loc"
  top: "conv4_3_norm_mbox_loc_perm"
  permute_param {
    order: 0
    order: 2
    order: 3
    order: 1
  }
}
layer {
  name: "conv4_3_norm_mbox_loc_flat"
  type: "Flatten"
  bottom: "conv4_3_norm_mbox_loc_perm"
  top: "conv4_3_norm_mbox_loc_flat"
  flatten_param {
    axis: 1
  }
}
layer {
  name: "conv4_3_norm_mbox_conf"
  type: "Convolution"
  bottom: "conv4_3_norm"
  top: "conv4_3_norm_mbox_conf"
  param {
    lr_mult: 1
    decay_mult: 1
  }
  param {
    lr_mult: 2
    decay_mult: 0
  }
  convolution_param {
    num_output: 8
    pad: 1
    kernel_size: 3
    stride: 1
    weight_filler {
      type: "xavier"
    }
    bias_filler {
      type: "constant"
      value: 0
    }
  }
}
layer {
  name: "conv4_3_norm_mbox_conf_perm"
  type: "Permute"
  bottom: "conv4_3_norm_mbox_conf"
  top: "conv4_3_norm_mbox_conf_perm"
  permute_param {
    order: 0
    order: 2
    order: 3
    order: 1
  }
}
layer {
  name: "conv4_3_norm_mbox_conf_flat"
  type: "Flatten"
  bottom: "conv4_3_norm_mbox_conf_perm"
  top: "conv4_3_norm_mbox_conf_flat"
  flatten_param {
    axis: 1
  }
}
layer {
  name: "conv4_3_norm_mbox_priorbox"
  type: "PriorBox"
  bottom: "conv4_3_norm"
  bottom: "data"
  top: "conv4_3_norm_mbox_priorbox"
  prior_box_param {
    min_size: 30
    max_size: 60
    aspect_ratio: 2
    flip: true
    clip: false
    variance: 0.1
    variance: 0.1
    variance: 0.2
    variance: 0.2
    step: 8
    offset: 0.5
  }
}
layer {
  name: "fc7_mbox_loc"
  type: "Convolution"
  bottom: "fc7"
  top: "fc7_mbox_loc"
  param {
    lr_mult: 1
    decay_mult: 1
  }
  param {
    lr_mult: 2
    decay_mult: 0
  }
  convolution_param {
    num_output: 24
    pad: 1
    kernel_size: 3
    stride: 1
    weight_filler {
      type: "xavier"
    }
    bias_filler {
      type: "constant"
      value: 0
    }
  }
}
layer {
  name: "fc7_mbox_loc_perm"
  type: "Permute"
  bottom: "fc7_mbox_loc"
  top: "fc7_mbox_loc_perm"
  permute_param {
    order: 0
    order: 2
    order: 3
    order: 1
  }
}
layer {
  name: "fc7_mbox_loc_flat"
  type: "Flatten"
  bottom: "fc7_mbox_loc_perm"
  top: "fc7_mbox_loc_flat"
  flatten_param {
    axis: 1
  }
}
layer {
  name: "fc7_mbox_conf"
  type: "Convolution"
  bottom: "fc7"
  top: "fc7_mbox_conf"
  param {
    lr_mult: 1
    decay_mult: 1
  }
  param {
    lr_mult: 2
    decay_mult: 0
  }
  convolution_param {
    num_output: 12
    pad: 1
    kernel_size: 3
    stride: 1
    weight_filler {
      type: "xavier"
    }
    bias_filler {
      type: "constant"
      value: 0
    }
  }
}
layer {
  name: "fc7_mbox_conf_perm"
  type: "Permute"
  bottom: "fc7_mbox_conf"
  top: "fc7_mbox_conf_perm"
  permute_param {
    order: 0
    order: 2
    order: 3
    order: 1
  }
}
layer {
  name: "fc7_mbox_conf_flat"
  type: "Flatten"
  bottom: "fc7_mbox_conf_perm"
  top: "fc7_mbox_conf_flat"
  flatten_param {
    axis: 1
  }
}
layer {
  name: "fc7_mbox_priorbox"
  type: "PriorBox"
  bottom: "fc7"
  bottom: "data"
  top: "fc7_mbox_priorbox"
  prior_box_param {
    min_size: 60
    max_size: 111
    aspect_ratio: 2
    aspect_ratio: 3
    flip: true
    clip: false
    variance: 0.1
    variance: 0.1
    variance: 0.2
    variance: 0.2
    step: 16
    offset: 0.5
  }
}
layer {
  name: "conv6_2_mbox_loc"
  type: "Convolution"
  bottom: "conv6_2"
  top: "conv6_2_mbox_loc"
  param {
    lr_mult: 1
    decay_mult: 1
  }
  param {
    lr_mult: 2
    decay_mult: 0
  }
  convolution_param {
    num_output: 24
    pad: 1
    kernel_size: 3
    stride: 1
    weight_filler {
      type: "xavier"
    }
    bias_filler {
      type: "constant"
      value: 0
    }
  }
}
layer {
  name: "conv6_2_mbox_loc_perm"
  type: "Permute"
  bottom: "conv6_2_mbox_loc"
  top: "conv6_2_mbox_loc_perm"
  permute_param {
    order: 0
    order: 2
    order: 3
    order: 1
  }
}
layer {
  name: "conv6_2_mbox_loc_flat"
  type: "Flatten"
  bottom: "conv6_2_mbox_loc_perm"
  top: "conv6_2_mbox_loc_flat"
  flatten_param {
    axis: 1
  }
}
layer {
  name: "conv6_2_mbox_conf"
  type: "Convolution"
  bottom: "conv6_2"
  top: "conv6_2_mbox_conf"
  param {
    lr_mult: 1
    decay_mult: 1
  }
  param {
    lr_mult: 2
    decay_mult: 0
  }
  convolution_param {
    num_output: 12
    pad: 1
    kernel_size: 3
    stride: 1
    weight_filler {
      type: "xavier"
    }
    bias_filler {
      type: "constant"
      value: 0
    }
  }
}
layer {
  name: "conv6_2_mbox_conf_perm"
  type: "Permute"
  bottom: "conv6_2_mbox_conf"
  top: "conv6_2_mbox_conf_perm"
  permute_param {
    order: 0
    order: 2
    order: 3
    order: 1
  }
}
layer {
  name: "conv6_2_mbox_conf_flat"
  type: "Flatten"
  bottom: "conv6_2_mbox_conf_perm"
  top: "conv6_2_mbox_conf_flat"
  flatten_param {
    axis: 1
  }
}
layer {
  name: "conv6_2_mbox_priorbox"
  type: "PriorBox"
  bottom: "conv6_2"
  bottom: "data"
  top: "conv6_2_mbox_priorbox"
  prior_box_param {
    min_size: 111
    max_size: 162
    aspect_ratio: 2
    aspect_ratio: 3
    flip: true
    clip: false
    variance: 0.1
    variance: 0.1
    variance: 0.2
    variance: 0.2
    step: 32
    offset: 0.5
  }
}
layer {
  name: "conv7_2_mbox_loc"
  type: "Convolution"
  bottom: "conv7_2"
  top: "conv7_2_mbox_loc"
  param {
    lr_mult: 1
    decay_mult: 1
  }
  param {
    lr_mult: 2
    decay_mult: 0
  }
  convolution_param {
    num_output: 24
    pad: 1
    kernel_size: 3
    stride: 1
    weight_filler {
      type: "xavier"
    }
    bias_filler {
      type: "constant"
      value: 0
    }
  }
}
layer {
  name: "conv7_2_mbox_loc_perm"
  type: "Permute"
  bottom: "conv7_2_mbox_loc"
  top: "conv7_2_mbox_loc_perm"
  permute_param {
    order: 0
    order: 2
    order: 3
    order: 1
  }
}
layer {
  name: "conv7_2_mbox_loc_flat"
  type: "Flatten"
  bottom: "conv7_2_mbox_loc_perm"
  top: "conv7_2_mbox_loc_flat"
  flatten_param {
    axis: 1
  }
}
layer {
  name: "conv7_2_mbox_conf"
  type: "Convolution"
  bottom: "conv7_2"
  top: "conv7_2_mbox_conf"
  param {
    lr_mult: 1
    decay_mult: 1
  }
  param {
    lr_mult: 2
    decay_mult: 0
  }
  convolution_param {
    num_output: 12
    pad: 1
    kernel_size: 3
    stride: 1
    weight_filler {
      type: "xavier"
    }
    bias_filler {
      type: "constant"
      value: 0
    }
  }
}
layer {
  name: "conv7_2_mbox_conf_perm"
  type: "Permute"
  bottom: "conv7_2_mbox_conf"
  top: "conv7_2_mbox_conf_perm"
  permute_param {
    order: 0
    order: 2
    order: 3
    order: 1
  }
}
layer {
  name: "conv7_2_mbox_conf_flat"
  type: "Flatten"
  bottom: "conv7_2_mbox_conf_perm"
  top: "conv7_2_mbox_conf_flat"
  flatten_param {
    axis: 1
  }
}
layer {
  name: "conv7_2_mbox_priorbox"
  type: "PriorBox"
  bottom: "conv7_2"
  bottom: "data"
  top: "conv7_2_mbox_priorbox"
  prior_box_param {
    min_size: 162
    max_size: 213
    aspect_ratio: 2
    aspect_ratio: 3
    flip: true
    clip: false
    variance: 0.1
    variance: 0.1
    variance: 0.2
    variance: 0.2
    step: 64
    offset: 0.5
  }
}
layer {
  name: "conv8_2_mbox_loc"
  type: "Convolution"
  bottom: "conv8_2"
  top: "conv8_2_mbox_loc"
  param {
    lr_mult: 1
    decay_mult: 1
  }
  param {
    lr_mult: 2
    decay_mult: 0
  }
  convolution_param {
    num_output: 16
    pad: 1
    kernel_size: 3
    stride: 1
    weight_filler {
      type: "xavier"
    }
    bias_filler {
      type: "constant"
      value: 0
    }
  }
}
layer {
  name: "conv8_2_mbox_loc_perm"
  type: "Permute"
  bottom: "conv8_2_mbox_loc"
  top: "conv8_2_mbox_loc_perm"
  permute_param {
    order: 0
    order: 2
    order: 3
    order: 1
  }
}
layer {
  name: "conv8_2_mbox_loc_flat"
  type: "Flatten"
  bottom: "conv8_2_mbox_loc_perm"
  top: "conv8_2_mbox_loc_flat"
  flatten_param {
    axis: 1
  }
}
layer {
  name: "conv8_2_mbox_conf"
  type: "Convolution"
  bottom: "conv8_2"
  top: "conv8_2_mbox_conf"
  param {
    lr_mult: 1
    decay_mult: 1
  }
  param {
    lr_mult: 2
    decay_mult: 0
  }
  convolution_param {
    num_output: 8
    pad: 1
    kernel_size: 3
    stride: 1
    weight_filler {
      type: "xavier"
    }
    bias_filler {
      type: "constant"
      value: 0
    }
  }
}
layer {
  name: "conv8_2_mbox_conf_perm"
  type: "Permute"
  bottom: "conv8_2_mbox_conf"
  top: "conv8_2_mbox_conf_perm"
  permute_param {
    order: 0
    order: 2
    order: 3
    order: 1
  }
}
layer {
  name: "conv8_2_mbox_conf_flat"
  type: "Flatten"
  bottom: "conv8_2_mbox_conf_perm"
  top: "conv8_2_mbox_conf_flat"
  flatten_param {
    axis: 1
  }
}
layer {
  name: "conv8_2_mbox_priorbox"
  type: "PriorBox"
  bottom: "conv8_2"
  bottom: "data"
  top: "conv8_2_mbox_priorbox"
  prior_box_param {
    min_size: 213
    max_size: 264
    aspect_ratio: 2
    flip: true
    clip: false
    variance: 0.1
    variance: 0.1
    variance: 0.2
    variance: 0.2
    step: 100
    offset: 0.5
  }
}
layer {
  name: "conv9_2_mbox_loc"
  type: "Convolution"
  bottom: "conv9_2"
  top: "conv9_2_mbox_loc"
  param {
    lr_mult: 1
    decay_mult: 1
  }
  param {
    lr_mult: 2
    decay_mult: 0
  }
  convolution_param {
    num_output: 16
    pad: 1
    kernel_size: 3
    stride: 1
    weight_filler {
      type: "xavier"
    }
    bias_filler {
      type: "constant"
      value: 0
    }
  }
}
layer {
  name: "conv9_2_mbox_loc_perm"
  type: "Permute"
  bottom: "conv9_2_mbox_loc"
  top: "conv9_2_mbox_loc_perm"
  permute_param {
    order: 0
    order: 2
    order: 3
    order: 1
  }
}
layer {
  name: "conv9_2_mbox_loc_flat"
  type: "Flatten"
  bottom: "conv9_2_mbox_loc_perm"
  top: "conv9_2_mbox_loc_flat"
  flatten_param {
    axis: 1
  }
}
layer {
  name: "conv9_2_mbox_conf"
  type: "Convolution"
  bottom: "conv9_2"
  top: "conv9_2_mbox_conf"
  param {
    lr_mult: 1
    decay_mult: 1
  }
  param {
    lr_mult: 2
    decay_mult: 0
  }
  convolution_param {
    num_output: 8
    pad: 1
    kernel_size: 3
    stride: 1
    weight_filler {
      type: "xavier"
    }
    bias_filler {
      type: "constant"
      value: 0
    }
  }
}
layer {
  name: "conv9_2_mbox_conf_perm"
  type: "Permute"
  bottom: "conv9_2_mbox_conf"
  top: "conv9_2_mbox_conf_perm"
  permute_param {
    order: 0
    order: 2
    order: 3
    order: 1
  }
}
layer {
  name: "conv9_2_mbox_conf_flat"
  type: "Flatten"
  bottom: "conv9_2_mbox_conf_perm"
  top: "conv9_2_mbox_conf_flat"
  flatten_param {
    axis: 1
  }
}
layer {
  name: "conv9_2_mbox_priorbox"
  type: "PriorBox"
  bottom: "conv9_2"
  bottom: "data"
  top: "conv9_2_mbox_priorbox"
  prior_box_param {
    min_size: 264
    max_size: 315
    aspect_ratio: 2
    flip: true
    clip: false
    variance: 0.1
    variance: 0.1
    variance: 0.2
    variance: 0.2
    step: 300
    offset: 0.5
  }
}
layer {
  name: "mbox_loc"
  type: "Concat"
  bottom: "conv4_3_norm_mbox_loc_flat"
  bottom: "fc7_mbox_loc_flat"
  bottom: "conv6_2_mbox_loc_flat"
  bottom: "conv7_2_mbox_loc_flat"
  bottom: "conv8_2_mbox_loc_flat"
  bottom: "conv9_2_mbox_loc_flat"
  top: "mbox_loc"
  concat_param {
    axis: 1
  }
}
layer {
  name: "mbox_conf"
  type: "Concat"
  bottom: "conv4_3_norm_mbox_conf_flat"
  bottom: "fc7_mbox_conf_flat"
  bottom: "conv6_2_mbox_conf_flat"
  bottom: "conv7_2_mbox_conf_flat"
  bottom: "conv8_2_mbox_conf_flat"
  bottom: "conv9_2_mbox_conf_flat"
  top: "mbox_conf"
  concat_param {
    axis: 1
  }
}
layer {
  name: "mbox_priorbox"
  type: "Concat"
  bottom: "conv4_3_norm_mbox_priorbox"
  bottom: "fc7_mbox_priorbox"
  bottom: "conv6_2_mbox_priorbox"
  bottom: "conv7_2_mbox_priorbox"
  bottom: "conv8_2_mbox_priorbox"
  bottom: "conv9_2_mbox_priorbox"
  top: "mbox_priorbox"
  concat_param {
    axis: 2
  }
}
layer {
  name: "mbox_loss"
  type: "MultiBoxLoss"
  bottom: "mbox_loc"
  bottom: "mbox_conf"
  bottom: "mbox_priorbox"
  bottom: "label"
  top: "mbox_loss"
  include {
    phase: TRAIN
  }
  propagate_down: true
  propagate_down: true
  propagate_down: false
  propagate_down: false
  loss_param {
    normalization: VALID
  }
  multibox_loss_param {
    loc_loss_type: SMOOTH_L1
    conf_loss_type: SOFTMAX
    loc_weight: 1
    num_classes: 2
    share_location: true
    match_type: PER_PREDICTION
    overlap_threshold: 0.5
    use_prior_for_matching: true
    background_label_id: 0
    use_difficult_gt: true
    neg_pos_ratio: 3
    neg_overlap: 0.5
    code_type: CENTER_SIZE
    ignore_cross_boundary_bbox: false
    mining_type: MAX_NEGATIVE
  }
}
I0726 13:55:07.843559 30847 layer_factory.hpp:77] Creating layer data
I0726 13:55:07.844138 30847 net.cpp:100] Creating Layer data
I0726 13:55:07.844148 30847 net.cpp:408] data -> data
I0726 13:55:07.844202 30847 net.cpp:408] data -> label
I0726 13:55:07.844777 30853 db_lmdb.cpp:35] Opened lmdb SHOPPE_2017/lmdb/SHOPPE_2017_trainval_lmdb
I0726 13:55:09.718708 30847 annotated_data_layer.cpp:62] output data size: 8,3,300,300
I0726 13:55:09.733247 30847 net.cpp:150] Setting up data
I0726 13:55:09.733274 30847 net.cpp:157] Top shape: 8 3 300 300 (2160000)
I0726 13:55:09.733280 30847 net.cpp:157] Top shape: 1 1 9 8 (72)
I0726 13:55:09.733319 30847 net.cpp:165] Memory required for data: 8640288
I0726 13:55:09.733333 30847 layer_factory.hpp:77] Creating layer data_data_0_split
I0726 13:55:09.733355 30847 net.cpp:100] Creating Layer data_data_0_split
I0726 13:55:09.733363 30847 net.cpp:434] data_data_0_split <- data
I0726 13:55:09.733377 30847 net.cpp:408] data_data_0_split -> data_data_0_split_0
I0726 13:55:09.733391 30847 net.cpp:408] data_data_0_split -> data_data_0_split_1
I0726 13:55:09.733398 30847 net.cpp:408] data_data_0_split -> data_data_0_split_2
I0726 13:55:09.733410 30847 net.cpp:408] data_data_0_split -> data_data_0_split_3
I0726 13:55:09.733417 30847 net.cpp:408] data_data_0_split -> data_data_0_split_4
I0726 13:55:09.733422 30847 net.cpp:408] data_data_0_split -> data_data_0_split_5
I0726 13:55:09.733428 30847 net.cpp:408] data_data_0_split -> data_data_0_split_6
I0726 13:55:09.733502 30847 net.cpp:150] Setting up data_data_0_split
I0726 13:55:09.733512 30847 net.cpp:157] Top shape: 8 3 300 300 (2160000)
I0726 13:55:09.733517 30847 net.cpp:157] Top shape: 8 3 300 300 (2160000)
I0726 13:55:09.733522 30847 net.cpp:157] Top shape: 8 3 300 300 (2160000)
I0726 13:55:09.733528 30847 net.cpp:157] Top shape: 8 3 300 300 (2160000)
I0726 13:55:09.733532 30847 net.cpp:157] Top shape: 8 3 300 300 (2160000)
I0726 13:55:09.733536 30847 net.cpp:157] Top shape: 8 3 300 300 (2160000)
I0726 13:55:09.733541 30847 net.cpp:157] Top shape: 8 3 300 300 (2160000)
I0726 13:55:09.733544 30847 net.cpp:165] Memory required for data: 69120288
I0726 13:55:09.733547 30847 layer_factory.hpp:77] Creating layer conv1_1
I0726 13:55:09.733564 30847 net.cpp:100] Creating Layer conv1_1
I0726 13:55:09.733569 30847 net.cpp:434] conv1_1 <- data_data_0_split_0
I0726 13:55:09.733577 30847 net.cpp:408] conv1_1 -> conv1_1
I0726 13:55:09.734916 30847 net.cpp:150] Setting up conv1_1
I0726 13:55:09.734938 30847 net.cpp:157] Top shape: 8 64 300 300 (46080000)
I0726 13:55:09.734942 30847 net.cpp:165] Memory required for data: 253440288
I0726 13:55:09.734992 30847 layer_factory.hpp:77] Creating layer relu1_1
I0726 13:55:09.735011 30847 net.cpp:100] Creating Layer relu1_1
I0726 13:55:09.735018 30847 net.cpp:434] relu1_1 <- conv1_1
I0726 13:55:09.735028 30847 net.cpp:395] relu1_1 -> conv1_1 (in-place)
I0726 13:55:09.735054 30847 net.cpp:150] Setting up relu1_1
I0726 13:55:09.735059 30847 net.cpp:157] Top shape: 8 64 300 300 (46080000)
I0726 13:55:09.735060 30847 net.cpp:165] Memory required for data: 437760288
I0726 13:55:09.735064 30847 layer_factory.hpp:77] Creating layer conv1_2
I0726 13:55:09.735081 30847 net.cpp:100] Creating Layer conv1_2
I0726 13:55:09.735085 30847 net.cpp:434] conv1_2 <- conv1_1
I0726 13:55:09.735093 30847 net.cpp:408] conv1_2 -> conv1_2
I0726 13:55:09.736248 30847 net.cpp:150] Setting up conv1_2
I0726 13:55:09.736263 30847 net.cpp:157] Top shape: 8 64 300 300 (46080000)
I0726 13:55:09.736265 30847 net.cpp:165] Memory required for data: 622080288
I0726 13:55:09.736276 30847 layer_factory.hpp:77] Creating layer relu1_2
I0726 13:55:09.736284 30847 net.cpp:100] Creating Layer relu1_2
I0726 13:55:09.736289 30847 net.cpp:434] relu1_2 <- conv1_2
I0726 13:55:09.736294 30847 net.cpp:395] relu1_2 -> conv1_2 (in-place)
I0726 13:55:09.736302 30847 net.cpp:150] Setting up relu1_2
I0726 13:55:09.736307 30847 net.cpp:157] Top shape: 8 64 300 300 (46080000)
I0726 13:55:09.736310 30847 net.cpp:165] Memory required for data: 806400288
I0726 13:55:09.736313 30847 layer_factory.hpp:77] Creating layer pool1
I0726 13:55:09.736321 30847 net.cpp:100] Creating Layer pool1
I0726 13:55:09.736325 30847 net.cpp:434] pool1 <- conv1_2
I0726 13:55:09.736337 30847 net.cpp:408] pool1 -> pool1
I0726 13:55:09.736390 30847 net.cpp:150] Setting up pool1
I0726 13:55:09.736395 30847 net.cpp:157] Top shape: 8 64 150 150 (11520000)
I0726 13:55:09.736398 30847 net.cpp:165] Memory required for data: 852480288
I0726 13:55:09.736403 30847 layer_factory.hpp:77] Creating layer conv2_1
I0726 13:55:09.736415 30847 net.cpp:100] Creating Layer conv2_1
I0726 13:55:09.736419 30847 net.cpp:434] conv2_1 <- pool1
I0726 13:55:09.736449 30847 net.cpp:408] conv2_1 -> conv2_1
I0726 13:55:09.737102 30847 net.cpp:150] Setting up conv2_1
I0726 13:55:09.737109 30847 net.cpp:157] Top shape: 8 128 150 150 (23040000)
I0726 13:55:09.737112 30847 net.cpp:165] Memory required for data: 944640288
I0726 13:55:09.737123 30847 layer_factory.hpp:77] Creating layer relu2_1
I0726 13:55:09.737144 30847 net.cpp:100] Creating Layer relu2_1
I0726 13:55:09.737149 30847 net.cpp:434] relu2_1 <- conv2_1
I0726 13:55:09.737154 30847 net.cpp:395] relu2_1 -> conv2_1 (in-place)
I0726 13:55:09.737160 30847 net.cpp:150] Setting up relu2_1
I0726 13:55:09.737165 30847 net.cpp:157] Top shape: 8 128 150 150 (23040000)
I0726 13:55:09.737169 30847 net.cpp:165] Memory required for data: 1036800288
I0726 13:55:09.737171 30847 layer_factory.hpp:77] Creating layer conv2_2
I0726 13:55:09.737179 30847 net.cpp:100] Creating Layer conv2_2
I0726 13:55:09.737184 30847 net.cpp:434] conv2_2 <- conv2_1
I0726 13:55:09.737190 30847 net.cpp:408] conv2_2 -> conv2_2
I0726 13:55:09.738756 30847 net.cpp:150] Setting up conv2_2
I0726 13:55:09.738765 30847 net.cpp:157] Top shape: 8 128 150 150 (23040000)
I0726 13:55:09.738770 30847 net.cpp:165] Memory required for data: 1128960288
I0726 13:55:09.738775 30847 layer_factory.hpp:77] Creating layer relu2_2
I0726 13:55:09.738781 30847 net.cpp:100] Creating Layer relu2_2
I0726 13:55:09.738785 30847 net.cpp:434] relu2_2 <- conv2_2
I0726 13:55:09.738790 30847 net.cpp:395] relu2_2 -> conv2_2 (in-place)
I0726 13:55:09.738795 30847 net.cpp:150] Setting up relu2_2
I0726 13:55:09.738801 30847 net.cpp:157] Top shape: 8 128 150 150 (23040000)
I0726 13:55:09.738804 30847 net.cpp:165] Memory required for data: 1221120288
I0726 13:55:09.738808 30847 layer_factory.hpp:77] Creating layer pool2
I0726 13:55:09.738813 30847 net.cpp:100] Creating Layer pool2
I0726 13:55:09.738817 30847 net.cpp:434] pool2 <- conv2_2
I0726 13:55:09.738821 30847 net.cpp:408] pool2 -> pool2
I0726 13:55:09.738847 30847 net.cpp:150] Setting up pool2
I0726 13:55:09.738852 30847 net.cpp:157] Top shape: 8 128 75 75 (5760000)
I0726 13:55:09.738855 30847 net.cpp:165] Memory required for data: 1244160288
I0726 13:55:09.738858 30847 layer_factory.hpp:77] Creating layer conv3_1
I0726 13:55:09.738867 30847 net.cpp:100] Creating Layer conv3_1
I0726 13:55:09.738870 30847 net.cpp:434] conv3_1 <- pool2
I0726 13:55:09.738875 30847 net.cpp:408] conv3_1 -> conv3_1
I0726 13:55:09.742255 30847 net.cpp:150] Setting up conv3_1
I0726 13:55:09.742287 30847 net.cpp:157] Top shape: 8 256 75 75 (11520000)
I0726 13:55:09.742290 30847 net.cpp:165] Memory required for data: 1290240288
I0726 13:55:09.742307 30847 layer_factory.hpp:77] Creating layer relu3_1
I0726 13:55:09.742317 30847 net.cpp:100] Creating Layer relu3_1
I0726 13:55:09.742322 30847 net.cpp:434] relu3_1 <- conv3_1
I0726 13:55:09.742333 30847 net.cpp:395] relu3_1 -> conv3_1 (in-place)
I0726 13:55:09.742349 30847 net.cpp:150] Setting up relu3_1
I0726 13:55:09.742353 30847 net.cpp:157] Top shape: 8 256 75 75 (11520000)
I0726 13:55:09.742357 30847 net.cpp:165] Memory required for data: 1336320288
I0726 13:55:09.742360 30847 layer_factory.hpp:77] Creating layer conv3_2
I0726 13:55:09.742374 30847 net.cpp:100] Creating Layer conv3_2
I0726 13:55:09.742377 30847 net.cpp:434] conv3_2 <- conv3_1
I0726 13:55:09.742384 30847 net.cpp:408] conv3_2 -> conv3_2
I0726 13:55:09.747973 30847 net.cpp:150] Setting up conv3_2
I0726 13:55:09.748317 30847 net.cpp:157] Top shape: 8 256 75 75 (11520000)
I0726 13:55:09.748389 30847 net.cpp:165] Memory required for data: 1382400288
I0726 13:55:09.748473 30847 layer_factory.hpp:77] Creating layer relu3_2
I0726 13:55:09.748543 30847 net.cpp:100] Creating Layer relu3_2
I0726 13:55:09.748585 30847 net.cpp:434] relu3_2 <- conv3_2
I0726 13:55:09.748641 30847 net.cpp:395] relu3_2 -> conv3_2 (in-place)
I0726 13:55:09.748720 30847 net.cpp:150] Setting up relu3_2
I0726 13:55:09.748761 30847 net.cpp:157] Top shape: 8 256 75 75 (11520000)
I0726 13:55:09.748795 30847 net.cpp:165] Memory required for data: 1428480288
I0726 13:55:09.748875 30847 layer_factory.hpp:77] Creating layer conv3_3
I0726 13:55:09.749056 30847 net.cpp:100] Creating Layer conv3_3
I0726 13:55:09.749102 30847 net.cpp:434] conv3_3 <- conv3_2
I0726 13:55:09.749147 30847 net.cpp:408] conv3_3 -> conv3_3
I0726 13:55:09.755853 30847 net.cpp:150] Setting up conv3_3
I0726 13:55:09.755878 30847 net.cpp:157] Top shape: 8 256 75 75 (11520000)
I0726 13:55:09.755880 30847 net.cpp:165] Memory required for data: 1474560288
I0726 13:55:09.755887 30847 layer_factory.hpp:77] Creating layer relu3_3
I0726 13:55:09.755893 30847 net.cpp:100] Creating Layer relu3_3
I0726 13:55:09.755898 30847 net.cpp:434] relu3_3 <- conv3_3
I0726 13:55:09.755905 30847 net.cpp:395] relu3_3 -> conv3_3 (in-place)
I0726 13:55:09.755920 30847 net.cpp:150] Setting up relu3_3
I0726 13:55:09.755923 30847 net.cpp:157] Top shape: 8 256 75 75 (11520000)
I0726 13:55:09.755924 30847 net.cpp:165] Memory required for data: 1520640288
I0726 13:55:09.755928 30847 layer_factory.hpp:77] Creating layer pool3
I0726 13:55:09.755934 30847 net.cpp:100] Creating Layer pool3
I0726 13:55:09.755935 30847 net.cpp:434] pool3 <- conv3_3
I0726 13:55:09.755940 30847 net.cpp:408] pool3 -> pool3
I0726 13:55:09.755971 30847 net.cpp:150] Setting up pool3
I0726 13:55:09.755975 30847 net.cpp:157] Top shape: 8 256 38 38 (2957312)
I0726 13:55:09.755977 30847 net.cpp:165] Memory required for data: 1532469536
I0726 13:55:09.755980 30847 layer_factory.hpp:77] Creating layer conv4_1
I0726 13:55:09.755986 30847 net.cpp:100] Creating Layer conv4_1
I0726 13:55:09.755990 30847 net.cpp:434] conv4_1 <- pool3
I0726 13:55:09.755995 30847 net.cpp:408] conv4_1 -> conv4_1
I0726 13:55:09.766340 30847 net.cpp:150] Setting up conv4_1
I0726 13:55:09.766405 30847 net.cpp:157] Top shape: 8 512 38 38 (5914624)
I0726 13:55:09.766410 30847 net.cpp:165] Memory required for data: 1556128032
I0726 13:55:09.766427 30847 layer_factory.hpp:77] Creating layer relu4_1
I0726 13:55:09.766445 30847 net.cpp:100] Creating Layer relu4_1
I0726 13:55:09.766453 30847 net.cpp:434] relu4_1 <- conv4_1
I0726 13:55:09.766464 30847 net.cpp:395] relu4_1 -> conv4_1 (in-place)
I0726 13:55:09.766499 30847 net.cpp:150] Setting up relu4_1
I0726 13:55:09.766504 30847 net.cpp:157] Top shape: 8 512 38 38 (5914624)
I0726 13:55:09.766506 30847 net.cpp:165] Memory required for data: 1579786528
I0726 13:55:09.766510 30847 layer_factory.hpp:77] Creating layer conv4_2
I0726 13:55:09.766521 30847 net.cpp:100] Creating Layer conv4_2
I0726 13:55:09.766525 30847 net.cpp:434] conv4_2 <- conv4_1
I0726 13:55:09.766530 30847 net.cpp:408] conv4_2 -> conv4_2
I0726 13:55:09.791635 30847 net.cpp:150] Setting up conv4_2
I0726 13:55:09.791690 30847 net.cpp:157] Top shape: 8 512 38 38 (5914624)
I0726 13:55:09.791700 30847 net.cpp:165] Memory required for data: 1603445024
I0726 13:55:09.791751 30847 layer_factory.hpp:77] Creating layer relu4_2
I0726 13:55:09.791772 30847 net.cpp:100] Creating Layer relu4_2
I0726 13:55:09.791782 30847 net.cpp:434] relu4_2 <- conv4_2
I0726 13:55:09.791796 30847 net.cpp:395] relu4_2 -> conv4_2 (in-place)
I0726 13:55:09.791815 30847 net.cpp:150] Setting up relu4_2
I0726 13:55:09.791821 30847 net.cpp:157] Top shape: 8 512 38 38 (5914624)
I0726 13:55:09.791824 30847 net.cpp:165] Memory required for data: 1627103520
I0726 13:55:09.791831 30847 layer_factory.hpp:77] Creating layer conv4_3
I0726 13:55:09.791846 30847 net.cpp:100] Creating Layer conv4_3
I0726 13:55:09.791852 30847 net.cpp:434] conv4_3 <- conv4_2
I0726 13:55:09.791862 30847 net.cpp:408] conv4_3 -> conv4_3
I0726 13:55:09.857614 30847 net.cpp:150] Setting up conv4_3
I0726 13:55:09.857720 30847 net.cpp:157] Top shape: 8 512 38 38 (5914624)
I0726 13:55:09.857756 30847 net.cpp:165] Memory required for data: 1650762016
I0726 13:55:09.857792 30847 layer_factory.hpp:77] Creating layer relu4_3
I0726 13:55:09.857813 30847 net.cpp:100] Creating Layer relu4_3
I0726 13:55:09.857839 30847 net.cpp:434] relu4_3 <- conv4_3
I0726 13:55:09.857851 30847 net.cpp:395] relu4_3 -> conv4_3 (in-place)
I0726 13:55:09.857867 30847 net.cpp:150] Setting up relu4_3
I0726 13:55:09.857887 30847 net.cpp:157] Top shape: 8 512 38 38 (5914624)
I0726 13:55:09.857911 30847 net.cpp:165] Memory required for data: 1674420512
I0726 13:55:09.857915 30847 layer_factory.hpp:77] Creating layer conv4_3_relu4_3_0_split
I0726 13:55:09.857923 30847 net.cpp:100] Creating Layer conv4_3_relu4_3_0_split
I0726 13:55:09.857926 30847 net.cpp:434] conv4_3_relu4_3_0_split <- conv4_3
I0726 13:55:09.857931 30847 net.cpp:408] conv4_3_relu4_3_0_split -> conv4_3_relu4_3_0_split_0
I0726 13:55:09.857939 30847 net.cpp:408] conv4_3_relu4_3_0_split -> conv4_3_relu4_3_0_split_1
I0726 13:55:09.858008 30847 net.cpp:150] Setting up conv4_3_relu4_3_0_split
I0726 13:55:09.858014 30847 net.cpp:157] Top shape: 8 512 38 38 (5914624)
I0726 13:55:09.858017 30847 net.cpp:157] Top shape: 8 512 38 38 (5914624)
I0726 13:55:09.858018 30847 net.cpp:165] Memory required for data: 1721737504
I0726 13:55:09.858021 30847 layer_factory.hpp:77] Creating layer pool4
I0726 13:55:09.858027 30847 net.cpp:100] Creating Layer pool4
I0726 13:55:09.858033 30847 net.cpp:434] pool4 <- conv4_3_relu4_3_0_split_0
I0726 13:55:09.858042 30847 net.cpp:408] pool4 -> pool4
I0726 13:55:09.858073 30847 net.cpp:150] Setting up pool4
I0726 13:55:09.858078 30847 net.cpp:157] Top shape: 8 512 19 19 (1478656)
I0726 13:55:09.858080 30847 net.cpp:165] Memory required for data: 1727652128
I0726 13:55:09.858083 30847 layer_factory.hpp:77] Creating layer conv5_1
I0726 13:55:09.858090 30847 net.cpp:100] Creating Layer conv5_1
I0726 13:55:09.858095 30847 net.cpp:434] conv5_1 <- pool4
I0726 13:55:09.858101 30847 net.cpp:408] conv5_1 -> conv5_1
I0726 13:55:09.891796 30847 net.cpp:150] Setting up conv5_1
I0726 13:55:09.891821 30847 net.cpp:157] Top shape: 8 512 19 19 (1478656)
I0726 13:55:09.891824 30847 net.cpp:165] Memory required for data: 1733566752
I0726 13:55:09.891834 30847 layer_factory.hpp:77] Creating layer relu5_1
I0726 13:55:09.891840 30847 net.cpp:100] Creating Layer relu5_1
I0726 13:55:09.891844 30847 net.cpp:434] relu5_1 <- conv5_1
I0726 13:55:09.891850 30847 net.cpp:395] relu5_1 -> conv5_1 (in-place)
I0726 13:55:09.891861 30847 net.cpp:150] Setting up relu5_1
I0726 13:55:09.891865 30847 net.cpp:157] Top shape: 8 512 19 19 (1478656)
I0726 13:55:09.891867 30847 net.cpp:165] Memory required for data: 1739481376
I0726 13:55:09.891870 30847 layer_factory.hpp:77] Creating layer conv5_2
I0726 13:55:09.891880 30847 net.cpp:100] Creating Layer conv5_2
I0726 13:55:09.891883 30847 net.cpp:434] conv5_2 <- conv5_1
I0726 13:55:09.891888 30847 net.cpp:408] conv5_2 -> conv5_2
I0726 13:55:09.921994 30847 net.cpp:150] Setting up conv5_2
I0726 13:55:09.922049 30847 net.cpp:157] Top shape: 8 512 19 19 (1478656)
I0726 13:55:09.922053 30847 net.cpp:165] Memory required for data: 1745396000
I0726 13:55:09.922082 30847 layer_factory.hpp:77] Creating layer relu5_2
I0726 13:55:09.922099 30847 net.cpp:100] Creating Layer relu5_2
I0726 13:55:09.922108 30847 net.cpp:434] relu5_2 <- conv5_2
I0726 13:55:09.922118 30847 net.cpp:395] relu5_2 -> conv5_2 (in-place)
I0726 13:55:09.922132 30847 net.cpp:150] Setting up relu5_2
I0726 13:55:09.922137 30847 net.cpp:157] Top shape: 8 512 19 19 (1478656)
I0726 13:55:09.922139 30847 net.cpp:165] Memory required for data: 1751310624
I0726 13:55:09.922142 30847 layer_factory.hpp:77] Creating layer conv5_3
I0726 13:55:09.922154 30847 net.cpp:100] Creating Layer conv5_3
I0726 13:55:09.922158 30847 net.cpp:434] conv5_3 <- conv5_2
I0726 13:55:09.922164 30847 net.cpp:408] conv5_3 -> conv5_3
I0726 13:55:09.959295 30847 net.cpp:150] Setting up conv5_3
I0726 13:55:09.959349 30847 net.cpp:157] Top shape: 8 512 19 19 (1478656)
I0726 13:55:09.959360 30847 net.cpp:165] Memory required for data: 1757225248
I0726 13:55:09.959383 30847 layer_factory.hpp:77] Creating layer relu5_3
I0726 13:55:09.959419 30847 net.cpp:100] Creating Layer relu5_3
I0726 13:55:09.959447 30847 net.cpp:434] relu5_3 <- conv5_3
I0726 13:55:09.959466 30847 net.cpp:395] relu5_3 -> conv5_3 (in-place)
I0726 13:55:09.959486 30847 net.cpp:150] Setting up relu5_3
I0726 13:55:09.959496 30847 net.cpp:157] Top shape: 8 512 19 19 (1478656)
I0726 13:55:09.959525 30847 net.cpp:165] Memory required for data: 1763139872
I0726 13:55:09.959535 30847 layer_factory.hpp:77] Creating layer pool5
I0726 13:55:09.959548 30847 net.cpp:100] Creating Layer pool5
I0726 13:55:09.959555 30847 net.cpp:434] pool5 <- conv5_3
I0726 13:55:09.959568 30847 net.cpp:408] pool5 -> pool5
I0726 13:55:09.959668 30847 net.cpp:150] Setting up pool5
I0726 13:55:09.959681 30847 net.cpp:157] Top shape: 8 512 19 19 (1478656)
I0726 13:55:09.959687 30847 net.cpp:165] Memory required for data: 1769054496
I0726 13:55:09.959694 30847 layer_factory.hpp:77] Creating layer fc6
I0726 13:55:09.959717 30847 net.cpp:100] Creating Layer fc6
I0726 13:55:09.959727 30847 net.cpp:434] fc6 <- pool5
I0726 13:55:09.959740 30847 net.cpp:408] fc6 -> fc6
I0726 13:55:10.075254 30847 net.cpp:150] Setting up fc6
I0726 13:55:10.075307 30847 net.cpp:157] Top shape: 8 1024 19 19 (2957312)
I0726 13:55:10.075314 30847 net.cpp:165] Memory required for data: 1780883744
I0726 13:55:10.075336 30847 layer_factory.hpp:77] Creating layer relu6
I0726 13:55:10.075373 30847 net.cpp:100] Creating Layer relu6
I0726 13:55:10.075381 30847 net.cpp:434] relu6 <- fc6
I0726 13:55:10.075400 30847 net.cpp:395] relu6 -> fc6 (in-place)
I0726 13:55:10.075433 30847 net.cpp:150] Setting up relu6
I0726 13:55:10.075443 30847 net.cpp:157] Top shape: 8 1024 19 19 (2957312)
I0726 13:55:10.075453 30847 net.cpp:165] Memory required for data: 1792712992
I0726 13:55:10.075460 30847 layer_factory.hpp:77] Creating layer fc7
I0726 13:55:10.075479 30847 net.cpp:100] Creating Layer fc7
I0726 13:55:10.075485 30847 net.cpp:434] fc7 <- fc6
I0726 13:55:10.075497 30847 net.cpp:408] fc7 -> fc7
I0726 13:55:10.097067 30847 net.cpp:150] Setting up fc7
I0726 13:55:10.097141 30847 net.cpp:157] Top shape: 8 1024 19 19 (2957312)
I0726 13:55:10.097148 30847 net.cpp:165] Memory required for data: 1804542240
I0726 13:55:10.097180 30847 layer_factory.hpp:77] Creating layer relu7
I0726 13:55:10.097203 30847 net.cpp:100] Creating Layer relu7
I0726 13:55:10.097214 30847 net.cpp:434] relu7 <- fc7
I0726 13:55:10.097232 30847 net.cpp:395] relu7 -> fc7 (in-place)
I0726 13:55:10.097260 30847 net.cpp:150] Setting up relu7
I0726 13:55:10.097270 30847 net.cpp:157] Top shape: 8 1024 19 19 (2957312)
I0726 13:55:10.097280 30847 net.cpp:165] Memory required for data: 1816371488
I0726 13:55:10.097288 30847 layer_factory.hpp:77] Creating layer fc7_relu7_0_split
I0726 13:55:10.097302 30847 net.cpp:100] Creating Layer fc7_relu7_0_split
I0726 13:55:10.097309 30847 net.cpp:434] fc7_relu7_0_split <- fc7
I0726 13:55:10.097319 30847 net.cpp:408] fc7_relu7_0_split -> fc7_relu7_0_split_0
I0726 13:55:10.097333 30847 net.cpp:408] fc7_relu7_0_split -> fc7_relu7_0_split_1
I0726 13:55:10.097352 30847 net.cpp:408] fc7_relu7_0_split -> fc7_relu7_0_split_2
I0726 13:55:10.097363 30847 net.cpp:408] fc7_relu7_0_split -> fc7_relu7_0_split_3
I0726 13:55:10.097431 30847 net.cpp:150] Setting up fc7_relu7_0_split
I0726 13:55:10.097450 30847 net.cpp:157] Top shape: 8 1024 19 19 (2957312)
I0726 13:55:10.097460 30847 net.cpp:157] Top shape: 8 1024 19 19 (2957312)
I0726 13:55:10.097466 30847 net.cpp:157] Top shape: 8 1024 19 19 (2957312)
I0726 13:55:10.097472 30847 net.cpp:157] Top shape: 8 1024 19 19 (2957312)
I0726 13:55:10.097477 30847 net.cpp:165] Memory required for data: 1863688480
I0726 13:55:10.097483 30847 layer_factory.hpp:77] Creating layer conv6_1
I0726 13:55:10.097499 30847 net.cpp:100] Creating Layer conv6_1
I0726 13:55:10.097503 30847 net.cpp:434] conv6_1 <- fc7_relu7_0_split_0
I0726 13:55:10.097512 30847 net.cpp:408] conv6_1 -> conv6_1
I0726 13:55:10.123786 30847 net.cpp:150] Setting up conv6_1
I0726 13:55:10.124049 30847 net.cpp:157] Top shape: 8 256 19 19 (739328)
I0726 13:55:10.124058 30847 net.cpp:165] Memory required for data: 1866645792
I0726 13:55:10.124085 30847 layer_factory.hpp:77] Creating layer conv6_1_relu
I0726 13:55:10.124110 30847 net.cpp:100] Creating Layer conv6_1_relu
I0726 13:55:10.124124 30847 net.cpp:434] conv6_1_relu <- conv6_1
I0726 13:55:10.124143 30847 net.cpp:395] conv6_1_relu -> conv6_1 (in-place)
I0726 13:55:10.124281 30847 net.cpp:150] Setting up conv6_1_relu
I0726 13:55:10.124289 30847 net.cpp:157] Top shape: 8 256 19 19 (739328)
I0726 13:55:10.124294 30847 net.cpp:165] Memory required for data: 1869603104
I0726 13:55:10.124297 30847 layer_factory.hpp:77] Creating layer conv6_2
I0726 13:55:10.124318 30847 net.cpp:100] Creating Layer conv6_2
I0726 13:55:10.124323 30847 net.cpp:434] conv6_2 <- conv6_1
I0726 13:55:10.124331 30847 net.cpp:408] conv6_2 -> conv6_2
I0726 13:55:10.138331 30847 net.cpp:150] Setting up conv6_2
I0726 13:55:10.138357 30847 net.cpp:157] Top shape: 8 512 10 10 (409600)
I0726 13:55:10.138362 30847 net.cpp:165] Memory required for data: 1871241504
I0726 13:55:10.138386 30847 layer_factory.hpp:77] Creating layer conv6_2_relu
I0726 13:55:10.138397 30847 net.cpp:100] Creating Layer conv6_2_relu
I0726 13:55:10.138404 30847 net.cpp:434] conv6_2_relu <- conv6_2
I0726 13:55:10.138413 30847 net.cpp:395] conv6_2_relu -> conv6_2 (in-place)
I0726 13:55:10.138439 30847 net.cpp:150] Setting up conv6_2_relu
I0726 13:55:10.138447 30847 net.cpp:157] Top shape: 8 512 10 10 (409600)
I0726 13:55:10.138450 30847 net.cpp:165] Memory required for data: 1872879904
I0726 13:55:10.138454 30847 layer_factory.hpp:77] Creating layer conv6_2_conv6_2_relu_0_split
I0726 13:55:10.138460 30847 net.cpp:100] Creating Layer conv6_2_conv6_2_relu_0_split
I0726 13:55:10.138463 30847 net.cpp:434] conv6_2_conv6_2_relu_0_split <- conv6_2
I0726 13:55:10.138470 30847 net.cpp:408] conv6_2_conv6_2_relu_0_split -> conv6_2_conv6_2_relu_0_split_0
I0726 13:55:10.138481 30847 net.cpp:408] conv6_2_conv6_2_relu_0_split -> conv6_2_conv6_2_relu_0_split_1
I0726 13:55:10.138489 30847 net.cpp:408] conv6_2_conv6_2_relu_0_split -> conv6_2_conv6_2_relu_0_split_2
I0726 13:55:10.138494 30847 net.cpp:408] conv6_2_conv6_2_relu_0_split -> conv6_2_conv6_2_relu_0_split_3
I0726 13:55:10.138566 30847 net.cpp:150] Setting up conv6_2_conv6_2_relu_0_split
I0726 13:55:10.138576 30847 net.cpp:157] Top shape: 8 512 10 10 (409600)
I0726 13:55:10.138581 30847 net.cpp:157] Top shape: 8 512 10 10 (409600)
I0726 13:55:10.138586 30847 net.cpp:157] Top shape: 8 512 10 10 (409600)
I0726 13:55:10.138591 30847 net.cpp:157] Top shape: 8 512 10 10 (409600)
I0726 13:55:10.138595 30847 net.cpp:165] Memory required for data: 1879433504
I0726 13:55:10.138599 30847 layer_factory.hpp:77] Creating layer conv7_1
I0726 13:55:10.138612 30847 net.cpp:100] Creating Layer conv7_1
I0726 13:55:10.138617 30847 net.cpp:434] conv7_1 <- conv6_2_conv6_2_relu_0_split_0
I0726 13:55:10.138624 30847 net.cpp:408] conv7_1 -> conv7_1
I0726 13:55:10.139358 30847 net.cpp:150] Setting up conv7_1
I0726 13:55:10.139366 30847 net.cpp:157] Top shape: 8 128 10 10 (102400)
I0726 13:55:10.139369 30847 net.cpp:165] Memory required for data: 1879843104
I0726 13:55:10.139377 30847 layer_factory.hpp:77] Creating layer conv7_1_relu
I0726 13:55:10.139391 30847 net.cpp:100] Creating Layer conv7_1_relu
I0726 13:55:10.139398 30847 net.cpp:434] conv7_1_relu <- conv7_1
I0726 13:55:10.139405 30847 net.cpp:395] conv7_1_relu -> conv7_1 (in-place)
I0726 13:55:10.139412 30847 net.cpp:150] Setting up conv7_1_relu
I0726 13:55:10.139430 30847 net.cpp:157] Top shape: 8 128 10 10 (102400)
I0726 13:55:10.139432 30847 net.cpp:165] Memory required for data: 1880252704
I0726 13:55:10.139436 30847 layer_factory.hpp:77] Creating layer conv7_2
I0726 13:55:10.139446 30847 net.cpp:100] Creating Layer conv7_2
I0726 13:55:10.139451 30847 net.cpp:434] conv7_2 <- conv7_1
I0726 13:55:10.139458 30847 net.cpp:408] conv7_2 -> conv7_2
I0726 13:55:10.142851 30847 net.cpp:150] Setting up conv7_2
I0726 13:55:10.142876 30847 net.cpp:157] Top shape: 8 256 5 5 (51200)
I0726 13:55:10.142880 30847 net.cpp:165] Memory required for data: 1880457504
I0726 13:55:10.142892 30847 layer_factory.hpp:77] Creating layer conv7_2_relu
I0726 13:55:10.142904 30847 net.cpp:100] Creating Layer conv7_2_relu
I0726 13:55:10.142910 30847 net.cpp:434] conv7_2_relu <- conv7_2
I0726 13:55:10.142935 30847 net.cpp:395] conv7_2_relu -> conv7_2 (in-place)
I0726 13:55:10.142972 30847 net.cpp:150] Setting up conv7_2_relu
I0726 13:55:10.142978 30847 net.cpp:157] Top shape: 8 256 5 5 (51200)
I0726 13:55:10.142982 30847 net.cpp:165] Memory required for data: 1880662304
I0726 13:55:10.142987 30847 layer_factory.hpp:77] Creating layer conv7_2_conv7_2_relu_0_split
I0726 13:55:10.142993 30847 net.cpp:100] Creating Layer conv7_2_conv7_2_relu_0_split
I0726 13:55:10.142997 30847 net.cpp:434] conv7_2_conv7_2_relu_0_split <- conv7_2
I0726 13:55:10.143004 30847 net.cpp:408] conv7_2_conv7_2_relu_0_split -> conv7_2_conv7_2_relu_0_split_0
I0726 13:55:10.143013 30847 net.cpp:408] conv7_2_conv7_2_relu_0_split -> conv7_2_conv7_2_relu_0_split_1
I0726 13:55:10.143020 30847 net.cpp:408] conv7_2_conv7_2_relu_0_split -> conv7_2_conv7_2_relu_0_split_2
I0726 13:55:10.143041 30847 net.cpp:408] conv7_2_conv7_2_relu_0_split -> conv7_2_conv7_2_relu_0_split_3
I0726 13:55:10.143098 30847 net.cpp:150] Setting up conv7_2_conv7_2_relu_0_split
I0726 13:55:10.143106 30847 net.cpp:157] Top shape: 8 256 5 5 (51200)
I0726 13:55:10.143111 30847 net.cpp:157] Top shape: 8 256 5 5 (51200)
I0726 13:55:10.143116 30847 net.cpp:157] Top shape: 8 256 5 5 (51200)
I0726 13:55:10.143121 30847 net.cpp:157] Top shape: 8 256 5 5 (51200)
I0726 13:55:10.143126 30847 net.cpp:165] Memory required for data: 1881481504
I0726 13:55:10.143128 30847 layer_factory.hpp:77] Creating layer conv8_1
I0726 13:55:10.143139 30847 net.cpp:100] Creating Layer conv8_1
I0726 13:55:10.143144 30847 net.cpp:434] conv8_1 <- conv7_2_conv7_2_relu_0_split_0
I0726 13:55:10.143152 30847 net.cpp:408] conv8_1 -> conv8_1
I0726 13:55:10.143605 30847 net.cpp:150] Setting up conv8_1
I0726 13:55:10.143615 30847 net.cpp:157] Top shape: 8 128 5 5 (25600)
I0726 13:55:10.143617 30847 net.cpp:165] Memory required for data: 1881583904
I0726 13:55:10.143626 30847 layer_factory.hpp:77] Creating layer conv8_1_relu
I0726 13:55:10.143632 30847 net.cpp:100] Creating Layer conv8_1_relu
I0726 13:55:10.143636 30847 net.cpp:434] conv8_1_relu <- conv8_1
I0726 13:55:10.143642 30847 net.cpp:395] conv8_1_relu -> conv8_1 (in-place)
I0726 13:55:10.143651 30847 net.cpp:150] Setting up conv8_1_relu
I0726 13:55:10.143656 30847 net.cpp:157] Top shape: 8 128 5 5 (25600)
I0726 13:55:10.143659 30847 net.cpp:165] Memory required for data: 1881686304
I0726 13:55:10.143662 30847 layer_factory.hpp:77] Creating layer conv8_2
I0726 13:55:10.143672 30847 net.cpp:100] Creating Layer conv8_2
I0726 13:55:10.143677 30847 net.cpp:434] conv8_2 <- conv8_1
I0726 13:55:10.143683 30847 net.cpp:408] conv8_2 -> conv8_2
I0726 13:55:10.147028 30847 net.cpp:150] Setting up conv8_2
I0726 13:55:10.147060 30847 net.cpp:157] Top shape: 8 256 3 3 (18432)
I0726 13:55:10.147063 30847 net.cpp:165] Memory required for data: 1881760032
I0726 13:55:10.147073 30847 layer_factory.hpp:77] Creating layer conv8_2_relu
I0726 13:55:10.147084 30847 net.cpp:100] Creating Layer conv8_2_relu
I0726 13:55:10.147111 30847 net.cpp:434] conv8_2_relu <- conv8_2
I0726 13:55:10.147119 30847 net.cpp:395] conv8_2_relu -> conv8_2 (in-place)
I0726 13:55:10.147130 30847 net.cpp:150] Setting up conv8_2_relu
I0726 13:55:10.147135 30847 net.cpp:157] Top shape: 8 256 3 3 (18432)
I0726 13:55:10.147140 30847 net.cpp:165] Memory required for data: 1881833760
I0726 13:55:10.147142 30847 layer_factory.hpp:77] Creating layer conv8_2_conv8_2_relu_0_split
I0726 13:55:10.147150 30847 net.cpp:100] Creating Layer conv8_2_conv8_2_relu_0_split
I0726 13:55:10.147153 30847 net.cpp:434] conv8_2_conv8_2_relu_0_split <- conv8_2
I0726 13:55:10.147159 30847 net.cpp:408] conv8_2_conv8_2_relu_0_split -> conv8_2_conv8_2_relu_0_split_0
I0726 13:55:10.147166 30847 net.cpp:408] conv8_2_conv8_2_relu_0_split -> conv8_2_conv8_2_relu_0_split_1
I0726 13:55:10.147171 30847 net.cpp:408] conv8_2_conv8_2_relu_0_split -> conv8_2_conv8_2_relu_0_split_2
I0726 13:55:10.147176 30847 net.cpp:408] conv8_2_conv8_2_relu_0_split -> conv8_2_conv8_2_relu_0_split_3
I0726 13:55:10.147227 30847 net.cpp:150] Setting up conv8_2_conv8_2_relu_0_split
I0726 13:55:10.147233 30847 net.cpp:157] Top shape: 8 256 3 3 (18432)
I0726 13:55:10.147253 30847 net.cpp:157] Top shape: 8 256 3 3 (18432)
I0726 13:55:10.147258 30847 net.cpp:157] Top shape: 8 256 3 3 (18432)
I0726 13:55:10.147264 30847 net.cpp:157] Top shape: 8 256 3 3 (18432)
I0726 13:55:10.147269 30847 net.cpp:165] Memory required for data: 1882128672
I0726 13:55:10.147274 30847 layer_factory.hpp:77] Creating layer conv9_1
I0726 13:55:10.147284 30847 net.cpp:100] Creating Layer conv9_1
I0726 13:55:10.147289 30847 net.cpp:434] conv9_1 <- conv8_2_conv8_2_relu_0_split_0
I0726 13:55:10.147295 30847 net.cpp:408] conv9_1 -> conv9_1
I0726 13:55:10.147733 30847 net.cpp:150] Setting up conv9_1
I0726 13:55:10.147742 30847 net.cpp:157] Top shape: 8 128 3 3 (9216)
I0726 13:55:10.147745 30847 net.cpp:165] Memory required for data: 1882165536
I0726 13:55:10.147753 30847 layer_factory.hpp:77] Creating layer conv9_1_relu
I0726 13:55:10.147758 30847 net.cpp:100] Creating Layer conv9_1_relu
I0726 13:55:10.147763 30847 net.cpp:434] conv9_1_relu <- conv9_1
I0726 13:55:10.147769 30847 net.cpp:395] conv9_1_relu -> conv9_1 (in-place)
I0726 13:55:10.147776 30847 net.cpp:150] Setting up conv9_1_relu
I0726 13:55:10.147781 30847 net.cpp:157] Top shape: 8 128 3 3 (9216)
I0726 13:55:10.147785 30847 net.cpp:165] Memory required for data: 1882202400
I0726 13:55:10.147790 30847 layer_factory.hpp:77] Creating layer conv9_2
I0726 13:55:10.147799 30847 net.cpp:100] Creating Layer conv9_2
I0726 13:55:10.147802 30847 net.cpp:434] conv9_2 <- conv9_1
I0726 13:55:10.147809 30847 net.cpp:408] conv9_2 -> conv9_2
I0726 13:55:10.152150 30847 net.cpp:150] Setting up conv9_2
I0726 13:55:10.152307 30847 net.cpp:157] Top shape: 8 256 1 1 (2048)
I0726 13:55:10.152328 30847 net.cpp:165] Memory required for data: 1882210592
I0726 13:55:10.152377 30847 layer_factory.hpp:77] Creating layer conv9_2_relu
I0726 13:55:10.152443 30847 net.cpp:100] Creating Layer conv9_2_relu
I0726 13:55:10.152477 30847 net.cpp:434] conv9_2_relu <- conv9_2
I0726 13:55:10.152535 30847 net.cpp:395] conv9_2_relu -> conv9_2 (in-place)
I0726 13:55:10.152591 30847 net.cpp:150] Setting up conv9_2_relu
I0726 13:55:10.152618 30847 net.cpp:157] Top shape: 8 256 1 1 (2048)
I0726 13:55:10.152631 30847 net.cpp:165] Memory required for data: 1882218784
I0726 13:55:10.152645 30847 layer_factory.hpp:77] Creating layer conv9_2_conv9_2_relu_0_split
I0726 13:55:10.152668 30847 net.cpp:100] Creating Layer conv9_2_conv9_2_relu_0_split
I0726 13:55:10.152688 30847 net.cpp:434] conv9_2_conv9_2_relu_0_split <- conv9_2
I0726 13:55:10.152714 30847 net.cpp:408] conv9_2_conv9_2_relu_0_split -> conv9_2_conv9_2_relu_0_split_0
I0726 13:55:10.152750 30847 net.cpp:408] conv9_2_conv9_2_relu_0_split -> conv9_2_conv9_2_relu_0_split_1
I0726 13:55:10.152779 30847 net.cpp:408] conv9_2_conv9_2_relu_0_split -> conv9_2_conv9_2_relu_0_split_2
I0726 13:55:10.153019 30847 net.cpp:150] Setting up conv9_2_conv9_2_relu_0_split
I0726 13:55:10.153053 30847 net.cpp:157] Top shape: 8 256 1 1 (2048)
I0726 13:55:10.153067 30847 net.cpp:157] Top shape: 8 256 1 1 (2048)
I0726 13:55:10.153079 30847 net.cpp:157] Top shape: 8 256 1 1 (2048)
I0726 13:55:10.153087 30847 net.cpp:165] Memory required for data: 1882243360
I0726 13:55:10.153096 30847 layer_factory.hpp:77] Creating layer conv4_3_norm
I0726 13:55:10.153156 30847 net.cpp:100] Creating Layer conv4_3_norm
I0726 13:55:10.153177 30847 net.cpp:434] conv4_3_norm <- conv4_3_relu4_3_0_split_1
I0726 13:55:10.153203 30847 net.cpp:408] conv4_3_norm -> conv4_3_norm
I0726 13:55:10.153524 30847 net.cpp:150] Setting up conv4_3_norm
I0726 13:55:10.153532 30847 net.cpp:157] Top shape: 8 512 38 38 (5914624)
I0726 13:55:10.153534 30847 net.cpp:165] Memory required for data: 1905901856
I0726 13:55:10.153542 30847 layer_factory.hpp:77] Creating layer conv4_3_norm_conv4_3_norm_0_split
I0726 13:55:10.153548 30847 net.cpp:100] Creating Layer conv4_3_norm_conv4_3_norm_0_split
I0726 13:55:10.153551 30847 net.cpp:434] conv4_3_norm_conv4_3_norm_0_split <- conv4_3_norm
I0726 13:55:10.153558 30847 net.cpp:408] conv4_3_norm_conv4_3_norm_0_split -> conv4_3_norm_conv4_3_norm_0_split_0
I0726 13:55:10.153583 30847 net.cpp:408] conv4_3_norm_conv4_3_norm_0_split -> conv4_3_norm_conv4_3_norm_0_split_1
I0726 13:55:10.153589 30847 net.cpp:408] conv4_3_norm_conv4_3_norm_0_split -> conv4_3_norm_conv4_3_norm_0_split_2
I0726 13:55:10.153625 30847 net.cpp:150] Setting up conv4_3_norm_conv4_3_norm_0_split
I0726 13:55:10.153631 30847 net.cpp:157] Top shape: 8 512 38 38 (5914624)
I0726 13:55:10.153637 30847 net.cpp:157] Top shape: 8 512 38 38 (5914624)
I0726 13:55:10.153641 30847 net.cpp:157] Top shape: 8 512 38 38 (5914624)
I0726 13:55:10.153645 30847 net.cpp:165] Memory required for data: 1976877344
I0726 13:55:10.153648 30847 layer_factory.hpp:77] Creating layer conv4_3_norm_mbox_loc
I0726 13:55:10.153661 30847 net.cpp:100] Creating Layer conv4_3_norm_mbox_loc
I0726 13:55:10.153666 30847 net.cpp:434] conv4_3_norm_mbox_loc <- conv4_3_norm_conv4_3_norm_0_split_0
I0726 13:55:10.153672 30847 net.cpp:408] conv4_3_norm_mbox_loc -> conv4_3_norm_mbox_loc
I0726 13:55:10.154449 30847 net.cpp:150] Setting up conv4_3_norm_mbox_loc
I0726 13:55:10.154458 30847 net.cpp:157] Top shape: 8 16 38 38 (184832)
I0726 13:55:10.154462 30847 net.cpp:165] Memory required for data: 1977616672
I0726 13:55:10.154469 30847 layer_factory.hpp:77] Creating layer conv4_3_norm_mbox_loc_perm
I0726 13:55:10.154664 30847 net.cpp:100] Creating Layer conv4_3_norm_mbox_loc_perm
I0726 13:55:10.154670 30847 net.cpp:434] conv4_3_norm_mbox_loc_perm <- conv4_3_norm_mbox_loc
I0726 13:55:10.154676 30847 net.cpp:408] conv4_3_norm_mbox_loc_perm -> conv4_3_norm_mbox_loc_perm
I0726 13:55:10.154773 30847 net.cpp:150] Setting up conv4_3_norm_mbox_loc_perm
I0726 13:55:10.154785 30847 net.cpp:157] Top shape: 8 38 38 16 (184832)
I0726 13:55:10.154791 30847 net.cpp:165] Memory required for data: 1978356000
I0726 13:55:10.154796 30847 layer_factory.hpp:77] Creating layer conv4_3_norm_mbox_loc_flat
I0726 13:55:10.155004 30847 net.cpp:100] Creating Layer conv4_3_norm_mbox_loc_flat
I0726 13:55:10.155010 30847 net.cpp:434] conv4_3_norm_mbox_loc_flat <- conv4_3_norm_mbox_loc_perm
I0726 13:55:10.155017 30847 net.cpp:408] conv4_3_norm_mbox_loc_flat -> conv4_3_norm_mbox_loc_flat
I0726 13:55:10.155213 30847 net.cpp:150] Setting up conv4_3_norm_mbox_loc_flat
I0726 13:55:10.155222 30847 net.cpp:157] Top shape: 8 23104 (184832)
I0726 13:55:10.155225 30847 net.cpp:165] Memory required for data: 1979095328
I0726 13:55:10.155234 30847 layer_factory.hpp:77] Creating layer conv4_3_norm_mbox_conf
I0726 13:55:10.155273 30847 net.cpp:100] Creating Layer conv4_3_norm_mbox_conf
I0726 13:55:10.155278 30847 net.cpp:434] conv4_3_norm_mbox_conf <- conv4_3_norm_conv4_3_norm_0_split_1
I0726 13:55:10.155287 30847 net.cpp:408] conv4_3_norm_mbox_conf -> conv4_3_norm_mbox_conf
I0726 13:55:10.155827 30847 net.cpp:150] Setting up conv4_3_norm_mbox_conf
I0726 13:55:10.155835 30847 net.cpp:157] Top shape: 8 8 38 38 (92416)
I0726 13:55:10.155839 30847 net.cpp:165] Memory required for data: 1979464992
I0726 13:55:10.155848 30847 layer_factory.hpp:77] Creating layer conv4_3_norm_mbox_conf_perm
I0726 13:55:10.155855 30847 net.cpp:100] Creating Layer conv4_3_norm_mbox_conf_perm
I0726 13:55:10.155860 30847 net.cpp:434] conv4_3_norm_mbox_conf_perm <- conv4_3_norm_mbox_conf
I0726 13:55:10.155866 30847 net.cpp:408] conv4_3_norm_mbox_conf_perm -> conv4_3_norm_mbox_conf_perm
I0726 13:55:10.155936 30847 net.cpp:150] Setting up conv4_3_norm_mbox_conf_perm
I0726 13:55:10.155942 30847 net.cpp:157] Top shape: 8 38 38 8 (92416)
I0726 13:55:10.155946 30847 net.cpp:165] Memory required for data: 1979834656
I0726 13:55:10.155951 30847 layer_factory.hpp:77] Creating layer conv4_3_norm_mbox_conf_flat
I0726 13:55:10.155956 30847 net.cpp:100] Creating Layer conv4_3_norm_mbox_conf_flat
I0726 13:55:10.155961 30847 net.cpp:434] conv4_3_norm_mbox_conf_flat <- conv4_3_norm_mbox_conf_perm
I0726 13:55:10.155967 30847 net.cpp:408] conv4_3_norm_mbox_conf_flat -> conv4_3_norm_mbox_conf_flat
I0726 13:55:10.155987 30847 net.cpp:150] Setting up conv4_3_norm_mbox_conf_flat
I0726 13:55:10.155993 30847 net.cpp:157] Top shape: 8 11552 (92416)
I0726 13:55:10.156013 30847 net.cpp:165] Memory required for data: 1980204320
I0726 13:55:10.156018 30847 layer_factory.hpp:77] Creating layer conv4_3_norm_mbox_priorbox
I0726 13:55:10.156028 30847 net.cpp:100] Creating Layer conv4_3_norm_mbox_priorbox
I0726 13:55:10.156034 30847 net.cpp:434] conv4_3_norm_mbox_priorbox <- conv4_3_norm_conv4_3_norm_0_split_2
I0726 13:55:10.156045 30847 net.cpp:434] conv4_3_norm_mbox_priorbox <- data_data_0_split_1
I0726 13:55:10.156057 30847 net.cpp:408] conv4_3_norm_mbox_priorbox -> conv4_3_norm_mbox_priorbox
I0726 13:55:10.156112 30847 net.cpp:150] Setting up conv4_3_norm_mbox_priorbox
I0726 13:55:10.156118 30847 net.cpp:157] Top shape: 1 2 23104 (46208)
I0726 13:55:10.156122 30847 net.cpp:165] Memory required for data: 1980389152
I0726 13:55:10.156126 30847 layer_factory.hpp:77] Creating layer fc7_mbox_loc
I0726 13:55:10.156144 30847 net.cpp:100] Creating Layer fc7_mbox_loc
I0726 13:55:10.156155 30847 net.cpp:434] fc7_mbox_loc <- fc7_relu7_0_split_1
I0726 13:55:10.156163 30847 net.cpp:408] fc7_mbox_loc -> fc7_mbox_loc
I0726 13:55:10.158066 30847 net.cpp:150] Setting up fc7_mbox_loc
I0726 13:55:10.158082 30847 net.cpp:157] Top shape: 8 24 19 19 (69312)
I0726 13:55:10.158085 30847 net.cpp:165] Memory required for data: 1980666400
I0726 13:55:10.158095 30847 layer_factory.hpp:77] Creating layer fc7_mbox_loc_perm
I0726 13:55:10.158107 30847 net.cpp:100] Creating Layer fc7_mbox_loc_perm
I0726 13:55:10.158113 30847 net.cpp:434] fc7_mbox_loc_perm <- fc7_mbox_loc
I0726 13:55:10.158119 30847 net.cpp:408] fc7_mbox_loc_perm -> fc7_mbox_loc_perm
I0726 13:55:10.158191 30847 net.cpp:150] Setting up fc7_mbox_loc_perm
I0726 13:55:10.158197 30847 net.cpp:157] Top shape: 8 19 19 24 (69312)
I0726 13:55:10.158200 30847 net.cpp:165] Memory required for data: 1980943648
I0726 13:55:10.158205 30847 layer_factory.hpp:77] Creating layer fc7_mbox_loc_flat
I0726 13:55:10.158215 30847 net.cpp:100] Creating Layer fc7_mbox_loc_flat
I0726 13:55:10.158218 30847 net.cpp:434] fc7_mbox_loc_flat <- fc7_mbox_loc_perm
I0726 13:55:10.158224 30847 net.cpp:408] fc7_mbox_loc_flat -> fc7_mbox_loc_flat
I0726 13:55:10.158253 30847 net.cpp:150] Setting up fc7_mbox_loc_flat
I0726 13:55:10.158259 30847 net.cpp:157] Top shape: 8 8664 (69312)
I0726 13:55:10.158262 30847 net.cpp:165] Memory required for data: 1981220896
I0726 13:55:10.158267 30847 layer_factory.hpp:77] Creating layer fc7_mbox_conf
I0726 13:55:10.158279 30847 net.cpp:100] Creating Layer fc7_mbox_conf
I0726 13:55:10.158284 30847 net.cpp:434] fc7_mbox_conf <- fc7_relu7_0_split_2
I0726 13:55:10.158291 30847 net.cpp:408] fc7_mbox_conf -> fc7_mbox_conf
I0726 13:55:10.159390 30847 net.cpp:150] Setting up fc7_mbox_conf
I0726 13:55:10.159405 30847 net.cpp:157] Top shape: 8 12 19 19 (34656)
I0726 13:55:10.159409 30847 net.cpp:165] Memory required for data: 1981359520
I0726 13:55:10.159433 30847 layer_factory.hpp:77] Creating layer fc7_mbox_conf_perm
I0726 13:55:10.159445 30847 net.cpp:100] Creating Layer fc7_mbox_conf_perm
I0726 13:55:10.159449 30847 net.cpp:434] fc7_mbox_conf_perm <- fc7_mbox_conf
I0726 13:55:10.159458 30847 net.cpp:408] fc7_mbox_conf_perm -> fc7_mbox_conf_perm
I0726 13:55:10.159548 30847 net.cpp:150] Setting up fc7_mbox_conf_perm
I0726 13:55:10.159555 30847 net.cpp:157] Top shape: 8 19 19 12 (34656)
I0726 13:55:10.159559 30847 net.cpp:165] Memory required for data: 1981498144
I0726 13:55:10.159564 30847 layer_factory.hpp:77] Creating layer fc7_mbox_conf_flat
I0726 13:55:10.159570 30847 net.cpp:100] Creating Layer fc7_mbox_conf_flat
I0726 13:55:10.159575 30847 net.cpp:434] fc7_mbox_conf_flat <- fc7_mbox_conf_perm
I0726 13:55:10.159581 30847 net.cpp:408] fc7_mbox_conf_flat -> fc7_mbox_conf_flat
I0726 13:55:10.159626 30847 net.cpp:150] Setting up fc7_mbox_conf_flat
I0726 13:55:10.159631 30847 net.cpp:157] Top shape: 8 4332 (34656)
I0726 13:55:10.159634 30847 net.cpp:165] Memory required for data: 1981636768
I0726 13:55:10.159637 30847 layer_factory.hpp:77] Creating layer fc7_mbox_priorbox
I0726 13:55:10.159647 30847 net.cpp:100] Creating Layer fc7_mbox_priorbox
I0726 13:55:10.159682 30847 net.cpp:434] fc7_mbox_priorbox <- fc7_relu7_0_split_3
I0726 13:55:10.159690 30847 net.cpp:434] fc7_mbox_priorbox <- data_data_0_split_2
I0726 13:55:10.159696 30847 net.cpp:408] fc7_mbox_priorbox -> fc7_mbox_priorbox
I0726 13:55:10.159724 30847 net.cpp:150] Setting up fc7_mbox_priorbox
I0726 13:55:10.159730 30847 net.cpp:157] Top shape: 1 2 8664 (17328)
I0726 13:55:10.159734 30847 net.cpp:165] Memory required for data: 1981706080
I0726 13:55:10.159737 30847 layer_factory.hpp:77] Creating layer conv6_2_mbox_loc
I0726 13:55:10.159747 30847 net.cpp:100] Creating Layer conv6_2_mbox_loc
I0726 13:55:10.159752 30847 net.cpp:434] conv6_2_mbox_loc <- conv6_2_conv6_2_relu_0_split_1
I0726 13:55:10.159760 30847 net.cpp:408] conv6_2_mbox_loc -> conv6_2_mbox_loc
I0726 13:55:10.160745 30847 net.cpp:150] Setting up conv6_2_mbox_loc
I0726 13:55:10.160753 30847 net.cpp:157] Top shape: 8 24 10 10 (19200)
I0726 13:55:10.160758 30847 net.cpp:165] Memory required for data: 1981782880
I0726 13:55:10.160764 30847 layer_factory.hpp:77] Creating layer conv6_2_mbox_loc_perm
I0726 13:55:10.160770 30847 net.cpp:100] Creating Layer conv6_2_mbox_loc_perm
I0726 13:55:10.160775 30847 net.cpp:434] conv6_2_mbox_loc_perm <- conv6_2_mbox_loc
I0726 13:55:10.160781 30847 net.cpp:408] conv6_2_mbox_loc_perm -> conv6_2_mbox_loc_perm
I0726 13:55:10.160852 30847 net.cpp:150] Setting up conv6_2_mbox_loc_perm
I0726 13:55:10.160857 30847 net.cpp:157] Top shape: 8 10 10 24 (19200)
I0726 13:55:10.160861 30847 net.cpp:165] Memory required for data: 1981859680
I0726 13:55:10.160866 30847 layer_factory.hpp:77] Creating layer conv6_2_mbox_loc_flat
I0726 13:55:10.160871 30847 net.cpp:100] Creating Layer conv6_2_mbox_loc_flat
I0726 13:55:10.160874 30847 net.cpp:434] conv6_2_mbox_loc_flat <- conv6_2_mbox_loc_perm
I0726 13:55:10.160881 30847 net.cpp:408] conv6_2_mbox_loc_flat -> conv6_2_mbox_loc_flat
I0726 13:55:10.160902 30847 net.cpp:150] Setting up conv6_2_mbox_loc_flat
I0726 13:55:10.160907 30847 net.cpp:157] Top shape: 8 2400 (19200)
I0726 13:55:10.160910 30847 net.cpp:165] Memory required for data: 1981936480
I0726 13:55:10.160914 30847 layer_factory.hpp:77] Creating layer conv6_2_mbox_conf
I0726 13:55:10.160923 30847 net.cpp:100] Creating Layer conv6_2_mbox_conf
I0726 13:55:10.160928 30847 net.cpp:434] conv6_2_mbox_conf <- conv6_2_conv6_2_relu_0_split_2
I0726 13:55:10.160933 30847 net.cpp:408] conv6_2_mbox_conf -> conv6_2_mbox_conf
I0726 13:55:10.161566 30847 net.cpp:150] Setting up conv6_2_mbox_conf
I0726 13:55:10.161572 30847 net.cpp:157] Top shape: 8 12 10 10 (9600)
I0726 13:55:10.161576 30847 net.cpp:165] Memory required for data: 1981974880
I0726 13:55:10.161582 30847 layer_factory.hpp:77] Creating layer conv6_2_mbox_conf_perm
I0726 13:55:10.161587 30847 net.cpp:100] Creating Layer conv6_2_mbox_conf_perm
I0726 13:55:10.161592 30847 net.cpp:434] conv6_2_mbox_conf_perm <- conv6_2_mbox_conf
I0726 13:55:10.161598 30847 net.cpp:408] conv6_2_mbox_conf_perm -> conv6_2_mbox_conf_perm
I0726 13:55:10.161664 30847 net.cpp:150] Setting up conv6_2_mbox_conf_perm
I0726 13:55:10.161670 30847 net.cpp:157] Top shape: 8 10 10 12 (9600)
I0726 13:55:10.161674 30847 net.cpp:165] Memory required for data: 1982013280
I0726 13:55:10.161677 30847 layer_factory.hpp:77] Creating layer conv6_2_mbox_conf_flat
I0726 13:55:10.161682 30847 net.cpp:100] Creating Layer conv6_2_mbox_conf_flat
I0726 13:55:10.161687 30847 net.cpp:434] conv6_2_mbox_conf_flat <- conv6_2_mbox_conf_perm
I0726 13:55:10.161692 30847 net.cpp:408] conv6_2_mbox_conf_flat -> conv6_2_mbox_conf_flat
I0726 13:55:10.161712 30847 net.cpp:150] Setting up conv6_2_mbox_conf_flat
I0726 13:55:10.161717 30847 net.cpp:157] Top shape: 8 1200 (9600)
I0726 13:55:10.161721 30847 net.cpp:165] Memory required for data: 1982051680
I0726 13:55:10.161725 30847 layer_factory.hpp:77] Creating layer conv6_2_mbox_priorbox
I0726 13:55:10.161731 30847 net.cpp:100] Creating Layer conv6_2_mbox_priorbox
I0726 13:55:10.161734 30847 net.cpp:434] conv6_2_mbox_priorbox <- conv6_2_conv6_2_relu_0_split_3
I0726 13:55:10.161741 30847 net.cpp:434] conv6_2_mbox_priorbox <- data_data_0_split_3
I0726 13:55:10.161758 30847 net.cpp:408] conv6_2_mbox_priorbox -> conv6_2_mbox_priorbox
I0726 13:55:10.161782 30847 net.cpp:150] Setting up conv6_2_mbox_priorbox
I0726 13:55:10.161787 30847 net.cpp:157] Top shape: 1 2 2400 (4800)
I0726 13:55:10.161790 30847 net.cpp:165] Memory required for data: 1982070880
I0726 13:55:10.161793 30847 layer_factory.hpp:77] Creating layer conv7_2_mbox_loc
I0726 13:55:10.161803 30847 net.cpp:100] Creating Layer conv7_2_mbox_loc
I0726 13:55:10.161806 30847 net.cpp:434] conv7_2_mbox_loc <- conv7_2_conv7_2_relu_0_split_1
I0726 13:55:10.161813 30847 net.cpp:408] conv7_2_mbox_loc -> conv7_2_mbox_loc
I0726 13:55:10.162389 30847 net.cpp:150] Setting up conv7_2_mbox_loc
I0726 13:55:10.162395 30847 net.cpp:157] Top shape: 8 24 5 5 (4800)
I0726 13:55:10.162398 30847 net.cpp:165] Memory required for data: 1982090080
I0726 13:55:10.162410 30847 layer_factory.hpp:77] Creating layer conv7_2_mbox_loc_perm
I0726 13:55:10.162430 30847 net.cpp:100] Creating Layer conv7_2_mbox_loc_perm
I0726 13:55:10.162434 30847 net.cpp:434] conv7_2_mbox_loc_perm <- conv7_2_mbox_loc
I0726 13:55:10.162439 30847 net.cpp:408] conv7_2_mbox_loc_perm -> conv7_2_mbox_loc_perm
I0726 13:55:10.162506 30847 net.cpp:150] Setting up conv7_2_mbox_loc_perm
I0726 13:55:10.162513 30847 net.cpp:157] Top shape: 8 5 5 24 (4800)
I0726 13:55:10.162515 30847 net.cpp:165] Memory required for data: 1982109280
I0726 13:55:10.162518 30847 layer_factory.hpp:77] Creating layer conv7_2_mbox_loc_flat
I0726 13:55:10.162524 30847 net.cpp:100] Creating Layer conv7_2_mbox_loc_flat
I0726 13:55:10.162528 30847 net.cpp:434] conv7_2_mbox_loc_flat <- conv7_2_mbox_loc_perm
I0726 13:55:10.162533 30847 net.cpp:408] conv7_2_mbox_loc_flat -> conv7_2_mbox_loc_flat
I0726 13:55:10.162554 30847 net.cpp:150] Setting up conv7_2_mbox_loc_flat
I0726 13:55:10.162560 30847 net.cpp:157] Top shape: 8 600 (4800)
I0726 13:55:10.162564 30847 net.cpp:165] Memory required for data: 1982128480
I0726 13:55:10.162566 30847 layer_factory.hpp:77] Creating layer conv7_2_mbox_conf
I0726 13:55:10.162575 30847 net.cpp:100] Creating Layer conv7_2_mbox_conf
I0726 13:55:10.162580 30847 net.cpp:434] conv7_2_mbox_conf <- conv7_2_conv7_2_relu_0_split_2
I0726 13:55:10.162585 30847 net.cpp:408] conv7_2_mbox_conf -> conv7_2_mbox_conf
I0726 13:55:10.162950 30847 net.cpp:150] Setting up conv7_2_mbox_conf
I0726 13:55:10.162955 30847 net.cpp:157] Top shape: 8 12 5 5 (2400)
I0726 13:55:10.162959 30847 net.cpp:165] Memory required for data: 1982138080
I0726 13:55:10.162966 30847 layer_factory.hpp:77] Creating layer conv7_2_mbox_conf_perm
I0726 13:55:10.162971 30847 net.cpp:100] Creating Layer conv7_2_mbox_conf_perm
I0726 13:55:10.162976 30847 net.cpp:434] conv7_2_mbox_conf_perm <- conv7_2_mbox_conf
I0726 13:55:10.162982 30847 net.cpp:408] conv7_2_mbox_conf_perm -> conv7_2_mbox_conf_perm
I0726 13:55:10.163048 30847 net.cpp:150] Setting up conv7_2_mbox_conf_perm
I0726 13:55:10.163054 30847 net.cpp:157] Top shape: 8 5 5 12 (2400)
I0726 13:55:10.163058 30847 net.cpp:165] Memory required for data: 1982147680
I0726 13:55:10.163061 30847 layer_factory.hpp:77] Creating layer conv7_2_mbox_conf_flat
I0726 13:55:10.163065 30847 net.cpp:100] Creating Layer conv7_2_mbox_conf_flat
I0726 13:55:10.163069 30847 net.cpp:434] conv7_2_mbox_conf_flat <- conv7_2_mbox_conf_perm
I0726 13:55:10.163074 30847 net.cpp:408] conv7_2_mbox_conf_flat -> conv7_2_mbox_conf_flat
I0726 13:55:10.163111 30847 net.cpp:150] Setting up conv7_2_mbox_conf_flat
I0726 13:55:10.163116 30847 net.cpp:157] Top shape: 8 300 (2400)
I0726 13:55:10.163120 30847 net.cpp:165] Memory required for data: 1982157280
I0726 13:55:10.163122 30847 layer_factory.hpp:77] Creating layer conv7_2_mbox_priorbox
I0726 13:55:10.163128 30847 net.cpp:100] Creating Layer conv7_2_mbox_priorbox
I0726 13:55:10.163132 30847 net.cpp:434] conv7_2_mbox_priorbox <- conv7_2_conv7_2_relu_0_split_3
I0726 13:55:10.163137 30847 net.cpp:434] conv7_2_mbox_priorbox <- data_data_0_split_4
I0726 13:55:10.163142 30847 net.cpp:408] conv7_2_mbox_priorbox -> conv7_2_mbox_priorbox
I0726 13:55:10.163177 30847 net.cpp:150] Setting up conv7_2_mbox_priorbox
I0726 13:55:10.163182 30847 net.cpp:157] Top shape: 1 2 600 (1200)
I0726 13:55:10.163185 30847 net.cpp:165] Memory required for data: 1982162080
I0726 13:55:10.163188 30847 layer_factory.hpp:77] Creating layer conv8_2_mbox_loc
I0726 13:55:10.163197 30847 net.cpp:100] Creating Layer conv8_2_mbox_loc
I0726 13:55:10.163202 30847 net.cpp:434] conv8_2_mbox_loc <- conv8_2_conv8_2_relu_0_split_1
I0726 13:55:10.163208 30847 net.cpp:408] conv8_2_mbox_loc -> conv8_2_mbox_loc
I0726 13:55:10.163652 30847 net.cpp:150] Setting up conv8_2_mbox_loc
I0726 13:55:10.163661 30847 net.cpp:157] Top shape: 8 16 3 3 (1152)
I0726 13:55:10.163663 30847 net.cpp:165] Memory required for data: 1982166688
I0726 13:55:10.163700 30847 layer_factory.hpp:77] Creating layer conv8_2_mbox_loc_perm
I0726 13:55:10.163707 30847 net.cpp:100] Creating Layer conv8_2_mbox_loc_perm
I0726 13:55:10.163710 30847 net.cpp:434] conv8_2_mbox_loc_perm <- conv8_2_mbox_loc
I0726 13:55:10.163717 30847 net.cpp:408] conv8_2_mbox_loc_perm -> conv8_2_mbox_loc_perm
I0726 13:55:10.163786 30847 net.cpp:150] Setting up conv8_2_mbox_loc_perm
I0726 13:55:10.163792 30847 net.cpp:157] Top shape: 8 3 3 16 (1152)
I0726 13:55:10.163796 30847 net.cpp:165] Memory required for data: 1982171296
I0726 13:55:10.163800 30847 layer_factory.hpp:77] Creating layer conv8_2_mbox_loc_flat
I0726 13:55:10.163805 30847 net.cpp:100] Creating Layer conv8_2_mbox_loc_flat
I0726 13:55:10.163808 30847 net.cpp:434] conv8_2_mbox_loc_flat <- conv8_2_mbox_loc_perm
I0726 13:55:10.163815 30847 net.cpp:408] conv8_2_mbox_loc_flat -> conv8_2_mbox_loc_flat
I0726 13:55:10.163835 30847 net.cpp:150] Setting up conv8_2_mbox_loc_flat
I0726 13:55:10.163841 30847 net.cpp:157] Top shape: 8 144 (1152)
I0726 13:55:10.163843 30847 net.cpp:165] Memory required for data: 1982175904
I0726 13:55:10.163847 30847 layer_factory.hpp:77] Creating layer conv8_2_mbox_conf
I0726 13:55:10.163854 30847 net.cpp:100] Creating Layer conv8_2_mbox_conf
I0726 13:55:10.163858 30847 net.cpp:434] conv8_2_mbox_conf <- conv8_2_conv8_2_relu_0_split_2
I0726 13:55:10.163864 30847 net.cpp:408] conv8_2_mbox_conf -> conv8_2_mbox_conf
I0726 13:55:10.164155 30847 net.cpp:150] Setting up conv8_2_mbox_conf
I0726 13:55:10.164161 30847 net.cpp:157] Top shape: 8 8 3 3 (576)
I0726 13:55:10.164165 30847 net.cpp:165] Memory required for data: 1982178208
I0726 13:55:10.164170 30847 layer_factory.hpp:77] Creating layer conv8_2_mbox_conf_perm
I0726 13:55:10.164177 30847 net.cpp:100] Creating Layer conv8_2_mbox_conf_perm
I0726 13:55:10.164180 30847 net.cpp:434] conv8_2_mbox_conf_perm <- conv8_2_mbox_conf
I0726 13:55:10.164186 30847 net.cpp:408] conv8_2_mbox_conf_perm -> conv8_2_mbox_conf_perm
I0726 13:55:10.164260 30847 net.cpp:150] Setting up conv8_2_mbox_conf_perm
I0726 13:55:10.164266 30847 net.cpp:157] Top shape: 8 3 3 8 (576)
I0726 13:55:10.164269 30847 net.cpp:165] Memory required for data: 1982180512
I0726 13:55:10.164273 30847 layer_factory.hpp:77] Creating layer conv8_2_mbox_conf_flat
I0726 13:55:10.164276 30847 net.cpp:100] Creating Layer conv8_2_mbox_conf_flat
I0726 13:55:10.164281 30847 net.cpp:434] conv8_2_mbox_conf_flat <- conv8_2_mbox_conf_perm
I0726 13:55:10.164286 30847 net.cpp:408] conv8_2_mbox_conf_flat -> conv8_2_mbox_conf_flat
I0726 13:55:10.164306 30847 net.cpp:150] Setting up conv8_2_mbox_conf_flat
I0726 13:55:10.164311 30847 net.cpp:157] Top shape: 8 72 (576)
I0726 13:55:10.164314 30847 net.cpp:165] Memory required for data: 1982182816
I0726 13:55:10.164319 30847 layer_factory.hpp:77] Creating layer conv8_2_mbox_priorbox
I0726 13:55:10.164324 30847 net.cpp:100] Creating Layer conv8_2_mbox_priorbox
I0726 13:55:10.164327 30847 net.cpp:434] conv8_2_mbox_priorbox <- conv8_2_conv8_2_relu_0_split_3
I0726 13:55:10.164333 30847 net.cpp:434] conv8_2_mbox_priorbox <- data_data_0_split_5
I0726 13:55:10.164338 30847 net.cpp:408] conv8_2_mbox_priorbox -> conv8_2_mbox_priorbox
I0726 13:55:10.164361 30847 net.cpp:150] Setting up conv8_2_mbox_priorbox
I0726 13:55:10.164373 30847 net.cpp:157] Top shape: 1 2 144 (288)
I0726 13:55:10.164378 30847 net.cpp:165] Memory required for data: 1982183968
I0726 13:55:10.164381 30847 layer_factory.hpp:77] Creating layer conv9_2_mbox_loc
I0726 13:55:10.164388 30847 net.cpp:100] Creating Layer conv9_2_mbox_loc
I0726 13:55:10.164393 30847 net.cpp:434] conv9_2_mbox_loc <- conv9_2_conv9_2_relu_0_split_0
I0726 13:55:10.164400 30847 net.cpp:408] conv9_2_mbox_loc -> conv9_2_mbox_loc
I0726 13:55:10.164803 30847 net.cpp:150] Setting up conv9_2_mbox_loc
I0726 13:55:10.164809 30847 net.cpp:157] Top shape: 8 16 1 1 (128)
I0726 13:55:10.164813 30847 net.cpp:165] Memory required for data: 1982184480
I0726 13:55:10.164819 30847 layer_factory.hpp:77] Creating layer conv9_2_mbox_loc_perm
I0726 13:55:10.164824 30847 net.cpp:100] Creating Layer conv9_2_mbox_loc_perm
I0726 13:55:10.164829 30847 net.cpp:434] conv9_2_mbox_loc_perm <- conv9_2_mbox_loc
I0726 13:55:10.164834 30847 net.cpp:408] conv9_2_mbox_loc_perm -> conv9_2_mbox_loc_perm
I0726 13:55:10.164901 30847 net.cpp:150] Setting up conv9_2_mbox_loc_perm
I0726 13:55:10.164906 30847 net.cpp:157] Top shape: 8 1 1 16 (128)
I0726 13:55:10.164908 30847 net.cpp:165] Memory required for data: 1982184992
I0726 13:55:10.164911 30847 layer_factory.hpp:77] Creating layer conv9_2_mbox_loc_flat
I0726 13:55:10.164917 30847 net.cpp:100] Creating Layer conv9_2_mbox_loc_flat
I0726 13:55:10.164921 30847 net.cpp:434] conv9_2_mbox_loc_flat <- conv9_2_mbox_loc_perm
I0726 13:55:10.164927 30847 net.cpp:408] conv9_2_mbox_loc_flat -> conv9_2_mbox_loc_flat
I0726 13:55:10.164947 30847 net.cpp:150] Setting up conv9_2_mbox_loc_flat
I0726 13:55:10.164952 30847 net.cpp:157] Top shape: 8 16 (128)
I0726 13:55:10.164955 30847 net.cpp:165] Memory required for data: 1982185504
I0726 13:55:10.164959 30847 layer_factory.hpp:77] Creating layer conv9_2_mbox_conf
I0726 13:55:10.164968 30847 net.cpp:100] Creating Layer conv9_2_mbox_conf
I0726 13:55:10.164971 30847 net.cpp:434] conv9_2_mbox_conf <- conv9_2_conv9_2_relu_0_split_1
I0726 13:55:10.164978 30847 net.cpp:408] conv9_2_mbox_conf -> conv9_2_mbox_conf
I0726 13:55:10.165254 30847 net.cpp:150] Setting up conv9_2_mbox_conf
I0726 13:55:10.165261 30847 net.cpp:157] Top shape: 8 8 1 1 (64)
I0726 13:55:10.165264 30847 net.cpp:165] Memory required for data: 1982185760
I0726 13:55:10.165271 30847 layer_factory.hpp:77] Creating layer conv9_2_mbox_conf_perm
I0726 13:55:10.165276 30847 net.cpp:100] Creating Layer conv9_2_mbox_conf_perm
I0726 13:55:10.165279 30847 net.cpp:434] conv9_2_mbox_conf_perm <- conv9_2_mbox_conf
I0726 13:55:10.165285 30847 net.cpp:408] conv9_2_mbox_conf_perm -> conv9_2_mbox_conf_perm
I0726 13:55:10.165352 30847 net.cpp:150] Setting up conv9_2_mbox_conf_perm
I0726 13:55:10.165357 30847 net.cpp:157] Top shape: 8 1 1 8 (64)
I0726 13:55:10.165360 30847 net.cpp:165] Memory required for data: 1982186016
I0726 13:55:10.165364 30847 layer_factory.hpp:77] Creating layer conv9_2_mbox_conf_flat
I0726 13:55:10.165369 30847 net.cpp:100] Creating Layer conv9_2_mbox_conf_flat
I0726 13:55:10.165374 30847 net.cpp:434] conv9_2_mbox_conf_flat <- conv9_2_mbox_conf_perm
I0726 13:55:10.165379 30847 net.cpp:408] conv9_2_mbox_conf_flat -> conv9_2_mbox_conf_flat
I0726 13:55:10.165398 30847 net.cpp:150] Setting up conv9_2_mbox_conf_flat
I0726 13:55:10.165405 30847 net.cpp:157] Top shape: 8 8 (64)
I0726 13:55:10.165407 30847 net.cpp:165] Memory required for data: 1982186272
I0726 13:55:10.165410 30847 layer_factory.hpp:77] Creating layer conv9_2_mbox_priorbox
I0726 13:55:10.165416 30847 net.cpp:100] Creating Layer conv9_2_mbox_priorbox
I0726 13:55:10.165421 30847 net.cpp:434] conv9_2_mbox_priorbox <- conv9_2_conv9_2_relu_0_split_2
I0726 13:55:10.165426 30847 net.cpp:434] conv9_2_mbox_priorbox <- data_data_0_split_6
I0726 13:55:10.165431 30847 net.cpp:408] conv9_2_mbox_priorbox -> conv9_2_mbox_priorbox
I0726 13:55:10.165452 30847 net.cpp:150] Setting up conv9_2_mbox_priorbox
I0726 13:55:10.165458 30847 net.cpp:157] Top shape: 1 2 16 (32)
I0726 13:55:10.165462 30847 net.cpp:165] Memory required for data: 1982186400
I0726 13:55:10.165474 30847 layer_factory.hpp:77] Creating layer mbox_loc
I0726 13:55:10.165498 30847 net.cpp:100] Creating Layer mbox_loc
I0726 13:55:10.165503 30847 net.cpp:434] mbox_loc <- conv4_3_norm_mbox_loc_flat
I0726 13:55:10.165508 30847 net.cpp:434] mbox_loc <- fc7_mbox_loc_flat
I0726 13:55:10.165513 30847 net.cpp:434] mbox_loc <- conv6_2_mbox_loc_flat
I0726 13:55:10.165518 30847 net.cpp:434] mbox_loc <- conv7_2_mbox_loc_flat
I0726 13:55:10.165522 30847 net.cpp:434] mbox_loc <- conv8_2_mbox_loc_flat
I0726 13:55:10.165527 30847 net.cpp:434] mbox_loc <- conv9_2_mbox_loc_flat
I0726 13:55:10.165532 30847 net.cpp:408] mbox_loc -> mbox_loc
I0726 13:55:10.165555 30847 net.cpp:150] Setting up mbox_loc
I0726 13:55:10.165561 30847 net.cpp:157] Top shape: 8 34928 (279424)
I0726 13:55:10.165565 30847 net.cpp:165] Memory required for data: 1983304096
I0726 13:55:10.165570 30847 layer_factory.hpp:77] Creating layer mbox_conf
I0726 13:55:10.165577 30847 net.cpp:100] Creating Layer mbox_conf
I0726 13:55:10.165585 30847 net.cpp:434] mbox_conf <- conv4_3_norm_mbox_conf_flat
I0726 13:55:10.165590 30847 net.cpp:434] mbox_conf <- fc7_mbox_conf_flat
I0726 13:55:10.165594 30847 net.cpp:434] mbox_conf <- conv6_2_mbox_conf_flat
I0726 13:55:10.165599 30847 net.cpp:434] mbox_conf <- conv7_2_mbox_conf_flat
I0726 13:55:10.165604 30847 net.cpp:434] mbox_conf <- conv8_2_mbox_conf_flat
I0726 13:55:10.165608 30847 net.cpp:434] mbox_conf <- conv9_2_mbox_conf_flat
I0726 13:55:10.165613 30847 net.cpp:408] mbox_conf -> mbox_conf
I0726 13:55:10.165633 30847 net.cpp:150] Setting up mbox_conf
I0726 13:55:10.165639 30847 net.cpp:157] Top shape: 8 17464 (139712)
I0726 13:55:10.165642 30847 net.cpp:165] Memory required for data: 1983862944
I0726 13:55:10.165645 30847 layer_factory.hpp:77] Creating layer mbox_priorbox
I0726 13:55:10.165650 30847 net.cpp:100] Creating Layer mbox_priorbox
I0726 13:55:10.165655 30847 net.cpp:434] mbox_priorbox <- conv4_3_norm_mbox_priorbox
I0726 13:55:10.165660 30847 net.cpp:434] mbox_priorbox <- fc7_mbox_priorbox
I0726 13:55:10.165665 30847 net.cpp:434] mbox_priorbox <- conv6_2_mbox_priorbox
I0726 13:55:10.165669 30847 net.cpp:434] mbox_priorbox <- conv7_2_mbox_priorbox
I0726 13:55:10.165673 30847 net.cpp:434] mbox_priorbox <- conv8_2_mbox_priorbox
I0726 13:55:10.165678 30847 net.cpp:434] mbox_priorbox <- conv9_2_mbox_priorbox
I0726 13:55:10.165683 30847 net.cpp:408] mbox_priorbox -> mbox_priorbox
I0726 13:55:10.165704 30847 net.cpp:150] Setting up mbox_priorbox
I0726 13:55:10.165709 30847 net.cpp:157] Top shape: 1 2 34928 (69856)
I0726 13:55:10.165714 30847 net.cpp:165] Memory required for data: 1984142368
I0726 13:55:10.165716 30847 layer_factory.hpp:77] Creating layer mbox_loss
I0726 13:55:10.165727 30847 net.cpp:100] Creating Layer mbox_loss
I0726 13:55:10.165731 30847 net.cpp:434] mbox_loss <- mbox_loc
I0726 13:55:10.165737 30847 net.cpp:434] mbox_loss <- mbox_conf
I0726 13:55:10.165741 30847 net.cpp:434] mbox_loss <- mbox_priorbox
…
  phase: TEST
}
layer {
  name: "data"
  type: "AnnotatedData"
  top: "data"
  top: "label"
  include {
    phase: TEST
  }
  transform_param {
    mean_value: 104
    mean_value: 117
    mean_value: 123
    resize_param {
      prob: 1
      resize_mode: WARP
      height: 300
      width: 300
      interp_mode: LINEAR
    }
  }
  data_param {
    source: "SHOPPE_2017/lmdb/SHOPPE_2017_test_lmdb"
    batch_size: 8
    backend: LMDB
  }
  annotated_data_param {
    batch_sampler {
    }
    label_map_file: "data/WIDERFACE_2016/labelmap_voc.prototxt"
  }
}
layer {
  name: "conv1_1"
  type: "Convolution"
  bottom: "data"
  top: "conv1_1"
  param {
    lr_mult: 1
    decay_mult: 1
  }
  param {
    lr_mult: 2
    decay_mult: 0
  }
  convolution_param {
    num_output: 64
    pad: 1
    kernel_size: 3
    weight_filler {
      type: "xavier"
    }
    bias_filler {
      type: "constant"
      value: 0
    }
  }
}
layer {
  name: "relu1_1"
  type: "ReLU"
  bottom: "conv1_1"
  top: "conv1_1"
}
layer {
  name: "conv1_2"
  type: "Convolution"
  bottom: "conv1_1"
  top: "conv1_2"
  param {
    lr_mult: 1
    decay_mult: 1
  }
  param {
    lr_mult: 2
    decay_mult: 0
  }
  convolution_param {
    num_output: 64
    pad: 1
    kernel_size: 3
    weight_filler {
      type: "xavier"
    }
    bias_filler {
      type: "constant"
      value: 0
    }
  }
}
layer {
  name: "relu1_2"
  type: "ReLU"
  bottom: "conv1_2"
  top: "conv1_2"
}
layer {
  name: "pool1"
  type: "Pooling"
  bottom: "conv1_2"
  top: "pool1"
  pooling_param {
    pool: MAX
    kernel_size: 2
    stride: 2
  }
}
layer {
  name: "conv2_1"
  type: "Convolution"
  bottom: "pool1"
  top: "conv2_1"
  param {
    lr_mult: 1
    decay_mult: 1
  }
  param {
    lr_mult: 2
    decay_mult: 0
  }
  convolution_param {
    num_output: 128
    pad: 1
    kernel_size: 3
    weight_filler {
      type: "xavier"
    }
    bias_filler {
      type: "constant"
      value: 0
    }
  }
}
layer {
  name: "relu2_1"
  type: "ReLU"
  bottom: "conv2_1"
  top: "conv2_1"
}
layer {
  name: "conv2_2"
  type: "Convolution"
  bottom: "conv2_1"
  top: "conv2_2"
  param {
    lr_mult: 1
    decay_mult: 1
  }
  param {
    lr_mult: 2
    decay_mult: 0
  }
  convolution_param {
    num_output: 128
    pad: 1
    kernel_size: 3
    weight_filler {
      type: "xavier"
    }
    bias_filler {
      type: "constant"
      value: 0
    }
  }
}
layer {
  name: "relu2_2"
  type: "ReLU"
  bottom: "conv2_2"
  top: "conv2_2"
}
layer {
  name: "pool2"
  type: "Pooling"
  bottom: "conv2_2"
  top: "pool2"
  pooling_param {
    pool: MAX
    kernel_size: 2
    stride: 2
  }
}
layer {
  name: "conv3_1"
  type: "Convolution"
  bottom: "pool2"
  top: "conv3_1"
  param {
    lr_mult: 1
    decay_mult: 1
  }
  param {
    lr_mult: 2
    decay_mult: 0
  }
  convolution_param {
    num_output: 256
    pad: 1
    kernel_size: 3
    weight_filler {
      type: "xavier"
    }
    bias_filler {
      type: "constant"
      value: 0
    }
  }
}
layer {
  name: "relu3_1"
  type: "ReLU"
  bottom: "conv3_1"
  top: "conv3_1"
}
layer {
  name: "conv3_2"
  type: "Convolution"
  bottom: "conv3_1"
  top: "conv3_2"
  param {
    lr_mult: 1
    decay_mult: 1
  }
  param {
    lr_mult: 2
    decay_mult: 0
  }
  convolution_param {
    num_output: 256
    pad: 1
    kernel_size: 3
    weight_filler {
      type: "xavier"
    }
    bias_filler {
      type: "constant"
      value: 0
    }
  }
}
layer {
  name: "relu3_2"
  type: "ReLU"
  bottom: "conv3_2"
  top: "conv3_2"
}
layer {
  name: "conv3_3"
  type: "Convolution"
  bottom: "conv3_2"
  top: "conv3_3"
  param {
    lr_mult: 1
    decay_mult: 1
  }
  param {
    lr_mult: 2
    decay_mult: 0
  }
  convolution_param {
    num_output: 256
    pad: 1
    kernel_size: 3
    weight_filler {
      type: "xavier"
    }
    bias_filler {
      type: "constant"
      value: 0
    }
  }
}
layer {
  name: "relu3_3"
  type: "ReLU"
  bottom: "conv3_3"
  top: "conv3_3"
}
layer {
  name: "pool3"
  type: "Pooling"
  bottom: "conv3_3"
  top: "pool3"
  pooling_param {
    pool: MAX
    kernel_size: 2
    stride: 2
  }
}
layer {
  name: "conv4_1"
  type: "Convolution"
  bottom: "pool3"
  top: "conv4_1"
  param {
    lr_mult: 1
    decay_mult: 1
  }
  param {
    lr_mult: 2
    decay_mult: 0
  }
  convolution_param {
    num_output: 512
    pad: 1
    kernel_size: 3
    weight_filler {
      type: "xavier"
    }
    bias_filler {
      type: "constant"
      value: 0
    }
  }
}
layer {
  name: "relu4_1"
  type: "ReLU"
  bottom: "conv4_1"
  top: "conv4_1"
}
layer {
  name: "conv4_2"
  type: "Convolution"
  bottom: "conv4_1"
  top: "conv4_2"
  param {
    lr_mult: 1
    decay_mult: 1
  }
  param {
    lr_mult: 2
    decay_mult: 0
  }
  convolution_param {
    num_output: 512
    pad: 1
    kernel_size: 3
    weight_filler {
      type: "xavier"
    }
    bias_filler {
      type: "constant"
      value: 0
    }
  }
}
layer {
  name: "relu4_2"
  type: "ReLU"
  bottom: "conv4_2"
  top: "conv4_2"
}
layer {
  name: "conv4_3"
  type: "Convolution"
  bottom: "conv4_2"
  top: "conv4_3"
  param {
    lr_mult: 1
    decay_mult: 1
  }
  param {
    lr_mult: 2
    decay_mult: 0
  }
  convolution_param {
    num_output: 512
    pad: 1
    kernel_size: 3
    weight_filler {
      type: "xavier"
    }
    bias_filler {
      type: "constant"
      value: 0
    }
  }
}
layer {
  name: "relu4_3"
  type: "ReLU"
  bottom: "conv4_3"
  top: "conv4_3"
}
layer {
  name: "pool4"
  type: "Pooling"
  bottom: "conv4_3"
  top: "pool4"
  pooling_param {
    pool: MAX
    kernel_size: 2
    stride: 2
  }
}
layer {
  name: "conv5_1"
  type: "Convolution"
  bottom: "pool4"
  top: "conv5_1"
  param {
    lr_mult: 1
    decay_mult: 1
  }
  param {
    lr_mult: 2
    decay_mult: 0
  }
  convolution_param {
    num_output: 512
    pad: 1
    kernel_size: 3
    weight_filler {
      type: "xavier"
    }
    bias_filler {
      type: "constant"
      value: 0
    }
    dilation: 1
  }
}
layer {
  name: "relu5_1"
  type: "ReLU"
  bottom: "conv5_1"
  top: "conv5_1"
}
layer {
  name: "conv5_2"
  type: "Convolution"
  bottom: "conv5_1"
  top: "conv5_2"
  param {
    lr_mult: 1
    decay_mult: 1
  }
  param {
    lr_mult: 2
    decay_mult: 0
  }
  convolution_param {
    num_output: 512
    pad: 1
    kernel_size: 3
    weight_filler {
      type: "xavier"
    }
    bias_filler {
      type: "constant"
      value: 0
    }
    dilation: 1
  }
}
layer {
  name: "relu5_2"
  type: "ReLU"
  bottom: "conv5_2"
  top: "conv5_2"
}
layer {
  name: "conv5_3"
  type: "Convolution"
  bottom: "conv5_2"
  top: "conv5_3"
  param {
    lr_mult: 1
    decay_mult: 1
  }
  param {
    lr_mult: 2
    decay_mult: 0
  }
  convolution_param {
    num_output: 512
    pad: 1
    kernel_size: 3
    weight_filler {
      type: "xavier"
    }
    bias_filler {
      type: "constant"
      value: 0
    }
    dilation: 1
  }
}
layer {
  name: "relu5_3"
  type: "ReLU"
  bottom: "conv5_3"
  top: "conv5_3"
}
layer {
  name: "pool5"
  type: "Pooling"
  bottom: "conv5_3"
  top: "pool5"
  pooling_param {
    pool: MAX
    kernel_size: 3
    stride: 1
    pad: 1
  }
}
layer {
  name: "fc6"
  type: "Convolution"
  bottom: "pool5"
  top: "fc6"
  param {
    lr_mult: 1
    decay_mult: 1
  }
  param {
    lr_mult: 2
    decay_mult: 0
  }
  convolution_param {
    num_output: 1024
    pad: 6
    kernel_size: 3
    weight_filler {
      type: "xavier"
    }
    bias_filler {
      type: "constant"
      value: 0
    }
    dilation: 6
  }
}
layer {
  name: "relu6"
  type: "ReLU"
  bottom: "fc6"
  top: "fc6"
}
layer {
  name: "fc7"
  type: "Convolution"
  bottom: "fc6"
  top: "fc7"
  param {
    lr_mult: 1
    decay_mult: 1
  }
  param {
    lr_mult: 2
    decay_mult: 0
  }
  convolution_param {
    num_output: 1024
    kernel_size: 1
    weight_filler {
      type: "xavier"
    }
    bias_filler {
      type: "constant"
      value: 0
    }
  }
}
layer {
  name: "relu7"
  type: "ReLU"
  bottom: "fc7"
  top: "fc7"
}
layer {
  name: "conv6_1"
  type: "Convolution"
  bottom: "fc7"
  top: "conv6_1"
  param {
    lr_mult: 1
    decay_mult: 1
  }
  param {
    lr_mult: 2
    decay_mult: 0
  }
  convolution_param {
    num_output: 256
    pad: 0
    kernel_size: 1
    stride: 1
    weight_filler {
      type: "xavier"
    }
    bias_filler {
      type: "constant"
      value: 0
    }
  }
}
layer {
  name: "conv6_1_relu"
  type: "ReLU"
  bottom: "conv6_1"
  top: "conv6_1"
}
layer {
  name: "conv6_2"
  type: "Convolution"
  bottom: "conv6_1"
  top: "conv6_2"
  param {
    lr_mult: 1
    decay_mult: 1
  }
  param {
    lr_mult: 2
    decay_mult: 0
  }
  convolution_param {
    num_output: 512
    pad: 1
    kernel_size: 3
    stride: 2
    weight_filler {
      type: "xavier"
    }
    bias_filler {
      type: "constant"
      value: 0
    }
  }
}
layer {
  name: "conv6_2_relu"
  type: "ReLU"
  bottom: "conv6_2"
  top: "conv6_2"
}
layer {
  name: "conv7_1"
  type: "Convolution"
  bottom: "conv6_2"
  top: "conv7_1"
  param {
    lr_mult: 1
    decay_mult: 1
  }
  param {
    lr_mult: 2
    decay_mult: 0
  }
  convolution_param {
    num_output: 128
    pad: 0
    kernel_size: 1
    stride: 1
    weight_filler {
      type: "xavier"
    }
    bias_filler {
      type: "constant"
      value: 0
    }
  }
}
layer {
  name: "conv7_1_relu"
  type: "ReLU"
  bottom: "conv7_1"
  top: "conv7_1"
}
layer {
  name: "conv7_2"
  type: "Convolution"
  bottom: "conv7_1"
  top: "conv7_2"
  param {
    lr_mult: 1
    decay_mult: 1
  }
  param {
    lr_mult: 2
    decay_mult: 0
  }
  convolution_param {
    num_output: 256
    pad: 1
    kernel_size: 3
    stride: 2
    weight_filler {
      type: "xavier"
    }
    bias_filler {
      type: "constant"
      value: 0
    }
  }
}
layer {
  name: "conv7_2_relu"
  type: "ReLU"
  bottom: "conv7_2"
  top: "conv7_2"
}
layer {
  name: "conv8_1"
  type: "Convolution"
  bottom: "conv7_2"
  top: "conv8_1"
  param {
    lr_mult: 1
    decay_mult: 1
  }
  param {
    lr_mult: 2
    decay_mult: 0
  }
  convolution_param {
    num_output: 128
    pad: 0
    kernel_size: 1
    stride: 1
    weight_filler {
      type: "xavier"
    }
    bias_filler {
      type: "constant"
      value: 0
    }
  }
}
layer {
  name: "conv8_1_relu"
  type: "ReLU"
  bottom: "conv8_1"
  top: "conv8_1"
}
layer {
  name: "conv8_2"
  type: "Convolution"
  bottom: "conv8_1"
  top: "conv8_2"
  param {
    lr_mult: 1
    decay_mult: 1
  }
  param {
    lr_mult: 2
    decay_mult: 0
  }
  convolution_param {
    num_output: 256
    pad: 0
    kernel_size: 3
    stride: 1
    weight_filler {
      type: "xavier"
    }
    bias_filler {
      type: "constant"
      value: 0
    }
  }
}
layer {
  name: "conv8_2_relu"
  type: "ReLU"
  bottom: "conv8_2"
  top: "conv8_2"
}
layer {
  name: "conv9_1"
  type: "Convolution"
  bottom: "conv8_2"
  top: "conv9_1"
  param {
    lr_mult: 1
    decay_mult: 1
  }
  param {
    lr_mult: 2
    decay_mult: 0
  }
  convolution_param {
    num_output: 128
    pad: 0
    kernel_size: 1
    stride: 1
    weight_filler {
      type: "xavier"
    }
    bias_filler {
      type: "constant"
      value: 0
    }
  }
}
layer {
  name: "conv9_1_relu"
  type: "ReLU"
  bottom: "conv9_1"
  top: "conv9_1"
}
layer {
  name: "conv9_2"
  type: "Convolution"
  bottom: "conv9_1"
  top: "conv9_2"
  param {
    lr_mult: 1
    decay_mult: 1
  }
  param {
    lr_mult: 2
    decay_mult: 0
  }
  convolution_param {
    num_output: 256
    pad: 0
    kernel_size: 3
    stride: 1
    weight_filler {
      type: "xavier"
    }
    bias_filler {
      type: "constant"
      value: 0
    }
  }
}
layer {
  name: "conv9_2_relu"
  type: "ReLU"
  bottom: "conv9_2"
  top: "conv9_2"
}
layer {
  name: "conv4_3_norm"
  type: "Normalize"
  bottom: "conv4_3"
  top: "conv4_3_norm"
  norm_param {
    across_spatial: false
    scale_filler {
      type: "constant"
      value: 20
    }
    channel_shared: false
  }
}
layer {
  name: "conv4_3_norm_mbox_loc"
  type: "Convolution"
  bottom: "conv4_3_norm"
  top: "conv4_3_norm_mbox_loc"
  param {
    lr_mult: 1
    decay_mult: 1
  }
  param {
    lr_mult: 2
    decay_mult: 0
  }
  convolution_param {
    num_output: 16
    pad: 1
    kernel_size: 3
    stride: 1
    weight_filler {
      type: "xavier"
    }
    bias_filler {
      type: "constant"
      value: 0
    }
  }
}
layer {
  name: "conv4_3_norm_mbox_loc_perm"
  type: "Permute"
  bottom: "conv4_3_norm_mbox_loc"
  top: "conv4_3_norm_mbox_loc_perm"
  permute_param {
    order: 0
    order: 2
    order: 3
    order: 1
  }
}
layer {
  name: "conv4_3_norm_mbox_loc_flat"
  type: "Flatten"
  bottom: "conv4_3_norm_mbox_loc_perm"
  top: "conv4_3_norm_mbox_loc_flat"
  flatten_param {
    axis: 1
  }
}
layer {
  name: "conv4_3_norm_mbox_conf"
  type: "Convolution"
  bottom: "conv4_3_norm"
  top: "conv4_3_norm_mbox_conf"
  param {
    lr_mult: 1
    decay_mult: 1
  }
  param {
    lr_mult: 2
    decay_mult: 0
  }
  convolution_param {
    num_output: 8
    pad: 1
    kernel_size: 3
    stride: 1
    weight_filler {
      type: "xavier"
    }
    bias_filler {
      type: "constant"
      value: 0
    }
  }
}
layer {
  name: "conv4_3_norm_mbox_conf_perm"
  type: "Permute"
  bottom: "conv4_3_norm_mbox_conf"
  top: "conv4_3_norm_mbox_conf_perm"
  permute_param {
    order: 0
    order: 2
    order: 3
    order: 1
  }
}
layer {
  name: "conv4_3_norm_mbox_conf_flat"
  type: "Flatten"
  bottom: "conv4_3_norm_mbox_conf_perm"
  top: "conv4_3_norm_mbox_conf_flat"
  flatten_param {
    axis: 1
  }
}
layer {
  name: "conv4_3_norm_mbox_priorbox"
  type: "PriorBox"
  bottom: "conv4_3_norm"
  bottom: "data"
  top: "conv4_3_norm_mbox_priorbox"
  prior_box_param {
    min_size: 30
    max_size: 60
    aspect_ratio: 2
    flip: true
    clip: false
    variance: 0.1
    variance: 0.1
    variance: 0.2
    variance: 0.2
    step: 8
    offset: 0.5
  }
}
layer {
  name: "fc7_mbox_loc"
  type: "Convolution"
  bottom: "fc7"
  top: "fc7_mbox_loc"
  param {
    lr_mult: 1
    decay_mult: 1
  }
  param {
    lr_mult: 2
    decay_mult: 0
  }
  convolution_param {
    num_output: 24
    pad: 1
    kernel_size: 3
    stride: 1
    weight_filler {
      type: "xavier"
    }
    bias_filler {
      type: "constant"
      value: 0
    }
  }
}
layer {
  name: "fc7_mbox_loc_perm"
  type: "Permute"
  bottom: "fc7_mbox_loc"
  top: "fc7_mbox_loc_perm"
  permute_param {
    order: 0
    order: 2
    order: 3
    order: 1
  }
}
layer {
  name: "fc7_mbox_loc_flat"
  type: "Flatten"
  bottom: "fc7_mbox_loc_perm"
  top: "fc7_mbox_loc_flat"
  flatten_param {
    axis: 1
  }
}
layer {
  name: "fc7_mbox_conf"
  type: "Convolution"
  bottom: "fc7"
  top: "fc7_mbox_conf"
  param {
    lr_mult: 1
    decay_mult: 1
  }
  param {
    lr_mult: 2
    decay_mult: 0
  }
  convolution_param {
    num_output: 12
    pad: 1
    kernel_size: 3
    stride: 1
    weight_filler {
      type: "xavier"
    }
    bias_filler {
      type: "constant"
      value: 0
    }
  }
}
layer {
  name: "fc7_mbox_conf_perm"
  type: "Permute"
  bottom: "fc7_mbox_conf"
  top: "fc7_mbox_conf_perm"
  permute_param {
    order: 0
    order: 2
    order: 3
    order: 1
  }
}
layer {
  name: "fc7_mbox_conf_flat"
  type: "Flatten"
  bottom: "fc7_mbox_conf_perm"
  top: "fc7_mbox_conf_flat"
  flatten_param {
    axis: 1
  }
}
layer {
  name: "fc7_mbox_priorbox"
  type: "PriorBox"
  bottom: "fc7"
  bottom: "data"
  top: "fc7_mbox_priorbox"
  prior_box_param {
    min_size: 60
    max_size: 111
    aspect_ratio: 2
    aspect_ratio: 3
    flip: true
    clip: false
    variance: 0.1
    variance: 0.1
    variance: 0.2
    variance: 0.2
    step: 16
    offset: 0.5
  }
}
layer {
  name: "conv6_2_mbox_loc"
  type: "Convolution"
  bottom: "conv6_2"
  top: "conv6_2_mbox_loc"
  param {
    lr_mult: 1
    decay_mult: 1
  }
  param {
    lr_mult: 2
    decay_mult: 0
  }
  convolution_param {
    num_output: 24
    pad: 1
    kernel_size: 3
    stride: 1
    weight_filler {
      type: "xavier"
    }
    bias_filler {
      type: "constant"
      value: 0
    }
  }
}
layer {
  name: "conv6_2_mbox_loc_perm"
  type: "Permute"
  bottom: "conv6_2_mbox_loc"
  top: "conv6_2_mbox_loc_perm"
  permute_param {
    order: 0
    order: 2
    order: 3
    order: 1
  }
}
layer {
  name: "conv6_2_mbox_loc_flat"
  type: "Flatten"
  bottom: "conv6_2_mbox_loc_perm"
  top: "conv6_2_mbox_loc_flat"
  flatten_param {
    axis: 1
  }
}
layer {
  name: "conv6_2_mbox_conf"
  type: "Convolution"
  bottom: "conv6_2"
  top: "conv6_2_mbox_conf"
  param {
    lr_mult: 1
    decay_mult: 1
  }
  param {
    lr_mult: 2
    decay_mult: 0
  }
  convolution_param {
    num_output: 12
    pad: 1
    kernel_size: 3
    stride: 1
    weight_filler {
      type: "xavier"
    }
    bias_filler {
      type: "constant"
      value: 0
    }
  }
}
layer {
  name: "conv6_2_mbox_conf_perm"
  type: "Permute"
  bottom: "conv6_2_mbox_conf"
  top: "conv6_2_mbox_conf_perm"
  permute_param {
    order: 0
    order: 2
    order: 3
    order: 1
  }
}
layer {
  name: "conv6_2_mbox_conf_flat"
  type: "Flatten"
  bottom: "conv6_2_mbox_conf_perm"
  top: "conv6_2_mbox_conf_flat"
  flatten_param {
    axis: 1
  }
}
layer {
  name: "conv6_2_mbox_priorbox"
  type: "PriorBox"
  bottom: "conv6_2"
  bottom: "data"
  top: "conv6_2_mbox_priorbox"
  prior_box_param {
    min_size: 111
    max_size: 162
    aspect_ratio: 2
    aspect_ratio: 3
    flip: true
    clip: false
    variance: 0.1
    variance: 0.1
    variance: 0.2
    variance: 0.2
    step: 32
    offset: 0.5
  }
}
layer {
  name: "conv7_2_mbox_loc"
  type: "Convolution"
  bottom: "conv7_2"
  top: "conv7_2_mbox_loc"
  param {
    lr_mult: 1
    decay_mult: 1
  }
  param {
    lr_mult: 2
    decay_mult: 0
  }
  convolution_param {
    num_output: 24
    pad: 1
    kernel_size: 3
    stride: 1
    weight_filler {
      type: "xavier"
    }
    bias_filler {
      type: "constant"
      value: 0
    }
  }
}
layer {
  name: "conv7_2_mbox_loc_perm"
  type: "Permute"
  bottom: "conv7_2_mbox_loc"
  top: "conv7_2_mbox_loc_perm"
  permute_param {
    order: 0
    order: 2
    order: 3
    order: 1
  }
}
layer {
  name: "conv7_2_mbox_loc_flat"
  type: "Flatten"
  bottom: "conv7_2_mbox_loc_perm"
  top: "conv7_2_mbox_loc_flat"
  flatten_param {
    axis: 1
  }
}
layer {
  name: "conv7_2_mbox_conf"
  type: "Convolution"
  bottom: "conv7_2"
  top: "conv7_2_mbox_conf"
  param {
    lr_mult: 1
    decay_mult: 1
  }
  param {
    lr_mult: 2
    decay_mult: 0
  }
  convolution_param {
    num_output: 12
    pad: 1
    kernel_size: 3
    stride: 1
    weight_filler {
      type: "xavier"
    }
    bias_filler {
      type: "constant"
      value: 0
    }
  }
}
layer {
  name: "conv7_2_mbox_conf_perm"
  type: "Permute"
  bottom: "conv7_2_mbox_conf"
  top: "conv7_2_mbox_conf_perm"
  permute_param {
    order: 0
    order: 2
    order: 3
    order: 1
  }
}
layer {
  name: "conv7_2_mbox_conf_flat"
  type: "Flatten"
  bottom: "conv7_2_mbox_conf_perm"
  top: "conv7_2_mbox_conf_flat"
  flatten_param {
    axis: 1
  }
}
layer {
  name: "conv7_2_mbox_priorbox"
  type: "PriorBox"
  bottom: "conv7_2"
  bottom: "data"
  top: "conv7_2_mbox_priorbox"
  prior_box_param {
    min_size: 162
    max_size: 213
    aspect_ratio: 2
    aspect_ratio: 3
    flip: true
    clip: false
    variance: 0.1
    variance: 0.1
    variance: 0.2
    variance: 0.2
    step: 64
    offset: 0.5
  }
}
layer {
  name: "conv8_2_mbox_loc"
  type: "Convolution"
  bottom: "conv8_2"
  top: "conv8_2_mbox_loc"
  param {
    lr_mult: 1
    decay_mult: 1
  }
  param {
    lr_mult: 2
    decay_mult: 0
  }
  convolution_param {
    num_output: 16
    pad: 1
    kernel_size: 3
    stride: 1
    weight_filler {
      type: "xavier"
    }
    bias_filler {
      type: "constant"
      value: 0
    }
  }
}
layer {
  name: "conv8_2_mbox_loc_perm"
  type: "Permute"
  bottom: "conv8_2_mbox_loc"
  top: "conv8_2_mbox_loc_perm"
  permute_param {
    order: 0
    order: 2
    order: 3
    order: 1
  }
}
layer {
  name: "conv8_2_mbox_loc_flat"
  type: "Flatten"
  bottom: "conv8_2_mbox_loc_perm"
  top: "conv8_2_mbox_loc_flat"
  flatten_param {
    axis: 1
  }
}
layer {
  name: "conv8_2_mbox_conf"
  type: "Convolution"
  bottom: "conv8_2"
  top: "conv8_2_mbox_conf"
  param {
    lr_mult: 1
    decay_mult: 1
  }
  param {
    lr_mult: 2
    decay_mult: 0
  }
  convolution_param {
    num_output: 8
    pad: 1
    kernel_size: 3
    stride: 1
    weight_filler {
      type: "xavier"
    }
    bias_filler {
      type: "constant"
      value: 0
    }
  }
}
layer {
  name: "conv8_2_mbox_conf_perm"
  type: "Permute"
  bottom: "conv8_2_mbox_conf"
  top: "conv8_2_mbox_conf_perm"
  permute_param {
    order: 0
    order: 2
    order: 3
    order: 1
  }
}
layer {
  name: "conv8_2_mbox_conf_flat"
  type: "Flatten"
  bottom: "conv8_2_mbox_conf_perm"
  top: "conv8_2_mbox_conf_flat"
  flatten_param {
    axis: 1
  }
}
layer {
  name: "conv8_2_mbox_priorbox"
  type: "PriorBox"
  bottom: "conv8_2"
  bottom: "data"
  top: "conv8_2_mbox_priorbox"
  prior_box_param {
    min_size: 213
    max_size: 264
    aspect_ratio: 2
    flip: true
    clip: false
    variance: 0.1
    variance: 0.1
    variance: 0.2
    variance: 0.2
    step: 100
    offset: 0.5
  }
}
layer {
  name: "conv9_2_mbox_loc"
  type: "Convolution"
  bottom: "conv9_2"
  top: "conv9_2_mbox_loc"
  param {
    lr_mult: 1
    decay_mult: 1
  }
  param {
    lr_mult: 2
    decay_mult: 0
  }
  convolution_param {
    num_output: 16
    pad: 1
    kernel_size: 3
    stride: 1
    weight_filler {
      type: "xavier"
    }
    bias_filler {
      type: "constant"
      value: 0
    }
  }
}
layer {
  name: "conv9_2_mbox_loc_perm"
  type: "Permute"
  bottom: "conv9_2_mbox_loc"
  top: "conv9_2_mbox_loc_perm"
  permute_param {
    order: 0
    order: 2
    order: 3
    order: 1
  }
}
layer {
  name: "conv9_2_mbox_loc_flat"
  type: "Flatten"
  bottom: "conv9_2_mbox_loc_perm"
  top: "conv9_2_mbox_loc_flat"
  flatten_param {
    axis: 1
  }
}
layer {
  name: "conv9_2_mbox_conf"
  type: "Convolution"
  bottom: "conv9_2"
  top: "conv9_2_mbox_conf"
  param {
    lr_mult: 1
    decay_mult: 1
  }
  param {
    lr_mult: 2
    decay_mult: 0
  }
  convolution_param {
    num_output: 8
    pad: 1
    kernel_size: 3
    stride: 1
    weight_filler {
      type: "xavier"
    }
    bias_filler {
      type: "constant"
      value: 0
    }
  }
}
layer {
  name: "conv9_2_mbox_conf_perm"
  type: "Permute"
  bottom: "conv9_2_mbox_conf"
  top: "conv9_2_mbox_conf_perm"
  permute_param {
    order: 0
    order: 2
    order: 3
    order: 1
  }
}
layer {
  name: "conv9_2_mbox_conf_flat"
  type: "Flatten"
  bottom: "conv9_2_mbox_conf_perm"
  top: "conv9_2_mbox_conf_flat"
  flatten_param {
    axis: 1
  }
}
layer {
  name: "conv9_2_mbox_priorbox"
  type: "PriorBox"
  bottom: "conv9_2"
  bottom: "data"
  top: "conv9_2_mbox_priorbox"
  prior_box_param {
    min_size: 264
    max_size: 315
    aspect_ratio: 2
    flip: true
    clip: false
    variance: 0.1
    variance: 0.1
    variance: 0.2
    variance: 0.2
    step: 300
    offset: 0.5
  }
}
layer {
  name: "mbox_loc"
  type: "Concat"
  bottom: "conv4_3_norm_mbox_loc_flat"
  bottom: "fc7_mbox_loc_flat"
  bottom: "conv6_2_mbox_loc_flat"
  bottom: "conv7_2_mbox_loc_flat"
  bottom: "conv8_2_mbox_loc_flat"
  bottom: "conv9_2_mbox_loc_flat"
  top: "mbox_loc"
  concat_param {
    axis: 1
  }
}
layer {
  name: "mbox_conf"
  type: "Concat"
  bottom: "conv4_3_norm_mbox_conf_flat"
  bottom: "fc7_mbox_conf_flat"
  bottom: "conv6_2_mbox_conf_flat"
  bottom: "conv7_2_mbox_conf_flat"
  bottom: "conv8_2_mbox_conf_flat"
  bottom: "conv9_2_mbox_conf_flat"
  top: "mbox_conf"
  concat_param {
    axis: 1
  }
}
layer {
  name: "mbox_priorbox"
  type: "Concat"
  bottom: "conv4_3_norm_mbox_priorbox"
  bottom: "fc7_mbox_priorbox"
  bottom: "conv6_2_mbox_priorbox"
  bottom: "conv7_2_mbox_priorbox"
  bottom: "conv8_2_mbox_priorbox"
  bottom: "conv9_2_mbox_priorbox"
  top: "mbox_priorbox"
  concat_param {
    axis: 2
  }
}
layer {
  name: "mbox_conf_reshape"
  type: "Reshape"
  bottom: "mbox_conf"
  top: "mbox_conf_reshape"
  reshape_param {
    shape {
      dim: 0
      dim: -1
      dim: 2
    }
  }
}
layer {
  name: "mbox_conf_softmax"
  type: "Softmax"
  bottom: "mbox_conf_reshape"
  top: "mbox_conf_softmax"
  softmax_param {
    axis: 2
  }
}
layer {
  name: "mbox_conf_flatten"
  type: "Flatten"
  bottom: "mbox_conf_softmax"
  top: "mbox_conf_flatten"
  flatten_param {
    axis: 1
  }
}
layer {
  name: "detection_out"
  type: "DetectionOutput"
  bottom: "mbox_loc"
  bottom: "mbox_conf_flatten"
  bottom: "mbox_priorbox"
  top: "detection_out"
  include {
    phase: TEST
  }
  detection_output_param {
    num_classes: 2
    share_location: true
    background_label_id: 0
    nms_param {
      nms_threshold: 0.45
      top_k: 400
    }
    save_output_param {
      output_directory: "/home/legion/data/WIDERFACE_2016/results/SSD_300x300/Main"
      output_name_prefix: "comp4_det_test_"
      output_format: "VOC"
      label_map_file: "data/WIDERFACE_2016/labelmap_voc.prototxt"
      name_size_file: "data/WIDERFACE_2016/test_name_size.txt"
      num_test_image: 3226
    }
    code_type: CENTER_SIZE
    keep_top_k: 200
    confidence_threshold: 0.01
  }
}
layer {
  name: "detection_eval"
  type: "DetectionEvaluate"
  bottom: "detection_out"
  bottom: "label"
  top: "detection_eval"
  include {
    phase: TEST
  }
  detection_evaluate_param {
    num_classes: 2
    background_label_id: 0
    overlap_threshold: 0.5
    evaluate_difficult_gt: false
    name_size_file: "data/WIDERFACE_2016/test_name_size.txt"
  }
}
I0726 13:55:10.169492 30847 layer_factory.hpp:77] Creating layer data
I0726 13:55:10.192754 30847 net.cpp:100] Creating Layer data
I0726 13:55:10.192838 30847 net.cpp:408] data -> data
I0726 13:55:10.192883 30847 net.cpp:408] data -> label
I0726 13:55:10.193792 30862 db_lmdb.cpp:35] Opened lmdb SHOPPE_2017/lmdb/SHOPPE_2017_test_lmdb
I0726 13:55:10.197396 30847 annotated_data_layer.cpp:62] output data size: 8,3,300,300
I0726 13:55:10.224431 30847 net.cpp:150] Setting up data
I0726 13:55:10.224565 30847 net.cpp:157] Top shape: 8 3 300 300 (2160000)
I0726 13:55:10.224587 30847 net.cpp:157] Top shape: 1 1 13 8 (104)
I0726 13:55:10.224598 30847 net.cpp:165] Memory required for data: 8640416
I0726 13:55:10.224616 30847 layer_factory.hpp:77] Creating layer data_data_0_split
I0726 13:55:10.224643 30847 net.cpp:100] Creating Layer data_data_0_split
I0726 13:55:10.224673 30847 net.cpp:434] data_data_0_split <- data
I0726 13:55:10.224694 30847 net.cpp:408] data_data_0_split -> data_data_0_split_0
I0726 13:55:10.224721 30847 net.cpp:408] data_data_0_split -> data_data_0_split_1
I0726 13:55:10.224740 30847 net.cpp:408] data_data_0_split -> data_data_0_split_2
I0726 13:55:10.224756 30847 net.cpp:408] data_data_0_split -> data_data_0_split_3
I0726 13:55:10.224768 30847 net.cpp:408] data_data_0_split -> data_data_0_split_4
I0726 13:55:10.224782 30847 net.cpp:408] data_data_0_split -> data_data_0_split_5
I0726 13:55:10.224794 30847 net.cpp:408] data_data_0_split -> data_data_0_split_6
I0726 13:55:10.224920 30847 net.cpp:150] Setting up data_data_0_split
I0726 13:55:10.224936 30847 net.cpp:157] Top shape: 8 3 300 300 (2160000)
I0726 13:55:10.224948 30847 net.cpp:157] Top shape: 8 3 300 300 (2160000)
I0726 13:55:10.224961 30847 net.cpp:157] Top shape: 8 3 300 300 (2160000)
I0726 13:55:10.224972 30847 net.cpp:157] Top shape: 8 3 300 300 (2160000)
I0726 13:55:10.224984 30847 net.cpp:157] Top shape: 8 3 300 300 (2160000)
I0726 13:55:10.224995 30847 net.cpp:157] Top shape: 8 3 300 300 (2160000)
I0726 13:55:10.225008 30847 net.cpp:157] Top shape: 8 3 300 300 (2160000)
I0726 13:55:10.225018 30847 net.cpp:165] Memory required for data: 69120416
I0726 13:55:10.225036 30847 layer_factory.hpp:77] Creating layer conv1_1
I0726 13:55:10.225070 30847 net.cpp:100] Creating Layer conv1_1
I0726 13:55:10.225082 30847 net.cpp:434] conv1_1 <- data_data_0_split_0
I0726 13:55:10.225096 30847 net.cpp:408] conv1_1 -> conv1_1
I0726 13:55:10.225620 30847 net.cpp:150] Setting up conv1_1
I0726 13:55:10.225642 30847 net.cpp:157] Top shape: 8 64 300 300 (46080000)
I0726 13:55:10.225654 30847 net.cpp:165] Memory required for data: 253440416
I0726 13:55:10.225680 30847 layer_factory.hpp:77] Creating layer relu1_1
I0726 13:55:10.225699 30847 net.cpp:100] Creating Layer relu1_1
I0726 13:55:10.225720 30847 net.cpp:434] relu1_1 <- conv1_1
I0726 13:55:10.225744 30847 net.cpp:395] relu1_1 -> conv1_1 (in-place)
I0726 13:55:10.225765 30847 net.cpp:150] Setting up relu1_1
I0726 13:55:10.225780 30847 net.cpp:157] Top shape: 8 64 300 300 (46080000)
I0726 13:55:10.225793 30847 net.cpp:165] Memory required for data: 437760416
I0726 13:55:10.225807 30847 layer_factory.hpp:77] Creating layer conv1_2
I0726 13:55:10.225829 30847 net.cpp:100] Creating Layer conv1_2
I0726 13:55:10.225842 30847 net.cpp:434] conv1_2 <- conv1_1
I0726 13:55:10.225859 30847 net.cpp:408] conv1_2 -> conv1_2
I0726 13:55:10.227821 30847 net.cpp:150] Setting up conv1_2
I0726 13:55:10.227924 30847 net.cpp:157] Top shape: 8 64 300 300 (46080000)
I0726 13:55:10.227941 30847 net.cpp:165] Memory required for data: 622080416
I0726 13:55:10.227975 30847 layer_factory.hpp:77] Creating layer relu1_2
I0726 13:55:10.228003 30847 net.cpp:100] Creating Layer relu1_2
I0726 13:55:10.228019 30847 net.cpp:434] relu1_2 <- conv1_2
I0726 13:55:10.228039 30847 net.cpp:395] relu1_2 -> conv1_2 (in-place)
I0726 13:55:10.228091 30847 net.cpp:150] Setting up relu1_2
I0726 13:55:10.228106 30847 net.cpp:157] Top shape: 8 64 300 300 (46080000)
I0726 13:55:10.228117 30847 net.cpp:165] Memory required for data: 806400416
I0726 13:55:10.228129 30847 layer_factory.hpp:77] Creating layer pool1
I0726 13:55:10.228145 30847 net.cpp:100] Creating Layer pool1
I0726 13:55:10.228158 30847 net.cpp:434] pool1 <- conv1_2
I0726 13:55:10.228184 30847 net.cpp:408] pool1 -> pool1
I0726 13:55:10.228252 30847 net.cpp:150] Setting up pool1
I0726 13:55:10.228269 30847 net.cpp:157] Top shape: 8 64 150 150 (11520000)
I0726 13:55:10.228282 30847 net.cpp:165] Memory required for data: 852480416
I0726 13:55:10.228294 30847 layer_factory.hpp:77] Creating layer conv2_1
I0726 13:55:10.228313 30847 net.cpp:100] Creating Layer conv2_1
I0726 13:55:10.228325 30847 net.cpp:434] conv2_1 <- pool1
I0726 13:55:10.228341 30847 net.cpp:408] conv2_1 -> conv2_1
I0726 13:55:10.229413 30847 net.cpp:150] Setting up conv2_1
I0726 13:55:10.229455 30847 net.cpp:157] Top shape: 8 128 150 150 (23040000)
I0726 13:55:10.229468 30847 net.cpp:165] Memory required for data: 944640416
I0726 13:55:10.229490 30847 layer_factory.hpp:77] Creating layer relu2_1
I0726 13:55:10.229506 30847 net.cpp:100] Creating Layer relu2_1
I0726 13:55:10.229519 30847 net.cpp:434] relu2_1 <- conv2_1
I0726 13:55:10.229537 30847 net.cpp:395] relu2_1 -> conv2_1 (in-place)
I0726 13:55:10.229557 30847 net.cpp:150] Setting up relu2_1
I0726 13:55:10.229570 30847 net.cpp:157] Top shape: 8 128 150 150 (23040000)
I0726 13:55:10.229583 30847 net.cpp:165] Memory required for data: 1036800416
I0726 13:55:10.229594 30847 layer_factory.hpp:77] Creating layer conv2_2
I0726 13:55:10.229611 30847 net.cpp:100] Creating Layer conv2_2
I0726 13:55:10.229625 30847 net.cpp:434] conv2_2 <- conv2_1
I0726 13:55:10.229640 30847 net.cpp:408] conv2_2 -> conv2_2
I0726 13:55:10.232043 30847 net.cpp:150] Setting up conv2_2
I0726 13:55:10.232172 30847 net.cpp:157] Top shape: 8 128 150 150 (23040000)
I0726 13:55:10.232229 30847 net.cpp:165] Memory required for data: 1128960416
I0726 13:55:10.232286 30847 layer_factory.hpp:77] Creating layer relu2_2
I0726 13:55:10.232345 30847 net.cpp:100] Creating Layer relu2_2
I0726 13:55:10.232398 30847 net.cpp:434] relu2_2 <- conv2_2
I0726 13:55:10.232456 30847 net.cpp:395] relu2_2 -> conv2_2 (in-place)
I0726 13:55:10.232527 30847 net.cpp:150] Setting up relu2_2
I0726 13:55:10.232601 30847 net.cpp:157] Top shape: 8 128 150 150 (23040000)
I0726 13:55:10.232656 30847 net.cpp:165] Memory required for data: 1221120416
I0726 13:55:10.232712 30847 layer_factory.hpp:77] Creating layer pool2
I0726 13:55:10.232774 30847 net.cpp:100] Creating Layer pool2
I0726 13:55:10.232826 30847 net.cpp:434] pool2 <- conv2_2
I0726 13:55:10.232883 30847 net.cpp:408] pool2 -> pool2
I0726 13:55:10.232988 30847 net.cpp:150] Setting up pool2
I0726 13:55:10.233047 30847 net.cpp:157] Top shape: 8 128 75 75 (5760000)
I0726 13:55:10.233114 30847 net.cpp:165] Memory required for data: 1244160416
I0726 13:55:10.233168 30847 layer_factory.hpp:77] Creating layer conv3_1
I0726 13:55:10.233229 30847 net.cpp:100] Creating Layer conv3_1
I0726 13:55:10.233281 30847 net.cpp:434] conv3_1 <- pool2
I0726 13:55:10.233336 30847 net.cpp:408] conv3_1 -> conv3_1
I0726 13:55:10.239565 30847 net.cpp:150] Setting up conv3_1
I0726 13:55:10.239650 30847 net.cpp:157] Top shape: 8 256 75 75 (11520000)
I0726 13:55:10.239666 30847 net.cpp:165] Memory required for data: 1290240416
I0726 13:55:10.239691 30847 layer_factory.hpp:77] Creating layer relu3_1
I0726 13:55:10.239709 30847 net.cpp:100] Creating Layer relu3_1
I0726 13:55:10.239739 30847 net.cpp:434] relu3_1 <- conv3_1
I0726 13:55:10.239832 30847 net.cpp:395] relu3_1 -> conv3_1 (in-place)
I0726 13:55:10.240003 30847 net.cpp:150] Setting up relu3_1
I0726 13:55:10.240087 30847 net.cpp:157] Top shape: 8 256 75 75 (11520000)
I0726 13:55:10.240144 30847 net.cpp:165] Memory required for data: 1336320416
I0726 13:55:10.240202 30847 layer_factory.hpp:77] Creating layer conv3_2
I0726 13:55:10.240296 30847 net.cpp:100] Creating Layer conv3_2
I0726 13:55:10.240372 30847 net.cpp:434] conv3_2 <- conv3_1
I0726 13:55:10.240530 30847 net.cpp:408] conv3_2 -> conv3_2
I0726 13:55:10.251041 30847 net.cpp:150] Setting up conv3_2
I0726 13:55:10.251230 30847 net.cpp:157] Top shape: 8 256 75 75 (11520000)
I0726 13:55:10.251252 30847 net.cpp:165] Memory required for data: 1382400416
I0726 13:55:10.251282 30847 layer_factory.hpp:77] Creating layer relu3_2
I0726 13:55:10.251309 30847 net.cpp:100] Creating Layer relu3_2
I0726 13:55:10.251325 30847 net.cpp:434] relu3_2 <- conv3_2
I0726 13:55:10.251356 30847 net.cpp:395] relu3_2 -> conv3_2 (in-place)
I0726 13:55:10.251384 30847 net.cpp:150] Setting up relu3_2
I0726 13:55:10.251399 30847 net.cpp:157] Top shape: 8 256 75 75 (11520000)
I0726 13:55:10.251427 30847 net.cpp:165] Memory required for data: 1428480416
I0726 13:55:10.251442 30847 layer_factory.hpp:77] Creating layer conv3_3
I0726 13:55:10.251477 30847 net.cpp:100] Creating Layer conv3_3
I0726 13:55:10.251492 30847 net.cpp:434] conv3_3 <- conv3_2
I0726 13:55:10.251509 30847 net.cpp:408] conv3_3 -> conv3_3
I0726 13:55:10.259647 30847 net.cpp:150] Setting up conv3_3
I0726 13:55:10.259712 30847 net.cpp:157] Top shape: 8 256 75 75 (11520000)
I0726 13:55:10.259727 30847 net.cpp:165] Memory required for data: 1474560416
I0726 13:55:10.259744 30847 layer_factory.hpp:77] Creating layer relu3_3
I0726 13:55:10.259764 30847 net.cpp:100] Creating Layer relu3_3
I0726 13:55:10.259778 30847 net.cpp:434] relu3_3 <- conv3_3
I0726 13:55:10.259794 30847 net.cpp:395] relu3_3 -> conv3_3 (in-place)
I0726 13:55:10.259814 30847 net.cpp:150] Setting up relu3_3
I0726 13:55:10.259831 30847 net.cpp:157] Top shape: 8 256 75 75 (11520000)
I0726 13:55:10.259845 30847 net.cpp:165] Memory required for data: 1520640416
I0726 13:55:10.259856 30847 layer_factory.hpp:77] Creating layer pool3
I0726 13:55:10.259871 30847 net.cpp:100] Creating Layer pool3
I0726 13:55:10.259883 30847 net.cpp:434] pool3 <- conv3_3
I0726 13:55:10.259899 30847 net.cpp:408] pool3 -> pool3
I0726 13:55:10.259968 30847 net.cpp:150] Setting up pool3
I0726 13:55:10.259984 30847 net.cpp:157] Top shape: 8 256 38 38 (2957312)
I0726 13:55:10.259999 30847 net.cpp:165] Memory required for data: 1532469664
I0726 13:55:10.260015 30847 layer_factory.hpp:77] Creating layer conv4_1
I0726 13:55:10.260054 30847 net.cpp:100] Creating Layer conv4_1
I0726 13:55:10.260074 30847 net.cpp:434] conv4_1 <- pool3
I0726 13:55:10.260113 30847 net.cpp:408] conv4_1 -> conv4_1
I0726 13:55:10.271509 30847 net.cpp:150] Setting up conv4_1
I0726 13:55:10.271544 30847 net.cpp:157] Top shape: 8 512 38 38 (5914624)
I0726 13:55:10.271548 30847 net.cpp:165] Memory required for data: 1556128160
I0726 13:55:10.271556 30847 layer_factory.hpp:77] Creating layer relu4_1
I0726 13:55:10.271565 30847 net.cpp:100] Creating Layer relu4_1
I0726 13:55:10.271595 30847 net.cpp:434] relu4_1 <- conv4_1
I0726 13:55:10.271605 30847 net.cpp:395] relu4_1 -> conv4_1 (in-place)
I0726 13:55:10.271630 30847 net.cpp:150] Setting up relu4_1
I0726 13:55:10.271641 30847 net.cpp:157] Top shape: 8 512 38 38 (5914624)
I0726 13:55:10.271649 30847 net.cpp:165] Memory required for data: 1579786656
I0726 13:55:10.271659 30847 layer_factory.hpp:77] Creating layer conv4_2
I0726 13:55:10.271685 30847 net.cpp:100] Creating Layer conv4_2
I0726 13:55:10.271697 30847 net.cpp:434] conv4_2 <- conv4_1
I0726 13:55:10.271713 30847 net.cpp:408] conv4_2 -> conv4_2
I0726 13:55:10.296170 30847 net.cpp:150] Setting up conv4_2
I0726 13:55:10.296226 30847 net.cpp:157] Top shape: 8 512 38 38 (5914624)
I0726 13:55:10.296231 30847 net.cpp:165] Memory required for data: 1603445152
I0726 13:55:10.296253 30847 layer_factory.hpp:77] Creating layer relu4_2
I0726 13:55:10.296268 30847 net.cpp:100] Creating Layer relu4_2
I0726 13:55:10.296291 30847 net.cpp:434] relu4_2 <- conv4_2
I0726 13:55:10.296310 30847 net.cpp:395] relu4_2 -> conv4_2 (in-place)
I0726 13:55:10.296336 30847 net.cpp:150] Setting up relu4_2
I0726 13:55:10.296349 30847 net.cpp:157] Top shape: 8 512 38 38 (5914624)
I0726 13:55:10.296358 30847 net.cpp:165] Memory required for data: 1627103648
I0726 13:55:10.296368 30847 layer_factory.hpp:77] Creating layer conv4_3
I0726 13:55:10.296386 30847 net.cpp:100] Creating Layer conv4_3
I0726 13:55:10.296407 30847 net.cpp:434] conv4_3 <- conv4_2
I0726 13:55:10.296422 30847 net.cpp:408] conv4_3 -> conv4_3
I0726 13:55:10.326892 30847 net.cpp:150] Setting up conv4_3
I0726 13:55:10.326983 30847 net.cpp:157] Top shape: 8 512 38 38 (5914624)
I0726 13:55:10.326988 30847 net.cpp:165] Memory required for data: 1650762144
I0726 13:55:10.327010 30847 layer_factory.hpp:77] Creating layer relu4_3
I0726 13:55:10.327029 30847 net.cpp:100] Creating Layer relu4_3
I0726 13:55:10.327040 30847 net.cpp:434] relu4_3 <- conv4_3
I0726 13:55:10.327076 30847 net.cpp:395] relu4_3 -> conv4_3 (in-place)
I0726 13:55:10.327096 30847 net.cpp:150] Setting up relu4_3
I0726 13:55:10.327103 30847 net.cpp:157] Top shape: 8 512 38 38 (5914624)
I0726 13:55:10.327107 30847 net.cpp:165] Memory required for data: 1674420640
I0726 13:55:10.327121 30847 layer_factory.hpp:77] Creating layer conv4_3_relu4_3_0_split
I0726 13:55:10.327131 30847 net.cpp:100] Creating Layer conv4_3_relu4_3_0_split
I0726 13:55:10.327142 30847 net.cpp:434] conv4_3_relu4_3_0_split <- conv4_3
I0726 13:55:10.327162 30847 net.cpp:408] conv4_3_relu4_3_0_split -> conv4_3_relu4_3_0_split_0
I0726 13:55:10.327184 30847 net.cpp:408] conv4_3_relu4_3_0_split -> conv4_3_relu4_3_0_split_1
I0726 13:55:10.327239 30847 net.cpp:150] Setting up conv4_3_relu4_3_0_split
I0726 13:55:10.327244 30847 net.cpp:157] Top shape: 8 512 38 38 (5914624)
I0726 13:55:10.327250 30847 net.cpp:157] Top shape: 8 512 38 38 (5914624)
I0726 13:55:10.327255 30847 net.cpp:165] Memory required for data: 1721737632
I0726 13:55:10.327268 30847 layer_factory.hpp:77] Creating layer pool4
I0726 13:55:10.327286 30847 net.cpp:100] Creating Layer pool4
I0726 13:55:10.327291 30847 net.cpp:434] pool4 <- conv4_3_relu4_3_0_split_0
I0726 13:55:10.327298 30847 net.cpp:408] pool4 -> pool4
I0726 13:55:10.327342 30847 net.cpp:150] Setting up pool4
I0726 13:55:10.327349 30847 net.cpp:157] Top shape: 8 512 19 19 (1478656)
I0726 13:55:10.327354 30847 net.cpp:165] Memory required for data: 1727652256
I0726 13:55:10.327358 30847 layer_factory.hpp:77] Creating layer conv5_1
I0726 13:55:10.327378 30847 net.cpp:100] Creating Layer conv5_1
I0726 13:55:10.327383 30847 net.cpp:434] conv5_1 <- pool4
I0726 13:55:10.327390 30847 net.cpp:408] conv5_1 -> conv5_1
I0726 13:55:10.356402 30847 net.cpp:150] Setting up conv5_1
I0726 13:55:10.356434 30847 net.cpp:157] Top shape: 8 512 19 19 (1478656)
I0726 13:55:10.356437 30847 net.cpp:165] Memory required for data: 1733566880
I0726 13:55:10.356448 30847 layer_factory.hpp:77] Creating layer relu5_1
I0726 13:55:10.356458 30847 net.cpp:100] Creating Layer relu5_1
I0726 13:55:10.356464 30847 net.cpp:434] relu5_1 <- conv5_1
I0726 13:55:10.356508 30847 net.cpp:395] relu5_1 -> conv5_1 (in-place)
I0726 13:55:10.356530 30847 net.cpp:150] Setting up relu5_1
I0726 13:55:10.356544 30847 net.cpp:157] Top shape: 8 512 19 19 (1478656)
I0726 13:55:10.356555 30847 net.cpp:165] Memory required for data: 1739481504
I0726 13:55:10.356567 30847 layer_factory.hpp:77] Creating layer conv5_2
I0726 13:55:10.356586 30847 net.cpp:100] Creating Layer conv5_2
I0726 13:55:10.356623 30847 net.cpp:434] conv5_2 <- conv5_1
I0726 13:55:10.356642 30847 net.cpp:408] conv5_2 -> conv5_2
I0726 13:55:10.382212 30847 net.cpp:150] Setting up conv5_2
I0726 13:55:10.382267 30847 net.cpp:157] Top shape: 8 512 19 19 (1478656)
I0726 13:55:10.382272 30847 net.cpp:165] Memory required for data: 1745396128
I0726 13:55:10.382283 30847 layer_factory.hpp:77] Creating layer relu5_2
I0726 13:55:10.382293 30847 net.cpp:100] Creating Layer relu5_2
I0726 13:55:10.382299 30847 net.cpp:434] relu5_2 <- conv5_2
I0726 13:55:10.382323 30847 net.cpp:395] relu5_2 -> conv5_2 (in-place)
I0726 13:55:10.382344 30847 net.cpp:150] Setting up relu5_2
I0726 13:55:10.382355 30847 net.cpp:157] Top shape: 8 512 19 19 (1478656)
I0726 13:55:10.382365 30847 net.cpp:165] Memory required for data: 1751310752
I0726 13:55:10.382375 30847 layer_factory.hpp:77] Creating layer conv5_3
I0726 13:55:10.382391 30847 net.cpp:100] Creating Layer conv5_3
I0726 13:55:10.382410 30847 net.cpp:434] conv5_3 <- conv5_2
I0726 13:55:10.382423 30847 net.cpp:408] conv5_3 -> conv5_3
I0726 13:55:10.405401 30847 net.cpp:150] Setting up conv5_3
I0726 13:55:10.405493 30847 net.cpp:157] Top shape: 8 512 19 19 (1478656)
I0726 13:55:10.405506 30847 net.cpp:165] Memory required for data: 1757225376
I0726 13:55:10.405527 30847 layer_factory.hpp:77] Creating layer relu5_3
I0726 13:55:10.405553 30847 net.cpp:100] Creating Layer relu5_3
I0726 13:55:10.405565 30847 net.cpp:434] relu5_3 <- conv5_3
I0726 13:55:10.405580 30847 net.cpp:395] relu5_3 -> conv5_3 (in-place)
I0726 13:55:10.405611 30847 net.cpp:150] Setting up relu5_3
I0726 13:55:10.405622 30847 net.cpp:157] Top shape: 8 512 19 19 (1478656)
I0726 13:55:10.405630 30847 net.cpp:165] Memory required for data: 1763140000
I0726 13:55:10.405638 30847 layer_factory.hpp:77] Creating layer pool5
I0726 13:55:10.405649 30847 net.cpp:100] Creating Layer pool5
I0726 13:55:10.405658 30847 net.cpp:434] pool5 <- conv5_3
I0726 13:55:10.405668 30847 net.cpp:408] pool5 -> pool5
I0726 13:55:10.405750 30847 net.cpp:150] Setting up pool5
I0726 13:55:10.405764 30847 net.cpp:157] Top shape: 8 512 19 19 (1478656)
I0726 13:55:10.405773 30847 net.cpp:165] Memory required for data: 1769054624
I0726 13:55:10.405781 30847 layer_factory.hpp:77] Creating layer fc6
I0726 13:55:10.405797 30847 net.cpp:100] Creating Layer fc6
I0726 13:55:10.405807 30847 net.cpp:434] fc6 <- pool5
I0726 13:55:10.405818 30847 net.cpp:408] fc6 -> fc6
I0726 13:55:10.455864 30847 net.cpp:150] Setting up fc6
I0726 13:55:10.455986 30847 net.cpp:157] Top shape: 8 1024 19 19 (2957312)
I0726 13:55:10.455994 30847 net.cpp:165] Memory required for data: 1780883872
I0726 13:55:10.456032 30847 layer_factory.hpp:77] Creating layer relu6
I0726 13:55:10.456075 30847 net.cpp:100] Creating Layer relu6
I0726 13:55:10.456099 30847 net.cpp:434] relu6 <- fc6
I0726 13:55:10.456122 30847 net.cpp:395] relu6 -> fc6 (in-place)
I0726 13:55:10.456182 30847 net.cpp:150] Setting up relu6
I0726 13:55:10.456210 30847 net.cpp:157] Top shape: 8 1024 19 19 (2957312)
I0726 13:55:10.456214 30847 net.cpp:165] Memory required for data: 1792713120
I0726 13:55:10.456219 30847 layer_factory.hpp:77] Creating layer fc7
I0726 13:55:10.456245 30847 net.cpp:100] Creating Layer fc7
I0726 13:55:10.456336 30847 net.cpp:434] fc7 <- fc6
I0726 13:55:10.456353 30847 net.cpp:408] fc7 -> fc7
I0726 13:55:10.469996 30847 net.cpp:150] Setting up fc7
I0726 13:55:10.470046 30847 net.cpp:157] Top shape: 8 1024 19 19 (2957312)
I0726 13:55:10.470051 30847 net.cpp:165] Memory required for data: 1804542368
I0726 13:55:10.470060 30847 layer_factory.hpp:77] Creating layer relu7
I0726 13:55:10.470073 30847 net.cpp:100] Creating Layer relu7
I0726 13:55:10.470094 30847 net.cpp:434] relu7 <- fc7
I0726 13:55:10.470103 30847 net.cpp:395] relu7 -> fc7 (in-place)
I0726 13:55:10.470114 30847 net.cpp:150] Setting up relu7
I0726 13:55:10.470155 30847 net.cpp:157] Top shape: 8 1024 19 19 (2957312)
I0726 13:55:10.470158 30847 net.cpp:165] Memory required for data: 1816371616
I0726 13:55:10.470161 30847 layer_factory.hpp:77] Creating layer fc7_relu7_0_split
I0726 13:55:10.470167 30847 net.cpp:100] Creating Layer fc7_relu7_0_split
I0726 13:55:10.470170 30847 net.cpp:434] fc7_relu7_0_split <- fc7
I0726 13:55:10.470176 30847 net.cpp:408] fc7_relu7_0_split -> fc7_relu7_0_split_0
I0726 13:55:10.470182 30847 net.cpp:408] fc7_relu7_0_split -> fc7_relu7_0_split_1
I0726 13:55:10.470192 30847 net.cpp:408] fc7_relu7_0_split -> fc7_relu7_0_split_2
I0726 13:55:10.470199 30847 net.cpp:408] fc7_relu7_0_split -> fc7_relu7_0_split_3
I0726 13:55:10.470254 30847 net.cpp:150] Setting up fc7_relu7_0_split
I0726 13:55:10.470260 30847 net.cpp:157] Top shape: 8 1024 19 19 (2957312)
I0726 13:55:10.470264 30847 net.cpp:157] Top shape: 8 1024 19 19 (2957312)
I0726 13:55:10.470269 30847 net.cpp:157] Top shape: 8 1024 19 19 (2957312)
I0726 13:55:10.470273 30847 net.cpp:157] Top shape: 8 1024 19 19 (2957312)
I0726 13:55:10.470276 30847 net.cpp:165] Memory required for data: 1863688608
I0726 13:55:10.470280 30847 layer_factory.hpp:77] Creating layer conv6_1
I0726 13:55:10.470289 30847 net.cpp:100] Creating Layer conv6_1
I0726 13:55:10.470294 30847 net.cpp:434] conv6_1 <- fc7_relu7_0_split_0
I0726 13:55:10.470300 30847 net.cpp:408] conv6_1 -> conv6_1
I0726 13:55:10.473207 30847 net.cpp:150] Setting up conv6_1
I0726 13:55:10.473255 30847 net.cpp:157] Top shape: 8 256 19 19 (739328)
I0726 13:55:10.473260 30847 net.cpp:165] Memory required for data: 1866645920
I0726 13:55:10.473271 30847 layer_factory.hpp:77] Creating layer conv6_1_relu
I0726 13:55:10.473295 30847 net.cpp:100] Creating Layer conv6_1_relu
I0726 13:55:10.473311 30847 net.cpp:434] conv6_1_relu <- conv6_1
I0726 13:55:10.473325 30847 net.cpp:395] conv6_1_relu -> conv6_1 (in-place)
I0726 13:55:10.473337 30847 net.cpp:150] Setting up conv6_1_relu
I0726 13:55:10.473341 30847 net.cpp:157] Top shape: 8 256 19 19 (739328)
I0726 13:55:10.473345 30847 net.cpp:165] Memory required for data: 1869603232
I0726 13:55:10.473350 30847 layer_factory.hpp:77] Creating layer conv6_2
I0726 13:55:10.473362 30847 net.cpp:100] Creating Layer conv6_2
I0726 13:55:10.473381 30847 net.cpp:434] conv6_2 <- conv6_1
I0726 13:55:10.473388 30847 net.cpp:408] conv6_2 -> conv6_2
I0726 13:55:10.483407 30847 net.cpp:150] Setting up conv6_2
I0726 13:55:10.483464 30847 net.cpp:157] Top shape: 8 512 10 10 (409600)
I0726 13:55:10.483467 30847 net.cpp:165] Memory required for data: 1871241632
I0726 13:55:10.483492 30847 layer_factory.hpp:77] Creating layer conv6_2_relu
I0726 13:55:10.483525 30847 net.cpp:100] Creating Layer conv6_2_relu
I0726 13:55:10.483534 30847 net.cpp:434] conv6_2_relu <- conv6_2
I0726 13:55:10.483543 30847 net.cpp:395] conv6_2_relu -> conv6_2 (in-place)
I0726 13:55:10.483556 30847 net.cpp:150] Setting up conv6_2_relu
I0726 13:55:10.483566 30847 net.cpp:157] Top shape: 8 512 10 10 (409600)
I0726 13:55:10.483568 30847 net.cpp:165] Memory required for data: 1872880032
I0726 13:55:10.483572 30847 layer_factory.hpp:77] Creating layer conv6_2_conv6_2_relu_0_split
I0726 13:55:10.483578 30847 net.cpp:100] Creating Layer conv6_2_conv6_2_relu_0_split
I0726 13:55:10.483582 30847 net.cpp:434] conv6_2_conv6_2_relu_0_split <- conv6_2
I0726 13:55:10.483587 30847 net.cpp:408] conv6_2_conv6_2_relu_0_split -> conv6_2_conv6_2_relu_0_split_0
I0726 13:55:10.483642 30847 net.cpp:408] conv6_2_conv6_2_relu_0_split -> conv6_2_conv6_2_relu_0_split_1
I0726 13:55:10.483649 30847 net.cpp:408] conv6_2_conv6_2_relu_0_split -> conv6_2_conv6_2_relu_0_split_2
I0726 13:55:10.483655 30847 net.cpp:408] conv6_2_conv6_2_relu_0_split -> conv6_2_conv6_2_relu_0_split_3
I0726 13:55:10.483712 30847 net.cpp:150] Setting up conv6_2_conv6_2_relu_0_split
I0726 13:55:10.483717 30847 net.cpp:157] Top shape: 8 512 10 10 (409600)
I0726 13:55:10.483721 30847 net.cpp:157] Top shape: 8 512 10 10 (409600)
I0726 13:55:10.483726 30847 net.cpp:157] Top shape: 8 512 10 10 (409600)
I0726 13:55:10.483731 30847 net.cpp:157] Top shape: 8 512 10 10 (409600)
I0726 13:55:10.483733 30847 net.cpp:165] Memory required for data: 1879433632
I0726 13:55:10.483737 30847 layer_factory.hpp:77] Creating layer conv7_1
I0726 13:55:10.483748 30847 net.cpp:100] Creating Layer conv7_1
I0726 13:55:10.483752 30847 net.cpp:434] conv7_1 <- conv6_2_conv6_2_relu_0_split_0
I0726 13:55:10.483757 30847 net.cpp:408] conv7_1 -> conv7_1
I0726 13:55:10.484369 30847 net.cpp:150] Setting up conv7_1
I0726 13:55:10.484375 30847 net.cpp:157] Top shape: 8 128 10 10 (102400)
I0726 13:55:10.484378 30847 net.cpp:165] Memory required for data: 1879843232
I0726 13:55:10.484385 30847 layer_factory.hpp:77] Creating layer conv7_1_relu
I0726 13:55:10.484390 30847 net.cpp:100] Creating Layer conv7_1_relu
I0726 13:55:10.484393 30847 net.cpp:434] conv7_1_relu <- conv7_1
I0726 13:55:10.484400 30847 net.cpp:395] conv7_1_relu -> conv7_1 (in-place)
I0726 13:55:10.484411 30847 net.cpp:150] Setting up conv7_1_relu
I0726 13:55:10.484416 30847 net.cpp:157] Top shape: 8 128 10 10 (102400)
I0726 13:55:10.484418 30847 net.cpp:165] Memory required for data: 1880252832
I0726 13:55:10.484422 30847 layer_factory.hpp:77] Creating layer conv7_2
I0726 13:55:10.484431 30847 net.cpp:100] Creating Layer conv7_2
I0726 13:55:10.484434 30847 net.cpp:434] conv7_2 <- conv7_1
I0726 13:55:10.484441 30847 net.cpp:408] conv7_2 -> conv7_2
I0726 13:55:10.487612 30847 net.cpp:150] Setting up conv7_2
I0726 13:55:10.487634 30847 net.cpp:157] Top shape: 8 256 5 5 (51200)
I0726 13:55:10.487637 30847 net.cpp:165] Memory required for data: 1880457632
I0726 13:55:10.487650 30847 layer_factory.hpp:77] Creating layer conv7_2_relu
I0726 13:55:10.487663 30847 net.cpp:100] Creating Layer conv7_2_relu
I0726 13:55:10.487669 30847 net.cpp:434] conv7_2_relu <- conv7_2
I0726 13:55:10.487679 30847 net.cpp:395] conv7_2_relu -> conv7_2 (in-place)
I0726 13:55:10.487709 30847 net.cpp:150] Setting up conv7_2_relu
I0726 13:55:10.487715 30847 net.cpp:157] Top shape: 8 256 5 5 (51200)
I0726 13:55:10.487717 30847 net.cpp:165] Memory required for data: 1880662432
I0726 13:55:10.487720 30847 layer_factory.hpp:77] Creating layer conv7_2_conv7_2_relu_0_split
I0726 13:55:10.487725 30847 net.cpp:100] Creating Layer conv7_2_conv7_2_relu_0_split
I0726 13:55:10.487730 30847 net.cpp:434] conv7_2_conv7_2_relu_0_split <- conv7_2
I0726 13:55:10.487735 30847 net.cpp:408] conv7_2_conv7_2_relu_0_split -> conv7_2_conv7_2_relu_0_split_0
I0726 13:55:10.487742 30847 net.cpp:408] conv7_2_conv7_2_relu_0_split -> conv7_2_conv7_2_relu_0_split_1
I0726 13:55:10.487748 30847 net.cpp:408] conv7_2_conv7_2_relu_0_split -> conv7_2_conv7_2_relu_0_split_2
I0726 13:55:10.487754 30847 net.cpp:408] conv7_2_conv7_2_relu_0_split -> conv7_2_conv7_2_relu_0_split_3
I0726 13:55:10.487803 30847 net.cpp:150] Setting up conv7_2_conv7_2_relu_0_split
I0726 13:55:10.487808 30847 net.cpp:157] Top shape: 8 256 5 5 (51200)
I0726 13:55:10.487812 30847 net.cpp:157] Top shape: 8 256 5 5 (51200)
I0726 13:55:10.487818 30847 net.cpp:157] Top shape: 8 256 5 5 (51200)
I0726 13:55:10.487823 30847 net.cpp:157] Top shape: 8 256 5 5 (51200)
I0726 13:55:10.487825 30847 net.cpp:165] Memory required for data: 1881481632
I0726 13:55:10.487829 30847 layer_factory.hpp:77] Creating layer conv8_1
I0726 13:55:10.487838 30847 net.cpp:100] Creating Layer conv8_1
I0726 13:55:10.487843 30847 net.cpp:434] conv8_1 <- conv7_2_conv7_2_relu_0_split_0
I0726 13:55:10.487848 30847 net.cpp:408] conv8_1 -> conv8_1
I0726 13:55:10.488255 30847 net.cpp:150] Setting up conv8_1
I0726 13:55:10.488261 30847 net.cpp:157] Top shape: 8 128 5 5 (25600)
I0726 13:55:10.488265 30847 net.cpp:165] Memory required for data: 1881584032
I0726 13:55:10.488270 30847 layer_factory.hpp:77] Creating layer conv8_1_relu
I0726 13:55:10.488275 30847 net.cpp:100] Creating Layer conv8_1_relu
I0726 13:55:10.488279 30847 net.cpp:434] conv8_1_relu <- conv8_1
I0726 13:55:10.488284 30847 net.cpp:395] conv8_1_relu -> conv8_1 (in-place)
I0726 13:55:10.488291 30847 net.cpp:150] Setting up conv8_1_relu
I0726 13:55:10.488296 30847 net.cpp:157] Top shape: 8 128 5 5 (25600)
I0726 13:55:10.488299 30847 net.cpp:165] Memory required for data: 1881686432
I0726 13:55:10.488302 30847 layer_factory.hpp:77] Creating layer conv8_2
I0726 13:55:10.488309 30847 net.cpp:100] Creating Layer conv8_2
I0726 13:55:10.488313 30847 net.cpp:434] conv8_2 <- conv8_1
I0726 13:55:10.488319 30847 net.cpp:408] conv8_2 -> conv8_2
I0726 13:55:10.491288 30847 net.cpp:150] Setting up conv8_2
I0726 13:55:10.491333 30847 net.cpp:157] Top shape: 8 256 3 3 (18432)
I0726 13:55:10.491336 30847 net.cpp:165] Memory required for data: 1881760160
I0726 13:55:10.491348 30847 layer_factory.hpp:77] Creating layer conv8_2_relu
I0726 13:55:10.491360 30847 net.cpp:100] Creating Layer conv8_2_relu
I0726 13:55:10.491366 30847 net.cpp:434] conv8_2_relu <- conv8_2
I0726 13:55:10.491376 30847 net.cpp:395] conv8_2_relu -> conv8_2 (in-place)
I0726 13:55:10.491387 30847 net.cpp:150] Setting up conv8_2_relu
I0726 13:55:10.491392 30847 net.cpp:157] Top shape: 8 256 3 3 (18432)
I0726 13:55:10.491394 30847 net.cpp:165] Memory required for data: 1881833888
I0726 13:55:10.491399 30847 layer_factory.hpp:77] Creating layer conv8_2_conv8_2_relu_0_split
I0726 13:55:10.491405 30847 net.cpp:100] Creating Layer conv8_2_conv8_2_relu_0_split
I0726 13:55:10.491408 30847 net.cpp:434] conv8_2_conv8_2_relu_0_split <- conv8_2
I0726 13:55:10.491431 30847 net.cpp:408] conv8_2_conv8_2_relu_0_split -> conv8_2_conv8_2_relu_0_split_0
I0726 13:55:10.491441 30847 net.cpp:408] conv8_2_conv8_2_relu_0_split -> conv8_2_conv8_2_relu_0_split_1
I0726 13:55:10.491448 30847 net.cpp:408] conv8_2_conv8_2_relu_0_split -> conv8_2_conv8_2_relu_0_split_2
I0726 13:55:10.491453 30847 net.cpp:408] conv8_2_conv8_2_relu_0_split -> conv8_2_conv8_2_relu_0_split_3
I0726 13:55:10.491513 30847 net.cpp:150] Setting up conv8_2_conv8_2_relu_0_split
I0726 13:55:10.491518 30847 net.cpp:157] Top shape: 8 256 3 3 (18432)
I0726 13:55:10.491524 30847 net.cpp:157] Top shape: 8 256 3 3 (18432)
I0726 13:55:10.491528 30847 net.cpp:157] Top shape: 8 256 3 3 (18432)
I0726 13:55:10.491533 30847 net.cpp:157] Top shape: 8 256 3 3 (18432)
I0726 13:55:10.491536 30847 net.cpp:165] Memory required for data: 1882128800
I0726 13:55:10.491541 30847 layer_factory.hpp:77] Creating layer conv9_1
I0726 13:55:10.491550 30847 net.cpp:100] Creating Layer conv9_1
I0726 13:55:10.491554 30847 net.cpp:434] conv9_1 <- conv8_2_conv8_2_relu_0_split_0
I0726 13:55:10.491566 30847 net.cpp:408] conv9_1 -> conv9_1
I0726 13:55:10.491952 30847 net.cpp:150] Setting up conv9_1
I0726 13:55:10.491958 30847 net.cpp:157] Top shape: 8 128 3 3 (9216)
I0726 13:55:10.491961 30847 net.cpp:165] Memory required for data: 1882165664
I0726 13:55:10.491967 30847 layer_factory.hpp:77] Creating layer conv9_1_relu
I0726 13:55:10.491972 30847 net.cpp:100] Creating Layer conv9_1_relu
I0726 13:55:10.491976 30847 net.cpp:434] conv9_1_relu <- conv9_1
I0726 13:55:10.491981 30847 net.cpp:395] conv9_1_relu -> conv9_1 (in-place)
I0726 13:55:10.491987 30847 net.cpp:150] Setting up conv9_1_relu
I0726 13:55:10.491993 30847 net.cpp:157] Top shape: 8 128 3 3 (9216)
I0726 13:55:10.491997 30847 net.cpp:165] Memory required for data: 1882202528
I0726 13:55:10.491999 30847 layer_factory.hpp:77] Creating layer conv9_2
I0726 13:55:10.492007 30847 net.cpp:100] Creating Layer conv9_2
I0726 13:55:10.492012 30847 net.cpp:434] conv9_2 <- conv9_1
I0726 13:55:10.492019 30847 net.cpp:408] conv9_2 -> conv9_2
I0726 13:55:10.495851 30847 net.cpp:150] Setting up conv9_2
I0726 13:55:10.496112 30847 net.cpp:157] Top shape: 8 256 1 1 (2048)
I0726 13:55:10.496124 30847 net.cpp:165] Memory required for data: 1882210720
I0726 13:55:10.496162 30847 layer_factory.hpp:77] Creating layer conv9_2_relu
I0726 13:55:10.496230 30847 net.cpp:100] Creating Layer conv9_2_relu
I0726 13:55:10.496259 30847 net.cpp:434] conv9_2_relu <- conv9_2
I0726 13:55:10.496336 30847 net.cpp:395] conv9_2_relu -> conv9_2 (in-place)
I0726 13:55:10.496390 30847 net.cpp:150] Setting up conv9_2_relu
I0726 13:55:10.496414 30847 net.cpp:157] Top shape: 8 256 1 1 (2048)
I0726 13:55:10.496424 30847 net.cpp:165] Memory required for data: 1882218912
I0726 13:55:10.496435 30847 layer_factory.hpp:77] Creating layer conv9_2_conv9_2_relu_0_split
I0726 13:55:10.496459 30847 net.cpp:100] Creating Layer conv9_2_conv9_2_relu_0_split
I0726 13:55:10.496471 30847 net.cpp:434] conv9_2_conv9_2_relu_0_split <- conv9_2
I0726 13:55:10.496491 30847 net.cpp:408] conv9_2_conv9_2_relu_0_split -> conv9_2_conv9_2_relu_0_split_0
I0726 13:55:10.496525 30847 net.cpp:408] conv9_2_conv9_2_relu_0_split -> conv9_2_conv9_2_relu_0_split_1
I0726 13:55:10.496567 30847 net.cpp:408] conv9_2_conv9_2_relu_0_split -> conv9_2_conv9_2_relu_0_split_2
I0726 13:55:10.496742 30847 net.cpp:150] Setting up conv9_2_conv9_2_relu_0_split
I0726 13:55:10.496776 30847 net.cpp:157] Top shape: 8 256 1 1 (2048)
I0726 13:55:10.496793 30847 net.cpp:157] Top shape: 8 256 1 1 (2048)
I0726 13:55:10.496805 30847 net.cpp:157] Top shape: 8 256 1 1 (2048)
I0726 13:55:10.496812 30847 net.cpp:165] Memory required for data: 1882243488
I0726 13:55:10.496824 30847 layer_factory.hpp:77] Creating layer conv4_3_norm
I0726 13:55:10.496855 30847 net.cpp:100] Creating Layer conv4_3_norm
I0726 13:55:10.496875 30847 net.cpp:434] conv4_3_norm <- conv4_3_relu4_3_0_split_1
I0726 13:55:10.496901 30847 net.cpp:408] conv4_3_norm -> conv4_3_norm
I0726 13:55:10.497346 30847 net.cpp:150] Setting up conv4_3_norm
I0726 13:55:10.497359 30847 net.cpp:157] Top shape: 8 512 38 38 (5914624)
I0726 13:55:10.497364 30847 net.cpp:165] Memory required for data: 1905901984
I0726 13:55:10.497375 30847 layer_factory.hpp:77] Creating layer conv4_3_norm_conv4_3_norm_0_split
I0726 13:55:10.497387 30847 net.cpp:100] Creating Layer conv4_3_norm_conv4_3_norm_0_split
I0726 13:55:10.497395 30847 net.cpp:434] conv4_3_norm_conv4_3_norm_0_split <- conv4_3_norm
I0726 13:55:10.497404 30847 net.cpp:408] conv4_3_norm_conv4_3_norm_0_split -> conv4_3_norm_conv4_3_norm_0_split_0
I0726 13:55:10.497418 30847 net.cpp:408] conv4_3_norm_conv4_3_norm_0_split -> conv4_3_norm_conv4_3_norm_0_split_1
I0726 13:55:10.497427 30847 net.cpp:408] conv4_3_norm_conv4_3_norm_0_split -> conv4_3_norm_conv4_3_norm_0_split_2
I0726 13:55:10.497503 30847 net.cpp:150] Setting up conv4_3_norm_conv4_3_norm_0_split
I0726 13:55:10.497515 30847 net.cpp:157] Top shape: 8 512 38 38 (5914624)
I0726 13:55:10.497522 30847 net.cpp:157] Top shape: 8 512 38 38 (5914624)
I0726 13:55:10.497529 30847 net.cpp:157] Top shape: 8 512 38 38 (5914624)
I0726 13:55:10.497534 30847 net.cpp:165] Memory required for data: 1976877472
I0726 13:55:10.497547 30847 layer_factory.hpp:77] Creating layer conv4_3_norm_mbox_loc
I0726 13:55:10.497588 30847 net.cpp:100] Creating Layer conv4_3_norm_mbox_loc
I0726 13:55:10.497594 30847 net.cpp:434] conv4_3_norm_mbox_loc <- conv4_3_norm_conv4_3_norm_0_split_0
I0726 13:55:10.497601 30847 net.cpp:408] conv4_3_norm_mbox_loc -> conv4_3_norm_mbox_loc
I0726 13:55:10.498399 30847 net.cpp:150] Setting up conv4_3_norm_mbox_loc
I0726 13:55:10.498406 30847 net.cpp:157] Top shape: 8 16 38 38 (184832)
I0726 13:55:10.498410 30847 net.cpp:165] Memory required for data: 1977616800
I0726 13:55:10.498419 30847 layer_factory.hpp:77] Creating layer conv4_3_norm_mbox_loc_perm
I0726 13:55:10.498430 30847 net.cpp:100] Creating Layer conv4_3_norm_mbox_loc_perm
I0726 13:55:10.498433 30847 net.cpp:434] conv4_3_norm_mbox_loc_perm <- conv4_3_norm_mbox_loc
I0726 13:55:10.498440 30847 net.cpp:408] conv4_3_norm_mbox_loc_perm -> conv4_3_norm_mbox_loc_perm
I0726 13:55:10.498584 30847 net.cpp:150] Setting up conv4_3_norm_mbox_loc_perm
I0726 13:55:10.498590 30847 net.cpp:157] Top shape: 8 38 38 16 (184832)
I0726 13:55:10.498594 30847 net.cpp:165] Memory required for data: 1978356128
I0726 13:55:10.498597 30847 layer_factory.hpp:77] Creating layer conv4_3_norm_mbox_loc_flat
I0726 13:55:10.498610 30847 net.cpp:100] Creating Layer conv4_3_norm_mbox_loc_flat
I0726 13:55:10.498615 30847 net.cpp:434] conv4_3_norm_mbox_loc_flat <- conv4_3_norm_mbox_loc_perm
I0726 13:55:10.498620 30847 net.cpp:408] conv4_3_norm_mbox_loc_flat -> conv4_3_norm_mbox_loc_flat
I0726 13:55:10.498661 30847 net.cpp:150] Setting up conv4_3_norm_mbox_loc_flat
I0726 13:55:10.498667 30847 net.cpp:157] Top shape: 8 23104 (184832)
I0726 13:55:10.498672 30847 net.cpp:165] Memory required for data: 1979095456
I0726 13:55:10.498674 30847 layer_factory.hpp:77] Creating layer conv4_3_norm_mbox_conf
I0726 13:55:10.498700 30847 net.cpp:100] Creating Layer conv4_3_norm_mbox_conf
I0726 13:55:10.498705 30847 net.cpp:434] conv4_3_norm_mbox_conf <- conv4_3_norm_conv4_3_norm_0_split_1
I0726 13:55:10.498713 30847 net.cpp:408] conv4_3_norm_mbox_conf -> conv4_3_norm_mbox_conf
I0726 13:55:10.499301 30847 net.cpp:150] Setting up conv4_3_norm_mbox_conf
I0726 13:55:10.499307 30847 net.cpp:157] Top shape: 8 8 38 38 (92416)
I0726 13:55:10.499310 30847 net.cpp:165] Memory required for data: 1979465120
I0726 13:55:10.499318 30847 layer_factory.hpp:77] Creating layer conv4_3_norm_mbox_conf_perm
I0726 13:55:10.499326 30847 net.cpp:100] Creating Layer conv4_3_norm_mbox_conf_perm
I0726 13:55:10.499331 30847 net.cpp:434] conv4_3_norm_mbox_conf_perm <- conv4_3_norm_mbox_conf
I0726 13:55:10.499337 30847 net.cpp:408] conv4_3_norm_mbox_conf_perm -> conv4_3_norm_mbox_conf_perm
I0726 13:55:10.499428 30847 net.cpp:150] Setting up conv4_3_norm_mbox_conf_perm
I0726 13:55:10.499445 30847 net.cpp:157] Top shape: 8 38 38 8 (92416)
I0726 13:55:10.499449 30847 net.cpp:165] Memory required for data: 1979834784
I0726 13:55:10.499451 30847 layer_factory.hpp:77] Creating layer conv4_3_norm_mbox_conf_flat
I0726 13:55:10.499457 30847 net.cpp:100] Creating Layer conv4_3_norm_mbox_conf_flat
I0726 13:55:10.499461 30847 net.cpp:434] conv4_3_norm_mbox_conf_flat <- conv4_3_norm_mbox_conf_perm
I0726 13:55:10.499466 30847 net.cpp:408] conv4_3_norm_mbox_conf_flat -> conv4_3_norm_mbox_conf_flat
I0726 13:55:10.499486 30847 net.cpp:150] Setting up conv4_3_norm_mbox_conf_flat
I0726 13:55:10.499491 30847 net.cpp:157] Top shape: 8 11552 (92416)
I0726 13:55:10.499495 30847 net.cpp:165] Memory required for data: 1980204448
I0726 13:55:10.499497 30847 layer_factory.hpp:77] Creating layer conv4_3_norm_mbox_priorbox
I0726 13:55:10.499503 30847 net.cpp:100] Creating Layer conv4_3_norm_mbox_priorbox
I0726 13:55:10.499508 30847 net.cpp:434] conv4_3_norm_mbox_priorbox <- conv4_3_norm_conv4_3_norm_0_split_2
I0726 13:55:10.499513 30847 net.cpp:434] conv4_3_norm_mbox_priorbox <- data_data_0_split_1
I0726 13:55:10.499519 30847 net.cpp:408] conv4_3_norm_mbox_priorbox -> conv4_3_norm_mbox_priorbox
I0726 13:55:10.499547 30847 net.cpp:150] Setting up conv4_3_norm_mbox_priorbox
I0726 13:55:10.499552 30847 net.cpp:157] Top shape: 1 2 23104 (46208)
I0726 13:55:10.499555 30847 net.cpp:165] Memory required for data: 1980389280
I0726 13:55:10.499558 30847 layer_factory.hpp:77] Creating layer fc7_mbox_loc
I0726 13:55:10.499567 30847 net.cpp:100] Creating Layer fc7_mbox_loc
I0726 13:55:10.499573 30847 net.cpp:434] fc7_mbox_loc <- fc7_relu7_0_split_1
I0726 13:55:10.499580 30847 net.cpp:408] fc7_mbox_loc -> fc7_mbox_loc
I0726 13:55:10.501291 30847 net.cpp:150] Setting up fc7_mbox_loc
I0726 13:55:10.501302 30847 net.cpp:157] Top shape: 8 24 19 19 (69312)
I0726 13:55:10.501304 30847 net.cpp:165] Memory required for data: 1980666528
I0726 13:55:10.501312 30847 layer_factory.hpp:77] Creating layer fc7_mbox_loc_perm
I0726 13:55:10.501320 30847 net.cpp:100] Creating Layer fc7_mbox_loc_perm
I0726 13:55:10.501325 30847 net.cpp:434] fc7_mbox_loc_perm <- fc7_mbox_loc
I0726 13:55:10.501333 30847 net.cpp:408] fc7_mbox_loc_perm -> fc7_mbox_loc_perm
I0726 13:55:10.501420 30847 net.cpp:150] Setting up fc7_mbox_loc_perm
I0726 13:55:10.501425 30847 net.cpp:157] Top shape: 8 19 19 24 (69312)
I0726 13:55:10.501428 30847 net.cpp:165] Memory required for data: 1980943776
I0726 13:55:10.501431 30847 layer_factory.hpp:77] Creating layer fc7_mbox_loc_flat
I0726 13:55:10.501441 30847 net.cpp:100] Creating Layer fc7_mbox_loc_flat
I0726 13:55:10.501444 30847 net.cpp:434] fc7_mbox_loc_flat <- fc7_mbox_loc_perm
I0726 13:55:10.501449 30847 net.cpp:408] fc7_mbox_loc_flat -> fc7_mbox_loc_flat
I0726 13:55:10.501468 30847 net.cpp:150] Setting up fc7_mbox_loc_flat
I0726 13:55:10.501474 30847 net.cpp:157] Top shape: 8 8664 (69312)
I0726 13:55:10.501477 30847 net.cpp:165] Memory required for data: 1981221024
I0726 13:55:10.501480 30847 layer_factory.hpp:77] Creating layer fc7_mbox_conf
I0726 13:55:10.501492 30847 net.cpp:100] Creating Layer fc7_mbox_conf
I0726 13:55:10.501497 30847 net.cpp:434] fc7_mbox_conf <- fc7_relu7_0_split_2
I0726 13:55:10.501502 30847 net.cpp:408] fc7_mbox_conf -> fc7_mbox_conf
I0726 13:55:10.502563 30847 net.cpp:150] Setting up fc7_mbox_conf
I0726 13:55:10.502575 30847 net.cpp:157] Top shape: 8 12 19 19 (34656)
I0726 13:55:10.502578 30847 net.cpp:165] Memory required for data: 1981359648
I0726 13:55:10.502585 30847 layer_factory.hpp:77] Creating layer fc7_mbox_conf_perm
I0726 13:55:10.502594 30847 net.cpp:100] Creating Layer fc7_mbox_conf_perm
I0726 13:55:10.502599 30847 net.cpp:434] fc7_mbox_conf_perm <- fc7_mbox_conf
I0726 13:55:10.502606 30847 net.cpp:408] fc7_mbox_conf_perm -> fc7_mbox_conf_perm
I0726 13:55:10.502684 30847 net.cpp:150] Setting up fc7_mbox_conf_perm
I0726 13:55:10.502691 30847 net.cpp:157] Top shape: 8 19 19 12 (34656)
I0726 13:55:10.502692 30847 net.cpp:165] Memory required for data: 1981498272
I0726 13:55:10.502696 30847 layer_factory.hpp:77] Creating layer fc7_mbox_conf_flat
I0726 13:55:10.502703 30847 net.cpp:100] Creating Layer fc7_mbox_conf_flat
I0726 13:55:10.502707 30847 net.cpp:434] fc7_mbox_conf_flat <- fc7_mbox_conf_perm
I0726 13:55:10.502712 30847 net.cpp:408] fc7_mbox_conf_flat -> fc7_mbox_conf_flat
I0726 13:55:10.502734 30847 net.cpp:150] Setting up fc7_mbox_conf_flat
I0726 13:55:10.502740 30847 net.cpp:157] Top shape: 8 4332 (34656)
I0726 13:55:10.502743 30847 net.cpp:165] Memory required for data: 1981636896
I0726 13:55:10.502745 30847 layer_factory.hpp:77] Creating layer fc7_mbox_priorbox
I0726 13:55:10.502758 30847 net.cpp:100] Creating Layer fc7_mbox_priorbox
I0726 13:55:10.502763 30847 net.cpp:434] fc7_mbox_priorbox <- fc7_relu7_0_split_3
I0726 13:55:10.502768 30847 net.cpp:434] fc7_mbox_priorbox <- data_data_0_split_2
I0726 13:55:10.502774 30847 net.cpp:408] fc7_mbox_priorbox -> fc7_mbox_priorbox
I0726 13:55:10.502815 30847 net.cpp:150] Setting up fc7_mbox_priorbox
I0726 13:55:10.502821 30847 net.cpp:157] Top shape: 1 2 8664 (17328)
I0726 13:55:10.502825 30847 net.cpp:165] Memory required for data: 1981706208
I0726 13:55:10.502827 30847 layer_factory.hpp:77] Creating layer conv6_2_mbox_loc
I0726 13:55:10.502837 30847 net.cpp:100] Creating Layer conv6_2_mbox_loc
I0726 13:55:10.502842 30847 net.cpp:434] conv6_2_mbox_loc <- conv6_2_conv6_2_relu_0_split_1
I0726 13:55:10.502851 30847 net.cpp:408] conv6_2_mbox_loc -> conv6_2_mbox_loc
I0726 13:55:10.504088 30847 net.cpp:150] Setting up conv6_2_mbox_loc
I0726 13:55:10.504099 30847 net.cpp:157] Top shape: 8 24 10 10 (19200)
I0726 13:55:10.504102 30847 net.cpp:165] Memory required for data: 1981783008
I0726 13:55:10.504112 30847 layer_factory.hpp:77] Creating layer conv6_2_mbox_loc_perm
I0726 13:55:10.504119 30847 net.cpp:100] Creating Layer conv6_2_mbox_loc_perm
I0726 13:55:10.504127 30847 net.cpp:434] conv6_2_mbox_loc_perm <- conv6_2_mbox_loc
I0726 13:55:10.504133 30847 net.cpp:408] conv6_2_mbox_loc_perm -> conv6_2_mbox_loc_perm
I0726 13:55:10.504252 30847 net.cpp:150] Setting up conv6_2_mbox_loc_perm
I0726 13:55:10.504271 30847 net.cpp:157] Top shape: 8 10 10 24 (19200)
I0726 13:55:10.504276 30847 net.cpp:165] Memory required for data: 1981859808
I0726 13:55:10.504323 30847 layer_factory.hpp:77] Creating layer conv6_2_mbox_loc_flat
I0726 13:55:10.504333 30847 net.cpp:100] Creating Layer conv6_2_mbox_loc_flat
I0726 13:55:10.504338 30847 net.cpp:434] conv6_2_mbox_loc_flat <- conv6_2_mbox_loc_perm
I0726 13:55:10.504361 30847 net.cpp:408] conv6_2_mbox_loc_flat -> conv6_2_mbox_loc_flat
I0726 13:55:10.504389 30847 net.cpp:150] Setting up conv6_2_mbox_loc_flat
I0726 13:55:10.504395 30847 net.cpp:157] Top shape: 8 2400 (19200)
I0726 13:55:10.504397 30847 net.cpp:165] Memory required for data: 1981936608
I0726 13:55:10.504400 30847 layer_factory.hpp:77] Creating layer conv6_2_mbox_conf
I0726 13:55:10.504415 30847 net.cpp:100] Creating Layer conv6_2_mbox_conf
I0726 13:55:10.504420 30847 net.cpp:434] conv6_2_mbox_conf <- conv6_2_conv6_2_relu_0_split_2
I0726 13:55:10.504426 30847 net.cpp:408] conv6_2_mbox_conf -> conv6_2_mbox_conf
I0726 13:55:10.505141 30847 net.cpp:150] Setting up conv6_2_mbox_conf
I0726 13:55:10.505148 30847 net.cpp:157] Top shape: 8 12 10 10 (9600)
I0726 13:55:10.505151 30847 net.cpp:165] Memory required for data: 1981975008
I0726 13:55:10.505162 30847 layer_factory.hpp:77] Creating layer conv6_2_mbox_conf_perm
I0726 13:55:10.505183 30847 net.cpp:100] Creating Layer conv6_2_mbox_conf_perm
I0726 13:55:10.505187 30847 net.cpp:434] conv6_2_mbox_conf_perm <- conv6_2_mbox_conf
I0726 13:55:10.505193 30847 net.cpp:408] conv6_2_mbox_conf_perm -> conv6_2_mbox_conf_perm
I0726 13:55:10.505311 30847 net.cpp:150] Setting up conv6_2_mbox_conf_perm
I0726 13:55:10.505317 30847 net.cpp:157] Top shape: 8 10 10 12 (9600)
I0726 13:55:10.505321 30847 net.cpp:165] Memory required for data: 1982013408
I0726 13:55:10.505324 30847 layer_factory.hpp:77] Creating layer conv6_2_mbox_conf_flat
I0726 13:55:10.505332 30847 net.cpp:100] Creating Layer conv6_2_mbox_conf_flat
I0726 13:55:10.505336 30847 net.cpp:434] conv6_2_mbox_conf_flat <- conv6_2_mbox_conf_perm
I0726 13:55:10.505343 30847 net.cpp:408] conv6_2_mbox_conf_flat -> conv6_2_mbox_conf_flat
I0726 13:55:10.505365 30847 net.cpp:150] Setting up conv6_2_mbox_conf_flat
I0726 13:55:10.505370 30847 net.cpp:157] Top shape: 8 1200 (9600)
I0726 13:55:10.505373 30847 net.cpp:165] Memory required for data: 1982051808
I0726 13:55:10.505378 30847 layer_factory.hpp:77] Creating layer conv6_2_mbox_priorbox
I0726 13:55:10.505388 30847 net.cpp:100] Creating Layer conv6_2_mbox_priorbox
I0726 13:55:10.505393 30847 net.cpp:434] conv6_2_mbox_priorbox <- conv6_2_conv6_2_relu_0_split_3
I0726 13:55:10.505399 30847 net.cpp:434] conv6_2_mbox_priorbox <- data_data_0_split_3
I0726 13:55:10.505408 30847 net.cpp:408] conv6_2_mbox_priorbox -> conv6_2_mbox_priorbox
I0726 13:55:10.505439 30847 net.cpp:150] Setting up conv6_2_mbox_priorbox
I0726 13:55:10.505445 30847 net.cpp:157] Top shape: 1 2 2400 (4800)
I0726 13:55:10.505447 30847 net.cpp:165] Memory required for data: 1982071008
I0726 13:55:10.505452 30847 layer_factory.hpp:77] Creating layer conv7_2_mbox_loc
I0726 13:55:10.505465 30847 net.cpp:100] Creating Layer conv7_2_mbox_loc
I0726 13:55:10.505470 30847 net.cpp:434] conv7_2_mbox_loc <- conv7_2_conv7_2_relu_0_split_1
I0726 13:55:10.505475 30847 net.cpp:408] conv7_2_mbox_loc -> conv7_2_mbox_loc
I0726 13:55:10.506265 30847 net.cpp:150] Setting up conv7_2_mbox_loc
I0726 13:55:10.506273 30847 net.cpp:157] Top shape: 8 24 5 5 (4800)
I0726 13:55:10.506275 30847 net.cpp:165] Memory required for data: 1982090208
I0726 13:55:10.506281 30847 layer_factory.hpp:77] Creating layer conv7_2_mbox_loc_perm
I0726 13:55:10.506289 30847 net.cpp:100] Creating Layer conv7_2_mbox_loc_perm
I0726 13:55:10.506294 30847 net.cpp:434] conv7_2_mbox_loc_perm <- conv7_2_mbox_loc
I0726 13:55:10.506305 30847 net.cpp:408] conv7_2_mbox_loc_perm -> conv7_2_mbox_loc_perm
I0726 13:55:10.506407 30847 net.cpp:150] Setting up conv7_2_mbox_loc_perm
I0726 13:55:10.506414 30847 net.cpp:157] Top shape: 8 5 5 24 (4800)
I0726 13:55:10.506417 30847 net.cpp:165] Memory required for data: 1982109408
I0726 13:55:10.506420 30847 layer_factory.hpp:77] Creating layer conv7_2_mbox_loc_flat
I0726 13:55:10.506425 30847 net.cpp:100] Creating Layer conv7_2_mbox_loc_flat
I0726 13:55:10.506443 30847 net.cpp:434] conv7_2_mbox_loc_flat <- conv7_2_mbox_loc_perm
I0726 13:55:10.506449 30847 net.cpp:408] conv7_2_mbox_loc_flat -> conv7_2_mbox_loc_flat
I0726 13:55:10.506471 30847 net.cpp:150] Setting up conv7_2_mbox_loc_flat
I0726 13:55:10.506476 30847 net.cpp:157] Top shape: 8 600 (4800)
I0726 13:55:10.506480 30847 net.cpp:165] Memory required for data: 1982128608
I0726 13:55:10.506484 30847 layer_factory.hpp:77] Creating layer conv7_2_mbox_conf
I0726 13:55:10.506491 30847 net.cpp:100] Creating Layer conv7_2_mbox_conf
I0726 13:55:10.506495 30847 net.cpp:434] conv7_2_mbox_conf <- conv7_2_conv7_2_relu_0_split_2
I0726 13:55:10.506502 30847 net.cpp:408] conv7_2_mbox_conf -> conv7_2_mbox_conf
I0726 13:55:10.506996 30847 net.cpp:150] Setting up conv7_2_mbox_conf
I0726 13:55:10.507004 30847 net.cpp:157] Top shape: 8 12 5 5 (2400)
I0726 13:55:10.507006 30847 net.cpp:165] Memory required for data: 1982138208
I0726 13:55:10.507012 30847 layer_factory.hpp:77] Creating layer conv7_2_mbox_conf_perm
I0726 13:55:10.507019 30847 net.cpp:100] Creating Layer conv7_2_mbox_conf_perm
I0726 13:55:10.507022 30847 net.cpp:434] conv7_2_mbox_conf_perm <- conv7_2_mbox_conf
I0726 13:55:10.507028 30847 net.cpp:408] conv7_2_mbox_conf_perm -> conv7_2_mbox_conf_perm
I0726 13:55:10.507136 30847 net.cpp:150] Setting up conv7_2_mbox_conf_perm
I0726 13:55:10.507148 30847 net.cpp:157] Top shape: 8 5 5 12 (2400)
I0726 13:55:10.507150 30847 net.cpp:165] Memory required for data: 1982147808
I0726 13:55:10.507153 30847 layer_factory.hpp:77] Creating layer conv7_2_mbox_conf_flat
I0726 13:55:10.507164 30847 net.cpp:100] Creating Layer conv7_2_mbox_conf_flat
I0726 13:55:10.507167 30847 net.cpp:434] conv7_2_mbox_conf_flat <- conv7_2_mbox_conf_perm
I0726 13:55:10.507172 30847 net.cpp:408] conv7_2_mbox_conf_flat -> conv7_2_mbox_conf_flat
I0726 13:55:10.507194 30847 net.cpp:150] Setting up conv7_2_mbox_conf_flat
I0726 13:55:10.507200 30847 net.cpp:157] Top shape: 8 300 (2400)
I0726 13:55:10.507202 30847 net.cpp:165] Memory required for data: 1982157408
I0726 13:55:10.507205 30847 layer_factory.hpp:77] Creating layer conv7_2_mbox_priorbox
I0726 13:55:10.507211 30847 net.cpp:100] Creating Layer conv7_2_mbox_priorbox
I0726 13:55:10.507215 30847 net.cpp:434] conv7_2_mbox_priorbox <- conv7_2_conv7_2_relu_0_split_3
I0726 13:55:10.507220 30847 net.cpp:434] conv7_2_mbox_priorbox <- data_data_0_split_4
I0726 13:55:10.507225 30847 net.cpp:408] conv7_2_mbox_priorbox -> conv7_2_mbox_priorbox
I0726 13:55:10.507249 30847 net.cpp:150] Setting up conv7_2_mbox_priorbox
I0726 13:55:10.507256 30847 net.cpp:157] Top shape: 1 2 600 (1200)
I0726 13:55:10.507259 30847 net.cpp:165] Memory required for data: 1982162208
I0726 13:55:10.507261 30847 layer_factory.hpp:77] Creating layer conv8_2_mbox_loc
I0726 13:55:10.507269 30847 net.cpp:100] Creating Layer conv8_2_mbox_loc
I0726 13:55:10.507274 30847 net.cpp:434] conv8_2_mbox_loc <- conv8_2_conv8_2_relu_0_split_1
I0726 13:55:10.507280 30847 net.cpp:408] conv8_2_mbox_loc -> conv8_2_mbox_loc
I0726 13:55:10.507913 30847 net.cpp:150] Setting up conv8_2_mbox_loc
I0726 13:55:10.507921 30847 net.cpp:157] Top shape: 8 16 3 3 (1152)
I0726 13:55:10.507925 30847 net.cpp:165] Memory required for data: 1982166816
I0726 13:55:10.507942 30847 layer_factory.hpp:77] Creating layer conv8_2_mbox_loc_perm
I0726 13:55:10.507949 30847 net.cpp:100] Creating Layer conv8_2_mbox_loc_perm
I0726 13:55:10.507953 30847 net.cpp:434] conv8_2_mbox_loc_perm <- conv8_2_mbox_loc
I0726 13:55:10.507959 30847 net.cpp:408] conv8_2_mbox_loc_perm -> conv8_2_mbox_loc_perm
I0726 13:55:10.508076 30847 net.cpp:150] Setting up conv8_2_mbox_loc_perm
I0726 13:55:10.508082 30847 net.cpp:157] Top shape: 8 3 3 16 (1152)
I0726 13:55:10.508086 30847 net.cpp:165] Memory required for data: 1982171424
I0726 13:55:10.508090 30847 layer_factory.hpp:77] Creating layer conv8_2_mbox_loc_flat
I0726 13:55:10.508095 30847 net.cpp:100] Creating Layer conv8_2_mbox_loc_flat
I0726 13:55:10.508098 30847 net.cpp:434] conv8_2_mbox_loc_flat <- conv8_2_mbox_loc_perm
I0726 13:55:10.508114 30847 net.cpp:408] conv8_2_mbox_loc_flat -> conv8_2_mbox_loc_flat
I0726 13:55:10.508137 30847 net.cpp:150] Setting up conv8_2_mbox_loc_flat
I0726 13:55:10.508143 30847 net.cpp:157] Top shape: 8 144 (1152)
I0726 13:55:10.508147 30847 net.cpp:165] Memory required for data: 1982176032
I0726 13:55:10.508149 30847 layer_factory.hpp:77] Creating layer conv8_2_mbox_conf
I0726 13:55:10.508157 30847 net.cpp:100] Creating Layer conv8_2_mbox_conf
I0726 13:55:10.508162 30847 net.cpp:434] conv8_2_mbox_conf <- conv8_2_conv8_2_relu_0_split_2
I0726 13:55:10.508168 30847 net.cpp:408] conv8_2_mbox_conf -> conv8_2_mbox_conf
I0726 13:55:10.508635 30847 net.cpp:150] Setting up conv8_2_mbox_conf
I0726 13:55:10.508643 30847 net.cpp:157] Top shape: 8 8 3 3 (576)
I0726 13:55:10.508646 30847 net.cpp:165] Memory required for data: 1982178336
I0726 13:55:10.508652 30847 layer_factory.hpp:77] Creating layer conv8_2_mbox_conf_perm
I0726 13:55:10.508658 30847 net.cpp:100] Creating Layer conv8_2_mbox_conf_perm
I0726 13:55:10.508662 30847 net.cpp:434] conv8_2_mbox_conf_perm <- conv8_2_mbox_conf
I0726 13:55:10.508669 30847 net.cpp:408] conv8_2_mbox_conf_perm -> conv8_2_mbox_conf_perm
I0726 13:55:10.508775 30847 net.cpp:150] Setting up conv8_2_mbox_conf_perm
I0726 13:55:10.508782 30847 net.cpp:157] Top shape: 8 3 3 8 (576)
I0726 13:55:10.508785 30847 net.cpp:165] Memory required for data: 1982180640
I0726 13:55:10.508788 30847 layer_factory.hpp:77] Creating layer conv8_2_mbox_conf_flat
I0726 13:55:10.508793 30847 net.cpp:100] Creating Layer conv8_2_mbox_conf_flat
I0726 13:55:10.508797 30847 net.cpp:434] conv8_2_mbox_conf_flat <- conv8_2_mbox_conf_perm
I0726 13:55:10.508802 30847 net.cpp:408] conv8_2_mbox_conf_flat -> conv8_2_mbox_conf_flat
I0726 13:55:10.508824 30847 net.cpp:150] Setting up conv8_2_mbox_conf_flat
I0726 13:55:10.508831 30847 net.cpp:157] Top shape: 8 72 (576)
I0726 13:55:10.508833 30847 net.cpp:165] Memory required for data: 1982182944
I0726 13:55:10.508836 30847 layer_factory.hpp:77] Creating layer conv8_2_mbox_priorbox
I0726 13:55:10.508841 30847 net.cpp:100] Creating Layer conv8_2_mbox_priorbox
I0726 13:55:10.508846 30847 net.cpp:434] conv8_2_mbox_priorbox <- conv8_2_conv8_2_relu_0_split_3
I0726 13:55:10.508850 30847 net.cpp:434] conv8_2_mbox_priorbox <- data_data_0_split_5
I0726 13:55:10.508857 30847 net.cpp:408] conv8_2_mbox_priorbox -> conv8_2_mbox_priorbox
I0726 13:55:10.508882 30847 net.cpp:150] Setting up conv8_2_mbox_priorbox
I0726 13:55:10.508888 30847 net.cpp:157] Top shape: 1 2 144 (288)
I0726 13:55:10.508890 30847 net.cpp:165] Memory required for data: 1982184096
I0726 13:55:10.508893 30847 layer_factory.hpp:77] Creating layer conv9_2_mbox_loc
I0726 13:55:10.508901 30847 net.cpp:100] Creating Layer conv9_2_mbox_loc
I0726 13:55:10.508906 30847 net.cpp:434] conv9_2_mbox_loc <- conv9_2_conv9_2_relu_0_split_0
I0726 13:55:10.508913 30847 net.cpp:408] conv9_2_mbox_loc -> conv9_2_mbox_loc
I0726 13:55:10.509548 30847 net.cpp:150] Setting up conv9_2_mbox_loc
I0726 13:55:10.509555 30847 net.cpp:157] Top shape: 8 16 1 1 (128)
I0726 13:55:10.509559 30847 net.cpp:165] Memory required for data: 1982184608
I0726 13:55:10.509565 30847 layer_factory.hpp:77] Creating layer conv9_2_mbox_loc_perm
I0726 13:55:10.509572 30847 net.cpp:100] Creating Layer conv9_2_mbox_loc_perm
I0726 13:55:10.509575 30847 net.cpp:434] conv9_2_mbox_loc_perm <- conv9_2_mbox_loc
I0726 13:55:10.509582 30847 net.cpp:408] conv9_2_mbox_loc_perm -> conv9_2_mbox_loc_perm
I0726 13:55:10.509680 30847 net.cpp:150] Setting up conv9_2_mbox_loc_perm
I0726 13:55:10.509685 30847 net.cpp:157] Top shape: 8 1 1 16 (128)
I0726 13:55:10.509688 30847 net.cpp:165] Memory required for data: 1982185120
I0726 13:55:10.509692 30847 layer_factory.hpp:77] Creating layer conv9_2_mbox_loc_flat
I0726 13:55:10.509697 30847 net.cpp:100] Creating Layer conv9_2_mbox_loc_flat
I0726 13:55:10.509701 30847 net.cpp:434] conv9_2_mbox_loc_flat <- conv9_2_mbox_loc_perm
I0726 13:55:10.509706 30847 net.cpp:408] conv9_2_mbox_loc_flat -> conv9_2_mbox_loc_flat
I0726 13:55:10.509750 30847 net.cpp:150] Setting up conv9_2_mbox_loc_flat
I0726 13:55:10.509757 30847 net.cpp:157] Top shape: 8 16 (128)
I0726 13:55:10.509759 30847 net.cpp:165] Memory required for data: 1982185632
I0726 13:55:10.509763 30847 layer_factory.hpp:77] Creating layer conv9_2_mbox_conf
I0726 13:55:10.509771 30847 net.cpp:100] Creating Layer conv9_2_mbox_conf
I0726 13:55:10.509776 30847 net.cpp:434] conv9_2_mbox_conf <- conv9_2_conv9_2_relu_0_split_1
I0726 13:55:10.509783 30847 net.cpp:408] conv9_2_mbox_conf -> conv9_2_mbox_conf
I0726 13:55:10.510190 30847 net.cpp:150] Setting up conv9_2_mbox_conf
I0726 13:55:10.510197 30847 net.cpp:157] Top shape: 8 8 1 1 (64)
I0726 13:55:10.510200 30847 net.cpp:165] Memory required for data: 1982185888
I0726 13:55:10.510206 30847 layer_factory.hpp:77] Creating layer conv9_2_mbox_conf_perm
I0726 13:55:10.510211 30847 net.cpp:100] Creating Layer conv9_2_mbox_conf_perm
I0726 13:55:10.510216 30847 net.cpp:434] conv9_2_mbox_conf_perm <- conv9_2_mbox_conf
I0726 13:55:10.510221 30847 net.cpp:408] conv9_2_mbox_conf_perm -> conv9_2_mbox_conf_perm
I0726 13:55:10.510318 30847 net.cpp:150] Setting up conv9_2_mbox_conf_perm
I0726 13:55:10.510325 30847 net.cpp:157] Top shape: 8 1 1 8 (64)
I0726 13:55:10.510329 30847 net.cpp:165] Memory required for data: 1982186144
I0726 13:55:10.510332 30847 layer_factory.hpp:77] Creating layer conv9_2_mbox_conf_flat
I0726 13:55:10.510336 30847 net.cpp:100] Creating Layer conv9_2_mbox_conf_flat
I0726 13:55:10.510340 30847 net.cpp:434] conv9_2_mbox_conf_flat <- conv9_2_mbox_conf_perm
I0726 13:55:10.510346 30847 net.cpp:408] conv9_2_mbox_conf_flat -> conv9_2_mbox_conf_flat
I0726 13:55:10.510367 30847 net.cpp:150] Setting up conv9_2_mbox_conf_flat
I0726 13:55:10.510372 30847 net.cpp:157] Top shape: 8 8 (64)
I0726 13:55:10.510375 30847 net.cpp:165] Memory required for data: 1982186400
I0726 13:55:10.510380 30847 layer_factory.hpp:77] Creating layer conv9_2_mbox_priorbox
I0726 13:55:10.510385 30847 net.cpp:100] Creating Layer conv9_2_mbox_priorbox
I0726 13:55:10.510388 30847 net.cpp:434] conv9_2_mbox_priorbox <- conv9_2_conv9_2_relu_0_split_2
I0726 13:55:10.510393 30847 net.cpp:434] conv9_2_mbox_priorbox <- data_data_0_split_6
I0726 13:55:10.510399 30847 net.cpp:408] conv9_2_mbox_priorbox -> conv9_2_mbox_priorbox
I0726 13:55:10.510423 30847 net.cpp:150] Setting up conv9_2_mbox_priorbox
I0726 13:55:10.510429 30847 net.cpp:157] Top shape: 1 2 16 (32)
I0726 13:55:10.510432 30847 net.cpp:165] Memory required for data: 1982186528
I0726 13:55:10.510437 30847 layer_factory.hpp:77] Creating layer mbox_loc
I0726 13:55:10.510442 30847 net.cpp:100] Creating Layer mbox_loc
I0726 13:55:10.510447 30847 net.cpp:434] mbox_loc <- conv4_3_norm_mbox_loc_flat
I0726 13:55:10.510452 30847 net.cpp:434] mbox_loc <- fc7_mbox_loc_flat
I0726 13:55:10.510458 30847 net.cpp:434] mbox_loc <- conv6_2_mbox_loc_flat
I0726 13:55:10.510463 30847 net.cpp:434] mbox_loc <- conv7_2_mbox_loc_flat
I0726 13:55:10.510468 30847 net.cpp:434] mbox_loc <- conv8_2_mbox_loc_flat
I0726 13:55:10.510471 30847 net.cpp:434] mbox_loc <- conv9_2_mbox_loc_flat
I0726 13:55:10.510478 30847 net.cpp:408] mbox_loc -> mbox_loc
I0726 13:55:10.510517 30847 net.cpp:150] Setting up mbox_loc
I0726 13:55:10.510524 30847 net.cpp:157] Top shape: 8 34928 (279424)
I0726 13:55:10.510526 30847 net.cpp:165] Memory required for data: 1983304224
I0726 13:55:10.510529 30847 layer_factory.hpp:77] Creating layer mbox_conf
I0726 13:55:10.510535 30847 net.cpp:100] Creating Layer mbox_conf
I0726 13:55:10.510538 30847 net.cpp:434] mbox_conf <- conv4_3_norm_mbox_conf_flat
I0726 13:55:10.510543 30847 net.cpp:434] mbox_conf <- fc7_mbox_conf_flat
I0726 13:55:10.510548 30847 net.cpp:434] mbox_conf <- conv6_2_mbox_conf_flat
I0726 13:55:10.510553 30847 net.cpp:434] mbox_conf <- conv7_2_mbox_conf_flat
I0726 13:55:10.510557 30847 net.cpp:434] mbox_conf <- conv8_2_mbox_conf_flat
I0726 13:55:10.510561 30847 net.cpp:434] mbox_conf <- conv9_2_mbox_conf_flat
I0726 13:55:10.510566 30847 net.cpp:408] mbox_conf -> mbox_conf
I0726 13:55:10.510589 30847 net.cpp:150] Setting up mbox_conf
I0726 13:55:10.510614 30847 net.cpp:157] Top shape: 8 17464 (139712)
I0726 13:55:10.510617 30847 net.cpp:165] Memory required for data: 1983863072
I0726 13:55:10.510622 30847 layer_factory.hpp:77] Creating layer mbox_priorbox
I0726 13:55:10.510627 30847 net.cpp:100] Creating Layer mbox_priorbox
I0726 13:55:10.510630 30847 net.cpp:434] mbox_priorbox <- conv4_3_norm_mbox_priorbox
I0726 13:55:10.510634 30847 net.cpp:434] mbox_priorbox <- fc7_mbox_priorbox
I0726 13:55:10.510639 30847 net.cpp:434] mbox_priorbox <- conv6_2_mbox_priorbox
I0726 13:55:10.510643 30847 net.cpp:434] mbox_priorbox <- conv7_2_mbox_priorbox
I0726 13:55:10.510648 30847 net.cpp:434] mbox_priorbox <- conv8_2_mbox_priorbox
I0726 13:55:10.510651 30847 net.cpp:434] mbox_priorbox <- conv9_2_mbox_priorbox
I0726 13:55:10.510656 30847 net.cpp:408] mbox_priorbox -> mbox_priorbox
I0726 13:55:10.510679 30847 net.cpp:150] Setting up mbox_priorbox
I0726 13:55:10.510684 30847 net.cpp:157] Top shape: 1 2 34928 (69856)
I0726 13:55:10.510686 30847 net.cpp:165] Memory required for data: 1984142496
I0726 13:55:10.510690 30847 layer_factory.hpp:77] Creating layer mbox_conf_reshape
I0726 13:55:10.510699 30847 net.cpp:100] Creating Layer mbox_conf_reshape
I0726 13:55:10.510702 30847 net.cpp:434] mbox_conf_reshape <- mbox_conf
I0726 13:55:10.510707 30847 net.cpp:408] mbox_conf_reshape -> mbox_conf_reshape
I0726 13:55:10.510736 30847 net.cpp:150] Setting up mbox_conf_reshape
I0726 13:55:10.510742 30847 net.cpp:157] Top shape: 8 8732 2 (139712)
I0726 13:55:10.510746 30847 net.cpp:165] Memory required for data: 1984701344
I0726 13:55:10.510748 30847 layer_factory.hpp:77] Creating layer mbox_conf_softmax
I0726 13:55:10.510754 30847 net.cpp:100] Creating Layer mbox_conf_softmax
I0726 13:55:10.510757 30847 net.cpp:434] mbox_conf_softmax <- mbox_conf_reshape
I0726 13:55:10.510763 30847 net.cpp:408] mbox_conf_softmax -> mbox_conf_softmax
I0726 13:55:10.510823 30847 net.cpp:150] Setting up mbox_conf_softmax
I0726 13:55:10.510830 30847 net.cpp:157] Top shape: 8 8732 2 (139712)
I0726 13:55:10.510833 30847 net.cpp:165] Memory required for data: 1985260192
I0726 13:55:10.510835 30847 layer_factory.hpp:77] Creating layer mbox_conf_flatten
I0726 13:55:10.510840 30847 net.cpp:100] Creating Layer mbox_conf_flatten
I0726 13:55:10.510844 30847 net.cpp:434] mbox_conf_flatten <- mbox_conf_softmax
I0726 13:55:10.510848 30847 net.cpp:408] mbox_conf_flatten -> mbox_conf_flatten
I0726 13:55:10.510869 30847 net.cpp:150] Setting up mbox_conf_flatten
I0726 13:55:10.510874 30847 net.cpp:157] Top shape: 8 17464 (139712)
I0726 13:55:10.510879 30847 net.cpp:165] Memory required for data: 1985819040
I0726 13:55:10.510881 30847 layer_factory.hpp:77] Creating layer detection_out
I0726 13:55:10.510903 30847 net.cpp:100] Creating Layer detection_out
I0726 13:55:10.510907 30847 net.cpp:434] detection_out <- mbox_loc
I0726 13:55:10.510913 30847 net.cpp:434] detection_out <- mbox_conf_flatten
I0726 13:55:10.510917 30847 net.cpp:434] detection_out <- mbox_priorbox
I0726 13:55:10.510922 30847 net.cpp:408] detection_out -> detection_out
I0726 13:55:10.517508 30847 net.cpp:150] Setting up detection_out
I0726 13:55:10.517530 30847 net.cpp:157] Top shape: 1 1 1 7 (7)
I0726 13:55:10.517534 30847 net.cpp:165] Memory required for data: 1985819068
I0726 13:55:10.517537 30847 layer_factory.hpp:77] Creating layer detection_eval
I0726 13:55:10.517551 30847 net.cpp:100] Creating Layer detection_eval
I0726 13:55:10.517561 30847 net.cpp:434] detection_eval <- detection_out
I0726 13:55:10.517570 30847 net.cpp:434] detection_eval <- label
I0726 13:55:10.517575 30847 net.cpp:408] detection_eval -> detection_eval
I0726 13:55:10.520498 30847 net.cpp:150] Setting up detection_eval
I0726 13:55:10.520509 30847 net.cpp:157] Top shape: 1 1 2 5 (10)
I0726 13:55:10.520511 30847 net.cpp:165] Memory required for data: 1985819108
I0726 13:55:10.520515 30847 net.cpp:228] detection_eval does not need backward computation.
I0726 13:55:10.520519 30847 net.cpp:228] detection_out does not need backward computation.
I0726 13:55:10.520575 30847 net.cpp:228] mbox_conf_flatten does not need backward computation.
I0726 13:55:10.520578 30847 net.cpp:228] mbox_conf_softmax does not need backward computation.
…
