…
      sampler {
        min_scale: 0.3
        max_scale: 1
        min_aspect_ratio: 0.5
        max_aspect_ratio: 2
      }
      sample_constraint {
        min_jaccard_overlap: 0.9
      }
      max_sample: 1
      max_trials: 50
    }
    batch_sampler {
      sampler {
        min_scale: 0.3
        max_scale: 1
        min_aspect_ratio: 0.5
        max_aspect_ratio: 2
      }
      sample_constraint {
        max_jaccard_overlap: 1
      }
      max_sample: 1
      max_trials: 50
    }
    label_map_file: "data/SHOPPE_2017/labelmap_voc.prototxt"
  }
}
layer {
  name: "conv1_1"
  type: "Convolution"
  bottom: "data"
  top: "conv1_1"
  param {
    lr_mult: 1
    decay_mult: 1
  }
  param {
    lr_mult: 2
    decay_mult: 0
  }
  convolution_param {
    num_output: 64
    pad: 1
    kernel_size: 3
    weight_filler {
      type: "xavier"
    }
    bias_filler {
      type: "constant"
      value: 0
    }
  }
}
layer {
  name: "relu1_1"
  type: "ReLU"
  bottom: "conv1_1"
  top: "conv1_1"
}
layer {
  name: "conv1_2"
  type: "Convolution"
  bottom: "conv1_1"
  top: "conv1_2"
  param {
    lr_mult: 1
    decay_mult: 1
  }
  param {
    lr_mult: 2
    decay_mult: 0
  }
  convolution_param {
    num_output: 64
    pad: 1
    kernel_size: 3
    weight_filler {
      type: "xavier"
    }
    bias_filler {
      type: "constant"
      value: 0
    }
  }
}
layer {
  name: "relu1_2"
  type: "ReLU"
  bottom: "conv1_2"
  top: "conv1_2"
}
layer {
  name: "pool1"
  type: "Pooling"
  bottom: "conv1_2"
  top: "pool1"
  pooling_param {
    pool: MAX
    kernel_size: 2
    stride: 2
  }
}
layer {
  name: "conv2_1"
  type: "Convolution"
  bottom: "pool1"
  top: "conv2_1"
  param {
    lr_mult: 1
    decay_mult: 1
  }
  param {
    lr_mult: 2
    decay_mult: 0
  }
  convolution_param {
    num_output: 128
    pad: 1
    kernel_size: 3
    weight_filler {
      type: "xavier"
    }
    bias_filler {
      type: "constant"
      value: 0
    }
  }
}
layer {
  name: "relu2_1"
  type: "ReLU"
  bottom: "conv2_1"
  top: "conv2_1"
}
layer {
  name: "conv2_2"
  type: "Convolution"
  bottom: "conv2_1"
  top: "conv2_2"
  param {
    lr_mult: 1
    decay_mult: 1
  }
  param {
    lr_mult: 2
    decay_mult: 0
  }
  convolution_param {
    num_output: 128
    pad: 1
    kernel_size: 3
    weight_filler {
      type: "xavier"
    }
    bias_filler {
      type: "constant"
      value: 0
    }
  }
}
layer {
  name: "relu2_2"
  type: "ReLU"
  bottom: "conv2_2"
  top: "conv2_2"
}
layer {
  name: "pool2"
  type: "Pooling"
  bottom: "conv2_2"
  top: "pool2"
  pooling_param {
    pool: MAX
    kernel_size: 2
    stride: 2
  }
}
layer {
  name: "conv3_1"
  type: "Convolution"
  bottom: "pool2"
  top: "conv3_1"
  param {
    lr_mult: 1
    decay_mult: 1
  }
  param {
    lr_mult: 2
    decay_mult: 0
  }
  convolution_param {
    num_output: 256
    pad: 1
    kernel_size: 3
    weight_filler {
      type: "xavier"
    }
    bias_filler {
      type: "constant"
      value: 0
    }
  }
}
layer {
  name: "relu3_1"
  type: "ReLU"
  bottom: "conv3_1"
  top: "conv3_1"
}
layer {
  name: "conv3_2"
  type: "Convolution"
  bottom: "conv3_1"
  top: "conv3_2"
  param {
    lr_mult: 1
    decay_mult: 1
  }
  param {
    lr_mult: 2
    decay_mult: 0
  }
  convolution_param {
    num_output: 256
    pad: 1
    kernel_size: 3
    weight_filler {
      type: "xavier"
    }
    bias_filler {
      type: "constant"
      value: 0
    }
  }
}
layer {
  name: "relu3_2"
  type: "ReLU"
  bottom: "conv3_2"
  top: "conv3_2"
}
layer {
  name: "conv3_3"
  type: "Convolution"
  bottom: "conv3_2"
  top: "conv3_3"
  param {
    lr_mult: 1
    decay_mult: 1
  }
  param {
    lr_mult: 2
    decay_mult: 0
  }
  convolution_param {
    num_output: 256
    pad: 1
    kernel_size: 3
    weight_filler {
      type: "xavier"
    }
    bias_filler {
      type: "constant"
      value: 0
    }
  }
}
layer {
  name: "relu3_3"
  type: "ReLU"
  bottom: "conv3_3"
  top: "conv3_3"
}
layer {
  name: "pool3"
  type: "Pooling"
  bottom: "conv3_3"
  top: "pool3"
  pooling_param {
    pool: MAX
    kernel_size: 2
    stride: 2
  }
}
layer {
  name: "conv4_1"
  type: "Convolution"
  bottom: "pool3"
  top: "conv4_1"
  param {
    lr_mult: 1
    decay_mult: 1
  }
  param {
    lr_mult: 2
    decay_mult: 0
  }
  convolution_param {
    num_output: 512
    pad: 1
    kernel_size: 3
    weight_filler {
      type: "xavier"
    }
    bias_filler {
      type: "constant"
      value: 0
    }
  }
}
layer {
  name: "relu4_1"
  type: "ReLU"
  bottom: "conv4_1"
  top: "conv4_1"
}
layer {
  name: "conv4_2"
  type: "Convolution"
  bottom: "conv4_1"
  top: "conv4_2"
  param {
    lr_mult: 1
    decay_mult: 1
  }
  param {
    lr_mult: 2
    decay_mult: 0
  }
  convolution_param {
    num_output: 512
    pad: 1
    kernel_size: 3
    weight_filler {
      type: "xavier"
    }
    bias_filler {
      type: "constant"
      value: 0
    }
  }
}
layer {
  name: "relu4_2"
  type: "ReLU"
  bottom: "conv4_2"
  top: "conv4_2"
}
layer {
  name: "conv4_3"
  type: "Convolution"
  bottom: "conv4_2"
  top: "conv4_3"
  param {
    lr_mult: 1
    decay_mult: 1
  }
  param {
    lr_mult: 2
    decay_mult: 0
  }
  convolution_param {
    num_output: 512
    pad: 1
    kernel_size: 3
    weight_filler {
      type: "xavier"
    }
    bias_filler {
      type: "constant"
      value: 0
    }
  }
}
layer {
  name: "relu4_3"
  type: "ReLU"
  bottom: "conv4_3"
  top: "conv4_3"
}
layer {
  name: "pool4"
  type: "Pooling"
  bottom: "conv4_3"
  top: "pool4"
  pooling_param {
    pool: MAX
    kernel_size: 2
    stride: 2
  }
}
layer {
  name: "conv5_1"
  type: "Convolution"
  bottom: "pool4"
  top: "conv5_1"
  param {
    lr_mult: 1
    decay_mult: 1
  }
  param {
    lr_mult: 2
    decay_mult: 0
  }
  convolution_param {
    num_output: 512
    pad: 1
    kernel_size: 3
    weight_filler {
      type: "xavier"
    }
    bias_filler {
      type: "constant"
      value: 0
    }
    dilation: 1
  }
}
layer {
  name: "relu5_1"
  type: "ReLU"
  bottom: "conv5_1"
  top: "conv5_1"
}
layer {
  name: "conv5_2"
  type: "Convolution"
  bottom: "conv5_1"
  top: "conv5_2"
  param {
    lr_mult: 1
    decay_mult: 1
  }
  param {
    lr_mult: 2
    decay_mult: 0
  }
  convolution_param {
    num_output: 512
    pad: 1
    kernel_size: 3
    weight_filler {
      type: "xavier"
    }
    bias_filler {
      type: "constant"
      value: 0
    }
    dilation: 1
  }
}
layer {
  name: "relu5_2"
  type: "ReLU"
  bottom: "conv5_2"
  top: "conv5_2"
}
layer {
  name: "conv5_3"
  type: "Convolution"
  bottom: "conv5_2"
  top: "conv5_3"
  param {
    lr_mult: 1
    decay_mult: 1
  }
  param {
    lr_mult: 2
    decay_mult: 0
  }
  convolution_param {
    num_output: 512
    pad: 1
    kernel_size: 3
    weight_filler {
      type: "xavier"
    }
    bias_filler {
      type: "constant"
      value: 0
    }
    dilation: 1
  }
}
layer {
  name: "relu5_3"
  type: "ReLU"
  bottom: "conv5_3"
  top: "conv5_3"
}
layer {
  name: "pool5"
  type: "Pooling"
  bottom: "conv5_3"
  top: "pool5"
  pooling_param {
    pool: MAX
    kernel_size: 3
    stride: 1
    pad: 1
  }
}
layer {
  name: "fc6"
  type: "Convolution"
  bottom: "pool5"
  top: "fc6"
  param {
    lr_mult: 1
    decay_mult: 1
  }
  param {
    lr_mult: 2
    decay_mult: 0
  }
  convolution_param {
    num_output: 1024
    pad: 6
    kernel_size: 3
    weight_filler {
      type: "xavier"
    }
    bias_filler {
      type: "constant"
      value: 0
    }
    dilation: 6
  }
}
layer {
  name: "relu6"
  type: "ReLU"
  bottom: "fc6"
  top: "fc6"
}
layer {
  name: "fc7"
  type: "Convolution"
  bottom: "fc6"
  top: "fc7"
  param {
    lr_mult: 1
    decay_mult: 1
  }
  param {
    lr_mult: 2
    decay_mult: 0
  }
  convolution_param {
    num_output: 1024
    kernel_size: 1
    weight_filler {
      type: "xavier"
    }
    bias_filler {
      type: "constant"
      value: 0
    }
  }
}
layer {
  name: "relu7"
  type: "ReLU"
  bottom: "fc7"
  top: "fc7"
}
layer {
  name: "conv6_1"
  type: "Convolution"
  bottom: "fc7"
  top: "conv6_1"
  param {
    lr_mult: 1
    decay_mult: 1
  }
  param {
    lr_mult: 2
    decay_mult: 0
  }
  convolution_param {
    num_output: 256
    pad: 0
    kernel_size: 1
    stride: 1
    weight_filler {
      type: "xavier"
    }
    bias_filler {
      type: "constant"
      value: 0
    }
  }
}
layer {
  name: "conv6_1_relu"
  type: "ReLU"
  bottom: "conv6_1"
  top: "conv6_1"
}
layer {
  name: "conv6_2"
  type: "Convolution"
  bottom: "conv6_1"
  top: "conv6_2"
  param {
    lr_mult: 1
    decay_mult: 1
  }
  param {
    lr_mult: 2
    decay_mult: 0
  }
  convolution_param {
    num_output: 512
    pad: 1
    kernel_size: 3
    stride: 2
    weight_filler {
      type: "xavier"
    }
    bias_filler {
      type: "constant"
      value: 0
    }
  }
}
layer {
  name: "conv6_2_relu"
  type: "ReLU"
  bottom: "conv6_2"
  top: "conv6_2"
}
layer {
  name: "conv7_1"
  type: "Convolution"
  bottom: "conv6_2"
  top: "conv7_1"
  param {
    lr_mult: 1
    decay_mult: 1
  }
  param {
    lr_mult: 2
    decay_mult: 0
  }
  convolution_param {
    num_output: 128
    pad: 0
    kernel_size: 1
    stride: 1
    weight_filler {
      type: "xavier"
    }
    bias_filler {
      type: "constant"
      value: 0
    }
  }
}
layer {
  name: "conv7_1_relu"
  type: "ReLU"
  bottom: "conv7_1"
  top: "conv7_1"
}
layer {
  name: "conv7_2"
  type: "Convolution"
  bottom: "conv7_1"
  top: "conv7_2"
  param {
    lr_mult: 1
    decay_mult: 1
  }
  param {
    lr_mult: 2
    decay_mult: 0
  }
  convolution_param {
    num_output: 256
    pad: 1
    kernel_size: 3
    stride: 2
    weight_filler {
      type: "xavier"
    }
    bias_filler {
      type: "constant"
      value: 0
    }
  }
}
layer {
  name: "conv7_2_relu"
  type: "ReLU"
  bottom: "conv7_2"
  top: "conv7_2"
}
layer {
  name: "conv8_1"
  type: "Convolution"
  bottom: "conv7_2"
  top: "conv8_1"
  param {
    lr_mult: 1
    decay_mult: 1
  }
  param {
    lr_mult: 2
    decay_mult: 0
  }
  convolution_param {
    num_output: 128
    pad: 0
    kernel_size: 1
    stride: 1
    weight_filler {
      type: "xavier"
    }
    bias_filler {
      type: "constant"
      value: 0
    }
  }
}
layer {
  name: "conv8_1_relu"
  type: "ReLU"
  bottom: "conv8_1"
  top: "conv8_1"
}
layer {
  name: "conv8_2"
  type: "Convolution"
  bottom: "conv8_1"
  top: "conv8_2"
  param {
    lr_mult: 1
    decay_mult: 1
  }
  param {
    lr_mult: 2
    decay_mult: 0
  }
  convolution_param {
    num_output: 256
    pad: 0
    kernel_size: 3
    stride: 1
    weight_filler {
      type: "xavier"
    }
    bias_filler {
      type: "constant"
      value: 0
    }
  }
}
layer {
  name: "conv8_2_relu"
  type: "ReLU"
  bottom: "conv8_2"
  top: "conv8_2"
}
layer {
  name: "conv9_1"
  type: "Convolution"
  bottom: "conv8_2"
  top: "conv9_1"
  param {
    lr_mult: 1
    decay_mult: 1
  }
  param {
    lr_mult: 2
    decay_mult: 0
  }
  convolution_param {
    num_output: 128
    pad: 0
    kernel_size: 1
    stride: 1
    weight_filler {
      type: "xavier"
    }
    bias_filler {
      type: "constant"
      value: 0
    }
  }
}
layer {
  name: "conv9_1_relu"
  type: "ReLU"
  bottom: "conv9_1"
  top: "conv9_1"
}
layer {
  name: "conv9_2"
  type: "Convolution"
  bottom: "conv9_1"
  top: "conv9_2"
  param {
    lr_mult: 1
    decay_mult: 1
  }
  param {
    lr_mult: 2
    decay_mult: 0
  }
  convolution_param {
    num_output: 256
    pad: 0
    kernel_size: 3
    stride: 1
    weight_filler {
      type: "xavier"
    }
    bias_filler {
      type: "constant"
      value: 0
    }
  }
}
layer {
  name: "conv9_2_relu"
  type: "ReLU"
  bottom: "conv9_2"
  top: "conv9_2"
}
layer {
  name: "conv4_3_norm"
  type: "Normalize"
  bottom: "conv4_3"
  top: "conv4_3_norm"
  norm_param {
    across_spatial: false
    scale_filler {
      type: "constant"
      value: 20
    }
    channel_shared: false
  }
}
layer {
  name: "conv4_3_norm_mbox_loc"
  type: "Convolution"
  bottom: "conv4_3_norm"
  top: "conv4_3_norm_mbox_loc"
  param {
    lr_mult: 1
    decay_mult: 1
  }
  param {
    lr_mult: 2
    decay_mult: 0
  }
  convolution_param {
    num_output: 16
    pad: 1
    kernel_size: 3
    stride: 1
    weight_filler {
      type: "xavier"
    }
    bias_filler {
      type: "constant"
      value: 0
    }
  }
}
layer {
  name: "conv4_3_norm_mbox_loc_perm"
  type: "Permute"
  bottom: "conv4_3_norm_mbox_loc"
  top: "conv4_3_norm_mbox_loc_perm"
  permute_param {
    order: 0
    order: 2
    order: 3
    order: 1
  }
}
layer {
  name: "conv4_3_norm_mbox_loc_flat"
  type: "Flatten"
  bottom: "conv4_3_norm_mbox_loc_perm"
  top: "conv4_3_norm_mbox_loc_flat"
  flatten_param {
    axis: 1
  }
}
layer {
  name: "conv4_3_norm_mbox_conf"
  type: "Convolution"
  bottom: "conv4_3_norm"
  top: "conv4_3_norm_mbox_conf"
  param {
    lr_mult: 1
    decay_mult: 1
  }
  param {
    lr_mult: 2
    decay_mult: 0
  }
  convolution_param {
    num_output: 236
    pad: 1
    kernel_size: 3
    stride: 1
    weight_filler {
      type: "xavier"
    }
    bias_filler {
      type: "constant"
      value: 0
    }
  }
}
layer {
  name: "conv4_3_norm_mbox_conf_perm"
  type: "Permute"
  bottom: "conv4_3_norm_mbox_conf"
  top: "conv4_3_norm_mbox_conf_perm"
  permute_param {
    order: 0
    order: 2
    order: 3
    order: 1
  }
}
layer {
  name: "conv4_3_norm_mbox_conf_flat"
  type: "Flatten"
  bottom: "conv4_3_norm_mbox_conf_perm"
  top: "conv4_3_norm_mbox_conf_flat"
  flatten_param {
    axis: 1
  }
}
layer {
  name: "conv4_3_norm_mbox_priorbox"
  type: "PriorBox"
  bottom: "conv4_3_norm"
  bottom: "data"
  top: "conv4_3_norm_mbox_priorbox"
  prior_box_param {
    min_size: 30
    max_size: 60
    aspect_ratio: 2
    flip: true
    clip: false
    variance: 0.1
    variance: 0.1
    variance: 0.2
    variance: 0.2
    step: 8
    offset: 0.5
  }
}
layer {
  name: "fc7_mbox_loc"
  type: "Convolution"
  bottom: "fc7"
  top: "fc7_mbox_loc"
  param {
    lr_mult: 1
    decay_mult: 1
  }
  param {
    lr_mult: 2
    decay_mult: 0
  }
  convolution_param {
    num_output: 24
    pad: 1
    kernel_size: 3
    stride: 1
    weight_filler {
      type: "xavier"
    }
    bias_filler {
      type: "constant"
      value: 0
    }
  }
}
layer {
  name: "fc7_mbox_loc_perm"
  type: "Permute"
  bottom: "fc7_mbox_loc"
  top: "fc7_mbox_loc_perm"
  permute_param {
    order: 0
    order: 2
    order: 3
    order: 1
  }
}
layer {
  name: "fc7_mbox_loc_flat"
  type: "Flatten"
  bottom: "fc7_mbox_loc_perm"
  top: "fc7_mbox_loc_flat"
  flatten_param {
    axis: 1
  }
}
layer {
  name: "fc7_mbox_conf"
  type: "Convolution"
  bottom: "fc7"
  top: "fc7_mbox_conf"
  param {
    lr_mult: 1
    decay_mult: 1
  }
  param {
    lr_mult: 2
    decay_mult: 0
  }
  convolution_param {
    num_output: 354
    pad: 1
    kernel_size: 3
    stride: 1
    weight_filler {
      type: "xavier"
    }
    bias_filler {
      type: "constant"
      value: 0
    }
  }
}
layer {
  name: "fc7_mbox_conf_perm"
  type: "Permute"
  bottom: "fc7_mbox_conf"
  top: "fc7_mbox_conf_perm"
  permute_param {
    order: 0
    order: 2
    order: 3
    order: 1
  }
}
layer {
  name: "fc7_mbox_conf_flat"
  type: "Flatten"
  bottom: "fc7_mbox_conf_perm"
  top: "fc7_mbox_conf_flat"
  flatten_param {
    axis: 1
  }
}
layer {
  name: "fc7_mbox_priorbox"
  type: "PriorBox"
  bottom: "fc7"
  bottom: "data"
  top: "fc7_mbox_priorbox"
  prior_box_param {
    min_size: 60
    max_size: 111
    aspect_ratio: 2
    aspect_ratio: 3
    flip: true
    clip: false
    variance: 0.1
    variance: 0.1
    variance: 0.2
    variance: 0.2
    step: 16
    offset: 0.5
  }
}
layer {
  name: "conv6_2_mbox_loc"
  type: "Convolution"
  bottom: "conv6_2"
  top: "conv6_2_mbox_loc"
  param {
    lr_mult: 1
    decay_mult: 1
  }
  param {
    lr_mult: 2
    decay_mult: 0
  }
  convolution_param {
    num_output: 24
    pad: 1
    kernel_size: 3
    stride: 1
    weight_filler {
      type: "xavier"
    }
    bias_filler {
      type: "constant"
      value: 0
    }
  }
}
layer {
  name: "conv6_2_mbox_loc_perm"
  type: "Permute"
  bottom: "conv6_2_mbox_loc"
  top: "conv6_2_mbox_loc_perm"
  permute_param {
    order: 0
    order: 2
    order: 3
    order: 1
  }
}
layer {
  name: "conv6_2_mbox_loc_flat"
  type: "Flatten"
  bottom: "conv6_2_mbox_loc_perm"
  top: "conv6_2_mbox_loc_flat"
  flatten_param {
    axis: 1
  }
}
layer {
  name: "conv6_2_mbox_conf"
  type: "Convolution"
  bottom: "conv6_2"
  top: "conv6_2_mbox_conf"
  param {
    lr_mult: 1
    decay_mult: 1
  }
  param {
    lr_mult: 2
    decay_mult: 0
  }
  convolution_param {
    num_output: 354
    pad: 1
    kernel_size: 3
    stride: 1
    weight_filler {
      type: "xavier"
    }
    bias_filler {
      type: "constant"
      value: 0
    }
  }
}
layer {
  name: "conv6_2_mbox_conf_perm"
  type: "Permute"
  bottom: "conv6_2_mbox_conf"
  top: "conv6_2_mbox_conf_perm"
  permute_param {
    order: 0
    order: 2
    order: 3
    order: 1
  }
}
layer {
  name: "conv6_2_mbox_conf_flat"
  type: "Flatten"
  bottom: "conv6_2_mbox_conf_perm"
  top: "conv6_2_mbox_conf_flat"
  flatten_param {
    axis: 1
  }
}
layer {
  name: "conv6_2_mbox_priorbox"
  type: "PriorBox"
  bottom: "conv6_2"
  bottom: "data"
  top: "conv6_2_mbox_priorbox"
  prior_box_param {
    min_size: 111
    max_size: 162
    aspect_ratio: 2
    aspect_ratio: 3
    flip: true
    clip: false
    variance: 0.1
    variance: 0.1
    variance: 0.2
    variance: 0.2
    step: 32
    offset: 0.5
  }
}
layer {
  name: "conv7_2_mbox_loc"
  type: "Convolution"
  bottom: "conv7_2"
  top: "conv7_2_mbox_loc"
  param {
    lr_mult: 1
    decay_mult: 1
  }
  param {
    lr_mult: 2
    decay_mult: 0
  }
  convolution_param {
    num_output: 24
    pad: 1
    kernel_size: 3
    stride: 1
    weight_filler {
      type: "xavier"
    }
    bias_filler {
      type: "constant"
      value: 0
    }
  }
}
layer {
  name: "conv7_2_mbox_loc_perm"
  type: "Permute"
  bottom: "conv7_2_mbox_loc"
  top: "conv7_2_mbox_loc_perm"
  permute_param {
    order: 0
    order: 2
    order: 3
    order: 1
  }
}
layer {
  name: "conv7_2_mbox_loc_flat"
  type: "Flatten"
  bottom: "conv7_2_mbox_loc_perm"
  top: "conv7_2_mbox_loc_flat"
  flatten_param {
    axis: 1
  }
}
layer {
  name: "conv7_2_mbox_conf"
  type: "Convolution"
  bottom: "conv7_2"
  top: "conv7_2_mbox_conf"
  param {
    lr_mult: 1
    decay_mult: 1
  }
  param {
    lr_mult: 2
    decay_mult: 0
  }
  convolution_param {
    num_output: 354
    pad: 1
    kernel_size: 3
    stride: 1
    weight_filler {
      type: "xavier"
    }
    bias_filler {
      type: "constant"
      value: 0
    }
  }
}
layer {
  name: "conv7_2_mbox_conf_perm"
  type: "Permute"
  bottom: "conv7_2_mbox_conf"
  top: "conv7_2_mbox_conf_perm"
  permute_param {
    order: 0
    order: 2
    order: 3
    order: 1
  }
}
layer {
  name: "conv7_2_mbox_conf_flat"
  type: "Flatten"
  bottom: "conv7_2_mbox_conf_perm"
  top: "conv7_2_mbox_conf_flat"
  flatten_param {
    axis: 1
  }
}
layer {
  name: "conv7_2_mbox_priorbox"
  type: "PriorBox"
  bottom: "conv7_2"
  bottom: "data"
  top: "conv7_2_mbox_priorbox"
  prior_box_param {
    min_size: 162
    max_size: 213
    aspect_ratio: 2
    aspect_ratio: 3
    flip: true
    clip: false
    variance: 0.1
    variance: 0.1
    variance: 0.2
    variance: 0.2
    step: 64
    offset: 0.5
  }
}
layer {
  name: "conv8_2_mbox_loc"
  type: "Convolution"
  bottom: "conv8_2"
  top: "conv8_2_mbox_loc"
  param {
    lr_mult: 1
    decay_mult: 1
  }
  param {
    lr_mult: 2
    decay_mult: 0
  }
  convolution_param {
    num_output: 16
    pad: 1
    kernel_size: 3
    stride: 1
    weight_filler {
      type: "xavier"
    }
    bias_filler {
      type: "constant"
      value: 0
    }
  }
}
layer {
  name: "conv8_2_mbox_loc_perm"
  type: "Permute"
  bottom: "conv8_2_mbox_loc"
  top: "conv8_2_mbox_loc_perm"
  permute_param {
    order: 0
    order: 2
    order: 3
    order: 1
  }
}
layer {
  name: "conv8_2_mbox_loc_flat"
  type: "Flatten"
  bottom: "conv8_2_mbox_loc_perm"
  top: "conv8_2_mbox_loc_flat"
  flatten_param {
    axis: 1
  }
}
layer {
  name: "conv8_2_mbox_conf"
  type: "Convolution"
  bottom: "conv8_2"
  top: "conv8_2_mbox_conf"
  param {
    lr_mult: 1
    decay_mult: 1
  }
  param {
    lr_mult: 2
    decay_mult: 0
  }
  convolution_param {
    num_output: 236
    pad: 1
    kernel_size: 3
    stride: 1
    weight_filler {
      type: "xavier"
    }
    bias_filler {
      type: "constant"
      value: 0
    }
  }
}
layer {
  name: "conv8_2_mbox_conf_perm"
  type: "Permute"
  bottom: "conv8_2_mbox_conf"
  top: "conv8_2_mbox_conf_perm"
  permute_param {
    order: 0
    order: 2
    order: 3
    order: 1
  }
}
layer {
  name: "conv8_2_mbox_conf_flat"
  type: "Flatten"
  bottom: "conv8_2_mbox_conf_perm"
  top: "conv8_2_mbox_conf_flat"
  flatten_param {
    axis: 1
  }
}
layer {
  name: "conv8_2_mbox_priorbox"
  type: "PriorBox"
  bottom: "conv8_2"
  bottom: "data"
  top: "conv8_2_mbox_priorbox"
  prior_box_param {
    min_size: 213
    max_size: 264
    aspect_ratio: 2
    flip: true
    clip: false
    variance: 0.1
    variance: 0.1
    variance: 0.2
    variance: 0.2
    step: 100
    offset: 0.5
  }
}
layer {
  name: "conv9_2_mbox_loc"
  type: "Convolution"
  bottom: "conv9_2"
  top: "conv9_2_mbox_loc"
  param {
    lr_mult: 1
    decay_mult: 1
  }
  param {
    lr_mult: 2
    decay_mult: 0
  }
  convolution_param {
    num_output: 16
    pad: 1
    kernel_size: 3
    stride: 1
    weight_filler {
      type: "xavier"
    }
    bias_filler {
      type: "constant"
      value: 0
    }
  }
}
layer {
  name: "conv9_2_mbox_loc_perm"
  type: "Permute"
  bottom: "conv9_2_mbox_loc"
  top: "conv9_2_mbox_loc_perm"
  permute_param {
    order: 0
    order: 2
    order: 3
    order: 1
  }
}
layer {
  name: "conv9_2_mbox_loc_flat"
  type: "Flatten"
  bottom: "conv9_2_mbox_loc_perm"
  top: "conv9_2_mbox_loc_flat"
  flatten_param {
    axis: 1
  }
}
layer {
  name: "conv9_2_mbox_conf"
  type: "Convolution"
  bottom: "conv9_2"
  top: "conv9_2_mbox_conf"
  param {
    lr_mult: 1
    decay_mult: 1
  }
  param {
    lr_mult: 2
    decay_mult: 0
  }
  convolution_param {
    num_output: 236
    pad: 1
    kernel_size: 3
    stride: 1
    weight_filler {
      type: "xavier"
    }
    bias_filler {
      type: "constant"
      value: 0
    }
  }
}
layer {
  name: "conv9_2_mbox_conf_perm"
  type: "Permute"
  bottom: "conv9_2_mbox_conf"
  top: "conv9_2_mbox_conf_perm"
  permute_param {
    order: 0
    order: 2
    order: 3
    order: 1
  }
}
layer {
  name: "conv9_2_mbox_conf_flat"
  type: "Flatten"
  bottom: "conv9_2_mbox_conf_perm"
  top: "conv9_2_mbox_conf_flat"
  flatten_param {
    axis: 1
  }
}
layer {
  name: "conv9_2_mbox_priorbox"
  type: "PriorBox"
  bottom: "conv9_2"
  bottom: "data"
  top: "conv9_2_mbox_priorbox"
  prior_box_param {
    min_size: 264
    max_size: 315
    aspect_ratio: 2
    flip: true
    clip: false
    variance: 0.1
    variance: 0.1
    variance: 0.2
    variance: 0.2
    step: 300
    offset: 0.5
  }
}
layer {
  name: "mbox_loc"
  type: "Concat"
  bottom: "conv4_3_norm_mbox_loc_flat"
  bottom: "fc7_mbox_loc_flat"
  bottom: "conv6_2_mbox_loc_flat"
  bottom: "conv7_2_mbox_loc_flat"
  bottom: "conv8_2_mbox_loc_flat"
  bottom: "conv9_2_mbox_loc_flat"
  top: "mbox_loc"
  concat_param {
    axis: 1
  }
}
layer {
  name: "mbox_conf"
  type: "Concat"
  bottom: "conv4_3_norm_mbox_conf_flat"
  bottom: "fc7_mbox_conf_flat"
  bottom: "conv6_2_mbox_conf_flat"
  bottom: "conv7_2_mbox_conf_flat"
  bottom: "conv8_2_mbox_conf_flat"
  bottom: "conv9_2_mbox_conf_flat"
  top: "mbox_conf"
  concat_param {
    axis: 1
  }
}
layer {
  name: "mbox_priorbox"
  type: "Concat"
  bottom: "conv4_3_norm_mbox_priorbox"
  bottom: "fc7_mbox_priorbox"
  bottom: "conv6_2_mbox_priorbox"
  bottom: "conv7_2_mbox_priorbox"
  bottom: "conv8_2_mbox_priorbox"
  bottom: "conv9_2_mbox_priorbox"
  top: "mbox_priorbox"
  concat_param {
    axis: 2
  }
}
layer {
  name: "mbox_loss"
  type: "MultiBoxLoss"
  bottom: "mbox_loc"
  bottom: "mbox_conf"
  bottom: "mbox_priorbox"
  bottom: "label"
  top: "mbox_loss"
  include {
    phase: TRAIN
  }
  propagate_down: true
  propagate_down: true
  propagate_down: false
  propagate_down: false
  loss_param {
    normalization: VALID
  }
  multibox_loss_param {
    loc_loss_type: SMOOTH_L1
    conf_loss_type: SOFTMAX
    loc_weight: 1
    num_classes: 59
    share_location: true
    match_type: PER_PREDICTION
    overlap_threshold: 0.5
    use_prior_for_matching: true
    background_label_id: 0
    use_difficult_gt: true
    neg_pos_ratio: 3
    neg_overlap: 0.5
    code_type: CENTER_SIZE
    ignore_cross_boundary_bbox: false
    mining_type: MAX_NEGATIVE
  }
}
I0726 14:13:29.105623 31263 layer_factory.hpp:77] Creating layer data
I0726 14:13:29.106147 31263 net.cpp:100] Creating Layer data
I0726 14:13:29.106158 31263 net.cpp:408] data -> data
I0726 14:13:29.106217 31263 net.cpp:408] data -> label
I0726 14:13:29.106834 31269 db_lmdb.cpp:35] Opened lmdb SHOPPE_2017/lmdb/SHOPPE_2017_trainval_lmdb
I0726 14:13:31.056650 31263 annotated_data_layer.cpp:62] output data size: 8,3,300,300
I0726 14:13:31.070686 31263 net.cpp:150] Setting up data
I0726 14:13:31.070713 31263 net.cpp:157] Top shape: 8 3 300 300 (2160000)
I0726 14:13:31.070718 31263 net.cpp:157] Top shape: 1 1 9 8 (72)
I0726 14:13:31.070742 31263 net.cpp:165] Memory required for data: 8640288
I0726 14:13:31.070752 31263 layer_factory.hpp:77] Creating layer data_data_0_split
I0726 14:13:31.070767 31263 net.cpp:100] Creating Layer data_data_0_split
I0726 14:13:31.070773 31263 net.cpp:434] data_data_0_split <- data
I0726 14:13:31.070807 31263 net.cpp:408] data_data_0_split -> data_data_0_split_0
I0726 14:13:31.070816 31263 net.cpp:408] data_data_0_split -> data_data_0_split_1
I0726 14:13:31.070822 31263 net.cpp:408] data_data_0_split -> data_data_0_split_2
I0726 14:13:31.070827 31263 net.cpp:408] data_data_0_split -> data_data_0_split_3
I0726 14:13:31.070830 31263 net.cpp:408] data_data_0_split -> data_data_0_split_4
I0726 14:13:31.070833 31263 net.cpp:408] data_data_0_split -> data_data_0_split_5
I0726 14:13:31.070837 31263 net.cpp:408] data_data_0_split -> data_data_0_split_6
I0726 14:13:31.070912 31263 net.cpp:150] Setting up data_data_0_split
I0726 14:13:31.070917 31263 net.cpp:157] Top shape: 8 3 300 300 (2160000)
I0726 14:13:31.070920 31263 net.cpp:157] Top shape: 8 3 300 300 (2160000)
I0726 14:13:31.070922 31263 net.cpp:157] Top shape: 8 3 300 300 (2160000)
I0726 14:13:31.070924 31263 net.cpp:157] Top shape: 8 3 300 300 (2160000)
I0726 14:13:31.070927 31263 net.cpp:157] Top shape: 8 3 300 300 (2160000)
I0726 14:13:31.070930 31263 net.cpp:157] Top shape: 8 3 300 300 (2160000)
I0726 14:13:31.070931 31263 net.cpp:157] Top shape: 8 3 300 300 (2160000)
I0726 14:13:31.070933 31263 net.cpp:165] Memory required for data: 69120288
I0726 14:13:31.070935 31263 layer_factory.hpp:77] Creating layer conv1_1
I0726 14:13:31.070947 31263 net.cpp:100] Creating Layer conv1_1
I0726 14:13:31.070950 31263 net.cpp:434] conv1_1 <- data_data_0_split_0
I0726 14:13:31.070953 31263 net.cpp:408] conv1_1 -> conv1_1
I0726 14:13:31.072260 31263 net.cpp:150] Setting up conv1_1
I0726 14:13:31.072271 31263 net.cpp:157] Top shape: 8 64 300 300 (46080000)
I0726 14:13:31.072274 31263 net.cpp:165] Memory required for data: 253440288
I0726 14:13:31.072288 31263 layer_factory.hpp:77] Creating layer relu1_1
I0726 14:13:31.072295 31263 net.cpp:100] Creating Layer relu1_1
I0726 14:13:31.072298 31263 net.cpp:434] relu1_1 <- conv1_1
I0726 14:13:31.072301 31263 net.cpp:395] relu1_1 -> conv1_1 (in-place)
I0726 14:13:31.072311 31263 net.cpp:150] Setting up relu1_1
I0726 14:13:31.072315 31263 net.cpp:157] Top shape: 8 64 300 300 (46080000)
I0726 14:13:31.072317 31263 net.cpp:165] Memory required for data: 437760288
I0726 14:13:31.072319 31263 layer_factory.hpp:77] Creating layer conv1_2
I0726 14:13:31.072325 31263 net.cpp:100] Creating Layer conv1_2
I0726 14:13:31.072329 31263 net.cpp:434] conv1_2 <- conv1_1
I0726 14:13:31.072332 31263 net.cpp:408] conv1_2 -> conv1_2
I0726 14:13:31.073266 31263 net.cpp:150] Setting up conv1_2
I0726 14:13:31.073274 31263 net.cpp:157] Top shape: 8 64 300 300 (46080000)
I0726 14:13:31.073277 31263 net.cpp:165] Memory required for data: 622080288
I0726 14:13:31.073282 31263 layer_factory.hpp:77] Creating layer relu1_2
I0726 14:13:31.073287 31263 net.cpp:100] Creating Layer relu1_2
I0726 14:13:31.073289 31263 net.cpp:434] relu1_2 <- conv1_2
I0726 14:13:31.073295 31263 net.cpp:395] relu1_2 -> conv1_2 (in-place)
I0726 14:13:31.073299 31263 net.cpp:150] Setting up relu1_2
I0726 14:13:31.073302 31263 net.cpp:157] Top shape: 8 64 300 300 (46080000)
I0726 14:13:31.073303 31263 net.cpp:165] Memory required for data: 806400288
I0726 14:13:31.073305 31263 layer_factory.hpp:77] Creating layer pool1
I0726 14:13:31.073312 31263 net.cpp:100] Creating Layer pool1
I0726 14:13:31.073313 31263 net.cpp:434] pool1 <- conv1_2
I0726 14:13:31.073317 31263 net.cpp:408] pool1 -> pool1
I0726 14:13:31.073348 31263 net.cpp:150] Setting up pool1
I0726 14:13:31.073352 31263 net.cpp:157] Top shape: 8 64 150 150 (11520000)
I0726 14:13:31.073354 31263 net.cpp:165] Memory required for data: 852480288
I0726 14:13:31.073356 31263 layer_factory.hpp:77] Creating layer conv2_1
I0726 14:13:31.073361 31263 net.cpp:100] Creating Layer conv2_1
I0726 14:13:31.073364 31263 net.cpp:434] conv2_1 <- pool1
I0726 14:13:31.073385 31263 net.cpp:408] conv2_1 -> conv2_1
I0726 14:13:31.073997 31263 net.cpp:150] Setting up conv2_1
I0726 14:13:31.074002 31263 net.cpp:157] Top shape: 8 128 150 150 (23040000)
I0726 14:13:31.074003 31263 net.cpp:165] Memory required for data: 944640288
I0726 14:13:31.074008 31263 layer_factory.hpp:77] Creating layer relu2_1
I0726 14:13:31.074012 31263 net.cpp:100] Creating Layer relu2_1
I0726 14:13:31.074018 31263 net.cpp:434] relu2_1 <- conv2_1
I0726 14:13:31.074020 31263 net.cpp:395] relu2_1 -> conv2_1 (in-place)
I0726 14:13:31.074023 31263 net.cpp:150] Setting up relu2_1
I0726 14:13:31.074025 31263 net.cpp:157] Top shape: 8 128 150 150 (23040000)
I0726 14:13:31.074028 31263 net.cpp:165] Memory required for data: 1036800288
I0726 14:13:31.074029 31263 layer_factory.hpp:77] Creating layer conv2_2
I0726 14:13:31.074034 31263 net.cpp:100] Creating Layer conv2_2
I0726 14:13:31.074039 31263 net.cpp:434] conv2_2 <- conv2_1
I0726 14:13:31.074051 31263 net.cpp:408] conv2_2 -> conv2_2
I0726 14:13:31.075165 31263 net.cpp:150] Setting up conv2_2
I0726 14:13:31.075171 31263 net.cpp:157] Top shape: 8 128 150 150 (23040000)
I0726 14:13:31.075175 31263 net.cpp:165] Memory required for data: 1128960288
I0726 14:13:31.075181 31263 layer_factory.hpp:77] Creating layer relu2_2
I0726 14:13:31.075186 31263 net.cpp:100] Creating Layer relu2_2
I0726 14:13:31.075191 31263 net.cpp:434] relu2_2 <- conv2_2
I0726 14:13:31.075194 31263 net.cpp:395] relu2_2 -> conv2_2 (in-place)
I0726 14:13:31.075201 31263 net.cpp:150] Setting up relu2_2
I0726 14:13:31.075232 31263 net.cpp:157] Top shape: 8 128 150 150 (23040000)
I0726 14:13:31.075237 31263 net.cpp:165] Memory required for data: 1221120288
I0726 14:13:31.075239 31263 layer_factory.hpp:77] Creating layer pool2
I0726 14:13:31.075245 31263 net.cpp:100] Creating Layer pool2
I0726 14:13:31.075249 31263 net.cpp:434] pool2 <- conv2_2
I0726 14:13:31.075253 31263 net.cpp:408] pool2 -> pool2
I0726 14:13:31.075281 31263 net.cpp:150] Setting up pool2
I0726 14:13:31.075287 31263 net.cpp:157] Top shape: 8 128 75 75 (5760000)
I0726 14:13:31.075289 31263 net.cpp:165] Memory required for data: 1244160288
I0726 14:13:31.075292 31263 layer_factory.hpp:77] Creating layer conv3_1
I0726 14:13:31.075300 31263 net.cpp:100] Creating Layer conv3_1
I0726 14:13:31.075304 31263 net.cpp:434] conv3_1 <- pool2
I0726 14:13:31.075310 31263 net.cpp:408] conv3_1 -> conv3_1
I0726 14:13:31.079373 31263 net.cpp:150] Setting up conv3_1
I0726 14:13:31.079391 31263 net.cpp:157] Top shape: 8 256 75 75 (11520000)
I0726 14:13:31.079394 31263 net.cpp:165] Memory required for data: 1290240288
I0726 14:13:31.079408 31263 layer_factory.hpp:77] Creating layer relu3_1
I0726 14:13:31.079452 31263 net.cpp:100] Creating Layer relu3_1
I0726 14:13:31.079478 31263 net.cpp:434] relu3_1 <- conv3_1
I0726 14:13:31.079485 31263 net.cpp:395] relu3_1 -> conv3_1 (in-place)
I0726 14:13:31.079495 31263 net.cpp:150] Setting up relu3_1
I0726 14:13:31.079499 31263 net.cpp:157] Top shape: 8 256 75 75 (11520000)
I0726 14:13:31.079502 31263 net.cpp:165] Memory required for data: 1336320288
I0726 14:13:31.079506 31263 layer_factory.hpp:77] Creating layer conv3_2
I0726 14:13:31.079516 31263 net.cpp:100] Creating Layer conv3_2
I0726 14:13:31.079520 31263 net.cpp:434] conv3_2 <- conv3_1
I0726 14:13:31.079526 31263 net.cpp:408] conv3_2 -> conv3_2
I0726 14:13:31.084363 31263 net.cpp:150] Setting up conv3_2
I0726 14:13:31.084417 31263 net.cpp:157] Top shape: 8 256 75 75 (11520000)
I0726 14:13:31.084424 31263 net.cpp:165] Memory required for data: 1382400288
I0726 14:13:31.084437 31263 layer_factory.hpp:77] Creating layer relu3_2
I0726 14:13:31.084465 31263 net.cpp:100] Creating Layer relu3_2
I0726 14:13:31.084472 31263 net.cpp:434] relu3_2 <- conv3_2
I0726 14:13:31.084484 31263 net.cpp:395] relu3_2 -> conv3_2 (in-place)
I0726 14:13:31.084499 31263 net.cpp:150] Setting up relu3_2
I0726 14:13:31.084504 31263 net.cpp:157] Top shape: 8 256 75 75 (11520000)
I0726 14:13:31.084507 31263 net.cpp:165] Memory required for data: 1428480288
I0726 14:13:31.084511 31263 layer_factory.hpp:77] Creating layer conv3_3
I0726 14:13:31.084558 31263 net.cpp:100] Creating Layer conv3_3
I0726 14:13:31.084563 31263 net.cpp:434] conv3_3 <- conv3_2
I0726 14:13:31.084568 31263 net.cpp:408] conv3_3 -> conv3_3
I0726 14:13:31.091737 31263 net.cpp:150] Setting up conv3_3
I0726 14:13:31.091758 31263 net.cpp:157] Top shape: 8 256 75 75 (11520000)
I0726 14:13:31.091763 31263 net.cpp:165] Memory required for data: 1474560288
I0726 14:13:31.091773 31263 layer_factory.hpp:77] Creating layer relu3_3
I0726 14:13:31.091783 31263 net.cpp:100] Creating Layer relu3_3
I0726 14:13:31.091789 31263 net.cpp:434] relu3_3 <- conv3_3
I0726 14:13:31.091796 31263 net.cpp:395] relu3_3 -> conv3_3 (in-place)
I0726 14:13:31.091805 31263 net.cpp:150] Setting up relu3_3
I0726 14:13:31.091810 31263 net.cpp:157] Top shape: 8 256 75 75 (11520000)
I0726 14:13:31.091812 31263 net.cpp:165] Memory required for data: 1520640288
I0726 14:13:31.091817 31263 layer_factory.hpp:77] Creating layer pool3
I0726 14:13:31.091825 31263 net.cpp:100] Creating Layer pool3
I0726 14:13:31.091828 31263 net.cpp:434] pool3 <- conv3_3
I0726 14:13:31.091833 31263 net.cpp:408] pool3 -> pool3
I0726 14:13:31.091871 31263 net.cpp:150] Setting up pool3
I0726 14:13:31.091886 31263 net.cpp:157] Top shape: 8 256 38 38 (2957312)
I0726 14:13:31.091892 31263 net.cpp:165] Memory required for data: 1532469536
I0726 14:13:31.091897 31263 layer_factory.hpp:77] Creating layer conv4_1
I0726 14:13:31.091912 31263 net.cpp:100] Creating Layer conv4_1
I0726 14:13:31.091917 31263 net.cpp:434] conv4_1 <- pool3
I0726 14:13:31.091922 31263 net.cpp:408] conv4_1 -> conv4_1
I0726 14:13:31.139770 31263 net.cpp:150] Setting up conv4_1
I0726 14:13:31.139806 31263 net.cpp:157] Top shape: 8 512 38 38 (5914624)
I0726 14:13:31.139820 31263 net.cpp:165] Memory required for data: 1556128032
I0726 14:13:31.139837 31263 layer_factory.hpp:77] Creating layer relu4_1
I0726 14:13:31.139853 31263 net.cpp:100] Creating Layer relu4_1
I0726 14:13:31.139859 31263 net.cpp:434] relu4_1 <- conv4_1
I0726 14:13:31.139866 31263 net.cpp:395] relu4_1 -> conv4_1 (in-place)
I0726 14:13:31.139880 31263 net.cpp:150] Setting up relu4_1
I0726 14:13:31.139885 31263 net.cpp:157] Top shape: 8 512 38 38 (5914624)
I0726 14:13:31.139889 31263 net.cpp:165] Memory required for data: 1579786528
I0726 14:13:31.139894 31263 layer_factory.hpp:77] Creating layer conv4_2
I0726 14:13:31.139904 31263 net.cpp:100] Creating Layer conv4_2
I0726 14:13:31.139916 31263 net.cpp:434] conv4_2 <- conv4_1
I0726 14:13:31.139925 31263 net.cpp:408] conv4_2 -> conv4_2
I0726 14:13:31.171293 31263 net.cpp:150] Setting up conv4_2
I0726 14:13:31.171325 31263 net.cpp:157] Top shape: 8 512 38 38 (5914624)
I0726 14:13:31.171335 31263 net.cpp:165] Memory required for data: 1603445024
I0726 14:13:31.171372 31263 layer_factory.hpp:77] Creating layer relu4_2
I0726 14:13:31.171382 31263 net.cpp:100] Creating Layer relu4_2
I0726 14:13:31.171392 31263 net.cpp:434] relu4_2 <- conv4_2
I0726 14:13:31.171406 31263 net.cpp:395] relu4_2 -> conv4_2 (in-place)
I0726 14:13:31.172026 31263 net.cpp:150] Setting up relu4_2
I0726 14:13:31.172051 31263 net.cpp:157] Top shape: 8 512 38 38 (5914624)
I0726 14:13:31.172070 31263 net.cpp:165] Memory required for data: 1627103520
I0726 14:13:31.172076 31263 layer_factory.hpp:77] Creating layer conv4_3
I0726 14:13:31.172092 31263 net.cpp:100] Creating Layer conv4_3
I0726 14:13:31.172098 31263 net.cpp:434] conv4_3 <- conv4_2
I0726 14:13:31.172107 31263 net.cpp:408] conv4_3 -> conv4_3
I0726 14:13:31.202309 31263 net.cpp:150] Setting up conv4_3
I0726 14:13:31.202342 31263 net.cpp:157] Top shape: 8 512 38 38 (5914624)
I0726 14:13:31.202344 31263 net.cpp:165] Memory required for data: 1650762016
I0726 14:13:31.202353 31263 layer_factory.hpp:77] Creating layer relu4_3
I0726 14:13:31.202363 31263 net.cpp:100] Creating Layer relu4_3
I0726 14:13:31.202368 31263 net.cpp:434] relu4_3 <- conv4_3
I0726 14:13:31.202376 31263 net.cpp:395] relu4_3 -> conv4_3 (in-place)
I0726 14:13:31.202390 31263 net.cpp:150] Setting up relu4_3
I0726 14:13:31.202426 31263 net.cpp:157] Top shape: 8 512 38 38 (5914624)
I0726 14:13:31.202450 31263 net.cpp:165] Memory required for data: 1674420512
I0726 14:13:31.202453 31263 layer_factory.hpp:77] Creating layer conv4_3_relu4_3_0_split
I0726 14:13:31.202458 31263 net.cpp:100] Creating Layer conv4_3_relu4_3_0_split
I0726 14:13:31.202466 31263 net.cpp:434] conv4_3_relu4_3_0_split <- conv4_3
I0726 14:13:31.202476 31263 net.cpp:408] conv4_3_relu4_3_0_split -> conv4_3_relu4_3_0_split_0
I0726 14:13:31.202484 31263 net.cpp:408] conv4_3_relu4_3_0_split -> conv4_3_relu4_3_0_split_1
I0726 14:13:31.202510 31263 net.cpp:150] Setting up conv4_3_relu4_3_0_split
I0726 14:13:31.202515 31263 net.cpp:157] Top shape: 8 512 38 38 (5914624)
I0726 14:13:31.202519 31263 net.cpp:157] Top shape: 8 512 38 38 (5914624)
I0726 14:13:31.202523 31263 net.cpp:165] Memory required for data: 1721737504
I0726 14:13:31.202527 31263 layer_factory.hpp:77] Creating layer pool4
I0726 14:13:31.202533 31263 net.cpp:100] Creating Layer pool4
I0726 14:13:31.202538 31263 net.cpp:434] pool4 <- conv4_3_relu4_3_0_split_0
I0726 14:13:31.202543 31263 net.cpp:408] pool4 -> pool4
I0726 14:13:31.202567 31263 net.cpp:150] Setting up pool4
I0726 14:13:31.202574 31263 net.cpp:157] Top shape: 8 512 19 19 (1478656)
I0726 14:13:31.202575 31263 net.cpp:165] Memory required for data: 1727652128
I0726 14:13:31.202580 31263 layer_factory.hpp:77] Creating layer conv5_1
I0726 14:13:31.202589 31263 net.cpp:100] Creating Layer conv5_1
I0726 14:13:31.202594 31263 net.cpp:434] conv5_1 <- pool4
I0726 14:13:31.202600 31263 net.cpp:408] conv5_1 -> conv5_1
I0726 14:13:31.228423 31263 net.cpp:150] Setting up conv5_1
I0726 14:13:31.228453 31263 net.cpp:157] Top shape: 8 512 19 19 (1478656)
I0726 14:13:31.228456 31263 net.cpp:165] Memory required for data: 1733566752
I0726 14:13:31.228467 31263 layer_factory.hpp:77] Creating layer relu5_1
I0726 14:13:31.228478 31263 net.cpp:100] Creating Layer relu5_1
I0726 14:13:31.228485 31263 net.cpp:434] relu5_1 <- conv5_1
I0726 14:13:31.228497 31263 net.cpp:395] relu5_1 -> conv5_1 (in-place)
I0726 14:13:31.228515 31263 net.cpp:150] Setting up relu5_1
I0726 14:13:31.228530 31263 net.cpp:157] Top shape: 8 512 19 19 (1478656)
I0726 14:13:31.228533 31263 net.cpp:165] Memory required for data: 1739481376
I0726 14:13:31.228536 31263 layer_factory.hpp:77] Creating layer conv5_2
I0726 14:13:31.228551 31263 net.cpp:100] Creating Layer conv5_2
I0726 14:13:31.228556 31263 net.cpp:434] conv5_2 <- conv5_1
I0726 14:13:31.228564 31263 net.cpp:408] conv5_2 -> conv5_2
I0726 14:13:31.293792 31263 net.cpp:150] Setting up conv5_2
I0726 14:13:31.293862 31263 net.cpp:157] Top shape: 8 512 19 19 (1478656)
I0726 14:13:31.293872 31263 net.cpp:165] Memory required for data: 1745396000
I0726 14:13:31.293897 31263 layer_factory.hpp:77] Creating layer relu5_2
I0726 14:13:31.293918 31263 net.cpp:100] Creating Layer relu5_2
I0726 14:13:31.293932 31263 net.cpp:434] relu5_2 <- conv5_2
I0726 14:13:31.293946 31263 net.cpp:395] relu5_2 -> conv5_2 (in-place)
I0726 14:13:31.293972 31263 net.cpp:150] Setting up relu5_2
I0726 14:13:31.293983 31263 net.cpp:157] Top shape: 8 512 19 19 (1478656)
I0726 14:13:31.293992 31263 net.cpp:165] Memory required for data: 1751310624
I0726 14:13:31.294000 31263 layer_factory.hpp:77] Creating layer conv5_3
I0726 14:13:31.294024 31263 net.cpp:100] Creating Layer conv5_3
I0726 14:13:31.294034 31263 net.cpp:434] conv5_3 <- conv5_2
I0726 14:13:31.294050 31263 net.cpp:408] conv5_3 -> conv5_3
I0726 14:13:31.338276 31263 net.cpp:150] Setting up conv5_3
I0726 14:13:31.338330 31263 net.cpp:157] Top shape: 8 512 19 19 (1478656)
I0726 14:13:31.338338 31263 net.cpp:165] Memory required for data: 1757225248
I0726 14:13:31.338361 31263 layer_factory.hpp:77] Creating layer relu5_3
I0726 14:13:31.338395 31263 net.cpp:100] Creating Layer relu5_3
I0726 14:13:31.338412 31263 net.cpp:434] relu5_3 <- conv5_3
I0726 14:13:31.338431 31263 net.cpp:395] relu5_3 -> conv5_3 (in-place)
I0726 14:13:31.338467 31263 net.cpp:150] Setting up relu5_3
I0726 14:13:31.338479 31263 net.cpp:157] Top shape: 8 512 19 19 (1478656)
I0726 14:13:31.338529 31263 net.cpp:165] Memory required for data: 1763139872
I0726 14:13:31.338541 31263 layer_factory.hpp:77] Creating layer pool5
I0726 14:13:31.338557 31263 net.cpp:100] Creating Layer pool5
I0726 14:13:31.338567 31263 net.cpp:434] pool5 <- conv5_3
I0726 14:13:31.338583 31263 net.cpp:408] pool5 -> pool5
I0726 14:13:31.338692 31263 net.cpp:150] Setting up pool5
I0726 14:13:31.338706 31263 net.cpp:157] Top shape: 8 512 19 19 (1478656)
I0726 14:13:31.338712 31263 net.cpp:165] Memory required for data: 1769054496
I0726 14:13:31.338721 31263 layer_factory.hpp:77] Creating layer fc6
I0726 14:13:31.338747 31263 net.cpp:100] Creating Layer fc6
I0726 14:13:31.338757 31263 net.cpp:434] fc6 <- pool5
I0726 14:13:31.338771 31263 net.cpp:408] fc6 -> fc6
I0726 14:13:31.418769 31263 net.cpp:150] Setting up fc6
I0726 14:13:31.418817 31263 net.cpp:157] Top shape: 8 1024 19 19 (2957312)
I0726 14:13:31.418824 31263 net.cpp:165] Memory required for data: 1780883744
I0726 14:13:31.418848 31263 layer_factory.hpp:77] Creating layer relu6
I0726 14:13:31.418884 31263 net.cpp:100] Creating Layer relu6
I0726 14:13:31.418896 31263 net.cpp:434] relu6 <- fc6
I0726 14:13:31.418913 31263 net.cpp:395] relu6 -> fc6 (in-place)
I0726 14:13:31.418939 31263 net.cpp:150] Setting up relu6
I0726 14:13:31.418954 31263 net.cpp:157] Top shape: 8 1024 19 19 (2957312)
I0726 14:13:31.418963 31263 net.cpp:165] Memory required for data: 1792712992
I0726 14:13:31.418970 31263 layer_factory.hpp:77] Creating layer fc7
I0726 14:13:31.418992 31263 net.cpp:100] Creating Layer fc7
I0726 14:13:31.419003 31263 net.cpp:434] fc7 <- fc6
I0726 14:13:31.419019 31263 net.cpp:408] fc7 -> fc7
I0726 14:13:31.429843 31263 net.cpp:150] Setting up fc7
I0726 14:13:31.429869 31263 net.cpp:157] Top shape: 8 1024 19 19 (2957312)
I0726 14:13:31.429873 31263 net.cpp:165] Memory required for data: 1804542240
I0726 14:13:31.429883 31263 layer_factory.hpp:77] Creating layer relu7
I0726 14:13:31.429893 31263 net.cpp:100] Creating Layer relu7
I0726 14:13:31.429898 31263 net.cpp:434] relu7 <- fc7
I0726 14:13:31.429904 31263 net.cpp:395] relu7 -> fc7 (in-place)
I0726 14:13:31.429934 31263 net.cpp:150] Setting up relu7
I0726 14:13:31.429939 31263 net.cpp:157] Top shape: 8 1024 19 19 (2957312)
I0726 14:13:31.429941 31263 net.cpp:165] Memory required for data: 1816371488
I0726 14:13:31.429944 31263 layer_factory.hpp:77] Creating layer fc7_relu7_0_split
I0726 14:13:31.429950 31263 net.cpp:100] Creating Layer fc7_relu7_0_split
I0726 14:13:31.429952 31263 net.cpp:434] fc7_relu7_0_split <- fc7
I0726 14:13:31.429957 31263 net.cpp:408] fc7_relu7_0_split -> fc7_relu7_0_split_0
I0726 14:13:31.429965 31263 net.cpp:408] fc7_relu7_0_split -> fc7_relu7_0_split_1
I0726 14:13:31.429975 31263 net.cpp:408] fc7_relu7_0_split -> fc7_relu7_0_split_2
I0726 14:13:31.429980 31263 net.cpp:408] fc7_relu7_0_split -> fc7_relu7_0_split_3
I0726 14:13:31.430027 31263 net.cpp:150] Setting up fc7_relu7_0_split
I0726 14:13:31.430032 31263 net.cpp:157] Top shape: 8 1024 19 19 (2957312)
I0726 14:13:31.430037 31263 net.cpp:157] Top shape: 8 1024 19 19 (2957312)
I0726 14:13:31.430042 31263 net.cpp:157] Top shape: 8 1024 19 19 (2957312)
I0726 14:13:31.430044 31263 net.cpp:157] Top shape: 8 1024 19 19 (2957312)
I0726 14:13:31.430047 31263 net.cpp:165] Memory required for data: 1863688480
I0726 14:13:31.430048 31263 layer_factory.hpp:77] Creating layer conv6_1
I0726 14:13:31.430058 31263 net.cpp:100] Creating Layer conv6_1
I0726 14:13:31.430061 31263 net.cpp:434] conv6_1 <- fc7_relu7_0_split_0
I0726 14:13:31.430068 31263 net.cpp:408] conv6_1 -> conv6_1
I0726 14:13:31.432842 31263 net.cpp:150] Setting up conv6_1
I0726 14:13:31.432859 31263 net.cpp:157] Top shape: 8 256 19 19 (739328)
I0726 14:13:31.432862 31263 net.cpp:165] Memory required for data: 1866645792
I0726 14:13:31.432873 31263 layer_factory.hpp:77] Creating layer conv6_1_relu
I0726 14:13:31.432894 31263 net.cpp:100] Creating Layer conv6_1_relu
I0726 14:13:31.432909 31263 net.cpp:434] conv6_1_relu <- conv6_1
I0726 14:13:31.432916 31263 net.cpp:395] conv6_1_relu -> conv6_1 (in-place)
I0726 14:13:31.432945 31263 net.cpp:150] Setting up conv6_1_relu
I0726 14:13:31.432955 31263 net.cpp:157] Top shape: 8 256 19 19 (739328)
I0726 14:13:31.432957 31263 net.cpp:165] Memory required for data: 1869603104
I0726 14:13:31.432960 31263 layer_factory.hpp:77] Creating layer conv6_2
I0726 14:13:31.432971 31263 net.cpp:100] Creating Layer conv6_2
I0726 14:13:31.432976 31263 net.cpp:434] conv6_2 <- conv6_1
I0726 14:13:31.432983 31263 net.cpp:408] conv6_2 -> conv6_2
I0726 14:13:31.442031 31263 net.cpp:150] Setting up conv6_2
I0726 14:13:31.442082 31263 net.cpp:157] Top shape: 8 512 10 10 (409600)
I0726 14:13:31.442085 31263 net.cpp:165] Memory required for data: 1871241504
I0726 14:13:31.442106 31263 layer_factory.hpp:77] Creating layer conv6_2_relu
I0726 14:13:31.442119 31263 net.cpp:100] Creating Layer conv6_2_relu
I0726 14:13:31.442126 31263 net.cpp:434] conv6_2_relu <- conv6_2
I0726 14:13:31.442134 31263 net.cpp:395] conv6_2_relu -> conv6_2 (in-place)
I0726 14:13:31.442147 31263 net.cpp:150] Setting up conv6_2_relu
I0726 14:13:31.442157 31263 net.cpp:157] Top shape: 8 512 10 10 (409600)
I0726 14:13:31.442162 31263 net.cpp:165] Memory required for data: 1872879904
I0726 14:13:31.442164 31263 layer_factory.hpp:77] Creating layer conv6_2_conv6_2_relu_0_split
I0726 14:13:31.442170 31263 net.cpp:100] Creating Layer conv6_2_conv6_2_relu_0_split
I0726 14:13:31.442173 31263 net.cpp:434] conv6_2_conv6_2_relu_0_split <- conv6_2
I0726 14:13:31.442178 31263 net.cpp:408] conv6_2_conv6_2_relu_0_split -> conv6_2_conv6_2_relu_0_split_0
I0726 14:13:31.442185 31263 net.cpp:408] conv6_2_conv6_2_relu_0_split -> conv6_2_conv6_2_relu_0_split_1
I0726 14:13:31.442190 31263 net.cpp:408] conv6_2_conv6_2_relu_0_split -> conv6_2_conv6_2_relu_0_split_2
I0726 14:13:31.442194 31263 net.cpp:408] conv6_2_conv6_2_relu_0_split -> conv6_2_conv6_2_relu_0_split_3
I0726 14:13:31.442245 31263 net.cpp:150] Setting up conv6_2_conv6_2_relu_0_split
I0726 14:13:31.442250 31263 net.cpp:157] Top shape: 8 512 10 10 (409600)
I0726 14:13:31.442255 31263 net.cpp:157] Top shape: 8 512 10 10 (409600)
I0726 14:13:31.442258 31263 net.cpp:157] Top shape: 8 512 10 10 (409600)
I0726 14:13:31.442262 31263 net.cpp:157] Top shape: 8 512 10 10 (409600)
I0726 14:13:31.442265 31263 net.cpp:165] Memory required for data: 1879433504
I0726 14:13:31.442268 31263 layer_factory.hpp:77] Creating layer conv7_1
I0726 14:13:31.442277 31263 net.cpp:100] Creating Layer conv7_1
I0726 14:13:31.442282 31263 net.cpp:434] conv7_1 <- conv6_2_conv6_2_relu_0_split_0
I0726 14:13:31.442288 31263 net.cpp:408] conv7_1 -> conv7_1
I0726 14:13:31.442878 31263 net.cpp:150] Setting up conv7_1
I0726 14:13:31.442884 31263 net.cpp:157] Top shape: 8 128 10 10 (102400)
I0726 14:13:31.442888 31263 net.cpp:165] Memory required for data: 1879843104
I0726 14:13:31.442894 31263 layer_factory.hpp:77] Creating layer conv7_1_relu
I0726 14:13:31.442899 31263 net.cpp:100] Creating Layer conv7_1_relu
I0726 14:13:31.442903 31263 net.cpp:434] conv7_1_relu <- conv7_1
I0726 14:13:31.442909 31263 net.cpp:395] conv7_1_relu -> conv7_1 (in-place)
I0726 14:13:31.442914 31263 net.cpp:150] Setting up conv7_1_relu
I0726 14:13:31.442919 31263 net.cpp:157] Top shape: 8 128 10 10 (102400)
I0726 14:13:31.442921 31263 net.cpp:165] Memory required for data: 1880252704
I0726 14:13:31.442925 31263 layer_factory.hpp:77] Creating layer conv7_2
I0726 14:13:31.442934 31263 net.cpp:100] Creating Layer conv7_2
I0726 14:13:31.442936 31263 net.cpp:434] conv7_2 <- conv7_1
I0726 14:13:31.442942 31263 net.cpp:408] conv7_2 -> conv7_2
I0726 14:13:31.445763 31263 net.cpp:150] Setting up conv7_2
I0726 14:13:31.445781 31263 net.cpp:157] Top shape: 8 256 5 5 (51200)
I0726 14:13:31.445785 31263 net.cpp:165] Memory required for data: 1880457504
I0726 14:13:31.445792 31263 layer_factory.hpp:77] Creating layer conv7_2_relu
I0726 14:13:31.445801 31263 net.cpp:100] Creating Layer conv7_2_relu
I0726 14:13:31.445806 31263 net.cpp:434] conv7_2_relu <- conv7_2
I0726 14:13:31.445811 31263 net.cpp:395] conv7_2_relu -> conv7_2 (in-place)
I0726 14:13:31.445845 31263 net.cpp:150] Setting up conv7_2_relu
I0726 14:13:31.445852 31263 net.cpp:157] Top shape: 8 256 5 5 (51200)
I0726 14:13:31.445853 31263 net.cpp:165] Memory required for data: 1880662304
I0726 14:13:31.445858 31263 layer_factory.hpp:77] Creating layer conv7_2_conv7_2_relu_0_split
I0726 14:13:31.445866 31263 net.cpp:100] Creating Layer conv7_2_conv7_2_relu_0_split
I0726 14:13:31.445870 31263 net.cpp:434] conv7_2_conv7_2_relu_0_split <- conv7_2
I0726 14:13:31.445876 31263 net.cpp:408] conv7_2_conv7_2_relu_0_split -> conv7_2_conv7_2_relu_0_split_0
I0726 14:13:31.445883 31263 net.cpp:408] conv7_2_conv7_2_relu_0_split -> conv7_2_conv7_2_relu_0_split_1
I0726 14:13:31.445896 31263 net.cpp:408] conv7_2_conv7_2_relu_0_split -> conv7_2_conv7_2_relu_0_split_2
I0726 14:13:31.445905 31263 net.cpp:408] conv7_2_conv7_2_relu_0_split -> conv7_2_conv7_2_relu_0_split_3
I0726 14:13:31.445969 31263 net.cpp:150] Setting up conv7_2_conv7_2_relu_0_split
I0726 14:13:31.445976 31263 net.cpp:157] Top shape: 8 256 5 5 (51200)
I0726 14:13:31.445979 31263 net.cpp:157] Top shape: 8 256 5 5 (51200)
I0726 14:13:31.445983 31263 net.cpp:157] Top shape: 8 256 5 5 (51200)
I0726 14:13:31.445988 31263 net.cpp:157] Top shape: 8 256 5 5 (51200)
I0726 14:13:31.445991 31263 net.cpp:165] Memory required for data: 1881481504
I0726 14:13:31.445994 31263 layer_factory.hpp:77] Creating layer conv8_1
I0726 14:13:31.446003 31263 net.cpp:100] Creating Layer conv8_1
I0726 14:13:31.446007 31263 net.cpp:434] conv8_1 <- conv7_2_conv7_2_relu_0_split_0
I0726 14:13:31.446013 31263 net.cpp:408] conv8_1 -> conv8_1
I0726 14:13:31.446409 31263 net.cpp:150] Setting up conv8_1
I0726 14:13:31.446416 31263 net.cpp:157] Top shape: 8 128 5 5 (25600)
I0726 14:13:31.446419 31263 net.cpp:165] Memory required for data: 1881583904
I0726 14:13:31.446425 31263 layer_factory.hpp:77] Creating layer conv8_1_relu
I0726 14:13:31.446430 31263 net.cpp:100] Creating Layer conv8_1_relu
I0726 14:13:31.446435 31263 net.cpp:434] conv8_1_relu <- conv8_1
I0726 14:13:31.446440 31263 net.cpp:395] conv8_1_relu -> conv8_1 (in-place)
I0726 14:13:31.446446 31263 net.cpp:150] Setting up conv8_1_relu
I0726 14:13:31.446450 31263 net.cpp:157] Top shape: 8 128 5 5 (25600)
I0726 14:13:31.446455 31263 net.cpp:165] Memory required for data: 1881686304
I0726 14:13:31.446457 31263 layer_factory.hpp:77] Creating layer conv8_2
I0726 14:13:31.446466 31263 net.cpp:100] Creating Layer conv8_2
I0726 14:13:31.446470 31263 net.cpp:434] conv8_2 <- conv8_1
I0726 14:13:31.446477 31263 net.cpp:408] conv8_2 -> conv8_2
I0726 14:13:31.449867 31263 net.cpp:150] Setting up conv8_2
I0726 14:13:31.449975 31263 net.cpp:157] Top shape: 8 256 3 3 (18432)
I0726 14:13:31.450009 31263 net.cpp:165] Memory required for data: 1881760032
I0726 14:13:31.450039 31263 layer_factory.hpp:77] Creating layer conv8_2_relu
I0726 14:13:31.450074 31263 net.cpp:100] Creating Layer conv8_2_relu
I0726 14:13:31.450093 31263 net.cpp:434] conv8_2_relu <- conv8_2
I0726 14:13:31.450119 31263 net.cpp:395] conv8_2_relu -> conv8_2 (in-place)
I0726 14:13:31.450139 31263 net.cpp:150] Setting up conv8_2_relu
I0726 14:13:31.450150 31263 net.cpp:157] Top shape: 8 256 3 3 (18432)
I0726 14:13:31.450153 31263 net.cpp:165] Memory required for data: 1881833760
I0726 14:13:31.450157 31263 layer_factory.hpp:77] Creating layer conv8_2_conv8_2_relu_0_split
I0726 14:13:31.450165 31263 net.cpp:100] Creating Layer conv8_2_conv8_2_relu_0_split
I0726 14:13:31.450167 31263 net.cpp:434] conv8_2_conv8_2_relu_0_split <- conv8_2
I0726 14:13:31.450173 31263 net.cpp:408] conv8_2_conv8_2_relu_0_split -> conv8_2_conv8_2_relu_0_split_0
I0726 14:13:31.450188 31263 net.cpp:408] conv8_2_conv8_2_relu_0_split -> conv8_2_conv8_2_relu_0_split_1
I0726 14:13:31.450199 31263 net.cpp:408] conv8_2_conv8_2_relu_0_split -> conv8_2_conv8_2_relu_0_split_2
I0726 14:13:31.450206 31263 net.cpp:408] conv8_2_conv8_2_relu_0_split -> conv8_2_conv8_2_relu_0_split_3
I0726 14:13:31.450269 31263 net.cpp:150] Setting up conv8_2_conv8_2_relu_0_split
I0726 14:13:31.450299 31263 net.cpp:157] Top shape: 8 256 3 3 (18432)
I0726 14:13:31.450359 31263 net.cpp:157] Top shape: 8 256 3 3 (18432)
I0726 14:13:31.450364 31263 net.cpp:157] Top shape: 8 256 3 3 (18432)
I0726 14:13:31.450368 31263 net.cpp:157] Top shape: 8 256 3 3 (18432)
I0726 14:13:31.450371 31263 net.cpp:165] Memory required for data: 1882128672
I0726 14:13:31.450376 31263 layer_factory.hpp:77] Creating layer conv9_1
I0726 14:13:31.450387 31263 net.cpp:100] Creating Layer conv9_1
I0726 14:13:31.450392 31263 net.cpp:434] conv9_1 <- conv8_2_conv8_2_relu_0_split_0
I0726 14:13:31.450397 31263 net.cpp:408] conv9_1 -> conv9_1
I0726 14:13:31.450757 31263 net.cpp:150] Setting up conv9_1
I0726 14:13:31.450763 31263 net.cpp:157] Top shape: 8 128 3 3 (9216)
I0726 14:13:31.450767 31263 net.cpp:165] Memory required for data: 1882165536
I0726 14:13:31.450773 31263 layer_factory.hpp:77] Creating layer conv9_1_relu
I0726 14:13:31.450778 31263 net.cpp:100] Creating Layer conv9_1_relu
I0726 14:13:31.450783 31263 net.cpp:434] conv9_1_relu <- conv9_1
I0726 14:13:31.450786 31263 net.cpp:395] conv9_1_relu -> conv9_1 (in-place)
I0726 14:13:31.450793 31263 net.cpp:150] Setting up conv9_1_relu
I0726 14:13:31.450799 31263 net.cpp:157] Top shape: 8 128 3 3 (9216)
I0726 14:13:31.450803 31263 net.cpp:165] Memory required for data: 1882202400
I0726 14:13:31.450805 31263 layer_factory.hpp:77] Creating layer conv9_2
I0726 14:13:31.450814 31263 net.cpp:100] Creating Layer conv9_2
I0726 14:13:31.450817 31263 net.cpp:434] conv9_2 <- conv9_1
I0726 14:13:31.450824 31263 net.cpp:408] conv9_2 -> conv9_2
I0726 14:13:31.453783 31263 net.cpp:150] Setting up conv9_2
I0726 14:13:31.453811 31263 net.cpp:157] Top shape: 8 256 1 1 (2048)
I0726 14:13:31.453816 31263 net.cpp:165] Memory required for data: 1882210592
I0726 14:13:31.453832 31263 layer_factory.hpp:77] Creating layer conv9_2_relu
I0726 14:13:31.453846 31263 net.cpp:100] Creating Layer conv9_2_relu
I0726 14:13:31.453853 31263 net.cpp:434] conv9_2_relu <- conv9_2
I0726 14:13:31.453860 31263 net.cpp:395] conv9_2_relu -> conv9_2 (in-place)
I0726 14:13:31.453871 31263 net.cpp:150] Setting up conv9_2_relu
I0726 14:13:31.453889 31263 net.cpp:157] Top shape: 8 256 1 1 (2048)
I0726 14:13:31.453892 31263 net.cpp:165] Memory required for data: 1882218784
I0726 14:13:31.453896 31263 layer_factory.hpp:77] Creating layer conv9_2_conv9_2_relu_0_split
I0726 14:13:31.453903 31263 net.cpp:100] Creating Layer conv9_2_conv9_2_relu_0_split
I0726 14:13:31.453907 31263 net.cpp:434] conv9_2_conv9_2_relu_0_split <- conv9_2
I0726 14:13:31.453912 31263 net.cpp:408] conv9_2_conv9_2_relu_0_split -> conv9_2_conv9_2_relu_0_split_0
I0726 14:13:31.453920 31263 net.cpp:408] conv9_2_conv9_2_relu_0_split -> conv9_2_conv9_2_relu_0_split_1
I0726 14:13:31.453927 31263 net.cpp:408] conv9_2_conv9_2_relu_0_split -> conv9_2_conv9_2_relu_0_split_2
I0726 14:13:31.453975 31263 net.cpp:150] Setting up conv9_2_conv9_2_relu_0_split
I0726 14:13:31.453980 31263 net.cpp:157] Top shape: 8 256 1 1 (2048)
I0726 14:13:31.453985 31263 net.cpp:157] Top shape: 8 256 1 1 (2048)
I0726 14:13:31.453989 31263 net.cpp:157] Top shape: 8 256 1 1 (2048)
I0726 14:13:31.453992 31263 net.cpp:165] Memory required for data: 1882243360
I0726 14:13:31.453995 31263 layer_factory.hpp:77] Creating layer conv4_3_norm
I0726 14:13:31.454015 31263 net.cpp:100] Creating Layer conv4_3_norm
I0726 14:13:31.454018 31263 net.cpp:434] conv4_3_norm <- conv4_3_relu4_3_0_split_1
I0726 14:13:31.454025 31263 net.cpp:408] conv4_3_norm -> conv4_3_norm
I0726 14:13:31.454144 31263 net.cpp:150] Setting up conv4_3_norm
I0726 14:13:31.454149 31263 net.cpp:157] Top shape: 8 512 38 38 (5914624)
I0726 14:13:31.454152 31263 net.cpp:165] Memory required for data: 1905901856
I0726 14:13:31.454159 31263 layer_factory.hpp:77] Creating layer conv4_3_norm_conv4_3_norm_0_split
I0726 14:13:31.454164 31263 net.cpp:100] Creating Layer conv4_3_norm_conv4_3_norm_0_split
I0726 14:13:31.454167 31263 net.cpp:434] conv4_3_norm_conv4_3_norm_0_split <- conv4_3_norm
I0726 14:13:31.454174 31263 net.cpp:408] conv4_3_norm_conv4_3_norm_0_split -> conv4_3_norm_conv4_3_norm_0_split_0
I0726 14:13:31.454203 31263 net.cpp:408] conv4_3_norm_conv4_3_norm_0_split -> conv4_3_norm_conv4_3_norm_0_split_1
I0726 14:13:31.454210 31263 net.cpp:408] conv4_3_norm_conv4_3_norm_0_split -> conv4_3_norm_conv4_3_norm_0_split_2
I0726 14:13:31.454248 31263 net.cpp:150] Setting up conv4_3_norm_conv4_3_norm_0_split
I0726 14:13:31.454254 31263 net.cpp:157] Top shape: 8 512 38 38 (5914624)
I0726 14:13:31.454258 31263 net.cpp:157] Top shape: 8 512 38 38 (5914624)
I0726 14:13:31.454262 31263 net.cpp:157] Top shape: 8 512 38 38 (5914624)
I0726 14:13:31.454267 31263 net.cpp:165] Memory required for data: 1976877344
I0726 14:13:31.454269 31263 layer_factory.hpp:77] Creating layer conv4_3_norm_mbox_loc
I0726 14:13:31.454279 31263 net.cpp:100] Creating Layer conv4_3_norm_mbox_loc
I0726 14:13:31.454284 31263 net.cpp:434] conv4_3_norm_mbox_loc <- conv4_3_norm_conv4_3_norm_0_split_0
I0726 14:13:31.454290 31263 net.cpp:408] conv4_3_norm_mbox_loc -> conv4_3_norm_mbox_loc
I0726 14:13:31.454928 31263 net.cpp:150] Setting up conv4_3_norm_mbox_loc
I0726 14:13:31.454934 31263 net.cpp:157] Top shape: 8 16 38 38 (184832)
I0726 14:13:31.454937 31263 net.cpp:165] Memory required for data: 1977616672
I0726 14:13:31.454944 31263 layer_factory.hpp:77] Creating layer conv4_3_norm_mbox_loc_perm
I0726 14:13:31.454958 31263 net.cpp:100] Creating Layer conv4_3_norm_mbox_loc_perm
I0726 14:13:31.454962 31263 net.cpp:434] conv4_3_norm_mbox_loc_perm <- conv4_3_norm_mbox_loc
I0726 14:13:31.454967 31263 net.cpp:408] conv4_3_norm_mbox_loc_perm -> conv4_3_norm_mbox_loc_perm
I0726 14:13:31.455031 31263 net.cpp:150] Setting up conv4_3_norm_mbox_loc_perm
I0726 14:13:31.455037 31263 net.cpp:157] Top shape: 8 38 38 16 (184832)
I0726 14:13:31.455040 31263 net.cpp:165] Memory required for data: 1978356000
I0726 14:13:31.455044 31263 layer_factory.hpp:77] Creating layer conv4_3_norm_mbox_loc_flat
I0726 14:13:31.455049 31263 net.cpp:100] Creating Layer conv4_3_norm_mbox_loc_flat
I0726 14:13:31.455054 31263 net.cpp:434] conv4_3_norm_mbox_loc_flat <- conv4_3_norm_mbox_loc_perm
I0726 14:13:31.455058 31263 net.cpp:408] conv4_3_norm_mbox_loc_flat -> conv4_3_norm_mbox_loc_flat
I0726 14:13:31.455090 31263 net.cpp:150] Setting up conv4_3_norm_mbox_loc_flat
I0726 14:13:31.455097 31263 net.cpp:157] Top shape: 8 23104 (184832)
I0726 14:13:31.455101 31263 net.cpp:165] Memory required for data: 1979095328
I0726 14:13:31.455102 31263 layer_factory.hpp:77] Creating layer conv4_3_norm_mbox_conf
I0726 14:13:31.455144 31263 net.cpp:100] Creating Layer conv4_3_norm_mbox_conf
I0726 14:13:31.455148 31263 net.cpp:434] conv4_3_norm_mbox_conf <- conv4_3_norm_conv4_3_norm_0_split_1
I0726 14:13:31.455155 31263 net.cpp:408] conv4_3_norm_mbox_conf -> conv4_3_norm_mbox_conf
I0726 14:13:31.464342 31263 net.cpp:150] Setting up conv4_3_norm_mbox_conf
I0726 14:13:31.464371 31263 net.cpp:157] Top shape: 8 236 38 38 (2726272)
I0726 14:13:31.464375 31263 net.cpp:165] Memory required for data: 1990000416
I0726 14:13:31.464388 31263 layer_factory.hpp:77] Creating layer conv4_3_norm_mbox_conf_perm
I0726 14:13:31.464406 31263 net.cpp:100] Creating Layer conv4_3_norm_mbox_conf_perm
I0726 14:13:31.464413 31263 net.cpp:434] conv4_3_norm_mbox_conf_perm <- conv4_3_norm_mbox_conf
I0726 14:13:31.464426 31263 net.cpp:408] conv4_3_norm_mbox_conf_perm -> conv4_3_norm_mbox_conf_perm
I0726 14:13:31.464517 31263 net.cpp:150] Setting up conv4_3_norm_mbox_conf_perm
I0726 14:13:31.464524 31263 net.cpp:157] Top shape: 8 38 38 236 (2726272)
I0726 14:13:31.464526 31263 net.cpp:165] Memory required for data: 2000905504
I0726 14:13:31.464529 31263 layer_factory.hpp:77] Creating layer conv4_3_norm_mbox_conf_flat
I0726 14:13:31.464535 31263 net.cpp:100] Creating Layer conv4_3_norm_mbox_conf_flat
I0726 14:13:31.464540 31263 net.cpp:434] conv4_3_norm_mbox_conf_flat <- conv4_3_norm_mbox_conf_perm
I0726 14:13:31.464543 31263 net.cpp:408] conv4_3_norm_mbox_conf_flat -> conv4_3_norm_mbox_conf_flat
I0726 14:13:31.464563 31263 net.cpp:150] Setting up conv4_3_norm_mbox_conf_flat
I0726 14:13:31.464570 31263 net.cpp:157] Top shape: 8 340784 (2726272)
I0726 14:13:31.464588 31263 net.cpp:165] Memory required for data: 2011810592
I0726 14:13:31.464591 31263 layer_factory.hpp:77] Creating layer conv4_3_norm_mbox_priorbox
I0726 14:13:31.464604 31263 net.cpp:100] Creating Layer conv4_3_norm_mbox_priorbox
I0726 14:13:31.464609 31263 net.cpp:434] conv4_3_norm_mbox_priorbox <- conv4_3_norm_conv4_3_norm_0_split_2
I0726 14:13:31.464622 31263 net.cpp:434] conv4_3_norm_mbox_priorbox <- data_data_0_split_1
I0726 14:13:31.464632 31263 net.cpp:408] conv4_3_norm_mbox_priorbox -> conv4_3_norm_mbox_priorbox
I0726 14:13:31.464660 31263 net.cpp:150] Setting up conv4_3_norm_mbox_priorbox
I0726 14:13:31.464666 31263 net.cpp:157] Top shape: 1 2 23104 (46208)
I0726 14:13:31.464669 31263 net.cpp:165] Memory required for data: 2011995424
I0726 14:13:31.464673 31263 layer_factory.hpp:77] Creating layer fc7_mbox_loc
I0726 14:13:31.464682 31263 net.cpp:100] Creating Layer fc7_mbox_loc
I0726 14:13:31.464687 31263 net.cpp:434] fc7_mbox_loc <- fc7_relu7_0_split_1
I0726 14:13:31.464694 31263 net.cpp:408] fc7_mbox_loc -> fc7_mbox_loc
I0726 14:13:31.466321 31263 net.cpp:150] Setting up fc7_mbox_loc
I0726 14:13:31.466329 31263 net.cpp:157] Top shape: 8 24 19 19 (69312)
I0726 14:13:31.466333 31263 net.cpp:165] Memory required for data: 2012272672
I0726 14:13:31.466339 31263 layer_factory.hpp:77] Creating layer fc7_mbox_loc_perm
I0726 14:13:31.466346 31263 net.cpp:100] Creating Layer fc7_mbox_loc_perm
I0726 14:13:31.466349 31263 net.cpp:434] fc7_mbox_loc_perm <- fc7_mbox_loc
I0726 14:13:31.466356 31263 net.cpp:408] fc7_mbox_loc_perm -> fc7_mbox_loc_perm
I0726 14:13:31.466421 31263 net.cpp:150] Setting up fc7_mbox_loc_perm
I0726 14:13:31.466428 31263 net.cpp:157] Top shape: 8 19 19 24 (69312)
I0726 14:13:31.466430 31263 net.cpp:165] Memory required for data: 2012549920
I0726 14:13:31.466434 31263 layer_factory.hpp:77] Creating layer fc7_mbox_loc_flat
I0726 14:13:31.466439 31263 net.cpp:100] Creating Layer fc7_mbox_loc_flat
I0726 14:13:31.466442 31263 net.cpp:434] fc7_mbox_loc_flat <- fc7_mbox_loc_perm
I0726 14:13:31.466447 31263 net.cpp:408] fc7_mbox_loc_flat -> fc7_mbox_loc_flat
I0726 14:13:31.466467 31263 net.cpp:150] Setting up fc7_mbox_loc_flat
I0726 14:13:31.466473 31263 net.cpp:157] Top shape: 8 8664 (69312)
I0726 14:13:31.466477 31263 net.cpp:165] Memory required for data: 2012827168
I0726 14:13:31.466480 31263 layer_factory.hpp:77] Creating layer fc7_mbox_conf
I0726 14:13:31.466488 31263 net.cpp:100] Creating Layer fc7_mbox_conf
I0726 14:13:31.466492 31263 net.cpp:434] fc7_mbox_conf <- fc7_relu7_0_split_2
I0726 14:13:31.466498 31263 net.cpp:408] fc7_mbox_conf -> fc7_mbox_conf
I0726 14:13:31.498580 31263 net.cpp:150] Setting up fc7_mbox_conf
I0726 14:13:31.498610 31263 net.cpp:157] Top shape: 8 354 19 19 (1022352)
I0726 14:13:31.498613 31263 net.cpp:165] Memory required for data: 2016916576
I0726 14:13:31.498628 31263 layer_factory.hpp:77] Creating layer fc7_mbox_conf_perm
I0726 14:13:31.498644 31263 net.cpp:100] Creating Layer fc7_mbox_conf_perm
I0726 14:13:31.498677 31263 net.cpp:434] fc7_mbox_conf_perm <- fc7_mbox_conf
I0726 14:13:31.498687 31263 net.cpp:408] fc7_mbox_conf_perm -> fc7_mbox_conf_perm
I0726 14:13:31.498762 31263 net.cpp:150] Setting up fc7_mbox_conf_perm
I0726 14:13:31.498769 31263 net.cpp:157] Top shape: 8 19 19 354 (1022352)
I0726 14:13:31.498772 31263 net.cpp:165] Memory required for data: 2021005984
I0726 14:13:31.498775 31263 layer_factory.hpp:77] Creating layer fc7_mbox_conf_flat
I0726 14:13:31.498781 31263 net.cpp:100] Creating Layer fc7_mbox_conf_flat
I0726 14:13:31.498786 31263 net.cpp:434] fc7_mbox_conf_flat <- fc7_mbox_conf_perm
I0726 14:13:31.498791 31263 net.cpp:408] fc7_mbox_conf_flat -> fc7_mbox_conf_flat
I0726 14:13:31.498811 31263 net.cpp:150] Setting up fc7_mbox_conf_flat
I0726 14:13:31.498816 31263 net.cpp:157] Top shape: 8 127794 (1022352)
I0726 14:13:31.498819 31263 net.cpp:165] Memory required for data: 2025095392
I0726 14:13:31.498823 31263 layer_factory.hpp:77] Creating layer fc7_mbox_priorbox
I0726 14:13:31.498829 31263 net.cpp:100] Creating Layer fc7_mbox_priorbox
I0726 14:13:31.498874 31263 net.cpp:434] fc7_mbox_priorbox <- fc7_relu7_0_split_3
I0726 14:13:31.498880 31263 net.cpp:434] fc7_mbox_priorbox <- data_data_0_split_2
I0726 14:13:31.498888 31263 net.cpp:408] fc7_mbox_priorbox -> fc7_mbox_priorbox
I0726 14:13:31.498914 31263 net.cpp:150] Setting up fc7_mbox_priorbox
I0726 14:13:31.498919 31263 net.cpp:157] Top shape: 1 2 8664 (17328)
I0726 14:13:31.498922 31263 net.cpp:165] Memory required for data: 2025164704
I0726 14:13:31.498926 31263 layer_factory.hpp:77] Creating layer conv6_2_mbox_loc
I0726 14:13:31.498935 31263 net.cpp:100] Creating Layer conv6_2_mbox_loc
I0726 14:13:31.498940 31263 net.cpp:434] conv6_2_mbox_loc <- conv6_2_conv6_2_relu_0_split_1
I0726 14:13:31.498947 31263 net.cpp:408] conv6_2_mbox_loc -> conv6_2_mbox_loc
I0726 14:13:31.499886 31263 net.cpp:150] Setting up conv6_2_mbox_loc
I0726 14:13:31.499893 31263 net.cpp:157] Top shape: 8 24 10 10 (19200)
I0726 14:13:31.499897 31263 net.cpp:165] Memory required for data: 2025241504
I0726 14:13:31.499903 31263 layer_factory.hpp:77] Creating layer conv6_2_mbox_loc_perm
I0726 14:13:31.499909 31263 net.cpp:100] Creating Layer conv6_2_mbox_loc_perm
I0726 14:13:31.499913 31263 net.cpp:434] conv6_2_mbox_loc_perm <- conv6_2_mbox_loc
I0726 14:13:31.499918 31263 net.cpp:408] conv6_2_mbox_loc_perm -> conv6_2_mbox_loc_perm
I0726 14:13:31.499984 31263 net.cpp:150] Setting up conv6_2_mbox_loc_perm
I0726 14:13:31.499990 31263 net.cpp:157] Top shape: 8 10 10 24 (19200)
I0726 14:13:31.499994 31263 net.cpp:165] Memory required for data: 2025318304
I0726 14:13:31.499997 31263 layer_factory.hpp:77] Creating layer conv6_2_mbox_loc_flat
I0726 14:13:31.500002 31263 net.cpp:100] Creating Layer conv6_2_mbox_loc_flat
I0726 14:13:31.500006 31263 net.cpp:434] conv6_2_mbox_loc_flat <- conv6_2_mbox_loc_perm
I0726 14:13:31.500013 31263 net.cpp:408] conv6_2_mbox_loc_flat -> conv6_2_mbox_loc_flat
I0726 14:13:31.500036 31263 net.cpp:150] Setting up conv6_2_mbox_loc_flat
I0726 14:13:31.500041 31263 net.cpp:157] Top shape: 8 2400 (19200)
I0726 14:13:31.500046 31263 net.cpp:165] Memory required for data: 2025395104
I0726 14:13:31.500048 31263 layer_factory.hpp:77] Creating layer conv6_2_mbox_conf
I0726 14:13:31.500057 31263 net.cpp:100] Creating Layer conv6_2_mbox_conf
I0726 14:13:31.500061 31263 net.cpp:434] conv6_2_mbox_conf <- conv6_2_conv6_2_relu_0_split_2
I0726 14:13:31.500068 31263 net.cpp:408] conv6_2_mbox_conf -> conv6_2_mbox_conf
I0726 14:13:31.513723 31263 net.cpp:150] Setting up conv6_2_mbox_conf
I0726 14:13:31.513747 31263 net.cpp:157] Top shape: 8 354 10 10 (283200)
I0726 14:13:31.513751 31263 net.cpp:165] Memory required for data: 2026527904
I0726 14:13:31.513762 31263 layer_factory.hpp:77] Creating layer conv6_2_mbox_conf_perm
I0726 14:13:31.513774 31263 net.cpp:100] Creating Layer conv6_2_mbox_conf_perm
I0726 14:13:31.513783 31263 net.cpp:434] conv6_2_mbox_conf_perm <- conv6_2_mbox_conf
I0726 14:13:31.513792 31263 net.cpp:408] conv6_2_mbox_conf_perm -> conv6_2_mbox_conf_perm
I0726 14:13:31.513865 31263 net.cpp:150] Setting up conv6_2_mbox_conf_perm
I0726 14:13:31.513871 31263 net.cpp:157] Top shape: 8 10 10 354 (283200)
I0726 14:13:31.513873 31263 net.cpp:165] Memory required for data: 2027660704
I0726 14:13:31.513877 31263 layer_factory.hpp:77] Creating layer conv6_2_mbox_conf_flat
I0726 14:13:31.513882 31263 net.cpp:100] Creating Layer conv6_2_mbox_conf_flat
I0726 14:13:31.513886 31263 net.cpp:434] conv6_2_mbox_conf_flat <- conv6_2_mbox_conf_perm
I0726 14:13:31.513890 31263 net.cpp:408] conv6_2_mbox_conf_flat -> conv6_2_mbox_conf_flat
I0726 14:13:31.513909 31263 net.cpp:150] Setting up conv6_2_mbox_conf_flat
I0726 14:13:31.513916 31263 net.cpp:157] Top shape: 8 35400 (283200)
I0726 14:13:31.513918 31263 net.cpp:165] Memory required for data: 2028793504
I0726 14:13:31.513922 31263 layer_factory.hpp:77] Creating layer conv6_2_mbox_priorbox
I0726 14:13:31.513928 31263 net.cpp:100] Creating Layer conv6_2_mbox_priorbox
I0726 14:13:31.513932 31263 net.cpp:434] conv6_2_mbox_priorbox <- conv6_2_conv6_2_relu_0_split_3
I0726 14:13:31.513978 31263 net.cpp:434] conv6_2_mbox_priorbox <- data_data_0_split_3
I0726 14:13:31.513985 31263 net.cpp:408] conv6_2_mbox_priorbox -> conv6_2_mbox_priorbox
I0726 14:13:31.514010 31263 net.cpp:150] Setting up conv6_2_mbox_priorbox
I0726 14:13:31.514017 31263 net.cpp:157] Top shape: 1 2 2400 (4800)
I0726 14:13:31.514019 31263 net.cpp:165] Memory required for data: 2028812704
I0726 14:13:31.514024 31263 layer_factory.hpp:77] Creating layer conv7_2_mbox_loc
I0726 14:13:31.514031 31263 net.cpp:100] Creating Layer conv7_2_mbox_loc
I0726 14:13:31.514036 31263 net.cpp:434] conv7_2_mbox_loc <- conv7_2_conv7_2_relu_0_split_1
I0726 14:13:31.514044 31263 net.cpp:408] conv7_2_mbox_loc -> conv7_2_mbox_loc
I0726 14:13:31.514556 31263 net.cpp:150] Setting up conv7_2_mbox_loc
I0726 14:13:31.514564 31263 net.cpp:157] Top shape: 8 24 5 5 (4800)
I0726 14:13:31.514566 31263 net.cpp:165] Memory required for data: 2028831904
I0726 14:13:31.514572 31263 layer_factory.hpp:77] Creating layer conv7_2_mbox_loc_perm
I0726 14:13:31.514578 31263 net.cpp:100] Creating Layer conv7_2_mbox_loc_perm
I0726 14:13:31.514582 31263 net.cpp:434] conv7_2_mbox_loc_perm <- conv7_2_mbox_loc
I0726 14:13:31.514587 31263 net.cpp:408] conv7_2_mbox_loc_perm -> conv7_2_mbox_loc_perm
I0726 14:13:31.514654 31263 net.cpp:150] Setting up conv7_2_mbox_loc_perm
I0726 14:13:31.514659 31263 net.cpp:157] Top shape: 8 5 5 24 (4800)
I0726 14:13:31.514662 31263 net.cpp:165] Memory required for data: 2028851104
I0726 14:13:31.514667 31263 layer_factory.hpp:77] Creating layer conv7_2_mbox_loc_flat
I0726 14:13:31.514670 31263 net.cpp:100] Creating Layer conv7_2_mbox_loc_flat
I0726 14:13:31.514674 31263 net.cpp:434] conv7_2_mbox_loc_flat <- conv7_2_mbox_loc_perm
I0726 14:13:31.514679 31263 net.cpp:408] conv7_2_mbox_loc_flat -> conv7_2_mbox_loc_flat
I0726 14:13:31.514699 31263 net.cpp:150] Setting up conv7_2_mbox_loc_flat
I0726 14:13:31.514704 31263 net.cpp:157] Top shape: 8 600 (4800)
I0726 14:13:31.514708 31263 net.cpp:165] Memory required for data: 2028870304
I0726 14:13:31.514710 31263 layer_factory.hpp:77] Creating layer conv7_2_mbox_conf
I0726 14:13:31.514719 31263 net.cpp:100] Creating Layer conv7_2_mbox_conf
I0726 14:13:31.514721 31263 net.cpp:434] conv7_2_mbox_conf <- conv7_2_conv7_2_relu_0_split_2
I0726 14:13:31.514727 31263 net.cpp:408] conv7_2_mbox_conf -> conv7_2_mbox_conf
I0726 14:13:31.521214 31263 net.cpp:150] Setting up conv7_2_mbox_conf
I0726 14:13:31.521239 31263 net.cpp:157] Top shape: 8 354 5 5 (70800)
I0726 14:13:31.521242 31263 net.cpp:165] Memory required for data: 2029153504
I0726 14:13:31.521255 31263 layer_factory.hpp:77] Creating layer conv7_2_mbox_conf_perm
I0726 14:13:31.521267 31263 net.cpp:100] Creating Layer conv7_2_mbox_conf_perm
I0726 14:13:31.521276 31263 net.cpp:434] conv7_2_mbox_conf_perm <- conv7_2_mbox_conf
I0726 14:13:31.521286 31263 net.cpp:408] conv7_2_mbox_conf_perm -> conv7_2_mbox_conf_perm
I0726 14:13:31.521385 31263 net.cpp:150] Setting up conv7_2_mbox_conf_perm
I0726 14:13:31.521391 31263 net.cpp:157] Top shape: 8 5 5 354 (70800)
I0726 14:13:31.521395 31263 net.cpp:165] Memory required for data: 2029436704
I0726 14:13:31.521399 31263 layer_factory.hpp:77] Creating layer conv7_2_mbox_conf_flat
I0726 14:13:31.521404 31263 net.cpp:100] Creating Layer conv7_2_mbox_conf_flat
I0726 14:13:31.521407 31263 net.cpp:434] conv7_2_mbox_conf_flat <- conv7_2_mbox_conf_perm
I0726 14:13:31.521414 31263 net.cpp:408] conv7_2_mbox_conf_flat -> conv7_2_mbox_conf_flat
I0726 14:13:31.521440 31263 net.cpp:150] Setting up conv7_2_mbox_conf_flat
I0726 14:13:31.521445 31263 net.cpp:157] Top shape: 8 8850 (70800)
I0726 14:13:31.521448 31263 net.cpp:165] Memory required for data: 2029719904
I0726 14:13:31.521451 31263 layer_factory.hpp:77] Creating layer conv7_2_mbox_priorbox
I0726 14:13:31.521457 31263 net.cpp:100] Creating Layer conv7_2_mbox_priorbox
I0726 14:13:31.521461 31263 net.cpp:434] conv7_2_mbox_priorbox <- conv7_2_conv7_2_relu_0_split_3
I0726 14:13:31.521467 31263 net.cpp:434] conv7_2_mbox_priorbox <- data_data_0_split_4
I0726 14:13:31.521473 31263 net.cpp:408] conv7_2_mbox_priorbox -> conv7_2_mbox_priorbox
I0726 14:13:31.521517 31263 net.cpp:150] Setting up conv7_2_mbox_priorbox
I0726 14:13:31.521522 31263 net.cpp:157] Top shape: 1 2 600 (1200)
I0726 14:13:31.521524 31263 net.cpp:165] Memory required for data: 2029724704
I0726 14:13:31.521528 31263 layer_factory.hpp:77] Creating layer conv8_2_mbox_loc
I0726 14:13:31.521538 31263 net.cpp:100] Creating Layer conv8_2_mbox_loc
I0726 14:13:31.521541 31263 net.cpp:434] conv8_2_mbox_loc <- conv8_2_conv8_2_relu_0_split_1
I0726 14:13:31.521548 31263 net.cpp:408] conv8_2_mbox_loc -> conv8_2_mbox_loc
I0726 14:13:31.521945 31263 net.cpp:150] Setting up conv8_2_mbox_loc
I0726 14:13:31.521952 31263 net.cpp:157] Top shape: 8 16 3 3 (1152)
I0726 14:13:31.521955 31263 net.cpp:165] Memory required for data: 2029729312
I0726 14:13:31.521970 31263 layer_factory.hpp:77] Creating layer conv8_2_mbox_loc_perm
I0726 14:13:31.521978 31263 net.cpp:100] Creating Layer conv8_2_mbox_loc_perm
I0726 14:13:31.521982 31263 net.cpp:434] conv8_2_mbox_loc_perm <- conv8_2_mbox_loc
I0726 14:13:31.521988 31263 net.cpp:408] conv8_2_mbox_loc_perm -> conv8_2_mbox_loc_perm
I0726 14:13:31.522053 31263 net.cpp:150] Setting up conv8_2_mbox_loc_perm
I0726 14:13:31.522058 31263 net.cpp:157] Top shape: 8 3 3 16 (1152)
I0726 14:13:31.522060 31263 net.cpp:165] Memory required for data: 2029733920
I0726 14:13:31.522063 31263 layer_factory.hpp:77] Creating layer conv8_2_mbox_loc_flat
I0726 14:13:31.522068 31263 net.cpp:100] Creating Layer conv8_2_mbox_loc_flat
I0726 14:13:31.522073 31263 net.cpp:434] conv8_2_mbox_loc_flat <- conv8_2_mbox_loc_perm
I0726 14:13:31.522078 31263 net.cpp:408] conv8_2_mbox_loc_flat -> conv8_2_mbox_loc_flat
I0726 14:13:31.522095 31263 net.cpp:150] Setting up conv8_2_mbox_loc_flat
I0726 14:13:31.522101 31263 net.cpp:157] Top shape: 8 144 (1152)
I0726 14:13:31.522104 31263 net.cpp:165] Memory required for data: 2029738528
I0726 14:13:31.522107 31263 layer_factory.hpp:77] Creating layer conv8_2_mbox_conf
I0726 14:13:31.522114 31263 net.cpp:100] Creating Layer conv8_2_mbox_conf
I0726 14:13:31.522119 31263 net.cpp:434] conv8_2_mbox_conf <- conv8_2_conv8_2_relu_0_split_2
I0726 14:13:31.522125 31263 net.cpp:408] conv8_2_mbox_conf -> conv8_2_mbox_conf
I0726 14:13:31.526568 31263 net.cpp:150] Setting up conv8_2_mbox_conf
I0726 14:13:31.526588 31263 net.cpp:157] Top shape: 8 236 3 3 (16992)
I0726 14:13:31.526592 31263 net.cpp:165] Memory required for data: 2029806496
I0726 14:13:31.526603 31263 layer_factory.hpp:77] Creating layer conv8_2_mbox_conf_perm
I0726 14:13:31.526614 31263 net.cpp:100] Creating Layer conv8_2_mbox_conf_perm
I0726 14:13:31.526623 31263 net.cpp:434] conv8_2_mbox_conf_perm <- conv8_2_mbox_conf
I0726 14:13:31.526631 31263 net.cpp:408] conv8_2_mbox_conf_perm -> conv8_2_mbox_conf_perm
I0726 14:13:31.526705 31263 net.cpp:150] Setting up conv8_2_mbox_conf_perm
I0726 14:13:31.526710 31263 net.cpp:157] Top shape: 8 3 3 236 (16992)
I0726 14:13:31.526715 31263 net.cpp:165] Memory required for data: 2029874464
I0726 14:13:31.526717 31263 layer_factory.hpp:77] Creating layer conv8_2_mbox_conf_flat
I0726 14:13:31.526727 31263 net.cpp:100] Creating Layer conv8_2_mbox_conf_flat
I0726 14:13:31.526731 31263 net.cpp:434] conv8_2_mbox_conf_flat <- conv8_2_mbox_conf_perm
I0726 14:13:31.526739 31263 net.cpp:408] conv8_2_mbox_conf_flat -> conv8_2_mbox_conf_flat
I0726 14:13:31.526762 31263 net.cpp:150] Setting up conv8_2_mbox_conf_flat
I0726 14:13:31.526767 31263 net.cpp:157] Top shape: 8 2124 (16992)
I0726 14:13:31.526772 31263 net.cpp:165] Memory required for data: 2029942432
I0726 14:13:31.526774 31263 layer_factory.hpp:77] Creating layer conv8_2_mbox_priorbox
I0726 14:13:31.526780 31263 net.cpp:100] Creating Layer conv8_2_mbox_priorbox
I0726 14:13:31.526784 31263 net.cpp:434] conv8_2_mbox_priorbox <- conv8_2_conv8_2_relu_0_split_3
I0726 14:13:31.526790 31263 net.cpp:434] conv8_2_mbox_priorbox <- data_data_0_split_5
I0726 14:13:31.526796 31263 net.cpp:408] conv8_2_mbox_priorbox -> conv8_2_mbox_priorbox
I0726 14:13:31.526823 31263 net.cpp:150] Setting up conv8_2_mbox_priorbox
I0726 14:13:31.526839 31263 net.cpp:157] Top shape: 1 2 144 (288)
I0726 14:13:31.526842 31263 net.cpp:165] Memory required for data: 2029943584
I0726 14:13:31.526845 31263 layer_factory.hpp:77] Creating layer conv9_2_mbox_loc
I0726 14:13:31.526855 31263 net.cpp:100] Creating Layer conv9_2_mbox_loc
I0726 14:13:31.526859 31263 net.cpp:434] conv9_2_mbox_loc <- conv9_2_conv9_2_relu_0_split_0
I0726 14:13:31.526866 31263 net.cpp:408] conv9_2_mbox_loc -> conv9_2_mbox_loc
I0726 14:13:31.527269 31263 net.cpp:150] Setting up conv9_2_mbox_loc
I0726 14:13:31.527276 31263 net.cpp:157] Top shape: 8 16 1 1 (128)
I0726 14:13:31.527278 31263 net.cpp:165] Memory required for data: 2029944096
I0726 14:13:31.527285 31263 layer_factory.hpp:77] Creating layer conv9_2_mbox_loc_perm
I0726 14:13:31.527292 31263 net.cpp:100] Creating Layer conv9_2_mbox_loc_perm
I0726 14:13:31.527294 31263 net.cpp:434] conv9_2_mbox_loc_perm <- conv9_2_mbox_loc
I0726 14:13:31.527300 31263 net.cpp:408] conv9_2_mbox_loc_perm -> conv9_2_mbox_loc_perm
I0726 14:13:31.527364 31263 net.cpp:150] Setting up conv9_2_mbox_loc_perm
I0726 14:13:31.527369 31263 net.cpp:157] Top shape: 8 1 1 16 (128)
I0726 14:13:31.527372 31263 net.cpp:165] Memory required for data: 2029944608
I0726 14:13:31.527376 31263 layer_factory.hpp:77] Creating layer conv9_2_mbox_loc_flat
I0726 14:13:31.527381 31263 net.cpp:100] Creating Layer conv9_2_mbox_loc_flat
I0726 14:13:31.527385 31263 net.cpp:434] conv9_2_mbox_loc_flat <- conv9_2_mbox_loc_perm
I0726 14:13:31.527390 31263 net.cpp:408] conv9_2_mbox_loc_flat -> conv9_2_mbox_loc_flat
I0726 14:13:31.527410 31263 net.cpp:150] Setting up conv9_2_mbox_loc_flat
I0726 14:13:31.527423 31263 net.cpp:157] Top shape: 8 16 (128)
I0726 14:13:31.527426 31263 net.cpp:165] Memory required for data: 2029945120
I0726 14:13:31.527429 31263 layer_factory.hpp:77] Creating layer conv9_2_mbox_conf
I0726 14:13:31.527441 31263 net.cpp:100] Creating Layer conv9_2_mbox_conf
I0726 14:13:31.527446 31263 net.cpp:434] conv9_2_mbox_conf <- conv9_2_conv9_2_relu_0_split_1
I0726 14:13:31.527457 31263 net.cpp:408] conv9_2_mbox_conf -> conv9_2_mbox_conf
I0726 14:13:31.533038 31263 net.cpp:150] Setting up conv9_2_mbox_conf
I0726 14:13:31.533180 31263 net.cpp:157] Top shape: 8 236 1 1 (1888)
I0726 14:13:31.533196 31263 net.cpp:165] Memory required for data: 2029952672
I0726 14:13:31.533231 31263 layer_factory.hpp:77] Creating layer conv9_2_mbox_conf_perm
I0726 14:13:31.533279 31263 net.cpp:100] Creating Layer conv9_2_mbox_conf_perm
I0726 14:13:31.533308 31263 net.cpp:434] conv9_2_mbox_conf_perm <- conv9_2_mbox_conf
I0726 14:13:31.533365 31263 net.cpp:408] conv9_2_mbox_conf_perm -> conv9_2_mbox_conf_perm
I0726 14:13:31.533459 31263 net.cpp:150] Setting up conv9_2_mbox_conf_perm
I0726 14:13:31.533465 31263 net.cpp:157] Top shape: 8 1 1 236 (1888)
I0726 14:13:31.533468 31263 net.cpp:165] Memory required for data: 2029960224
I0726 14:13:31.533473 31263 layer_factory.hpp:77] Creating layer conv9_2_mbox_conf_flat
I0726 14:13:31.533478 31263 net.cpp:100] Creating Layer conv9_2_mbox_conf_flat
I0726 14:13:31.533481 31263 net.cpp:434] conv9_2_mbox_conf_flat <- conv9_2_mbox_conf_perm
I0726 14:13:31.533488 31263 net.cpp:408] conv9_2_mbox_conf_flat -> conv9_2_mbox_conf_flat
I0726 14:13:31.533510 31263 net.cpp:150] Setting up conv9_2_mbox_conf_flat
I0726 14:13:31.533516 31263 net.cpp:157] Top shape: 8 236 (1888)
I0726 14:13:31.533521 31263 net.cpp:165] Memory required for data: 2029967776
I0726 14:13:31.533525 31263 layer_factory.hpp:77] Creating layer conv9_2_mbox_priorbox
I0726 14:13:31.533534 31263 net.cpp:100] Creating Layer conv9_2_mbox_priorbox
I0726 14:13:31.533537 31263 net.cpp:434] conv9_2_mbox_priorbox <- conv9_2_conv9_2_relu_0_split_2
I0726 14:13:31.533543 31263 net.cpp:434] conv9_2_mbox_priorbox <- data_data_0_split_6
I0726 14:13:31.533550 31263 net.cpp:408] conv9_2_mbox_priorbox -> conv9_2_mbox_priorbox
I0726 14:13:31.533579 31263 net.cpp:150] Setting up conv9_2_mbox_priorbox
I0726 14:13:31.533584 31263 net.cpp:157] Top shape: 1 2 16 (32)
I0726 14:13:31.533587 31263 net.cpp:165] Memory required for data: 2029967904
I0726 14:13:31.533608 31263 layer_factory.hpp:77] Creating layer mbox_loc
I0726 14:13:31.533618 31263 net.cpp:100] Creating Layer mbox_loc
I0726 14:13:31.533625 31263 net.cpp:434] mbox_loc <- conv4_3_norm_mbox_loc_flat
I0726 14:13:31.533632 31263 net.cpp:434] mbox_loc <- fc7_mbox_loc_flat
I0726 14:13:31.533637 31263 net.cpp:434] mbox_loc <- conv6_2_mbox_loc_flat
I0726 14:13:31.533643 31263 net.cpp:434] mbox_loc <- conv7_2_mbox_loc_flat
I0726 14:13:31.533649 31263 net.cpp:434] mbox_loc <- conv8_2_mbox_loc_flat
I0726 14:13:31.533654 31263 net.cpp:434] mbox_loc <- conv9_2_mbox_loc_flat
I0726 14:13:31.533659 31263 net.cpp:408] mbox_loc -> mbox_loc
I0726 14:13:31.533685 31263 net.cpp:150] Setting up mbox_loc
I0726 14:13:31.533691 31263 net.cpp:157] Top shape: 8 34928 (279424)
I0726 14:13:31.533694 31263 net.cpp:165] Memory required for data: 2031085600
I0726 14:13:31.533697 31263 layer_factory.hpp:77] Creating layer mbox_conf
I0726 14:13:31.533704 31263 net.cpp:100] Creating Layer mbox_conf
I0726 14:13:31.533707 31263 net.cpp:434] mbox_conf <- conv4_3_norm_mbox_conf_flat
I0726 14:13:31.533712 31263 net.cpp:434] mbox_conf <- fc7_mbox_conf_flat
I0726 14:13:31.533717 31263 net.cpp:434] mbox_conf <- conv6_2_mbox_conf_flat
I0726 14:13:31.533722 31263 net.cpp:434] mbox_conf <- conv7_2_mbox_conf_flat
I0726 14:13:31.533728 31263 net.cpp:434] mbox_conf <- conv8_2_mbox_conf_flat
I0726 14:13:31.533732 31263 net.cpp:434] mbox_conf <- conv9_2_mbox_conf_flat
I0726 14:13:31.533737 31263 net.cpp:408] mbox_conf -> mbox_conf
I0726 14:13:31.533758 31263 net.cpp:150] Setting up mbox_conf
I0726 14:13:31.533763 31263 net.cpp:157] Top shape: 8 515188 (4121504)
I0726 14:13:31.533766 31263 net.cpp:165] Memory required for data: 2047571616
I0726 14:13:31.533771 31263 layer_factory.hpp:77] Creating layer mbox_priorbox
I0726 14:13:31.533776 31263 net.cpp:100] Creating Layer mbox_priorbox
I0726 14:13:31.533779 31263 net.cpp:434] mbox_priorbox <- conv4_3_norm_mbox_priorbox
I0726 14:13:31.533787 31263 net.cpp:434] mbox_priorbox <- fc7_mbox_priorbox
I0726 14:13:31.533795 31263 net.cpp:434] mbox_priorbox <- conv6_2_mbox_priorbox
I0726 14:13:31.533802 31263 net.cpp:434] mbox_priorbox <- conv7_2_mbox_priorbox
I0726 14:13:31.533807 31263 net.cpp:434] mbox_priorbox <- conv8_2_mbox_priorbox
I0726 14:13:31.533810 31263 net.cpp:434] mbox_priorbox <- conv9_2_mbox_priorbox
I0726 14:13:31.533815 31263 net.cpp:408] mbox_priorbox -> mbox_priorbox
I0726 14:13:31.533834 31263 net.cpp:150] Setting up mbox_priorbox
I0726 14:13:31.533839 31263 net.cpp:157] Top shape: 1 2 34928 (69856)
I0726 14:13:31.533843 31263 net.cpp:165] Memory required for data: 2047851040
I0726 14:13:31.533846 31263 layer_factory.hpp:77] Creating layer mbox_loss
I0726 14:13:31.533859 31263 net.cpp:100] Creating Layer mbox_loss
I0726 14:13:31.533862 31263 net.cpp:434] mbox_loss <- mbox_loc
I0726 14:13:31.533867 31263 net.cpp:434] mbox_loss <- mbox_conf
I0726 14:13:31.533871 31263 net.cpp:434] mbox_loss <- mbox_priorbox
…
  phase: TEST
}
layer {
  name: "data"
  type: "AnnotatedData"
  top: "data"
  top: "label"
  include {
    phase: TEST
  }
  transform_param {
    mean_value: 104
    mean_value: 117
    mean_value: 123
    resize_param {
      prob: 1
      resize_mode: WARP
      height: 300
      width: 300
      interp_mode: LINEAR
    }
  }
  data_param {
    source: "SHOPPE_2017/lmdb/SHOPPE_2017_test_lmdb"
    batch_size: 8
    backend: LMDB
  }
  annotated_data_param {
    batch_sampler {
    }
    label_map_file: "data/SHOPPE_2017/labelmap_voc.prototxt"
  }
}
layer {
  name: "conv1_1"
  type: "Convolution"
  bottom: "data"
  top: "conv1_1"
  param {
    lr_mult: 1
    decay_mult: 1
  }
  param {
    lr_mult: 2
    decay_mult: 0
  }
  convolution_param {
    num_output: 64
    pad: 1
    kernel_size: 3
    weight_filler {
      type: "xavier"
    }
    bias_filler {
      type: "constant"
      value: 0
    }
  }
}
layer {
  name: "relu1_1"
  type: "ReLU"
  bottom: "conv1_1"
  top: "conv1_1"
}
layer {
  name: "conv1_2"
  type: "Convolution"
  bottom: "conv1_1"
  top: "conv1_2"
  param {
    lr_mult: 1
    decay_mult: 1
  }
  param {
    lr_mult: 2
    decay_mult: 0
  }
  convolution_param {
    num_output: 64
    pad: 1
    kernel_size: 3
    weight_filler {
      type: "xavier"
    }
    bias_filler {
      type: "constant"
      value: 0
    }
  }
}
layer {
  name: "relu1_2"
  type: "ReLU"
  bottom: "conv1_2"
  top: "conv1_2"
}
layer {
  name: "pool1"
  type: "Pooling"
  bottom: "conv1_2"
  top: "pool1"
  pooling_param {
    pool: MAX
    kernel_size: 2
    stride: 2
  }
}
layer {
  name: "conv2_1"
  type: "Convolution"
  bottom: "pool1"
  top: "conv2_1"
  param {
    lr_mult: 1
    decay_mult: 1
  }
  param {
    lr_mult: 2
    decay_mult: 0
  }
  convolution_param {
    num_output: 128
    pad: 1
    kernel_size: 3
    weight_filler {
      type: "xavier"
    }
    bias_filler {
      type: "constant"
      value: 0
    }
  }
}
layer {
  name: "relu2_1"
  type: "ReLU"
  bottom: "conv2_1"
  top: "conv2_1"
}
layer {
  name: "conv2_2"
  type: "Convolution"
  bottom: "conv2_1"
  top: "conv2_2"
  param {
    lr_mult: 1
    decay_mult: 1
  }
  param {
    lr_mult: 2
    decay_mult: 0
  }
  convolution_param {
    num_output: 128
    pad: 1
    kernel_size: 3
    weight_filler {
      type: "xavier"
    }
    bias_filler {
      type: "constant"
      value: 0
    }
  }
}
layer {
  name: "relu2_2"
  type: "ReLU"
  bottom: "conv2_2"
  top: "conv2_2"
}
layer {
  name: "pool2"
  type: "Pooling"
  bottom: "conv2_2"
  top: "pool2"
  pooling_param {
    pool: MAX
    kernel_size: 2
    stride: 2
  }
}
layer {
  name: "conv3_1"
  type: "Convolution"
  bottom: "pool2"
  top: "conv3_1"
  param {
    lr_mult: 1
    decay_mult: 1
  }
  param {
    lr_mult: 2
    decay_mult: 0
  }
  convolution_param {
    num_output: 256
    pad: 1
    kernel_size: 3
    weight_filler {
      type: "xavier"
    }
    bias_filler {
      type: "constant"
      value: 0
    }
  }
}
layer {
  name: "relu3_1"
  type: "ReLU"
  bottom: "conv3_1"
  top: "conv3_1"
}
layer {
  name: "conv3_2"
  type: "Convolution"
  bottom: "conv3_1"
  top: "conv3_2"
  param {
    lr_mult: 1
    decay_mult: 1
  }
  param {
    lr_mult: 2
    decay_mult: 0
  }
  convolution_param {
    num_output: 256
    pad: 1
    kernel_size: 3
    weight_filler {
      type: "xavier"
    }
    bias_filler {
      type: "constant"
      value: 0
    }
  }
}
layer {
  name: "relu3_2"
  type: "ReLU"
  bottom: "conv3_2"
  top: "conv3_2"
}
layer {
  name: "conv3_3"
  type: "Convolution"
  bottom: "conv3_2"
  top: "conv3_3"
  param {
    lr_mult: 1
    decay_mult: 1
  }
  param {
    lr_mult: 2
    decay_mult: 0
  }
  convolution_param {
    num_output: 256
    pad: 1
    kernel_size: 3
    weight_filler {
      type: "xavier"
    }
    bias_filler {
      type: "constant"
      value: 0
    }
  }
}
layer {
  name: "relu3_3"
  type: "ReLU"
  bottom: "conv3_3"
  top: "conv3_3"
}
layer {
  name: "pool3"
  type: "Pooling"
  bottom: "conv3_3"
  top: "pool3"
  pooling_param {
    pool: MAX
    kernel_size: 2
    stride: 2
  }
}
layer {
  name: "conv4_1"
  type: "Convolution"
  bottom: "pool3"
  top: "conv4_1"
  param {
    lr_mult: 1
    decay_mult: 1
  }
  param {
    lr_mult: 2
    decay_mult: 0
  }
  convolution_param {
    num_output: 512
    pad: 1
    kernel_size: 3
    weight_filler {
      type: "xavier"
    }
    bias_filler {
      type: "constant"
      value: 0
    }
  }
}
layer {
  name: "relu4_1"
  type: "ReLU"
  bottom: "conv4_1"
  top: "conv4_1"
}
layer {
  name: "conv4_2"
  type: "Convolution"
  bottom: "conv4_1"
  top: "conv4_2"
  param {
    lr_mult: 1
    decay_mult: 1
  }
  param {
    lr_mult: 2
    decay_mult: 0
  }
  convolution_param {
    num_output: 512
    pad: 1
    kernel_size: 3
    weight_filler {
      type: "xavier"
    }
    bias_filler {
      type: "constant"
      value: 0
    }
  }
}
layer {
  name: "relu4_2"
  type: "ReLU"
  bottom: "conv4_2"
  top: "conv4_2"
}
layer {
  name: "conv4_3"
  type: "Convolution"
  bottom: "conv4_2"
  top: "conv4_3"
  param {
    lr_mult: 1
    decay_mult: 1
  }
  param {
    lr_mult: 2
    decay_mult: 0
  }
  convolution_param {
    num_output: 512
    pad: 1
    kernel_size: 3
    weight_filler {
      type: "xavier"
    }
    bias_filler {
      type: "constant"
      value: 0
    }
  }
}
layer {
  name: "relu4_3"
  type: "ReLU"
  bottom: "conv4_3"
  top: "conv4_3"
}
layer {
  name: "pool4"
  type: "Pooling"
  bottom: "conv4_3"
  top: "pool4"
  pooling_param {
    pool: MAX
    kernel_size: 2
    stride: 2
  }
}
layer {
  name: "conv5_1"
  type: "Convolution"
  bottom: "pool4"
  top: "conv5_1"
  param {
    lr_mult: 1
    decay_mult: 1
  }
  param {
    lr_mult: 2
    decay_mult: 0
  }
  convolution_param {
    num_output: 512
    pad: 1
    kernel_size: 3
    weight_filler {
      type: "xavier"
    }
    bias_filler {
      type: "constant"
      value: 0
    }
    dilation: 1
  }
}
layer {
  name: "relu5_1"
  type: "ReLU"
  bottom: "conv5_1"
  top: "conv5_1"
}
layer {
  name: "conv5_2"
  type: "Convolution"
  bottom: "conv5_1"
  top: "conv5_2"
  param {
    lr_mult: 1
    decay_mult: 1
  }
  param {
    lr_mult: 2
    decay_mult: 0
  }
  convolution_param {
    num_output: 512
    pad: 1
    kernel_size: 3
    weight_filler {
      type: "xavier"
    }
    bias_filler {
      type: "constant"
      value: 0
    }
    dilation: 1
  }
}
layer {
  name: "relu5_2"
  type: "ReLU"
  bottom: "conv5_2"
  top: "conv5_2"
}
layer {
  name: "conv5_3"
  type: "Convolution"
  bottom: "conv5_2"
  top: "conv5_3"
  param {
    lr_mult: 1
    decay_mult: 1
  }
  param {
    lr_mult: 2
    decay_mult: 0
  }
  convolution_param {
    num_output: 512
    pad: 1
    kernel_size: 3
    weight_filler {
      type: "xavier"
    }
    bias_filler {
      type: "constant"
      value: 0
    }
    dilation: 1
  }
}
layer {
  name: "relu5_3"
  type: "ReLU"
  bottom: "conv5_3"
  top: "conv5_3"
}
layer {
  name: "pool5"
  type: "Pooling"
  bottom: "conv5_3"
  top: "pool5"
  pooling_param {
    pool: MAX
    kernel_size: 3
    stride: 1
    pad: 1
  }
}
layer {
  name: "fc6"
  type: "Convolution"
  bottom: "pool5"
  top: "fc6"
  param {
    lr_mult: 1
    decay_mult: 1
  }
  param {
    lr_mult: 2
    decay_mult: 0
  }
  convolution_param {
    num_output: 1024
    pad: 6
    kernel_size: 3
    weight_filler {
      type: "xavier"
    }
    bias_filler {
      type: "constant"
      value: 0
    }
    dilation: 6
  }
}
layer {
  name: "relu6"
  type: "ReLU"
  bottom: "fc6"
  top: "fc6"
}
layer {
  name: "fc7"
  type: "Convolution"
  bottom: "fc6"
  top: "fc7"
  param {
    lr_mult: 1
    decay_mult: 1
  }
  param {
    lr_mult: 2
    decay_mult: 0
  }
  convolution_param {
    num_output: 1024
    kernel_size: 1
    weight_filler {
      type: "xavier"
    }
    bias_filler {
      type: "constant"
      value: 0
    }
  }
}
layer {
  name: "relu7"
  type: "ReLU"
  bottom: "fc7"
  top: "fc7"
}
layer {
  name: "conv6_1"
  type: "Convolution"
  bottom: "fc7"
  top: "conv6_1"
  param {
    lr_mult: 1
    decay_mult: 1
  }
  param {
    lr_mult: 2
    decay_mult: 0
  }
  convolution_param {
    num_output: 256
    pad: 0
    kernel_size: 1
    stride: 1
    weight_filler {
      type: "xavier"
    }
    bias_filler {
      type: "constant"
      value: 0
    }
  }
}
layer {
  name: "conv6_1_relu"
  type: "ReLU"
  bottom: "conv6_1"
  top: "conv6_1"
}
layer {
  name: "conv6_2"
  type: "Convolution"
  bottom: "conv6_1"
  top: "conv6_2"
  param {
    lr_mult: 1
    decay_mult: 1
  }
  param {
    lr_mult: 2
    decay_mult: 0
  }
  convolution_param {
    num_output: 512
    pad: 1
    kernel_size: 3
    stride: 2
    weight_filler {
      type: "xavier"
    }
    bias_filler {
      type: "constant"
      value: 0
    }
  }
}
layer {
  name: "conv6_2_relu"
  type: "ReLU"
  bottom: "conv6_2"
  top: "conv6_2"
}
layer {
  name: "conv7_1"
  type: "Convolution"
  bottom: "conv6_2"
  top: "conv7_1"
  param {
    lr_mult: 1
    decay_mult: 1
  }
  param {
    lr_mult: 2
    decay_mult: 0
  }
  convolution_param {
    num_output: 128
    pad: 0
    kernel_size: 1
    stride: 1
    weight_filler {
      type: "xavier"
    }
    bias_filler {
      type: "constant"
      value: 0
    }
  }
}
layer {
  name: "conv7_1_relu"
  type: "ReLU"
  bottom: "conv7_1"
  top: "conv7_1"
}
layer {
  name: "conv7_2"
  type: "Convolution"
  bottom: "conv7_1"
  top: "conv7_2"
  param {
    lr_mult: 1
    decay_mult: 1
  }
  param {
    lr_mult: 2
    decay_mult: 0
  }
  convolution_param {
    num_output: 256
    pad: 1
    kernel_size: 3
    stride: 2
    weight_filler {
      type: "xavier"
    }
    bias_filler {
      type: "constant"
      value: 0
    }
  }
}
layer {
  name: "conv7_2_relu"
  type: "ReLU"
  bottom: "conv7_2"
  top: "conv7_2"
}
layer {
  name: "conv8_1"
  type: "Convolution"
  bottom: "conv7_2"
  top: "conv8_1"
  param {
    lr_mult: 1
    decay_mult: 1
  }
  param {
    lr_mult: 2
    decay_mult: 0
  }
  convolution_param {
    num_output: 128
    pad: 0
    kernel_size: 1
    stride: 1
    weight_filler {
      type: "xavier"
    }
    bias_filler {
      type: "constant"
      value: 0
    }
  }
}
layer {
  name: "conv8_1_relu"
  type: "ReLU"
  bottom: "conv8_1"
  top: "conv8_1"
}
layer {
  name: "conv8_2"
  type: "Convolution"
  bottom: "conv8_1"
  top: "conv8_2"
  param {
    lr_mult: 1
    decay_mult: 1
  }
  param {
    lr_mult: 2
    decay_mult: 0
  }
  convolution_param {
    num_output: 256
    pad: 0
    kernel_size: 3
    stride: 1
    weight_filler {
      type: "xavier"
    }
    bias_filler {
      type: "constant"
      value: 0
    }
  }
}
layer {
  name: "conv8_2_relu"
  type: "ReLU"
  bottom: "conv8_2"
  top: "conv8_2"
}
layer {
  name: "conv9_1"
  type: "Convolution"
  bottom: "conv8_2"
  top: "conv9_1"
  param {
    lr_mult: 1
    decay_mult: 1
  }
  param {
    lr_mult: 2
    decay_mult: 0
  }
  convolution_param {
    num_output: 128
    pad: 0
    kernel_size: 1
    stride: 1
    weight_filler {
      type: "xavier"
    }
    bias_filler {
      type: "constant"
      value: 0
    }
  }
}
layer {
  name: "conv9_1_relu"
  type: "ReLU"
  bottom: "conv9_1"
  top: "conv9_1"
}
layer {
  name: "conv9_2"
  type: "Convolution"
  bottom: "conv9_1"
  top: "conv9_2"
  param {
    lr_mult: 1
    decay_mult: 1
  }
  param {
    lr_mult: 2
    decay_mult: 0
  }
  convolution_param {
    num_output: 256
    pad: 0
    kernel_size: 3
    stride: 1
    weight_filler {
      type: "xavier"
    }
    bias_filler {
      type: "constant"
      value: 0
    }
  }
}
layer {
  name: "conv9_2_relu"
  type: "ReLU"
  bottom: "conv9_2"
  top: "conv9_2"
}
layer {
  name: "conv4_3_norm"
  type: "Normalize"
  bottom: "conv4_3"
  top: "conv4_3_norm"
  norm_param {
    across_spatial: false
    scale_filler {
      type: "constant"
      value: 20
    }
    channel_shared: false
  }
}
layer {
  name: "conv4_3_norm_mbox_loc"
  type: "Convolution"
  bottom: "conv4_3_norm"
  top: "conv4_3_norm_mbox_loc"
  param {
    lr_mult: 1
    decay_mult: 1
  }
  param {
    lr_mult: 2
    decay_mult: 0
  }
  convolution_param {
    num_output: 16
    pad: 1
    kernel_size: 3
    stride: 1
    weight_filler {
      type: "xavier"
    }
    bias_filler {
      type: "constant"
      value: 0
    }
  }
}
layer {
  name: "conv4_3_norm_mbox_loc_perm"
  type: "Permute"
  bottom: "conv4_3_norm_mbox_loc"
  top: "conv4_3_norm_mbox_loc_perm"
  permute_param {
    order: 0
    order: 2
    order: 3
    order: 1
  }
}
layer {
  name: "conv4_3_norm_mbox_loc_flat"
  type: "Flatten"
  bottom: "conv4_3_norm_mbox_loc_perm"
  top: "conv4_3_norm_mbox_loc_flat"
  flatten_param {
    axis: 1
  }
}
layer {
  name: "conv4_3_norm_mbox_conf"
  type: "Convolution"
  bottom: "conv4_3_norm"
  top: "conv4_3_norm_mbox_conf"
  param {
    lr_mult: 1
    decay_mult: 1
  }
  param {
    lr_mult: 2
    decay_mult: 0
  }
  convolution_param {
    num_output: 236
    pad: 1
    kernel_size: 3
    stride: 1
    weight_filler {
      type: "xavier"
    }
    bias_filler {
      type: "constant"
      value: 0
    }
  }
}
layer {
  name: "conv4_3_norm_mbox_conf_perm"
  type: "Permute"
  bottom: "conv4_3_norm_mbox_conf"
  top: "conv4_3_norm_mbox_conf_perm"
  permute_param {
    order: 0
    order: 2
    order: 3
    order: 1
  }
}
layer {
  name: "conv4_3_norm_mbox_conf_flat"
  type: "Flatten"
  bottom: "conv4_3_norm_mbox_conf_perm"
  top: "conv4_3_norm_mbox_conf_flat"
  flatten_param {
    axis: 1
  }
}
layer {
  name: "conv4_3_norm_mbox_priorbox"
  type: "PriorBox"
  bottom: "conv4_3_norm"
  bottom: "data"
  top: "conv4_3_norm_mbox_priorbox"
  prior_box_param {
    min_size: 30
    max_size: 60
    aspect_ratio: 2
    flip: true
    clip: false
    variance: 0.1
    variance: 0.1
    variance: 0.2
    variance: 0.2
    step: 8
    offset: 0.5
  }
}
layer {
  name: "fc7_mbox_loc"
  type: "Convolution"
  bottom: "fc7"
  top: "fc7_mbox_loc"
  param {
    lr_mult: 1
    decay_mult: 1
  }
  param {
    lr_mult: 2
    decay_mult: 0
  }
  convolution_param {
    num_output: 24
    pad: 1
    kernel_size: 3
    stride: 1
    weight_filler {
      type: "xavier"
    }
    bias_filler {
      type: "constant"
      value: 0
    }
  }
}
layer {
  name: "fc7_mbox_loc_perm"
  type: "Permute"
  bottom: "fc7_mbox_loc"
  top: "fc7_mbox_loc_perm"
  permute_param {
    order: 0
    order: 2
    order: 3
    order: 1
  }
}
layer {
  name: "fc7_mbox_loc_flat"
  type: "Flatten"
  bottom: "fc7_mbox_loc_perm"
  top: "fc7_mbox_loc_flat"
  flatten_param {
    axis: 1
  }
}
layer {
  name: "fc7_mbox_conf"
  type: "Convolution"
  bottom: "fc7"
  top: "fc7_mbox_conf"
  param {
    lr_mult: 1
    decay_mult: 1
  }
  param {
    lr_mult: 2
    decay_mult: 0
  }
  convolution_param {
    num_output: 354
    pad: 1
    kernel_size: 3
    stride: 1
    weight_filler {
      type: "xavier"
    }
    bias_filler {
      type: "constant"
      value: 0
    }
  }
}
layer {
  name: "fc7_mbox_conf_perm"
  type: "Permute"
  bottom: "fc7_mbox_conf"
  top: "fc7_mbox_conf_perm"
  permute_param {
    order: 0
    order: 2
    order: 3
    order: 1
  }
}
layer {
  name: "fc7_mbox_conf_flat"
  type: "Flatten"
  bottom: "fc7_mbox_conf_perm"
  top: "fc7_mbox_conf_flat"
  flatten_param {
    axis: 1
  }
}
layer {
  name: "fc7_mbox_priorbox"
  type: "PriorBox"
  bottom: "fc7"
  bottom: "data"
  top: "fc7_mbox_priorbox"
  prior_box_param {
    min_size: 60
    max_size: 111
    aspect_ratio: 2
    aspect_ratio: 3
    flip: true
    clip: false
    variance: 0.1
    variance: 0.1
    variance: 0.2
    variance: 0.2
    step: 16
    offset: 0.5
  }
}
layer {
  name: "conv6_2_mbox_loc"
  type: "Convolution"
  bottom: "conv6_2"
  top: "conv6_2_mbox_loc"
  param {
    lr_mult: 1
    decay_mult: 1
  }
  param {
    lr_mult: 2
    decay_mult: 0
  }
  convolution_param {
    num_output: 24
    pad: 1
    kernel_size: 3
    stride: 1
    weight_filler {
      type: "xavier"
    }
    bias_filler {
      type: "constant"
      value: 0
    }
  }
}
layer {
  name: "conv6_2_mbox_loc_perm"
  type: "Permute"
  bottom: "conv6_2_mbox_loc"
  top: "conv6_2_mbox_loc_perm"
  permute_param {
    order: 0
    order: 2
    order: 3
    order: 1
  }
}
layer {
  name: "conv6_2_mbox_loc_flat"
  type: "Flatten"
  bottom: "conv6_2_mbox_loc_perm"
  top: "conv6_2_mbox_loc_flat"
  flatten_param {
    axis: 1
  }
}
layer {
  name: "conv6_2_mbox_conf"
  type: "Convolution"
  bottom: "conv6_2"
  top: "conv6_2_mbox_conf"
  param {
    lr_mult: 1
    decay_mult: 1
  }
  param {
    lr_mult: 2
    decay_mult: 0
  }
  convolution_param {
    num_output: 354
    pad: 1
    kernel_size: 3
    stride: 1
    weight_filler {
      type: "xavier"
    }
    bias_filler {
      type: "constant"
      value: 0
    }
  }
}
layer {
  name: "conv6_2_mbox_conf_perm"
  type: "Permute"
  bottom: "conv6_2_mbox_conf"
  top: "conv6_2_mbox_conf_perm"
  permute_param {
    order: 0
    order: 2
    order: 3
    order: 1
  }
}
layer {
  name: "conv6_2_mbox_conf_flat"
  type: "Flatten"
  bottom: "conv6_2_mbox_conf_perm"
  top: "conv6_2_mbox_conf_flat"
  flatten_param {
    axis: 1
  }
}
layer {
  name: "conv6_2_mbox_priorbox"
  type: "PriorBox"
  bottom: "conv6_2"
  bottom: "data"
  top: "conv6_2_mbox_priorbox"
  prior_box_param {
    min_size: 111
    max_size: 162
    aspect_ratio: 2
    aspect_ratio: 3
    flip: true
    clip: false
    variance: 0.1
    variance: 0.1
    variance: 0.2
    variance: 0.2
    step: 32
    offset: 0.5
  }
}
layer {
  name: "conv7_2_mbox_loc"
  type: "Convolution"
  bottom: "conv7_2"
  top: "conv7_2_mbox_loc"
  param {
    lr_mult: 1
    decay_mult: 1
  }
  param {
    lr_mult: 2
    decay_mult: 0
  }
  convolution_param {
    num_output: 24
    pad: 1
    kernel_size: 3
    stride: 1
    weight_filler {
      type: "xavier"
    }
    bias_filler {
      type: "constant"
      value: 0
    }
  }
}
layer {
  name: "conv7_2_mbox_loc_perm"
  type: "Permute"
  bottom: "conv7_2_mbox_loc"
  top: "conv7_2_mbox_loc_perm"
  permute_param {
    order: 0
    order: 2
    order: 3
    order: 1
  }
}
layer {
  name: "conv7_2_mbox_loc_flat"
  type: "Flatten"
  bottom: "conv7_2_mbox_loc_perm"
  top: "conv7_2_mbox_loc_flat"
  flatten_param {
    axis: 1
  }
}
layer {
  name: "conv7_2_mbox_conf"
  type: "Convolution"
  bottom: "conv7_2"
  top: "conv7_2_mbox_conf"
  param {
    lr_mult: 1
    decay_mult: 1
  }
  param {
    lr_mult: 2
    decay_mult: 0
  }
  convolution_param {
    num_output: 354
    pad: 1
    kernel_size: 3
    stride: 1
    weight_filler {
      type: "xavier"
    }
    bias_filler {
      type: "constant"
      value: 0
    }
  }
}
layer {
  name: "conv7_2_mbox_conf_perm"
  type: "Permute"
  bottom: "conv7_2_mbox_conf"
  top: "conv7_2_mbox_conf_perm"
  permute_param {
    order: 0
    order: 2
    order: 3
    order: 1
  }
}
layer {
  name: "conv7_2_mbox_conf_flat"
  type: "Flatten"
  bottom: "conv7_2_mbox_conf_perm"
  top: "conv7_2_mbox_conf_flat"
  flatten_param {
    axis: 1
  }
}
layer {
  name: "conv7_2_mbox_priorbox"
  type: "PriorBox"
  bottom: "conv7_2"
  bottom: "data"
  top: "conv7_2_mbox_priorbox"
  prior_box_param {
    min_size: 162
    max_size: 213
    aspect_ratio: 2
    aspect_ratio: 3
    flip: true
    clip: false
    variance: 0.1
    variance: 0.1
    variance: 0.2
    variance: 0.2
    step: 64
    offset: 0.5
  }
}
layer {
  name: "conv8_2_mbox_loc"
  type: "Convolution"
  bottom: "conv8_2"
  top: "conv8_2_mbox_loc"
  param {
    lr_mult: 1
    decay_mult: 1
  }
  param {
    lr_mult: 2
    decay_mult: 0
  }
  convolution_param {
    num_output: 16
    pad: 1
    kernel_size: 3
    stride: 1
    weight_filler {
      type: "xavier"
    }
    bias_filler {
      type: "constant"
      value: 0
    }
  }
}
layer {
  name: "conv8_2_mbox_loc_perm"
  type: "Permute"
  bottom: "conv8_2_mbox_loc"
  top: "conv8_2_mbox_loc_perm"
  permute_param {
    order: 0
    order: 2
    order: 3
    order: 1
  }
}
layer {
  name: "conv8_2_mbox_loc_flat"
  type: "Flatten"
  bottom: "conv8_2_mbox_loc_perm"
  top: "conv8_2_mbox_loc_flat"
  flatten_param {
    axis: 1
  }
}
layer {
  name: "conv8_2_mbox_conf"
  type: "Convolution"
  bottom: "conv8_2"
  top: "conv8_2_mbox_conf"
  param {
    lr_mult: 1
    decay_mult: 1
  }
  param {
    lr_mult: 2
    decay_mult: 0
  }
  convolution_param {
    num_output: 236
    pad: 1
    kernel_size: 3
    stride: 1
    weight_filler {
      type: "xavier"
    }
    bias_filler {
      type: "constant"
      value: 0
    }
  }
}
layer {
  name: "conv8_2_mbox_conf_perm"
  type: "Permute"
  bottom: "conv8_2_mbox_conf"
  top: "conv8_2_mbox_conf_perm"
  permute_param {
    order: 0
    order: 2
    order: 3
    order: 1
  }
}
layer {
  name: "conv8_2_mbox_conf_flat"
  type: "Flatten"
  bottom: "conv8_2_mbox_conf_perm"
  top: "conv8_2_mbox_conf_flat"
  flatten_param {
    axis: 1
  }
}
layer {
  name: "conv8_2_mbox_priorbox"
  type: "PriorBox"
  bottom: "conv8_2"
  bottom: "data"
  top: "conv8_2_mbox_priorbox"
  prior_box_param {
    min_size: 213
    max_size: 264
    aspect_ratio: 2
    flip: true
    clip: false
    variance: 0.1
    variance: 0.1
    variance: 0.2
    variance: 0.2
    step: 100
    offset: 0.5
  }
}
layer {
  name: "conv9_2_mbox_loc"
  type: "Convolution"
  bottom: "conv9_2"
  top: "conv9_2_mbox_loc"
  param {
    lr_mult: 1
    decay_mult: 1
  }
  param {
    lr_mult: 2
    decay_mult: 0
  }
  convolution_param {
    num_output: 16
    pad: 1
    kernel_size: 3
    stride: 1
    weight_filler {
      type: "xavier"
    }
    bias_filler {
      type: "constant"
      value: 0
    }
  }
}
layer {
  name: "conv9_2_mbox_loc_perm"
  type: "Permute"
  bottom: "conv9_2_mbox_loc"
  top: "conv9_2_mbox_loc_perm"
  permute_param {
    order: 0
    order: 2
    order: 3
    order: 1
  }
}
layer {
  name: "conv9_2_mbox_loc_flat"
  type: "Flatten"
  bottom: "conv9_2_mbox_loc_perm"
  top: "conv9_2_mbox_loc_flat"
  flatten_param {
    axis: 1
  }
}
layer {
  name: "conv9_2_mbox_conf"
  type: "Convolution"
  bottom: "conv9_2"
  top: "conv9_2_mbox_conf"
  param {
    lr_mult: 1
    decay_mult: 1
  }
  param {
    lr_mult: 2
    decay_mult: 0
  }
  convolution_param {
    num_output: 236
    pad: 1
    kernel_size: 3
    stride: 1
    weight_filler {
      type: "xavier"
    }
    bias_filler {
      type: "constant"
      value: 0
    }
  }
}
layer {
  name: "conv9_2_mbox_conf_perm"
  type: "Permute"
  bottom: "conv9_2_mbox_conf"
  top: "conv9_2_mbox_conf_perm"
  permute_param {
    order: 0
    order: 2
    order: 3
    order: 1
  }
}
layer {
  name: "conv9_2_mbox_conf_flat"
  type: "Flatten"
  bottom: "conv9_2_mbox_conf_perm"
  top: "conv9_2_mbox_conf_flat"
  flatten_param {
    axis: 1
  }
}
layer {
  name: "conv9_2_mbox_priorbox"
  type: "PriorBox"
  bottom: "conv9_2"
  bottom: "data"
  top: "conv9_2_mbox_priorbox"
  prior_box_param {
    min_size: 264
    max_size: 315
    aspect_ratio: 2
    flip: true
    clip: false
    variance: 0.1
    variance: 0.1
    variance: 0.2
    variance: 0.2
    step: 300
    offset: 0.5
  }
}
layer {
  name: "mbox_loc"
  type: "Concat"
  bottom: "conv4_3_norm_mbox_loc_flat"
  bottom: "fc7_mbox_loc_flat"
  bottom: "conv6_2_mbox_loc_flat"
  bottom: "conv7_2_mbox_loc_flat"
  bottom: "conv8_2_mbox_loc_flat"
  bottom: "conv9_2_mbox_loc_flat"
  top: "mbox_loc"
  concat_param {
    axis: 1
  }
}
layer {
  name: "mbox_conf"
  type: "Concat"
  bottom: "conv4_3_norm_mbox_conf_flat"
  bottom: "fc7_mbox_conf_flat"
  bottom: "conv6_2_mbox_conf_flat"
  bottom: "conv7_2_mbox_conf_flat"
  bottom: "conv8_2_mbox_conf_flat"
  bottom: "conv9_2_mbox_conf_flat"
  top: "mbox_conf"
  concat_param {
    axis: 1
  }
}
layer {
  name: "mbox_priorbox"
  type: "Concat"
  bottom: "conv4_3_norm_mbox_priorbox"
  bottom: "fc7_mbox_priorbox"
  bottom: "conv6_2_mbox_priorbox"
  bottom: "conv7_2_mbox_priorbox"
  bottom: "conv8_2_mbox_priorbox"
  bottom: "conv9_2_mbox_priorbox"
  top: "mbox_priorbox"
  concat_param {
    axis: 2
  }
}
layer {
  name: "mbox_conf_reshape"
  type: "Reshape"
  bottom: "mbox_conf"
  top: "mbox_conf_reshape"
  reshape_param {
    shape {
      dim: 0
      dim: -1
      dim: 59
    }
  }
}
layer {
  name: "mbox_conf_softmax"
  type: "Softmax"
  bottom: "mbox_conf_reshape"
  top: "mbox_conf_softmax"
  softmax_param {
    axis: 2
  }
}
layer {
  name: "mbox_conf_flatten"
  type: "Flatten"
  bottom: "mbox_conf_softmax"
  top: "mbox_conf_flatten"
  flatten_param {
    axis: 1
  }
}
layer {
  name: "detection_out"
  type: "DetectionOutput"
  bottom: "mbox_loc"
  bottom: "mbox_conf_flatten"
  bottom: "mbox_priorbox"
  top: "detection_out"
  include {
    phase: TEST
  }
  detection_output_param {
    num_classes: 59
    share_location: true
    background_label_id: 0
    nms_param {
      nms_threshold: 0.45
      top_k: 400
    }
    save_output_param {
      output_directory: "/home/legion/data/SHOPPE_2017/results/SSD_300x300/Main"
      output_name_prefix: "comp4_det_test_"
      output_format: "VOC"
      label_map_file: "data/SHOPPE_2017/labelmap_voc.prototxt"
      name_size_file: "data/SHOPPE_2017/test_name_size.txt"
      num_test_image: 100
    }
    code_type: CENTER_SIZE
    keep_top_k: 200
    confidence_threshold: 0.01
  }
}
layer {
  name: "detection_eval"
  type: "DetectionEvaluate"
  bottom: "detection_out"
  bottom: "label"
  top: "detection_eval"
  include {
    phase: TEST
  }
  detection_evaluate_param {
    num_classes: 59
    background_label_id: 0
    overlap_threshold: 0.5
    evaluate_difficult_gt: false
    name_size_file: "data/SHOPPE_2017/test_name_size.txt"
  }
}
I0726 14:13:31.537696 31263 layer_factory.hpp:77] Creating layer data
I0726 14:13:31.606330 31263 net.cpp:100] Creating Layer data
I0726 14:13:31.606376 31263 net.cpp:408] data -> data
I0726 14:13:31.606407 31263 net.cpp:408] data -> label
I0726 14:13:31.607053 31278 db_lmdb.cpp:35] Opened lmdb SHOPPE_2017/lmdb/SHOPPE_2017_test_lmdb
I0726 14:13:31.610049 31263 annotated_data_layer.cpp:62] output data size: 8,3,300,300
I0726 14:13:31.637646 31263 net.cpp:150] Setting up data
I0726 14:13:31.637704 31263 net.cpp:157] Top shape: 8 3 300 300 (2160000)
I0726 14:13:31.637727 31263 net.cpp:157] Top shape: 1 1 13 8 (104)
I0726 14:13:31.637740 31263 net.cpp:165] Memory required for data: 8640416
I0726 14:13:31.637756 31263 layer_factory.hpp:77] Creating layer data_data_0_split
I0726 14:13:31.637778 31263 net.cpp:100] Creating Layer data_data_0_split
I0726 14:13:31.637799 31263 net.cpp:434] data_data_0_split <- data
I0726 14:13:31.637815 31263 net.cpp:408] data_data_0_split -> data_data_0_split_0
I0726 14:13:31.637836 31263 net.cpp:408] data_data_0_split -> data_data_0_split_1
I0726 14:13:31.637853 31263 net.cpp:408] data_data_0_split -> data_data_0_split_2
I0726 14:13:31.637871 31263 net.cpp:408] data_data_0_split -> data_data_0_split_3
I0726 14:13:31.637888 31263 net.cpp:408] data_data_0_split -> data_data_0_split_4
I0726 14:13:31.637904 31263 net.cpp:408] data_data_0_split -> data_data_0_split_5
I0726 14:13:31.637919 31263 net.cpp:408] data_data_0_split -> data_data_0_split_6
I0726 14:13:31.638053 31263 net.cpp:150] Setting up data_data_0_split
I0726 14:13:31.638072 31263 net.cpp:157] Top shape: 8 3 300 300 (2160000)
I0726 14:13:31.638087 31263 net.cpp:157] Top shape: 8 3 300 300 (2160000)
I0726 14:13:31.638099 31263 net.cpp:157] Top shape: 8 3 300 300 (2160000)
I0726 14:13:31.638111 31263 net.cpp:157] Top shape: 8 3 300 300 (2160000)
I0726 14:13:31.638123 31263 net.cpp:157] Top shape: 8 3 300 300 (2160000)
I0726 14:13:31.638134 31263 net.cpp:157] Top shape: 8 3 300 300 (2160000)
I0726 14:13:31.638146 31263 net.cpp:157] Top shape: 8 3 300 300 (2160000)
I0726 14:13:31.638164 31263 net.cpp:165] Memory required for data: 69120416
I0726 14:13:31.638190 31263 layer_factory.hpp:77] Creating layer conv1_1
I0726 14:13:31.638211 31263 net.cpp:100] Creating Layer conv1_1
I0726 14:13:31.638222 31263 net.cpp:434] conv1_1 <- data_data_0_split_0
I0726 14:13:31.638237 31263 net.cpp:408] conv1_1 -> conv1_1
I0726 14:13:31.638661 31263 net.cpp:150] Setting up conv1_1
I0726 14:13:31.638684 31263 net.cpp:157] Top shape: 8 64 300 300 (46080000)
I0726 14:13:31.638697 31263 net.cpp:165] Memory required for data: 253440416
I0726 14:13:31.638720 31263 layer_factory.hpp:77] Creating layer relu1_1
I0726 14:13:31.638734 31263 net.cpp:100] Creating Layer relu1_1
I0726 14:13:31.638747 31263 net.cpp:434] relu1_1 <- conv1_1
I0726 14:13:31.638761 31263 net.cpp:395] relu1_1 -> conv1_1 (in-place)
I0726 14:13:31.638778 31263 net.cpp:150] Setting up relu1_1
I0726 14:13:31.638792 31263 net.cpp:157] Top shape: 8 64 300 300 (46080000)
I0726 14:13:31.638803 31263 net.cpp:165] Memory required for data: 437760416
I0726 14:13:31.638814 31263 layer_factory.hpp:77] Creating layer conv1_2
I0726 14:13:31.638833 31263 net.cpp:100] Creating Layer conv1_2
I0726 14:13:31.638845 31263 net.cpp:434] conv1_2 <- conv1_1
I0726 14:13:31.638860 31263 net.cpp:408] conv1_2 -> conv1_2
I0726 14:13:31.639678 31263 net.cpp:150] Setting up conv1_2
I0726 14:13:31.639700 31263 net.cpp:157] Top shape: 8 64 300 300 (46080000)
I0726 14:13:31.639714 31263 net.cpp:165] Memory required for data: 622080416
I0726 14:13:31.639744 31263 layer_factory.hpp:77] Creating layer relu1_2
I0726 14:13:31.639757 31263 net.cpp:100] Creating Layer relu1_2
I0726 14:13:31.639770 31263 net.cpp:434] relu1_2 <- conv1_2
I0726 14:13:31.639783 31263 net.cpp:395] relu1_2 -> conv1_2 (in-place)
I0726 14:13:31.639803 31263 net.cpp:150] Setting up relu1_2
I0726 14:13:31.639818 31263 net.cpp:157] Top shape: 8 64 300 300 (46080000)
I0726 14:13:31.639832 31263 net.cpp:165] Memory required for data: 806400416
I0726 14:13:31.639842 31263 layer_factory.hpp:77] Creating layer pool1
I0726 14:13:31.639856 31263 net.cpp:100] Creating Layer pool1
I0726 14:13:31.639868 31263 net.cpp:434] pool1 <- conv1_2
I0726 14:13:31.639883 31263 net.cpp:408] pool1 -> pool1
I0726 14:13:31.639933 31263 net.cpp:150] Setting up pool1
I0726 14:13:31.639950 31263 net.cpp:157] Top shape: 8 64 150 150 (11520000)
I0726 14:13:31.639961 31263 net.cpp:165] Memory required for data: 852480416
I0726 14:13:31.639971 31263 layer_factory.hpp:77] Creating layer conv2_1
I0726 14:13:31.639988 31263 net.cpp:100] Creating Layer conv2_1
I0726 14:13:31.639999 31263 net.cpp:434] conv2_1 <- pool1
I0726 14:13:31.640014 31263 net.cpp:408] conv2_1 -> conv2_1
I0726 14:13:31.641132 31263 net.cpp:150] Setting up conv2_1
I0726 14:13:31.641162 31263 net.cpp:157] Top shape: 8 128 150 150 (23040000)
I0726 14:13:31.641175 31263 net.cpp:165] Memory required for data: 944640416
I0726 14:13:31.641192 31263 layer_factory.hpp:77] Creating layer relu2_1
I0726 14:13:31.641208 31263 net.cpp:100] Creating Layer relu2_1
I0726 14:13:31.641221 31263 net.cpp:434] relu2_1 <- conv2_1
I0726 14:13:31.641233 31263 net.cpp:395] relu2_1 -> conv2_1 (in-place)
I0726 14:13:31.641248 31263 net.cpp:150] Setting up relu2_1
I0726 14:13:31.641263 31263 net.cpp:157] Top shape: 8 128 150 150 (23040000)
I0726 14:13:31.641273 31263 net.cpp:165] Memory required for data: 1036800416
I0726 14:13:31.641284 31263 layer_factory.hpp:77] Creating layer conv2_2
I0726 14:13:31.641300 31263 net.cpp:100] Creating Layer conv2_2
I0726 14:13:31.641312 31263 net.cpp:434] conv2_2 <- conv2_1
I0726 14:13:31.641327 31263 net.cpp:408] conv2_2 -> conv2_2
I0726 14:13:31.643816 31263 net.cpp:150] Setting up conv2_2
I0726 14:13:31.643856 31263 net.cpp:157] Top shape: 8 128 150 150 (23040000)
I0726 14:13:31.643872 31263 net.cpp:165] Memory required for data: 1128960416
I0726 14:13:31.643887 31263 layer_factory.hpp:77] Creating layer relu2_2
I0726 14:13:31.643900 31263 net.cpp:100] Creating Layer relu2_2
I0726 14:13:31.643913 31263 net.cpp:434] relu2_2 <- conv2_2
I0726 14:13:31.643925 31263 net.cpp:395] relu2_2 -> conv2_2 (in-place)
I0726 14:13:31.643949 31263 net.cpp:150] Setting up relu2_2
I0726 14:13:31.643973 31263 net.cpp:157] Top shape: 8 128 150 150 (23040000)
I0726 14:13:31.643985 31263 net.cpp:165] Memory required for data: 1221120416
I0726 14:13:31.643996 31263 layer_factory.hpp:77] Creating layer pool2
I0726 14:13:31.644008 31263 net.cpp:100] Creating Layer pool2
I0726 14:13:31.644021 31263 net.cpp:434] pool2 <- conv2_2
I0726 14:13:31.644033 31263 net.cpp:408] pool2 -> pool2
I0726 14:13:31.644083 31263 net.cpp:150] Setting up pool2
I0726 14:13:31.644098 31263 net.cpp:157] Top shape: 8 128 75 75 (5760000)
I0726 14:13:31.644109 31263 net.cpp:165] Memory required for data: 1244160416
I0726 14:13:31.644120 31263 layer_factory.hpp:77] Creating layer conv3_1
I0726 14:13:31.644143 31263 net.cpp:100] Creating Layer conv3_1
I0726 14:13:31.644155 31263 net.cpp:434] conv3_1 <- pool2
I0726 14:13:31.644168 31263 net.cpp:408] conv3_1 -> conv3_1
I0726 14:13:31.648674 31263 net.cpp:150] Setting up conv3_1
I0726 14:13:31.648733 31263 net.cpp:157] Top shape: 8 256 75 75 (11520000)
I0726 14:13:31.648747 31263 net.cpp:165] Memory required for data: 1290240416
I0726 14:13:31.648769 31263 layer_factory.hpp:77] Creating layer relu3_1
I0726 14:13:31.648792 31263 net.cpp:100] Creating Layer relu3_1
I0726 14:13:31.648805 31263 net.cpp:434] relu3_1 <- conv3_1
I0726 14:13:31.648836 31263 net.cpp:395] relu3_1 -> conv3_1 (in-place)
I0726 14:13:31.648855 31263 net.cpp:150] Setting up relu3_1
I0726 14:13:31.648869 31263 net.cpp:157] Top shape: 8 256 75 75 (11520000)
I0726 14:13:31.648880 31263 net.cpp:165] Memory required for data: 1336320416
I0726 14:13:31.648890 31263 layer_factory.hpp:77] Creating layer conv3_2
I0726 14:13:31.648905 31263 net.cpp:100] Creating Layer conv3_2
I0726 14:13:31.648917 31263 net.cpp:434] conv3_2 <- conv3_1
I0726 14:13:31.648931 31263 net.cpp:408] conv3_2 -> conv3_2
I0726 14:13:31.656383 31263 net.cpp:150] Setting up conv3_2
I0726 14:13:31.656442 31263 net.cpp:157] Top shape: 8 256 75 75 (11520000)
I0726 14:13:31.656456 31263 net.cpp:165] Memory required for data: 1382400416
I0726 14:13:31.656486 31263 layer_factory.hpp:77] Creating layer relu3_2
I0726 14:13:31.656500 31263 net.cpp:100] Creating Layer relu3_2
I0726 14:13:31.656512 31263 net.cpp:434] relu3_2 <- conv3_2
I0726 14:13:31.656524 31263 net.cpp:395] relu3_2 -> conv3_2 (in-place)
I0726 14:13:31.656541 31263 net.cpp:150] Setting up relu3_2
I0726 14:13:31.656561 31263 net.cpp:157] Top shape: 8 256 75 75 (11520000)
I0726 14:13:31.656570 31263 net.cpp:165] Memory required for data: 1428480416
I0726 14:13:31.656580 31263 layer_factory.hpp:77] Creating layer conv3_3
I0726 14:13:31.656599 31263 net.cpp:100] Creating Layer conv3_3
I0726 14:13:31.656610 31263 net.cpp:434] conv3_3 <- conv3_2
I0726 14:13:31.656621 31263 net.cpp:408] conv3_3 -> conv3_3
I0726 14:13:31.664482 31263 net.cpp:150] Setting up conv3_3
I0726 14:13:31.664554 31263 net.cpp:157] Top shape: 8 256 75 75 (11520000)
I0726 14:13:31.664567 31263 net.cpp:165] Memory required for data: 1474560416
I0726 14:13:31.664587 31263 layer_factory.hpp:77] Creating layer relu3_3
I0726 14:13:31.664629 31263 net.cpp:100] Creating Layer relu3_3
I0726 14:13:31.664640 31263 net.cpp:434] relu3_3 <- conv3_3
I0726 14:13:31.664654 31263 net.cpp:395] relu3_3 -> conv3_3 (in-place)
I0726 14:13:31.664671 31263 net.cpp:150] Setting up relu3_3
I0726 14:13:31.664681 31263 net.cpp:157] Top shape: 8 256 75 75 (11520000)
I0726 14:13:31.664691 31263 net.cpp:165] Memory required for data: 1520640416
I0726 14:13:31.664700 31263 layer_factory.hpp:77] Creating layer pool3
I0726 14:13:31.664711 31263 net.cpp:100] Creating Layer pool3
I0726 14:13:31.664721 31263 net.cpp:434] pool3 <- conv3_3
I0726 14:13:31.664733 31263 net.cpp:408] pool3 -> pool3
I0726 14:13:31.664785 31263 net.cpp:150] Setting up pool3
I0726 14:13:31.664798 31263 net.cpp:157] Top shape: 8 256 38 38 (2957312)
I0726 14:13:31.664808 31263 net.cpp:165] Memory required for data: 1532469664
I0726 14:13:31.664818 31263 layer_factory.hpp:77] Creating layer conv4_1
I0726 14:13:31.664840 31263 net.cpp:100] Creating Layer conv4_1
I0726 14:13:31.664863 31263 net.cpp:434] conv4_1 <- pool3
I0726 14:13:31.664890 31263 net.cpp:408] conv4_1 -> conv4_1
I0726 14:13:31.679460 31263 net.cpp:150] Setting up conv4_1
I0726 14:13:31.679556 31263 net.cpp:157] Top shape: 8 512 38 38 (5914624)
I0726 14:13:31.679570 31263 net.cpp:165] Memory required for data: 1556128160
I0726 14:13:31.679589 31263 layer_factory.hpp:77] Creating layer relu4_1
I0726 14:13:31.679610 31263 net.cpp:100] Creating Layer relu4_1
I0726 14:13:31.679622 31263 net.cpp:434] relu4_1 <- conv4_1
I0726 14:13:31.679636 31263 net.cpp:395] relu4_1 -> conv4_1 (in-place)
I0726 14:13:31.679653 31263 net.cpp:150] Setting up relu4_1
I0726 14:13:31.679666 31263 net.cpp:157] Top shape: 8 512 38 38 (5914624)
I0726 14:13:31.679674 31263 net.cpp:165] Memory required for data: 1579786656
I0726 14:13:31.679684 31263 layer_factory.hpp:77] Creating layer conv4_2
I0726 14:13:31.679702 31263 net.cpp:100] Creating Layer conv4_2
I0726 14:13:31.679711 31263 net.cpp:434] conv4_2 <- conv4_1
I0726 14:13:31.679723 31263 net.cpp:408] conv4_2 -> conv4_2
I0726 14:13:31.707685 31263 net.cpp:150] Setting up conv4_2
I0726 14:13:31.707798 31263 net.cpp:157] Top shape: 8 512 38 38 (5914624)
I0726 14:13:31.707814 31263 net.cpp:165] Memory required for data: 1603445152
I0726 14:13:31.707868 31263 layer_factory.hpp:77] Creating layer relu4_2
I0726 14:13:31.707885 31263 net.cpp:100] Creating Layer relu4_2
I0726 14:13:31.707896 31263 net.cpp:434] relu4_2 <- conv4_2
I0726 14:13:31.707911 31263 net.cpp:395] relu4_2 -> conv4_2 (in-place)
I0726 14:13:31.707927 31263 net.cpp:150] Setting up relu4_2
I0726 14:13:31.707938 31263 net.cpp:157] Top shape: 8 512 38 38 (5914624)
I0726 14:13:31.707947 31263 net.cpp:165] Memory required for data: 1627103648
I0726 14:13:31.707957 31263 layer_factory.hpp:77] Creating layer conv4_3
I0726 14:13:31.707974 31263 net.cpp:100] Creating Layer conv4_3
I0726 14:13:31.707984 31263 net.cpp:434] conv4_3 <- conv4_2
I0726 14:13:31.707996 31263 net.cpp:408] conv4_3 -> conv4_3
I0726 14:13:31.736480 31263 net.cpp:150] Setting up conv4_3
I0726 14:13:31.736568 31263 net.cpp:157] Top shape: 8 512 38 38 (5914624)
I0726 14:13:31.736582 31263 net.cpp:165] Memory required for data: 1650762144
I0726 14:13:31.736599 31263 layer_factory.hpp:77] Creating layer relu4_3
I0726 14:13:31.736614 31263 net.cpp:100] Creating Layer relu4_3
I0726 14:13:31.736625 31263 net.cpp:434] relu4_3 <- conv4_3
I0726 14:13:31.736659 31263 net.cpp:395] relu4_3 -> conv4_3 (in-place)
I0726 14:13:31.736680 31263 net.cpp:150] Setting up relu4_3
I0726 14:13:31.736692 31263 net.cpp:157] Top shape: 8 512 38 38 (5914624)
I0726 14:13:31.736701 31263 net.cpp:165] Memory required for data: 1674420640
I0726 14:13:31.736711 31263 layer_factory.hpp:77] Creating layer conv4_3_relu4_3_0_split
I0726 14:13:31.736721 31263 net.cpp:100] Creating Layer conv4_3_relu4_3_0_split
I0726 14:13:31.736732 31263 net.cpp:434] conv4_3_relu4_3_0_split <- conv4_3
I0726 14:13:31.736744 31263 net.cpp:408] conv4_3_relu4_3_0_split -> conv4_3_relu4_3_0_split_0
I0726 14:13:31.736757 31263 net.cpp:408] conv4_3_relu4_3_0_split -> conv4_3_relu4_3_0_split_1
I0726 14:13:31.736806 31263 net.cpp:150] Setting up conv4_3_relu4_3_0_split
I0726 14:13:31.736819 31263 net.cpp:157] Top shape: 8 512 38 38 (5914624)
I0726 14:13:31.736830 31263 net.cpp:157] Top shape: 8 512 38 38 (5914624)
I0726 14:13:31.736841 31263 net.cpp:165] Memory required for data: 1721737632
I0726 14:13:31.736851 31263 layer_factory.hpp:77] Creating layer pool4
I0726 14:13:31.736863 31263 net.cpp:100] Creating Layer pool4
I0726 14:13:31.736873 31263 net.cpp:434] pool4 <- conv4_3_relu4_3_0_split_0
I0726 14:13:31.736886 31263 net.cpp:408] pool4 -> pool4
I0726 14:13:31.736927 31263 net.cpp:150] Setting up pool4
I0726 14:13:31.736941 31263 net.cpp:157] Top shape: 8 512 19 19 (1478656)
I0726 14:13:31.736950 31263 net.cpp:165] Memory required for data: 1727652256
I0726 14:13:31.736960 31263 layer_factory.hpp:77] Creating layer conv5_1
I0726 14:13:31.736976 31263 net.cpp:100] Creating Layer conv5_1
I0726 14:13:31.736995 31263 net.cpp:434] conv5_1 <- pool4
I0726 14:13:31.737022 31263 net.cpp:408] conv5_1 -> conv5_1
I0726 14:13:31.771160 31263 net.cpp:150] Setting up conv5_1
I0726 14:13:31.771226 31263 net.cpp:157] Top shape: 8 512 19 19 (1478656)
I0726 14:13:31.771241 31263 net.cpp:165] Memory required for data: 1733566880
I0726 14:13:31.771260 31263 layer_factory.hpp:77] Creating layer relu5_1
I0726 14:13:31.771282 31263 net.cpp:100] Creating Layer relu5_1
I0726 14:13:31.771296 31263 net.cpp:434] relu5_1 <- conv5_1
I0726 14:13:31.771311 31263 net.cpp:395] relu5_1 -> conv5_1 (in-place)
I0726 14:13:31.771340 31263 net.cpp:150] Setting up relu5_1
I0726 14:13:31.771354 31263 net.cpp:157] Top shape: 8 512 19 19 (1478656)
I0726 14:13:31.771365 31263 net.cpp:165] Memory required for data: 1739481504
I0726 14:13:31.771376 31263 layer_factory.hpp:77] Creating layer conv5_2
I0726 14:13:31.771394 31263 net.cpp:100] Creating Layer conv5_2
I0726 14:13:31.771405 31263 net.cpp:434] conv5_2 <- conv5_1
I0726 14:13:31.771453 31263 net.cpp:408] conv5_2 -> conv5_2
I0726 14:13:31.799942 31263 net.cpp:150] Setting up conv5_2
I0726 14:13:31.800130 31263 net.cpp:157] Top shape: 8 512 19 19 (1478656)
I0726 14:13:31.800144 31263 net.cpp:165] Memory required for data: 1745396128
I0726 14:13:31.800174 31263 layer_factory.hpp:77] Creating layer relu5_2
I0726 14:13:31.800199 31263 net.cpp:100] Creating Layer relu5_2
I0726 14:13:31.800235 31263 net.cpp:434] relu5_2 <- conv5_2
I0726 14:13:31.800256 31263 net.cpp:395] relu5_2 -> conv5_2 (in-place)
I0726 14:13:31.800287 31263 net.cpp:150] Setting up relu5_2
I0726 14:13:31.800299 31263 net.cpp:157] Top shape: 8 512 19 19 (1478656)
I0726 14:13:31.800308 31263 net.cpp:165] Memory required for data: 1751310752
I0726 14:13:31.800318 31263 layer_factory.hpp:77] Creating layer conv5_3
I0726 14:13:31.800339 31263 net.cpp:100] Creating Layer conv5_3
I0726 14:13:31.800351 31263 net.cpp:434] conv5_3 <- conv5_2
I0726 14:13:31.800366 31263 net.cpp:408] conv5_3 -> conv5_3
I0726 14:13:31.830325 31263 net.cpp:150] Setting up conv5_3
I0726 14:13:31.830420 31263 net.cpp:157] Top shape: 8 512 19 19 (1478656)
I0726 14:13:31.830435 31263 net.cpp:165] Memory required for data: 1757225376
I0726 14:13:31.830451 31263 layer_factory.hpp:77] Creating layer relu5_3
I0726 14:13:31.830469 31263 net.cpp:100] Creating Layer relu5_3
I0726 14:13:31.830487 31263 net.cpp:434] relu5_3 <- conv5_3
I0726 14:13:31.830502 31263 net.cpp:395] relu5_3 -> conv5_3 (in-place)
I0726 14:13:31.830519 31263 net.cpp:150] Setting up relu5_3
I0726 14:13:31.830530 31263 net.cpp:157] Top shape: 8 512 19 19 (1478656)
I0726 14:13:31.830539 31263 net.cpp:165] Memory required for data: 1763140000
I0726 14:13:31.830549 31263 layer_factory.hpp:77] Creating layer pool5
I0726 14:13:31.830561 31263 net.cpp:100] Creating Layer pool5
I0726 14:13:31.830571 31263 net.cpp:434] pool5 <- conv5_3
I0726 14:13:31.830582 31263 net.cpp:408] pool5 -> pool5
I0726 14:13:31.830651 31263 net.cpp:150] Setting up pool5
I0726 14:13:31.830663 31263 net.cpp:157] Top shape: 8 512 19 19 (1478656)
I0726 14:13:31.830672 31263 net.cpp:165] Memory required for data: 1769054624
I0726 14:13:31.830682 31263 layer_factory.hpp:77] Creating layer fc6
I0726 14:13:31.830698 31263 net.cpp:100] Creating Layer fc6
I0726 14:13:31.830708 31263 net.cpp:434] fc6 <- pool5
I0726 14:13:31.830720 31263 net.cpp:408] fc6 -> fc6
I0726 14:13:31.889031 31263 net.cpp:150] Setting up fc6
I0726 14:13:31.889438 31263 net.cpp:157] Top shape: 8 1024 19 19 (2957312)
I0726 14:13:31.889473 31263 net.cpp:165] Memory required for data: 1780883872
I0726 14:13:31.889528 31263 layer_factory.hpp:77] Creating layer relu6
I0726 14:13:31.889581 31263 net.cpp:100] Creating Layer relu6
I0726 14:13:31.889636 31263 net.cpp:434] relu6 <- fc6
I0726 14:13:31.889683 31263 net.cpp:395] relu6 -> fc6 (in-place)
I0726 14:13:31.889763 31263 net.cpp:150] Setting up relu6
I0726 14:13:31.889856 31263 net.cpp:157] Top shape: 8 1024 19 19 (2957312)
I0726 14:13:31.889875 31263 net.cpp:165] Memory required for data: 1792713120
I0726 14:13:31.889945 31263 layer_factory.hpp:77] Creating layer fc7
I0726 14:13:31.890189 31263 net.cpp:100] Creating Layer fc7
I0726 14:13:31.890211 31263 net.cpp:434] fc7 <- fc6
I0726 14:13:31.890239 31263 net.cpp:408] fc7 -> fc7
I0726 14:13:31.903575 31263 net.cpp:150] Setting up fc7
I0726 14:13:31.903648 31263 net.cpp:157] Top shape: 8 1024 19 19 (2957312)
I0726 14:13:31.903661 31263 net.cpp:165] Memory required for data: 1804542368
I0726 14:13:31.903681 31263 layer_factory.hpp:77] Creating layer relu7
I0726 14:13:31.903697 31263 net.cpp:100] Creating Layer relu7
I0726 14:13:31.903708 31263 net.cpp:434] relu7 <- fc7
I0726 14:13:31.903723 31263 net.cpp:395] relu7 -> fc7 (in-place)
I0726 14:13:31.903740 31263 net.cpp:150] Setting up relu7
I0726 14:13:31.903754 31263 net.cpp:157] Top shape: 8 1024 19 19 (2957312)
I0726 14:13:31.903779 31263 net.cpp:165] Memory required for data: 1816371616
I0726 14:13:31.903789 31263 layer_factory.hpp:77] Creating layer fc7_relu7_0_split
I0726 14:13:31.903800 31263 net.cpp:100] Creating Layer fc7_relu7_0_split
I0726 14:13:31.903810 31263 net.cpp:434] fc7_relu7_0_split <- fc7
I0726 14:13:31.903822 31263 net.cpp:408] fc7_relu7_0_split -> fc7_relu7_0_split_0
I0726 14:13:31.903836 31263 net.cpp:408] fc7_relu7_0_split -> fc7_relu7_0_split_1
I0726 14:13:31.903853 31263 net.cpp:408] fc7_relu7_0_split -> fc7_relu7_0_split_2
I0726 14:13:31.903867 31263 net.cpp:408] fc7_relu7_0_split -> fc7_relu7_0_split_3
I0726 14:13:31.903934 31263 net.cpp:150] Setting up fc7_relu7_0_split
I0726 14:13:31.903946 31263 net.cpp:157] Top shape: 8 1024 19 19 (2957312)
I0726 14:13:31.903957 31263 net.cpp:157] Top shape: 8 1024 19 19 (2957312)
I0726 14:13:31.903967 31263 net.cpp:157] Top shape: 8 1024 19 19 (2957312)
I0726 14:13:31.903977 31263 net.cpp:157] Top shape: 8 1024 19 19 (2957312)
I0726 14:13:31.903986 31263 net.cpp:165] Memory required for data: 1863688608
I0726 14:13:31.903996 31263 layer_factory.hpp:77] Creating layer conv6_1
I0726 14:13:31.904012 31263 net.cpp:100] Creating Layer conv6_1
I0726 14:13:31.904022 31263 net.cpp:434] conv6_1 <- fc7_relu7_0_split_0
I0726 14:13:31.904034 31263 net.cpp:408] conv6_1 -> conv6_1
I0726 14:13:31.907891 31263 net.cpp:150] Setting up conv6_1
I0726 14:13:31.907933 31263 net.cpp:157] Top shape: 8 256 19 19 (739328)
I0726 14:13:31.907944 31263 net.cpp:165] Memory required for data: 1866645920
I0726 14:13:31.907959 31263 layer_factory.hpp:77] Creating layer conv6_1_relu
I0726 14:13:31.907979 31263 net.cpp:100] Creating Layer conv6_1_relu
I0726 14:13:31.907989 31263 net.cpp:434] conv6_1_relu <- conv6_1
I0726 14:13:31.908001 31263 net.cpp:395] conv6_1_relu -> conv6_1 (in-place)
I0726 14:13:31.908017 31263 net.cpp:150] Setting up conv6_1_relu
I0726 14:13:31.908030 31263 net.cpp:157] Top shape: 8 256 19 19 (739328)
I0726 14:13:31.908038 31263 net.cpp:165] Memory required for data: 1869603232
I0726 14:13:31.908048 31263 layer_factory.hpp:77] Creating layer conv6_2
I0726 14:13:31.908063 31263 net.cpp:100] Creating Layer conv6_2
I0726 14:13:31.908076 31263 net.cpp:434] conv6_2 <- conv6_1
I0726 14:13:31.908098 31263 net.cpp:408] conv6_2 -> conv6_2
I0726 14:13:31.922897 31263 net.cpp:150] Setting up conv6_2
I0726 14:13:31.923002 31263 net.cpp:157] Top shape: 8 512 10 10 (409600)
I0726 14:13:31.923015 31263 net.cpp:165] Memory required for data: 1871241632
I0726 14:13:31.923043 31263 layer_factory.hpp:77] Creating layer conv6_2_relu
I0726 14:13:31.923058 31263 net.cpp:100] Creating Layer conv6_2_relu
I0726 14:13:31.923074 31263 net.cpp:434] conv6_2_relu <- conv6_2
I0726 14:13:31.923090 31263 net.cpp:395] conv6_2_relu -> conv6_2 (in-place)
I0726 14:13:31.923107 31263 net.cpp:150] Setting up conv6_2_relu
I0726 14:13:31.923118 31263 net.cpp:157] Top shape: 8 512 10 10 (409600)
I0726 14:13:31.923127 31263 net.cpp:165] Memory required for data: 1872880032
I0726 14:13:31.923142 31263 layer_factory.hpp:77] Creating layer conv6_2_conv6_2_relu_0_split
I0726 14:13:31.923161 31263 net.cpp:100] Creating Layer conv6_2_conv6_2_relu_0_split
I0726 14:13:31.923171 31263 net.cpp:434] conv6_2_conv6_2_relu_0_split <- conv6_2
I0726 14:13:31.923192 31263 net.cpp:408] conv6_2_conv6_2_relu_0_split -> conv6_2_conv6_2_relu_0_split_0
I0726 14:13:31.923234 31263 net.cpp:408] conv6_2_conv6_2_relu_0_split -> conv6_2_conv6_2_relu_0_split_1
I0726 14:13:31.923247 31263 net.cpp:408] conv6_2_conv6_2_relu_0_split -> conv6_2_conv6_2_relu_0_split_2
I0726 14:13:31.923259 31263 net.cpp:408] conv6_2_conv6_2_relu_0_split -> conv6_2_conv6_2_relu_0_split_3
I0726 14:13:31.923346 31263 net.cpp:150] Setting up conv6_2_conv6_2_relu_0_split
I0726 14:13:31.923358 31263 net.cpp:157] Top shape: 8 512 10 10 (409600)
I0726 14:13:31.923368 31263 net.cpp:157] Top shape: 8 512 10 10 (409600)
I0726 14:13:31.923378 31263 net.cpp:157] Top shape: 8 512 10 10 (409600)
I0726 14:13:31.923388 31263 net.cpp:157] Top shape: 8 512 10 10 (409600)
I0726 14:13:31.923403 31263 net.cpp:165] Memory required for data: 1879433632
I0726 14:13:31.923425 31263 layer_factory.hpp:77] Creating layer conv7_1
I0726 14:13:31.923447 31263 net.cpp:100] Creating Layer conv7_1
I0726 14:13:31.923457 31263 net.cpp:434] conv7_1 <- conv6_2_conv6_2_relu_0_split_0
I0726 14:13:31.923470 31263 net.cpp:408] conv7_1 -> conv7_1
I0726 14:13:31.924386 31263 net.cpp:150] Setting up conv7_1
I0726 14:13:31.924405 31263 net.cpp:157] Top shape: 8 128 10 10 (102400)
I0726 14:13:31.924414 31263 net.cpp:165] Memory required for data: 1879843232
I0726 14:13:31.924427 31263 layer_factory.hpp:77] Creating layer conv7_1_relu
I0726 14:13:31.924443 31263 net.cpp:100] Creating Layer conv7_1_relu
I0726 14:13:31.924453 31263 net.cpp:434] conv7_1_relu <- conv7_1
I0726 14:13:31.924463 31263 net.cpp:395] conv7_1_relu -> conv7_1 (in-place)
I0726 14:13:31.924476 31263 net.cpp:150] Setting up conv7_1_relu
I0726 14:13:31.924486 31263 net.cpp:157] Top shape: 8 128 10 10 (102400)
I0726 14:13:31.924505 31263 net.cpp:165] Memory required for data: 1880252832
I0726 14:13:31.924516 31263 layer_factory.hpp:77] Creating layer conv7_2
I0726 14:13:31.924535 31263 net.cpp:100] Creating Layer conv7_2
I0726 14:13:31.924545 31263 net.cpp:434] conv7_2 <- conv7_1
I0726 14:13:31.924556 31263 net.cpp:408] conv7_2 -> conv7_2
I0726 14:13:31.929446 31263 net.cpp:150] Setting up conv7_2
I0726 14:13:31.929615 31263 net.cpp:157] Top shape: 8 256 5 5 (51200)
I0726 14:13:31.929641 31263 net.cpp:165] Memory required for data: 1880457632
I0726 14:13:31.929656 31263 layer_factory.hpp:77] Creating layer conv7_2_relu
I0726 14:13:31.929672 31263 net.cpp:100] Creating Layer conv7_2_relu
I0726 14:13:31.929683 31263 net.cpp:434] conv7_2_relu <- conv7_2
I0726 14:13:31.929697 31263 net.cpp:395] conv7_2_relu -> conv7_2 (in-place)
I0726 14:13:31.929715 31263 net.cpp:150] Setting up conv7_2_relu
I0726 14:13:31.929726 31263 net.cpp:157] Top shape: 8 256 5 5 (51200)
I0726 14:13:31.929736 31263 net.cpp:165] Memory required for data: 1880662432
I0726 14:13:31.929747 31263 layer_factory.hpp:77] Creating layer conv7_2_conv7_2_relu_0_split
I0726 14:13:31.929767 31263 net.cpp:100] Creating Layer conv7_2_conv7_2_relu_0_split
I0726 14:13:31.929777 31263 net.cpp:434] conv7_2_conv7_2_relu_0_split <- conv7_2
I0726 14:13:31.929790 31263 net.cpp:408] conv7_2_conv7_2_relu_0_split -> conv7_2_conv7_2_relu_0_split_0
I0726 14:13:31.929805 31263 net.cpp:408] conv7_2_conv7_2_relu_0_split -> conv7_2_conv7_2_relu_0_split_1
I0726 14:13:31.929818 31263 net.cpp:408] conv7_2_conv7_2_relu_0_split -> conv7_2_conv7_2_relu_0_split_2
I0726 14:13:31.929831 31263 net.cpp:408] conv7_2_conv7_2_relu_0_split -> conv7_2_conv7_2_relu_0_split_3
I0726 14:13:31.929908 31263 net.cpp:150] Setting up conv7_2_conv7_2_relu_0_split
I0726 14:13:31.929920 31263 net.cpp:157] Top shape: 8 256 5 5 (51200)
I0726 14:13:31.929932 31263 net.cpp:157] Top shape: 8 256 5 5 (51200)
I0726 14:13:31.929944 31263 net.cpp:157] Top shape: 8 256 5 5 (51200)
I0726 14:13:31.929956 31263 net.cpp:157] Top shape: 8 256 5 5 (51200)
I0726 14:13:31.929965 31263 net.cpp:165] Memory required for data: 1881481632
I0726 14:13:31.929975 31263 layer_factory.hpp:77] Creating layer conv8_1
I0726 14:13:31.929991 31263 net.cpp:100] Creating Layer conv8_1
I0726 14:13:31.930008 31263 net.cpp:434] conv8_1 <- conv7_2_conv7_2_relu_0_split_0
I0726 14:13:31.930032 31263 net.cpp:408] conv8_1 -> conv8_1
I0726 14:13:31.930609 31263 net.cpp:150] Setting up conv8_1
I0726 14:13:31.930625 31263 net.cpp:157] Top shape: 8 128 5 5 (25600)
I0726 14:13:31.930636 31263 net.cpp:165] Memory required for data: 1881584032
I0726 14:13:31.930652 31263 layer_factory.hpp:77] Creating layer conv8_1_relu
I0726 14:13:31.930667 31263 net.cpp:100] Creating Layer conv8_1_relu
I0726 14:13:31.930678 31263 net.cpp:434] conv8_1_relu <- conv8_1
I0726 14:13:31.930691 31263 net.cpp:395] conv8_1_relu -> conv8_1 (in-place)
I0726 14:13:31.930703 31263 net.cpp:150] Setting up conv8_1_relu
I0726 14:13:31.930716 31263 net.cpp:157] Top shape: 8 128 5 5 (25600)
I0726 14:13:31.930724 31263 net.cpp:165] Memory required for data: 1881686432
I0726 14:13:31.930734 31263 layer_factory.hpp:77] Creating layer conv8_2
I0726 14:13:31.930748 31263 net.cpp:100] Creating Layer conv8_2
I0726 14:13:31.930758 31263 net.cpp:434] conv8_2 <- conv8_1
I0726 14:13:31.930771 31263 net.cpp:408] conv8_2 -> conv8_2
I0726 14:13:31.934896 31263 net.cpp:150] Setting up conv8_2
I0726 14:13:31.934939 31263 net.cpp:157] Top shape: 8 256 3 3 (18432)
I0726 14:13:31.934952 31263 net.cpp:165] Memory required for data: 1881760160
I0726 14:13:31.934965 31263 layer_factory.hpp:77] Creating layer conv8_2_relu
I0726 14:13:31.934980 31263 net.cpp:100] Creating Layer conv8_2_relu
I0726 14:13:31.934993 31263 net.cpp:434] conv8_2_relu <- conv8_2
I0726 14:13:31.935004 31263 net.cpp:395] conv8_2_relu -> conv8_2 (in-place)
I0726 14:13:31.935020 31263 net.cpp:150] Setting up conv8_2_relu
I0726 14:13:31.935039 31263 net.cpp:157] Top shape: 8 256 3 3 (18432)
I0726 14:13:31.935050 31263 net.cpp:165] Memory required for data: 1881833888
I0726 14:13:31.935058 31263 layer_factory.hpp:77] Creating layer conv8_2_conv8_2_relu_0_split
I0726 14:13:31.935070 31263 net.cpp:100] Creating Layer conv8_2_conv8_2_relu_0_split
I0726 14:13:31.935081 31263 net.cpp:434] conv8_2_conv8_2_relu_0_split <- conv8_2
I0726 14:13:31.935092 31263 net.cpp:408] conv8_2_conv8_2_relu_0_split -> conv8_2_conv8_2_relu_0_split_0
I0726 14:13:31.935106 31263 net.cpp:408] conv8_2_conv8_2_relu_0_split -> conv8_2_conv8_2_relu_0_split_1
I0726 14:13:31.935117 31263 net.cpp:408] conv8_2_conv8_2_relu_0_split -> conv8_2_conv8_2_relu_0_split_2
I0726 14:13:31.935132 31263 net.cpp:408] conv8_2_conv8_2_relu_0_split -> conv8_2_conv8_2_relu_0_split_3
I0726 14:13:31.935220 31263 net.cpp:150] Setting up conv8_2_conv8_2_relu_0_split
I0726 14:13:31.935232 31263 net.cpp:157] Top shape: 8 256 3 3 (18432)
I0726 14:13:31.935243 31263 net.cpp:157] Top shape: 8 256 3 3 (18432)
I0726 14:13:31.935255 31263 net.cpp:157] Top shape: 8 256 3 3 (18432)
I0726 14:13:31.935264 31263 net.cpp:157] Top shape: 8 256 3 3 (18432)
I0726 14:13:31.935272 31263 net.cpp:165] Memory required for data: 1882128800
I0726 14:13:31.935282 31263 layer_factory.hpp:77] Creating layer conv9_1
I0726 14:13:31.935297 31263 net.cpp:100] Creating Layer conv9_1
I0726 14:13:31.935307 31263 net.cpp:434] conv9_1 <- conv8_2_conv8_2_relu_0_split_0
I0726 14:13:31.935320 31263 net.cpp:408] conv9_1 -> conv9_1
I0726 14:13:31.936851 31263 net.cpp:150] Setting up conv9_1
I0726 14:13:31.936882 31263 net.cpp:157] Top shape: 8 128 3 3 (9216)
I0726 14:13:31.936892 31263 net.cpp:165] Memory required for data: 1882165664
I0726 14:13:31.936906 31263 layer_factory.hpp:77] Creating layer conv9_1_relu
I0726 14:13:31.936919 31263 net.cpp:100] Creating Layer conv9_1_relu
I0726 14:13:31.936930 31263 net.cpp:434] conv9_1_relu <- conv9_1
I0726 14:13:31.936941 31263 net.cpp:395] conv9_1_relu -> conv9_1 (in-place)
I0726 14:13:31.936956 31263 net.cpp:150] Setting up conv9_1_relu
I0726 14:13:31.936967 31263 net.cpp:157] Top shape: 8 128 3 3 (9216)
I0726 14:13:31.936978 31263 net.cpp:165] Memory required for data: 1882202528
I0726 14:13:31.936987 31263 layer_factory.hpp:77] Creating layer conv9_2
I0726 14:13:31.937002 31263 net.cpp:100] Creating Layer conv9_2
I0726 14:13:31.937012 31263 net.cpp:434] conv9_2 <- conv9_1
I0726 14:13:31.937031 31263 net.cpp:408] conv9_2 -> conv9_2
I0726 14:13:31.941581 31263 net.cpp:150] Setting up conv9_2
I0726 14:13:31.941644 31263 net.cpp:157] Top shape: 8 256 1 1 (2048)
I0726 14:13:31.941658 31263 net.cpp:165] Memory required for data: 1882210720
I0726 14:13:31.941673 31263 layer_factory.hpp:77] Creating layer conv9_2_relu
I0726 14:13:31.941694 31263 net.cpp:100] Creating Layer conv9_2_relu
I0726 14:13:31.941709 31263 net.cpp:434] conv9_2_relu <- conv9_2
I0726 14:13:31.941723 31263 net.cpp:395] conv9_2_relu -> conv9_2 (in-place)
I0726 14:13:31.941742 31263 net.cpp:150] Setting up conv9_2_relu
I0726 14:13:31.941753 31263 net.cpp:157] Top shape: 8 256 1 1 (2048)
I0726 14:13:31.941762 31263 net.cpp:165] Memory required for data: 1882218912
I0726 14:13:31.941772 31263 layer_factory.hpp:77] Creating layer conv9_2_conv9_2_relu_0_split
I0726 14:13:31.941788 31263 net.cpp:100] Creating Layer conv9_2_conv9_2_relu_0_split
I0726 14:13:31.941798 31263 net.cpp:434] conv9_2_conv9_2_relu_0_split <- conv9_2
I0726 14:13:31.941814 31263 net.cpp:408] conv9_2_conv9_2_relu_0_split -> conv9_2_conv9_2_relu_0_split_0
I0726 14:13:31.941828 31263 net.cpp:408] conv9_2_conv9_2_relu_0_split -> conv9_2_conv9_2_relu_0_split_1
I0726 14:13:31.941845 31263 net.cpp:408] conv9_2_conv9_2_relu_0_split -> conv9_2_conv9_2_relu_0_split_2
I0726 14:13:31.941936 31263 net.cpp:150] Setting up conv9_2_conv9_2_relu_0_split
I0726 14:13:31.941952 31263 net.cpp:157] Top shape: 8 256 1 1 (2048)
I0726 14:13:31.941967 31263 net.cpp:157] Top shape: 8 256 1 1 (2048)
I0726 14:13:31.941980 31263 net.cpp:157] Top shape: 8 256 1 1 (2048)
I0726 14:13:31.941992 31263 net.cpp:165] Memory required for data: 1882243488
I0726 14:13:31.942001 31263 layer_factory.hpp:77] Creating layer conv4_3_norm
I0726 14:13:31.942018 31263 net.cpp:100] Creating Layer conv4_3_norm
I0726 14:13:31.942030 31263 net.cpp:434] conv4_3_norm <- conv4_3_relu4_3_0_split_1
I0726 14:13:31.942049 31263 net.cpp:408] conv4_3_norm -> conv4_3_norm
I0726 14:13:31.942312 31263 net.cpp:150] Setting up conv4_3_norm
I0726 14:13:31.942334 31263 net.cpp:157] Top shape: 8 512 38 38 (5914624)
I0726 14:13:31.942347 31263 net.cpp:165] Memory required for data: 1905901984
I0726 14:13:31.942359 31263 layer_factory.hpp:77] Creating layer conv4_3_norm_conv4_3_norm_0_split
I0726 14:13:31.942373 31263 net.cpp:100] Creating Layer conv4_3_norm_conv4_3_norm_0_split
I0726 14:13:31.942385 31263 net.cpp:434] conv4_3_norm_conv4_3_norm_0_split <- conv4_3_norm
I0726 14:13:31.942401 31263 net.cpp:408] conv4_3_norm_conv4_3_norm_0_split -> conv4_3_norm_conv4_3_norm_0_split_0
I0726 14:13:31.942417 31263 net.cpp:408] conv4_3_norm_conv4_3_norm_0_split -> conv4_3_norm_conv4_3_norm_0_split_1
I0726 14:13:31.942435 31263 net.cpp:408] conv4_3_norm_conv4_3_norm_0_split -> conv4_3_norm_conv4_3_norm_0_split_2
I0726 14:13:31.942512 31263 net.cpp:150] Setting up conv4_3_norm_conv4_3_norm_0_split
I0726 14:13:31.942528 31263 net.cpp:157] Top shape: 8 512 38 38 (5914624)
I0726 14:13:31.942541 31263 net.cpp:157] Top shape: 8 512 38 38 (5914624)
I0726 14:13:31.942555 31263 net.cpp:157] Top shape: 8 512 38 38 (5914624)
I0726 14:13:31.942564 31263 net.cpp:165] Memory required for data: 1976877472
I0726 14:13:31.942579 31263 layer_factory.hpp:77] Creating layer conv4_3_norm_mbox_loc
I0726 14:13:31.942598 31263 net.cpp:100] Creating Layer conv4_3_norm_mbox_loc
I0726 14:13:31.942611 31263 net.cpp:434] conv4_3_norm_mbox_loc <- conv4_3_norm_conv4_3_norm_0_split_0
I0726 14:13:31.942627 31263 net.cpp:408] conv4_3_norm_mbox_loc -> conv4_3_norm_mbox_loc
I0726 14:13:31.943960 31263 net.cpp:150] Setting up conv4_3_norm_mbox_loc
I0726 14:13:31.943979 31263 net.cpp:157] Top shape: 8 16 38 38 (184832)
I0726 14:13:31.943990 31263 net.cpp:165] Memory required for data: 1977616800
I0726 14:13:31.944007 31263 layer_factory.hpp:77] Creating layer conv4_3_norm_mbox_loc_perm
I0726 14:13:31.944020 31263 net.cpp:100] Creating Layer conv4_3_norm_mbox_loc_perm
I0726 14:13:31.944033 31263 net.cpp:434] conv4_3_norm_mbox_loc_perm <- conv4_3_norm_mbox_loc
I0726 14:13:31.944054 31263 net.cpp:408] conv4_3_norm_mbox_loc_perm -> conv4_3_norm_mbox_loc_perm
I0726 14:13:31.944211 31263 net.cpp:150] Setting up conv4_3_norm_mbox_loc_perm
I0726 14:13:31.944228 31263 net.cpp:157] Top shape: 8 38 38 16 (184832)
I0726 14:13:31.944242 31263 net.cpp:165] Memory required for data: 1978356128
I0726 14:13:31.944252 31263 layer_factory.hpp:77] Creating layer conv4_3_norm_mbox_loc_flat
I0726 14:13:31.944269 31263 net.cpp:100] Creating Layer conv4_3_norm_mbox_loc_flat
I0726 14:13:31.944283 31263 net.cpp:434] conv4_3_norm_mbox_loc_flat <- conv4_3_norm_mbox_loc_perm
I0726 14:13:31.944301 31263 net.cpp:408] conv4_3_norm_mbox_loc_flat -> conv4_3_norm_mbox_loc_flat
I0726 14:13:31.944355 31263 net.cpp:150] Setting up conv4_3_norm_mbox_loc_flat
I0726 14:13:31.944372 31263 net.cpp:157] Top shape: 8 23104 (184832)
I0726 14:13:31.944387 31263 net.cpp:165] Memory required for data: 1979095456
I0726 14:13:31.944398 31263 layer_factory.hpp:77] Creating layer conv4_3_norm_mbox_conf
I0726 14:13:31.944429 31263 net.cpp:100] Creating Layer conv4_3_norm_mbox_conf
I0726 14:13:31.944442 31263 net.cpp:434] conv4_3_norm_mbox_conf <- conv4_3_norm_conv4_3_norm_0_split_1
I0726 14:13:31.944461 31263 net.cpp:408] conv4_3_norm_mbox_conf -> conv4_3_norm_mbox_conf
I0726 14:13:32.007657 31263 net.cpp:150] Setting up conv4_3_norm_mbox_conf
I0726 14:13:32.007721 31263 net.cpp:157] Top shape: 8 236 38 38 (2726272)
I0726 14:13:32.007736 31263 net.cpp:165] Memory required for data: 1990000544
I0726 14:13:32.007760 31263 layer_factory.hpp:77] Creating layer conv4_3_norm_mbox_conf_perm
I0726 14:13:32.007778 31263 net.cpp:100] Creating Layer conv4_3_norm_mbox_conf_perm
I0726 14:13:32.007810 31263 net.cpp:434] conv4_3_norm_mbox_conf_perm <- conv4_3_norm_mbox_conf
I0726 14:13:32.007827 31263 net.cpp:408] conv4_3_norm_mbox_conf_perm -> conv4_3_norm_mbox_conf_perm
I0726 14:13:32.007962 31263 net.cpp:150] Setting up conv4_3_norm_mbox_conf_perm
I0726 14:13:32.007977 31263 net.cpp:157] Top shape: 8 38 38 236 (2726272)
I0726 14:13:32.007987 31263 net.cpp:165] Memory required for data: 2000905632
I0726 14:13:32.007997 31263 layer_factory.hpp:77] Creating layer conv4_3_norm_mbox_conf_flat
I0726 14:13:32.008013 31263 net.cpp:100] Creating Layer conv4_3_norm_mbox_conf_flat
I0726 14:13:32.008023 31263 net.cpp:434] conv4_3_norm_mbox_conf_flat <- conv4_3_norm_mbox_conf_perm
I0726 14:13:32.008039 31263 net.cpp:408] conv4_3_norm_mbox_conf_flat -> conv4_3_norm_mbox_conf_flat
I0726 14:13:32.008076 31263 net.cpp:150] Setting up conv4_3_norm_mbox_conf_flat
I0726 14:13:32.008091 31263 net.cpp:157] Top shape: 8 340784 (2726272)
I0726 14:13:32.008100 31263 net.cpp:165] Memory required for data: 2011810720
I0726 14:13:32.008110 31263 layer_factory.hpp:77] Creating layer conv4_3_norm_mbox_priorbox
I0726 14:13:32.008126 31263 net.cpp:100] Creating Layer conv4_3_norm_mbox_priorbox
I0726 14:13:32.008136 31263 net.cpp:434] conv4_3_norm_mbox_priorbox <- conv4_3_norm_conv4_3_norm_0_split_2
I0726 14:13:32.008152 31263 net.cpp:434] conv4_3_norm_mbox_priorbox <- data_data_0_split_1
I0726 14:13:32.008163 31263 net.cpp:408] conv4_3_norm_mbox_priorbox -> conv4_3_norm_mbox_priorbox
I0726 14:13:32.008200 31263 net.cpp:150] Setting up conv4_3_norm_mbox_priorbox
I0726 14:13:32.008214 31263 net.cpp:157] Top shape: 1 2 23104 (46208)
I0726 14:13:32.008224 31263 net.cpp:165] Memory required for data: 2011995552
I0726 14:13:32.008232 31263 layer_factory.hpp:77] Creating layer fc7_mbox_loc
I0726 14:13:32.008263 31263 net.cpp:100] Creating Layer fc7_mbox_loc
I0726 14:13:32.008275 31263 net.cpp:434] fc7_mbox_loc <- fc7_relu7_0_split_1
I0726 14:13:32.008288 31263 net.cpp:408] fc7_mbox_loc -> fc7_mbox_loc
I0726 14:13:32.011623 31263 net.cpp:150] Setting up fc7_mbox_loc
I0726 14:13:32.011647 31263 net.cpp:157] Top shape: 8 24 19 19 (69312)
I0726 14:13:32.011659 31263 net.cpp:165] Memory required for data: 2012272800
I0726 14:13:32.011687 31263 layer_factory.hpp:77] Creating layer fc7_mbox_loc_perm
I0726 14:13:32.011703 31263 net.cpp:100] Creating Layer fc7_mbox_loc_perm
I0726 14:13:32.011729 31263 net.cpp:434] fc7_mbox_loc_perm <- fc7_mbox_loc
I0726 14:13:32.011768 31263 net.cpp:408] fc7_mbox_loc_perm -> fc7_mbox_loc_perm
I0726 14:13:32.011986 31263 net.cpp:150] Setting up fc7_mbox_loc_perm
I0726 14:13:32.012006 31263 net.cpp:157] Top shape: 8 19 19 24 (69312)
I0726 14:13:32.012019 31263 net.cpp:165] Memory required for data: 2012550048
I0726 14:13:32.012033 31263 layer_factory.hpp:77] Creating layer fc7_mbox_loc_flat
I0726 14:13:32.012051 31263 net.cpp:100] Creating Layer fc7_mbox_loc_flat
I0726 14:13:32.012065 31263 net.cpp:434] fc7_mbox_loc_flat <- fc7_mbox_loc_perm
I0726 14:13:32.012081 31263 net.cpp:408] fc7_mbox_loc_flat -> fc7_mbox_loc_flat
I0726 14:13:32.012138 31263 net.cpp:150] Setting up fc7_mbox_loc_flat
I0726 14:13:32.012157 31263 net.cpp:157] Top shape: 8 8664 (69312)
I0726 14:13:32.012171 31263 net.cpp:165] Memory required for data: 2012827296
I0726 14:13:32.012186 31263 layer_factory.hpp:77] Creating layer fc7_mbox_conf
I0726 14:13:32.012212 31263 net.cpp:100] Creating Layer fc7_mbox_conf
I0726 14:13:32.012226 31263 net.cpp:434] fc7_mbox_conf <- fc7_relu7_0_split_2
I0726 14:13:32.012248 31263 net.cpp:408] fc7_mbox_conf -> fc7_mbox_conf
I0726 14:13:32.084367 31263 net.cpp:150] Setting up fc7_mbox_conf
I0726 14:13:32.084408 31263 net.cpp:157] Top shape: 8 354 19 19 (1022352)
I0726 14:13:32.084412 31263 net.cpp:165] Memory required for data: 2016916704
I0726 14:13:32.084430 31263 layer_factory.hpp:77] Creating layer fc7_mbox_conf_perm
I0726 14:13:32.084442 31263 net.cpp:100] Creating Layer fc7_mbox_conf_perm
I0726 14:13:32.084455 31263 net.cpp:434] fc7_mbox_conf_perm <- fc7_mbox_conf
I0726 14:13:32.084467 31263 net.cpp:408] fc7_mbox_conf_perm -> fc7_mbox_conf_perm
I0726 14:13:32.084561 31263 net.cpp:150] Setting up fc7_mbox_conf_perm
I0726 14:13:32.084568 31263 net.cpp:157] Top shape: 8 19 19 354 (1022352)
I0726 14:13:32.084573 31263 net.cpp:165] Memory required for data: 2021006112
I0726 14:13:32.084575 31263 layer_factory.hpp:77] Creating layer fc7_mbox_conf_flat
I0726 14:13:32.084580 31263 net.cpp:100] Creating Layer fc7_mbox_conf_flat
I0726 14:13:32.084588 31263 net.cpp:434] fc7_mbox_conf_flat <- fc7_mbox_conf_perm
I0726 14:13:32.084594 31263 net.cpp:408] fc7_mbox_conf_flat -> fc7_mbox_conf_flat
I0726 14:13:32.084617 31263 net.cpp:150] Setting up fc7_mbox_conf_flat
I0726 14:13:32.084622 31263 net.cpp:157] Top shape: 8 127794 (1022352)
I0726 14:13:32.084630 31263 net.cpp:165] Memory required for data: 2025095520
I0726 14:13:32.084635 31263 layer_factory.hpp:77] Creating layer fc7_mbox_priorbox
I0726 14:13:32.084658 31263 net.cpp:100] Creating Layer fc7_mbox_priorbox
I0726 14:13:32.084666 31263 net.cpp:434] fc7_mbox_priorbox <- fc7_relu7_0_split_3
I0726 14:13:32.084676 31263 net.cpp:434] fc7_mbox_priorbox <- data_data_0_split_2
I0726 14:13:32.084684 31263 net.cpp:408] fc7_mbox_priorbox -> fc7_mbox_priorbox
I0726 14:13:32.084710 31263 net.cpp:150] Setting up fc7_mbox_priorbox
I0726 14:13:32.084717 31263 net.cpp:157] Top shape: 1 2 8664 (17328)
I0726 14:13:32.084719 31263 net.cpp:165] Memory required for data: 2025164832
I0726 14:13:32.084722 31263 layer_factory.hpp:77] Creating layer conv6_2_mbox_loc
I0726 14:13:32.084733 31263 net.cpp:100] Creating Layer conv6_2_mbox_loc
I0726 14:13:32.084738 31263 net.cpp:434] conv6_2_mbox_loc <- conv6_2_conv6_2_relu_0_split_1
I0726 14:13:32.084745 31263 net.cpp:408] conv6_2_mbox_loc -> conv6_2_mbox_loc
I0726 14:13:32.085868 31263 net.cpp:150] Setting up conv6_2_mbox_loc
I0726 14:13:32.085877 31263 net.cpp:157] Top shape: 8 24 10 10 (19200)
I0726 14:13:32.085880 31263 net.cpp:165] Memory required for data: 2025241632
I0726 14:13:32.085888 31263 layer_factory.hpp:77] Creating layer conv6_2_mbox_loc_perm
I0726 14:13:32.085896 31263 net.cpp:100] Creating Layer conv6_2_mbox_loc_perm
I0726 14:13:32.085901 31263 net.cpp:434] conv6_2_mbox_loc_perm <- conv6_2_mbox_loc
I0726 14:13:32.085909 31263 net.cpp:408] conv6_2_mbox_loc_perm -> conv6_2_mbox_loc_perm
I0726 14:13:32.085995 31263 net.cpp:150] Setting up conv6_2_mbox_loc_perm
I0726 14:13:32.086001 31263 net.cpp:157] Top shape: 8 10 10 24 (19200)
I0726 14:13:32.086004 31263 net.cpp:165] Memory required for data: 2025318432
I0726 14:13:32.086038 31263 layer_factory.hpp:77] Creating layer conv6_2_mbox_loc_flat
I0726 14:13:32.086045 31263 net.cpp:100] Creating Layer conv6_2_mbox_loc_flat
I0726 14:13:32.086053 31263 net.cpp:434] conv6_2_mbox_loc_flat <- conv6_2_mbox_loc_perm
I0726 14:13:32.086058 31263 net.cpp:408] conv6_2_mbox_loc_flat -> conv6_2_mbox_loc_flat
I0726 14:13:32.086083 31263 net.cpp:150] Setting up conv6_2_mbox_loc_flat
I0726 14:13:32.086088 31263 net.cpp:157] Top shape: 8 2400 (19200)
I0726 14:13:32.086094 31263 net.cpp:165] Memory required for data: 2025395232
I0726 14:13:32.086099 31263 layer_factory.hpp:77] Creating layer conv6_2_mbox_conf
I0726 14:13:32.086108 31263 net.cpp:100] Creating Layer conv6_2_mbox_conf
I0726 14:13:32.086113 31263 net.cpp:434] conv6_2_mbox_conf <- conv6_2_conv6_2_relu_0_split_2
I0726 14:13:32.086122 31263 net.cpp:408] conv6_2_mbox_conf -> conv6_2_mbox_conf
I0726 14:13:32.196043 31263 net.cpp:150] Setting up conv6_2_mbox_conf
I0726 14:13:32.196106 31263 net.cpp:157] Top shape: 8 354 10 10 (283200)
I0726 14:13:32.196120 31263 net.cpp:165] Memory required for data: 2026528032
I0726 14:13:32.196148 31263 layer_factory.hpp:77] Creating layer conv6_2_mbox_conf_perm
I0726 14:13:32.196174 31263 net.cpp:100] Creating Layer conv6_2_mbox_conf_perm
I0726 14:13:32.196192 31263 net.cpp:434] conv6_2_mbox_conf_perm <- conv6_2_mbox_conf
I0726 14:13:32.196213 31263 net.cpp:408] conv6_2_mbox_conf_perm -> conv6_2_mbox_conf_perm
I0726 14:13:32.196411 31263 net.cpp:150] Setting up conv6_2_mbox_conf_perm
I0726 14:13:32.196429 31263 net.cpp:157] Top shape: 8 10 10 354 (283200)
I0726 14:13:32.196444 31263 net.cpp:165] Memory required for data: 2027660832
I0726 14:13:32.196455 31263 layer_factory.hpp:77] Creating layer conv6_2_mbox_conf_flat
I0726 14:13:32.196471 31263 net.cpp:100] Creating Layer conv6_2_mbox_conf_flat
I0726 14:13:32.196490 31263 net.cpp:434] conv6_2_mbox_conf_flat <- conv6_2_mbox_conf_perm
I0726 14:13:32.196506 31263 net.cpp:408] conv6_2_mbox_conf_flat -> conv6_2_mbox_conf_flat
I0726 14:13:32.196557 31263 net.cpp:150] Setting up conv6_2_mbox_conf_flat
I0726 14:13:32.196565 31263 net.cpp:157] Top shape: 8 35400 (283200)
I0726 14:13:32.196583 31263 net.cpp:165] Memory required for data: 2028793632
I0726 14:13:32.196593 31263 layer_factory.hpp:77] Creating layer conv6_2_mbox_priorbox
I0726 14:13:32.196610 31263 net.cpp:100] Creating Layer conv6_2_mbox_priorbox
I0726 14:13:32.196622 31263 net.cpp:434] conv6_2_mbox_priorbox <- conv6_2_conv6_2_relu_0_split_3
I0726 14:13:32.196640 31263 net.cpp:434] conv6_2_mbox_priorbox <- data_data_0_split_3
I0726 14:13:32.196655 31263 net.cpp:408] conv6_2_mbox_priorbox -> conv6_2_mbox_priorbox
I0726 14:13:32.196713 31263 net.cpp:150] Setting up conv6_2_mbox_priorbox
I0726 14:13:32.196729 31263 net.cpp:157] Top shape: 1 2 2400 (4800)
I0726 14:13:32.196741 31263 net.cpp:165] Memory required for data: 2028812832
I0726 14:13:32.196749 31263 layer_factory.hpp:77] Creating layer conv7_2_mbox_loc
I0726 14:13:32.196776 31263 net.cpp:100] Creating Layer conv7_2_mbox_loc
I0726 14:13:32.196782 31263 net.cpp:434] conv7_2_mbox_loc <- conv7_2_conv7_2_relu_0_split_1
I0726 14:13:32.196795 31263 net.cpp:408] conv7_2_mbox_loc -> conv7_2_mbox_loc
I0726 14:13:32.197850 31263 net.cpp:150] Setting up conv7_2_mbox_loc
I0726 14:13:32.197862 31263 net.cpp:157] Top shape: 8 24 5 5 (4800)
I0726 14:13:32.197868 31263 net.cpp:165] Memory required for data: 2028832032
I0726 14:13:32.197882 31263 layer_factory.hpp:77] Creating layer conv7_2_mbox_loc_perm
I0726 14:13:32.197892 31263 net.cpp:100] Creating Layer conv7_2_mbox_loc_perm
I0726 14:13:32.197901 31263 net.cpp:434] conv7_2_mbox_loc_perm <- conv7_2_mbox_loc
I0726 14:13:32.197909 31263 net.cpp:408] conv7_2_mbox_loc_perm -> conv7_2_mbox_loc_perm
I0726 14:13:32.198065 31263 net.cpp:150] Setting up conv7_2_mbox_loc_perm
I0726 14:13:32.198076 31263 net.cpp:157] Top shape: 8 5 5 24 (4800)
I0726 14:13:32.198082 31263 net.cpp:165] Memory required for data: 2028851232
I0726 14:13:32.198089 31263 layer_factory.hpp:77] Creating layer conv7_2_mbox_loc_flat
I0726 14:13:32.198153 31263 net.cpp:100] Creating Layer conv7_2_mbox_loc_flat
I0726 14:13:32.198164 31263 net.cpp:434] conv7_2_mbox_loc_flat <- conv7_2_mbox_loc_perm
I0726 14:13:32.198176 31263 net.cpp:408] conv7_2_mbox_loc_flat -> conv7_2_mbox_loc_flat
I0726 14:13:32.198216 31263 net.cpp:150] Setting up conv7_2_mbox_loc_flat
I0726 14:13:32.198228 31263 net.cpp:157] Top shape: 8 600 (4800)
I0726 14:13:32.198235 31263 net.cpp:165] Memory required for data: 2028870432
I0726 14:13:32.198241 31263 layer_factory.hpp:77] Creating layer conv7_2_mbox_conf
I0726 14:13:32.198256 31263 net.cpp:100] Creating Layer conv7_2_mbox_conf
I0726 14:13:32.198266 31263 net.cpp:434] conv7_2_mbox_conf <- conv7_2_conv7_2_relu_0_split_2
I0726 14:13:32.198282 31263 net.cpp:408] conv7_2_mbox_conf -> conv7_2_mbox_conf
I0726 14:13:32.238338 31263 net.cpp:150] Setting up conv7_2_mbox_conf
I0726 14:13:32.238415 31263 net.cpp:157] Top shape: 8 354 5 5 (70800)
I0726 14:13:32.238451 31263 net.cpp:165] Memory required for data: 2029153632
I0726 14:13:32.238477 31263 layer_factory.hpp:77] Creating layer conv7_2_mbox_conf_perm
I0726 14:13:32.238500 31263 net.cpp:100] Creating Layer conv7_2_mbox_conf_perm
I0726 14:13:32.238520 31263 net.cpp:434] conv7_2_mbox_conf_perm <- conv7_2_mbox_conf
I0726 14:13:32.238545 31263 net.cpp:408] conv7_2_mbox_conf_perm -> conv7_2_mbox_conf_perm
I0726 14:13:32.238737 31263 net.cpp:150] Setting up conv7_2_mbox_conf_perm
I0726 14:13:32.238759 31263 net.cpp:157] Top shape: 8 5 5 354 (70800)
I0726 14:13:32.238773 31263 net.cpp:165] Memory required for data: 2029436832
I0726 14:13:32.238788 31263 layer_factory.hpp:77] Creating layer conv7_2_mbox_conf_flat
I0726 14:13:32.238806 31263 net.cpp:100] Creating Layer conv7_2_mbox_conf_flat
I0726 14:13:32.238821 31263 net.cpp:434] conv7_2_mbox_conf_flat <- conv7_2_mbox_conf_perm
I0726 14:13:32.238842 31263 net.cpp:408] conv7_2_mbox_conf_flat -> conv7_2_mbox_conf_flat
I0726 14:13:32.238890 31263 net.cpp:150] Setting up conv7_2_mbox_conf_flat
I0726 14:13:32.238910 31263 net.cpp:157] Top shape: 8 8850 (70800)
I0726 14:13:32.238922 31263 net.cpp:165] Memory required for data: 2029720032
I0726 14:13:32.238937 31263 layer_factory.hpp:77] Creating layer conv7_2_mbox_priorbox
I0726 14:13:32.238955 31263 net.cpp:100] Creating Layer conv7_2_mbox_priorbox
I0726 14:13:32.238970 31263 net.cpp:434] conv7_2_mbox_priorbox <- conv7_2_conv7_2_relu_0_split_3
I0726 14:13:32.238986 31263 net.cpp:434] conv7_2_mbox_priorbox <- data_data_0_split_4
I0726 14:13:32.239004 31263 net.cpp:408] conv7_2_mbox_priorbox -> conv7_2_mbox_priorbox
I0726 14:13:32.239053 31263 net.cpp:150] Setting up conv7_2_mbox_priorbox
I0726 14:13:32.239069 31263 net.cpp:157] Top shape: 1 2 600 (1200)
I0726 14:13:32.239082 31263 net.cpp:165] Memory required for data: 2029724832
I0726 14:13:32.239094 31263 layer_factory.hpp:77] Creating layer conv8_2_mbox_loc
I0726 14:13:32.239115 31263 net.cpp:100] Creating Layer conv8_2_mbox_loc
I0726 14:13:32.239130 31263 net.cpp:434] conv8_2_mbox_loc <- conv8_2_conv8_2_relu_0_split_1
I0726 14:13:32.239151 31263 net.cpp:408] conv8_2_mbox_loc -> conv8_2_mbox_loc
I0726 14:13:32.239902 31263 net.cpp:150] Setting up conv8_2_mbox_loc
I0726 14:13:32.239924 31263 net.cpp:157] Top shape: 8 16 3 3 (1152)
I0726 14:13:32.239938 31263 net.cpp:165] Memory required for data: 2029729440
I0726 14:13:32.239969 31263 layer_factory.hpp:77] Creating layer conv8_2_mbox_loc_perm
I0726 14:13:32.239985 31263 net.cpp:100] Creating Layer conv8_2_mbox_loc_perm
I0726 14:13:32.240000 31263 net.cpp:434] conv8_2_mbox_loc_perm <- conv8_2_mbox_loc
I0726 14:13:32.240017 31263 net.cpp:408] conv8_2_mbox_loc_perm -> conv8_2_mbox_loc_perm
I0726 14:13:32.240159 31263 net.cpp:150] Setting up conv8_2_mbox_loc_perm
I0726 14:13:32.240178 31263 net.cpp:157] Top shape: 8 3 3 16 (1152)
I0726 14:13:32.240192 31263 net.cpp:165] Memory required for data: 2029734048
I0726 14:13:32.240206 31263 layer_factory.hpp:77] Creating layer conv8_2_mbox_loc_flat
I0726 14:13:32.240232 31263 net.cpp:100] Creating Layer conv8_2_mbox_loc_flat
I0726 14:13:32.240290 31263 net.cpp:434] conv8_2_mbox_loc_flat <- conv8_2_mbox_loc_perm
I0726 14:13:32.240314 31263 net.cpp:408] conv8_2_mbox_loc_flat -> conv8_2_mbox_loc_flat
I0726 14:13:32.240375 31263 net.cpp:150] Setting up conv8_2_mbox_loc_flat
I0726 14:13:32.240398 31263 net.cpp:157] Top shape: 8 144 (1152)
I0726 14:13:32.240416 31263 net.cpp:165] Memory required for data: 2029738656
I0726 14:13:32.240432 31263 layer_factory.hpp:77] Creating layer conv8_2_mbox_conf
I0726 14:13:32.240456 31263 net.cpp:100] Creating Layer conv8_2_mbox_conf
I0726 14:13:32.240474 31263 net.cpp:434] conv8_2_mbox_conf <- conv8_2_conv8_2_relu_0_split_2
I0726 14:13:32.240500 31263 net.cpp:408] conv8_2_mbox_conf -> conv8_2_mbox_conf
I0726 14:13:32.305408 31263 net.cpp:150] Setting up conv8_2_mbox_conf
I0726 14:13:32.305447 31263 net.cpp:157] Top shape: 8 236 3 3 (16992)
I0726 14:13:32.305454 31263 net.cpp:165] Memory required for data: 2029806624
I0726 14:13:32.305485 31263 layer_factory.hpp:77] Creating layer conv8_2_mbox_conf_perm
I0726 14:13:32.305503 31263 net.cpp:100] Creating Layer conv8_2_mbox_conf_perm
I0726 14:13:32.305589 31263 net.cpp:434] conv8_2_mbox_conf_perm <- conv8_2_mbox_conf
I0726 14:13:32.305608 31263 net.cpp:408] conv8_2_mbox_conf_perm -> conv8_2_mbox_conf_perm
I0726 14:13:32.305723 31263 net.cpp:150] Setting up conv8_2_mbox_conf_perm
I0726 14:13:32.305734 31263 net.cpp:157] Top shape: 8 3 3 236 (16992)
I0726 14:13:32.305738 31263 net.cpp:165] Memory required for data: 2029874592
I0726 14:13:32.305748 31263 layer_factory.hpp:77] Creating layer conv8_2_mbox_conf_flat
I0726 14:13:32.305758 31263 net.cpp:100] Creating Layer conv8_2_mbox_conf_flat
I0726 14:13:32.305764 31263 net.cpp:434] conv8_2_mbox_conf_flat <- conv8_2_mbox_conf_perm
I0726 14:13:32.305780 31263 net.cpp:408] conv8_2_mbox_conf_flat -> conv8_2_mbox_conf_flat
I0726 14:13:32.305810 31263 net.cpp:150] Setting up conv8_2_mbox_conf_flat
I0726 14:13:32.305824 31263 net.cpp:157] Top shape: 8 2124 (16992)
I0726 14:13:32.305831 31263 net.cpp:165] Memory required for data: 2029942560
I0726 14:13:32.305845 31263 layer_factory.hpp:77] Creating layer conv8_2_mbox_priorbox
I0726 14:13:32.305856 31263 net.cpp:100] Creating Layer conv8_2_mbox_priorbox
I0726 14:13:32.305867 31263 net.cpp:434] conv8_2_mbox_priorbox <- conv8_2_conv8_2_relu_0_split_3
I0726 14:13:32.305881 31263 net.cpp:434] conv8_2_mbox_priorbox <- data_data_0_split_5
I0726 14:13:32.305889 31263 net.cpp:408] conv8_2_mbox_priorbox -> conv8_2_mbox_priorbox
I0726 14:13:32.305936 31263 net.cpp:150] Setting up conv8_2_mbox_priorbox
I0726 14:13:32.305946 31263 net.cpp:157] Top shape: 1 2 144 (288)
I0726 14:13:32.305953 31263 net.cpp:165] Memory required for data: 2029943712
I0726 14:13:32.305965 31263 layer_factory.hpp:77] Creating layer conv9_2_mbox_loc
I0726 14:13:32.305977 31263 net.cpp:100] Creating Layer conv9_2_mbox_loc
I0726 14:13:32.305990 31263 net.cpp:434] conv9_2_mbox_loc <- conv9_2_conv9_2_relu_0_split_0
I0726 14:13:32.306006 31263 net.cpp:408] conv9_2_mbox_loc -> conv9_2_mbox_loc
I0726 14:13:32.306610 31263 net.cpp:150] Setting up conv9_2_mbox_loc
I0726 14:13:32.306627 31263 net.cpp:157] Top shape: 8 16 1 1 (128)
I0726 14:13:32.306639 31263 net.cpp:165] Memory required for data: 2029944224
I0726 14:13:32.306654 31263 layer_factory.hpp:77] Creating layer conv9_2_mbox_loc_perm
I0726 14:13:32.306668 31263 net.cpp:100] Creating Layer conv9_2_mbox_loc_perm
I0726 14:13:32.306674 31263 net.cpp:434] conv9_2_mbox_loc_perm <- conv9_2_mbox_loc
I0726 14:13:32.306690 31263 net.cpp:408] conv9_2_mbox_loc_perm -> conv9_2_mbox_loc_perm
I0726 14:13:32.306810 31263 net.cpp:150] Setting up conv9_2_mbox_loc_perm
I0726 14:13:32.306823 31263 net.cpp:157] Top shape: 8 1 1 16 (128)
I0726 14:13:32.306826 31263 net.cpp:165] Memory required for data: 2029944736
I0726 14:13:32.306839 31263 layer_factory.hpp:77] Creating layer conv9_2_mbox_loc_flat
I0726 14:13:32.306850 31263 net.cpp:100] Creating Layer conv9_2_mbox_loc_flat
I0726 14:13:32.306854 31263 net.cpp:434] conv9_2_mbox_loc_flat <- conv9_2_mbox_loc_perm
I0726 14:13:32.306912 31263 net.cpp:408] conv9_2_mbox_loc_flat -> conv9_2_mbox_loc_flat
I0726 14:13:32.306944 31263 net.cpp:150] Setting up conv9_2_mbox_loc_flat
I0726 14:13:32.306957 31263 net.cpp:157] Top shape: 8 16 (128)
I0726 14:13:32.306962 31263 net.cpp:165] Memory required for data: 2029945248
I0726 14:13:32.306968 31263 layer_factory.hpp:77] Creating layer conv9_2_mbox_conf
I0726 14:13:32.306977 31263 net.cpp:100] Creating Layer conv9_2_mbox_conf
I0726 14:13:32.306983 31263 net.cpp:434] conv9_2_mbox_conf <- conv9_2_conv9_2_relu_0_split_1
I0726 14:13:32.306989 31263 net.cpp:408] conv9_2_mbox_conf -> conv9_2_mbox_conf
I0726 14:13:32.346290 31263 net.cpp:150] Setting up conv9_2_mbox_conf
I0726 14:13:32.346326 31263 net.cpp:157] Top shape: 8 236 1 1 (1888)
I0726 14:13:32.346331 31263 net.cpp:165] Memory required for data: 2029952800
I0726 14:13:32.346351 31263 layer_factory.hpp:77] Creating layer conv9_2_mbox_conf_perm
I0726 14:13:32.346386 31263 net.cpp:100] Creating Layer conv9_2_mbox_conf_perm
I0726 14:13:32.346400 31263 net.cpp:434] conv9_2_mbox_conf_perm <- conv9_2_mbox_conf
I0726 14:13:32.346415 31263 net.cpp:408] conv9_2_mbox_conf_perm -> conv9_2_mbox_conf_perm
I0726 14:13:32.346539 31263 net.cpp:150] Setting up conv9_2_mbox_conf_perm
I0726 14:13:32.346545 31263 net.cpp:157] Top shape: 8 1 1 236 (1888)
I0726 14:13:32.346549 31263 net.cpp:165] Memory required for data: 2029960352
I0726 14:13:32.346554 31263 layer_factory.hpp:77] Creating layer conv9_2_mbox_conf_flat
I0726 14:13:32.346580 31263 net.cpp:100] Creating Layer conv9_2_mbox_conf_flat
I0726 14:13:32.346585 31263 net.cpp:434] conv9_2_mbox_conf_flat <- conv9_2_mbox_conf_perm
I0726 14:13:32.346590 31263 net.cpp:408] conv9_2_mbox_conf_flat -> conv9_2_mbox_conf_flat
I0726 14:13:32.346617 31263 net.cpp:150] Setting up conv9_2_mbox_conf_flat
I0726 14:13:32.346624 31263 net.cpp:157] Top shape: 8 236 (1888)
I0726 14:13:32.346631 31263 net.cpp:165] Memory required for data: 2029967904
I0726 14:13:32.346637 31263 layer_factory.hpp:77] Creating layer conv9_2_mbox_priorbox
I0726 14:13:32.346645 31263 net.cpp:100] Creating Layer conv9_2_mbox_priorbox
I0726 14:13:32.346650 31263 net.cpp:434] conv9_2_mbox_priorbox <- conv9_2_conv9_2_relu_0_split_2
I0726 14:13:32.346657 31263 net.cpp:434] conv9_2_mbox_priorbox <- data_data_0_split_6
I0726 14:13:32.346668 31263 net.cpp:408] conv9_2_mbox_priorbox -> conv9_2_mbox_priorbox
I0726 14:13:32.346702 31263 net.cpp:150] Setting up conv9_2_mbox_priorbox
I0726 14:13:32.346707 31263 net.cpp:157] Top shape: 1 2 16 (32)
I0726 14:13:32.346710 31263 net.cpp:165] Memory required for data: 2029968032
I0726 14:13:32.346714 31263 layer_factory.hpp:77] Creating layer mbox_loc
I0726 14:13:32.346722 31263 net.cpp:100] Creating Layer mbox_loc
I0726 14:13:32.346729 31263 net.cpp:434] mbox_loc <- conv4_3_norm_mbox_loc_flat
I0726 14:13:32.346735 31263 net.cpp:434] mbox_loc <- fc7_mbox_loc_flat
I0726 14:13:32.346741 31263 net.cpp:434] mbox_loc <- conv6_2_mbox_loc_flat
I0726 14:13:32.346747 31263 net.cpp:434] mbox_loc <- conv7_2_mbox_loc_flat
I0726 14:13:32.346756 31263 net.cpp:434] mbox_loc <- conv8_2_mbox_loc_flat
I0726 14:13:32.346760 31263 net.cpp:434] mbox_loc <- conv9_2_mbox_loc_flat
I0726 14:13:32.346766 31263 net.cpp:408] mbox_loc -> mbox_loc
I0726 14:13:32.346793 31263 net.cpp:150] Setting up mbox_loc
I0726 14:13:32.346801 31263 net.cpp:157] Top shape: 8 34928 (279424)
I0726 14:13:32.346803 31263 net.cpp:165] Memory required for data: 2031085728
I0726 14:13:32.346807 31263 layer_factory.hpp:77] Creating layer mbox_conf
I0726 14:13:32.346820 31263 net.cpp:100] Creating Layer mbox_conf
I0726 14:13:32.346824 31263 net.cpp:434] mbox_conf <- conv4_3_norm_mbox_conf_flat
I0726 14:13:32.346830 31263 net.cpp:434] mbox_conf <- fc7_mbox_conf_flat
I0726 14:13:32.346837 31263 net.cpp:434] mbox_conf <- conv6_2_mbox_conf_flat
I0726 14:13:32.346843 31263 net.cpp:434] mbox_conf <- conv7_2_mbox_conf_flat
I0726 14:13:32.346850 31263 net.cpp:434] mbox_conf <- conv8_2_mbox_conf_flat
I0726 14:13:32.346855 31263 net.cpp:434] mbox_conf <- conv9_2_mbox_conf_flat
I0726 14:13:32.346875 31263 net.cpp:408] mbox_conf -> mbox_conf
I0726 14:13:32.346904 31263 net.cpp:150] Setting up mbox_conf
I0726 14:13:32.346910 31263 net.cpp:157] Top shape: 8 515188 (4121504)
I0726 14:13:32.346915 31263 net.cpp:165] Memory required for data: 2047571744
I0726 14:13:32.346917 31263 layer_factory.hpp:77] Creating layer mbox_priorbox
I0726 14:13:32.346923 31263 net.cpp:100] Creating Layer mbox_priorbox
I0726 14:13:32.346926 31263 net.cpp:434] mbox_priorbox <- conv4_3_norm_mbox_priorbox
I0726 14:13:32.346930 31263 net.cpp:434] mbox_priorbox <- fc7_mbox_priorbox
I0726 14:13:32.346936 31263 net.cpp:434] mbox_priorbox <- conv6_2_mbox_priorbox
I0726 14:13:32.346943 31263 net.cpp:434] mbox_priorbox <- conv7_2_mbox_priorbox
I0726 14:13:32.346946 31263 net.cpp:434] mbox_priorbox <- conv8_2_mbox_priorbox
I0726 14:13:32.346952 31263 net.cpp:434] mbox_priorbox <- conv9_2_mbox_priorbox
I0726 14:13:32.346957 31263 net.cpp:408] mbox_priorbox -> mbox_priorbox
I0726 14:13:32.346982 31263 net.cpp:150] Setting up mbox_priorbox
I0726 14:13:32.346988 31263 net.cpp:157] Top shape: 1 2 34928 (69856)
I0726 14:13:32.346992 31263 net.cpp:165] Memory required for data: 2047851168
I0726 14:13:32.346995 31263 layer_factory.hpp:77] Creating layer mbox_conf_reshape
I0726 14:13:32.347007 31263 net.cpp:100] Creating Layer mbox_conf_reshape
I0726 14:13:32.347012 31263 net.cpp:434] mbox_conf_reshape <- mbox_conf
I0726 14:13:32.347018 31263 net.cpp:408] mbox_conf_reshape -> mbox_conf_reshape
I0726 14:13:32.347064 31263 net.cpp:150] Setting up mbox_conf_reshape
I0726 14:13:32.347075 31263 net.cpp:157] Top shape: 8 8732 59 (4121504)
I0726 14:13:32.347081 31263 net.cpp:165] Memory required for data: 2064337184
I0726 14:13:32.347087 31263 layer_factory.hpp:77] Creating layer mbox_conf_softmax
I0726 14:13:32.347098 31263 net.cpp:100] Creating Layer mbox_conf_softmax
I0726 14:13:32.347105 31263 net.cpp:434] mbox_conf_softmax <- mbox_conf_reshape
I0726 14:13:32.347115 31263 net.cpp:408] mbox_conf_softmax -> mbox_conf_softmax
I0726 14:13:32.347229 31263 net.cpp:150] Setting up mbox_conf_softmax
I0726 14:13:32.347239 31263 net.cpp:157] Top shape: 8 8732 59 (4121504)
I0726 14:13:32.347245 31263 net.cpp:165] Memory required for data: 2080823200
I0726 14:13:32.347252 31263 layer_factory.hpp:77] Creating layer mbox_conf_flatten
I0726 14:13:32.347268 31263 net.cpp:100] Creating Layer mbox_conf_flatten
I0726 14:13:32.347273 31263 net.cpp:434] mbox_conf_flatten <- mbox_conf_softmax
I0726 14:13:32.347283 31263 net.cpp:408] mbox_conf_flatten -> mbox_conf_flatten
I0726 14:13:32.347318 31263 net.cpp:150] Setting up mbox_conf_flatten
I0726 14:13:32.347328 31263 net.cpp:157] Top shape: 8 515188 (4121504)
I0726 14:13:32.347333 31263 net.cpp:165] Memory required for data: 2097309216
I0726 14:13:32.347340 31263 layer_factory.hpp:77] Creating layer detection_out
I0726 14:13:32.347365 31263 net.cpp:100] Creating Layer detection_out
I0726 14:13:32.347373 31263 net.cpp:434] detection_out <- mbox_loc
I0726 14:13:32.347383 31263 net.cpp:434] detection_out <- mbox_conf_flatten
I0726 14:13:32.347391 31263 net.cpp:434] detection_out <- mbox_priorbox
I0726 14:13:32.347398 31263 net.cpp:408] detection_out -> detection_out
I0726 14:13:32.349735 31263 net.cpp:150] Setting up detection_out
I0726 14:13:32.349746 31263 net.cpp:157] Top shape: 1 1 1 7 (7)
I0726 14:13:32.349752 31263 net.cpp:165] Memory required for data: 2097309244
I0726 14:13:32.349756 31263 layer_factory.hpp:77] Creating layer detection_eval
I0726 14:13:32.349766 31263 net.cpp:100] Creating Layer detection_eval
I0726 14:13:32.349771 31263 net.cpp:434] detection_eval <- detection_out
I0726 14:13:32.349779 31263 net.cpp:434] detection_eval <- label
I0726 14:13:32.349786 31263 net.cpp:408] detection_eval -> detection_eval
I0726 14:13:32.350378 31263 net.cpp:150] Setting up detection_eval
I0726 14:13:32.350389 31263 net.cpp:157] Top shape: 1 1 59 5 (295)
I0726 14:13:32.350397 31263 net.cpp:165] Memory required for data: 2097310424
I0726 14:13:32.350409 31263 net.cpp:228] detection_eval does not need backward computation.
I0726 14:13:32.350432 31263 net.cpp:228] detection_out does not need backward computation.
I0726 14:13:32.350442 31263 net.cpp:228] mbox_conf_flatten does not need backward computation.
I0726 14:13:32.350450 31263 net.cpp:228] mbox_conf_softmax does not need backward computation.
…
