…
      sampler {
        min_scale: 0.3
        max_scale: 1
        min_aspect_ratio: 0.5
        max_aspect_ratio: 2
      }
      sample_constraint {
        min_jaccard_overlap: 0.9
      }
      max_sample: 1
      max_trials: 50
    }
    batch_sampler {
      sampler {
        min_scale: 0.3
        max_scale: 1
        min_aspect_ratio: 0.5
        max_aspect_ratio: 2
      }
      sample_constraint {
        max_jaccard_overlap: 1
      }
      max_sample: 1
      max_trials: 50
    }
    label_map_file: "data/SHOPPE_2017/labelmap_voc.prototxt"
  }
}
layer {
  name: "conv1_1"
  type: "Convolution"
  bottom: "data"
  top: "conv1_1"
  param {
    lr_mult: 1
    decay_mult: 1
  }
  param {
    lr_mult: 2
    decay_mult: 0
  }
  convolution_param {
    num_output: 64
    pad: 1
    kernel_size: 3
    weight_filler {
      type: "xavier"
    }
    bias_filler {
      type: "constant"
      value: 0
    }
  }
}
layer {
  name: "relu1_1"
  type: "ReLU"
  bottom: "conv1_1"
  top: "conv1_1"
}
layer {
  name: "conv1_2"
  type: "Convolution"
  bottom: "conv1_1"
  top: "conv1_2"
  param {
    lr_mult: 1
    decay_mult: 1
  }
  param {
    lr_mult: 2
    decay_mult: 0
  }
  convolution_param {
    num_output: 64
    pad: 1
    kernel_size: 3
    weight_filler {
      type: "xavier"
    }
    bias_filler {
      type: "constant"
      value: 0
    }
  }
}
layer {
  name: "relu1_2"
  type: "ReLU"
  bottom: "conv1_2"
  top: "conv1_2"
}
layer {
  name: "pool1"
  type: "Pooling"
  bottom: "conv1_2"
  top: "pool1"
  pooling_param {
    pool: MAX
    kernel_size: 2
    stride: 2
  }
}
layer {
  name: "conv2_1"
  type: "Convolution"
  bottom: "pool1"
  top: "conv2_1"
  param {
    lr_mult: 1
    decay_mult: 1
  }
  param {
    lr_mult: 2
    decay_mult: 0
  }
  convolution_param {
    num_output: 128
    pad: 1
    kernel_size: 3
    weight_filler {
      type: "xavier"
    }
    bias_filler {
      type: "constant"
      value: 0
    }
  }
}
layer {
  name: "relu2_1"
  type: "ReLU"
  bottom: "conv2_1"
  top: "conv2_1"
}
layer {
  name: "conv2_2"
  type: "Convolution"
  bottom: "conv2_1"
  top: "conv2_2"
  param {
    lr_mult: 1
    decay_mult: 1
  }
  param {
    lr_mult: 2
    decay_mult: 0
  }
  convolution_param {
    num_output: 128
    pad: 1
    kernel_size: 3
    weight_filler {
      type: "xavier"
    }
    bias_filler {
      type: "constant"
      value: 0
    }
  }
}
layer {
  name: "relu2_2"
  type: "ReLU"
  bottom: "conv2_2"
  top: "conv2_2"
}
layer {
  name: "pool2"
  type: "Pooling"
  bottom: "conv2_2"
  top: "pool2"
  pooling_param {
    pool: MAX
    kernel_size: 2
    stride: 2
  }
}
layer {
  name: "conv3_1"
  type: "Convolution"
  bottom: "pool2"
  top: "conv3_1"
  param {
    lr_mult: 1
    decay_mult: 1
  }
  param {
    lr_mult: 2
    decay_mult: 0
  }
  convolution_param {
    num_output: 256
    pad: 1
    kernel_size: 3
    weight_filler {
      type: "xavier"
    }
    bias_filler {
      type: "constant"
      value: 0
    }
  }
}
layer {
  name: "relu3_1"
  type: "ReLU"
  bottom: "conv3_1"
  top: "conv3_1"
}
layer {
  name: "conv3_2"
  type: "Convolution"
  bottom: "conv3_1"
  top: "conv3_2"
  param {
    lr_mult: 1
    decay_mult: 1
  }
  param {
    lr_mult: 2
    decay_mult: 0
  }
  convolution_param {
    num_output: 256
    pad: 1
    kernel_size: 3
    weight_filler {
      type: "xavier"
    }
    bias_filler {
      type: "constant"
      value: 0
    }
  }
}
layer {
  name: "relu3_2"
  type: "ReLU"
  bottom: "conv3_2"
  top: "conv3_2"
}
layer {
  name: "conv3_3"
  type: "Convolution"
  bottom: "conv3_2"
  top: "conv3_3"
  param {
    lr_mult: 1
    decay_mult: 1
  }
  param {
    lr_mult: 2
    decay_mult: 0
  }
  convolution_param {
    num_output: 256
    pad: 1
    kernel_size: 3
    weight_filler {
      type: "xavier"
    }
    bias_filler {
      type: "constant"
      value: 0
    }
  }
}
layer {
  name: "relu3_3"
  type: "ReLU"
  bottom: "conv3_3"
  top: "conv3_3"
}
layer {
  name: "pool3"
  type: "Pooling"
  bottom: "conv3_3"
  top: "pool3"
  pooling_param {
    pool: MAX
    kernel_size: 2
    stride: 2
  }
}
layer {
  name: "conv4_1"
  type: "Convolution"
  bottom: "pool3"
  top: "conv4_1"
  param {
    lr_mult: 1
    decay_mult: 1
  }
  param {
    lr_mult: 2
    decay_mult: 0
  }
  convolution_param {
    num_output: 512
    pad: 1
    kernel_size: 3
    weight_filler {
      type: "xavier"
    }
    bias_filler {
      type: "constant"
      value: 0
    }
  }
}
layer {
  name: "relu4_1"
  type: "ReLU"
  bottom: "conv4_1"
  top: "conv4_1"
}
layer {
  name: "conv4_2"
  type: "Convolution"
  bottom: "conv4_1"
  top: "conv4_2"
  param {
    lr_mult: 1
    decay_mult: 1
  }
  param {
    lr_mult: 2
    decay_mult: 0
  }
  convolution_param {
    num_output: 512
    pad: 1
    kernel_size: 3
    weight_filler {
      type: "xavier"
    }
    bias_filler {
      type: "constant"
      value: 0
    }
  }
}
layer {
  name: "relu4_2"
  type: "ReLU"
  bottom: "conv4_2"
  top: "conv4_2"
}
layer {
  name: "conv4_3"
  type: "Convolution"
  bottom: "conv4_2"
  top: "conv4_3"
  param {
    lr_mult: 1
    decay_mult: 1
  }
  param {
    lr_mult: 2
    decay_mult: 0
  }
  convolution_param {
    num_output: 512
    pad: 1
    kernel_size: 3
    weight_filler {
      type: "xavier"
    }
    bias_filler {
      type: "constant"
      value: 0
    }
  }
}
layer {
  name: "relu4_3"
  type: "ReLU"
  bottom: "conv4_3"
  top: "conv4_3"
}
layer {
  name: "pool4"
  type: "Pooling"
  bottom: "conv4_3"
  top: "pool4"
  pooling_param {
    pool: MAX
    kernel_size: 2
    stride: 2
  }
}
layer {
  name: "conv5_1"
  type: "Convolution"
  bottom: "pool4"
  top: "conv5_1"
  param {
    lr_mult: 1
    decay_mult: 1
  }
  param {
    lr_mult: 2
    decay_mult: 0
  }
  convolution_param {
    num_output: 512
    pad: 1
    kernel_size: 3
    weight_filler {
      type: "xavier"
    }
    bias_filler {
      type: "constant"
      value: 0
    }
    dilation: 1
  }
}
layer {
  name: "relu5_1"
  type: "ReLU"
  bottom: "conv5_1"
  top: "conv5_1"
}
layer {
  name: "conv5_2"
  type: "Convolution"
  bottom: "conv5_1"
  top: "conv5_2"
  param {
    lr_mult: 1
    decay_mult: 1
  }
  param {
    lr_mult: 2
    decay_mult: 0
  }
  convolution_param {
    num_output: 512
    pad: 1
    kernel_size: 3
    weight_filler {
      type: "xavier"
    }
    bias_filler {
      type: "constant"
      value: 0
    }
    dilation: 1
  }
}
layer {
  name: "relu5_2"
  type: "ReLU"
  bottom: "conv5_2"
  top: "conv5_2"
}
layer {
  name: "conv5_3"
  type: "Convolution"
  bottom: "conv5_2"
  top: "conv5_3"
  param {
    lr_mult: 1
    decay_mult: 1
  }
  param {
    lr_mult: 2
    decay_mult: 0
  }
  convolution_param {
    num_output: 512
    pad: 1
    kernel_size: 3
    weight_filler {
      type: "xavier"
    }
    bias_filler {
      type: "constant"
      value: 0
    }
    dilation: 1
  }
}
layer {
  name: "relu5_3"
  type: "ReLU"
  bottom: "conv5_3"
  top: "conv5_3"
}
layer {
  name: "pool5"
  type: "Pooling"
  bottom: "conv5_3"
  top: "pool5"
  pooling_param {
    pool: MAX
    kernel_size: 3
    stride: 1
    pad: 1
  }
}
layer {
  name: "fc6"
  type: "Convolution"
  bottom: "pool5"
  top: "fc6"
  param {
    lr_mult: 1
    decay_mult: 1
  }
  param {
    lr_mult: 2
    decay_mult: 0
  }
  convolution_param {
    num_output: 1024
    pad: 6
    kernel_size: 3
    weight_filler {
      type: "xavier"
    }
    bias_filler {
      type: "constant"
      value: 0
    }
    dilation: 6
  }
}
layer {
  name: "relu6"
  type: "ReLU"
  bottom: "fc6"
  top: "fc6"
}
layer {
  name: "fc7"
  type: "Convolution"
  bottom: "fc6"
  top: "fc7"
  param {
    lr_mult: 1
    decay_mult: 1
  }
  param {
    lr_mult: 2
    decay_mult: 0
  }
  convolution_param {
    num_output: 1024
    kernel_size: 1
    weight_filler {
      type: "xavier"
    }
    bias_filler {
      type: "constant"
      value: 0
    }
  }
}
layer {
  name: "relu7"
  type: "ReLU"
  bottom: "fc7"
  top: "fc7"
}
layer {
  name: "conv6_1"
  type: "Convolution"
  bottom: "fc7"
  top: "conv6_1"
  param {
    lr_mult: 1
    decay_mult: 1
  }
  param {
    lr_mult: 2
    decay_mult: 0
  }
  convolution_param {
    num_output: 256
    pad: 0
    kernel_size: 1
    stride: 1
    weight_filler {
      type: "xavier"
    }
    bias_filler {
      type: "constant"
      value: 0
    }
  }
}
layer {
  name: "conv6_1_relu"
  type: "ReLU"
  bottom: "conv6_1"
  top: "conv6_1"
}
layer {
  name: "conv6_2"
  type: "Convolution"
  bottom: "conv6_1"
  top: "conv6_2"
  param {
    lr_mult: 1
    decay_mult: 1
  }
  param {
    lr_mult: 2
    decay_mult: 0
  }
  convolution_param {
    num_output: 512
    pad: 1
    kernel_size: 3
    stride: 2
    weight_filler {
      type: "xavier"
    }
    bias_filler {
      type: "constant"
      value: 0
    }
  }
}
layer {
  name: "conv6_2_relu"
  type: "ReLU"
  bottom: "conv6_2"
  top: "conv6_2"
}
layer {
  name: "conv7_1"
  type: "Convolution"
  bottom: "conv6_2"
  top: "conv7_1"
  param {
    lr_mult: 1
    decay_mult: 1
  }
  param {
    lr_mult: 2
    decay_mult: 0
  }
  convolution_param {
    num_output: 128
    pad: 0
    kernel_size: 1
    stride: 1
    weight_filler {
      type: "xavier"
    }
    bias_filler {
      type: "constant"
      value: 0
    }
  }
}
layer {
  name: "conv7_1_relu"
  type: "ReLU"
  bottom: "conv7_1"
  top: "conv7_1"
}
layer {
  name: "conv7_2"
  type: "Convolution"
  bottom: "conv7_1"
  top: "conv7_2"
  param {
    lr_mult: 1
    decay_mult: 1
  }
  param {
    lr_mult: 2
    decay_mult: 0
  }
  convolution_param {
    num_output: 256
    pad: 1
    kernel_size: 3
    stride: 2
    weight_filler {
      type: "xavier"
    }
    bias_filler {
      type: "constant"
      value: 0
    }
  }
}
layer {
  name: "conv7_2_relu"
  type: "ReLU"
  bottom: "conv7_2"
  top: "conv7_2"
}
layer {
  name: "conv8_1"
  type: "Convolution"
  bottom: "conv7_2"
  top: "conv8_1"
  param {
    lr_mult: 1
    decay_mult: 1
  }
  param {
    lr_mult: 2
    decay_mult: 0
  }
  convolution_param {
    num_output: 128
    pad: 0
    kernel_size: 1
    stride: 1
    weight_filler {
      type: "xavier"
    }
    bias_filler {
      type: "constant"
      value: 0
    }
  }
}
layer {
  name: "conv8_1_relu"
  type: "ReLU"
  bottom: "conv8_1"
  top: "conv8_1"
}
layer {
  name: "conv8_2"
  type: "Convolution"
  bottom: "conv8_1"
  top: "conv8_2"
  param {
    lr_mult: 1
    decay_mult: 1
  }
  param {
    lr_mult: 2
    decay_mult: 0
  }
  convolution_param {
    num_output: 256
    pad: 0
    kernel_size: 3
    stride: 1
    weight_filler {
      type: "xavier"
    }
    bias_filler {
      type: "constant"
      value: 0
    }
  }
}
layer {
  name: "conv8_2_relu"
  type: "ReLU"
  bottom: "conv8_2"
  top: "conv8_2"
}
layer {
  name: "conv9_1"
  type: "Convolution"
  bottom: "conv8_2"
  top: "conv9_1"
  param {
    lr_mult: 1
    decay_mult: 1
  }
  param {
    lr_mult: 2
    decay_mult: 0
  }
  convolution_param {
    num_output: 128
    pad: 0
    kernel_size: 1
    stride: 1
    weight_filler {
      type: "xavier"
    }
    bias_filler {
      type: "constant"
      value: 0
    }
  }
}
layer {
  name: "conv9_1_relu"
  type: "ReLU"
  bottom: "conv9_1"
  top: "conv9_1"
}
layer {
  name: "conv9_2"
  type: "Convolution"
  bottom: "conv9_1"
  top: "conv9_2"
  param {
    lr_mult: 1
    decay_mult: 1
  }
  param {
    lr_mult: 2
    decay_mult: 0
  }
  convolution_param {
    num_output: 256
    pad: 0
    kernel_size: 3
    stride: 1
    weight_filler {
      type: "xavier"
    }
    bias_filler {
      type: "constant"
      value: 0
    }
  }
}
layer {
  name: "conv9_2_relu"
  type: "ReLU"
  bottom: "conv9_2"
  top: "conv9_2"
}
layer {
  name: "conv4_3_norm"
  type: "Normalize"
  bottom: "conv4_3"
  top: "conv4_3_norm"
  norm_param {
    across_spatial: false
    scale_filler {
      type: "constant"
      value: 20
    }
    channel_shared: false
  }
}
layer {
  name: "conv4_3_norm_mbox_loc"
  type: "Convolution"
  bottom: "conv4_3_norm"
  top: "conv4_3_norm_mbox_loc"
  param {
    lr_mult: 1
    decay_mult: 1
  }
  param {
    lr_mult: 2
    decay_mult: 0
  }
  convolution_param {
    num_output: 16
    pad: 1
    kernel_size: 3
    stride: 1
    weight_filler {
      type: "xavier"
    }
    bias_filler {
      type: "constant"
      value: 0
    }
  }
}
layer {
  name: "conv4_3_norm_mbox_loc_perm"
  type: "Permute"
  bottom: "conv4_3_norm_mbox_loc"
  top: "conv4_3_norm_mbox_loc_perm"
  permute_param {
    order: 0
    order: 2
    order: 3
    order: 1
  }
}
layer {
  name: "conv4_3_norm_mbox_loc_flat"
  type: "Flatten"
  bottom: "conv4_3_norm_mbox_loc_perm"
  top: "conv4_3_norm_mbox_loc_flat"
  flatten_param {
    axis: 1
  }
}
layer {
  name: "conv4_3_norm_mbox_conf"
  type: "Convolution"
  bottom: "conv4_3_norm"
  top: "conv4_3_norm_mbox_conf"
  param {
    lr_mult: 1
    decay_mult: 1
  }
  param {
    lr_mult: 2
    decay_mult: 0
  }
  convolution_param {
    num_output: 236
    pad: 1
    kernel_size: 3
    stride: 1
    weight_filler {
      type: "xavier"
    }
    bias_filler {
      type: "constant"
      value: 0
    }
  }
}
layer {
  name: "conv4_3_norm_mbox_conf_perm"
  type: "Permute"
  bottom: "conv4_3_norm_mbox_conf"
  top: "conv4_3_norm_mbox_conf_perm"
  permute_param {
    order: 0
    order: 2
    order: 3
    order: 1
  }
}
layer {
  name: "conv4_3_norm_mbox_conf_flat"
  type: "Flatten"
  bottom: "conv4_3_norm_mbox_conf_perm"
  top: "conv4_3_norm_mbox_conf_flat"
  flatten_param {
    axis: 1
  }
}
layer {
  name: "conv4_3_norm_mbox_priorbox"
  type: "PriorBox"
  bottom: "conv4_3_norm"
  bottom: "data"
  top: "conv4_3_norm_mbox_priorbox"
  prior_box_param {
    min_size: 30
    max_size: 60
    aspect_ratio: 2
    flip: true
    clip: false
    variance: 0.1
    variance: 0.1
    variance: 0.2
    variance: 0.2
    step: 8
    offset: 0.5
  }
}
layer {
  name: "fc7_mbox_loc"
  type: "Convolution"
  bottom: "fc7"
  top: "fc7_mbox_loc"
  param {
    lr_mult: 1
    decay_mult: 1
  }
  param {
    lr_mult: 2
    decay_mult: 0
  }
  convolution_param {
    num_output: 24
    pad: 1
    kernel_size: 3
    stride: 1
    weight_filler {
      type: "xavier"
    }
    bias_filler {
      type: "constant"
      value: 0
    }
  }
}
layer {
  name: "fc7_mbox_loc_perm"
  type: "Permute"
  bottom: "fc7_mbox_loc"
  top: "fc7_mbox_loc_perm"
  permute_param {
    order: 0
    order: 2
    order: 3
    order: 1
  }
}
layer {
  name: "fc7_mbox_loc_flat"
  type: "Flatten"
  bottom: "fc7_mbox_loc_perm"
  top: "fc7_mbox_loc_flat"
  flatten_param {
    axis: 1
  }
}
layer {
  name: "fc7_mbox_conf"
  type: "Convolution"
  bottom: "fc7"
  top: "fc7_mbox_conf"
  param {
    lr_mult: 1
    decay_mult: 1
  }
  param {
    lr_mult: 2
    decay_mult: 0
  }
  convolution_param {
    num_output: 354
    pad: 1
    kernel_size: 3
    stride: 1
    weight_filler {
      type: "xavier"
    }
    bias_filler {
      type: "constant"
      value: 0
    }
  }
}
layer {
  name: "fc7_mbox_conf_perm"
  type: "Permute"
  bottom: "fc7_mbox_conf"
  top: "fc7_mbox_conf_perm"
  permute_param {
    order: 0
    order: 2
    order: 3
    order: 1
  }
}
layer {
  name: "fc7_mbox_conf_flat"
  type: "Flatten"
  bottom: "fc7_mbox_conf_perm"
  top: "fc7_mbox_conf_flat"
  flatten_param {
    axis: 1
  }
}
layer {
  name: "fc7_mbox_priorbox"
  type: "PriorBox"
  bottom: "fc7"
  bottom: "data"
  top: "fc7_mbox_priorbox"
  prior_box_param {
    min_size: 60
    max_size: 111
    aspect_ratio: 2
    aspect_ratio: 3
    flip: true
    clip: false
    variance: 0.1
    variance: 0.1
    variance: 0.2
    variance: 0.2
    step: 16
    offset: 0.5
  }
}
layer {
  name: "conv6_2_mbox_loc"
  type: "Convolution"
  bottom: "conv6_2"
  top: "conv6_2_mbox_loc"
  param {
    lr_mult: 1
    decay_mult: 1
  }
  param {
    lr_mult: 2
    decay_mult: 0
  }
  convolution_param {
    num_output: 24
    pad: 1
    kernel_size: 3
    stride: 1
    weight_filler {
      type: "xavier"
    }
    bias_filler {
      type: "constant"
      value: 0
    }
  }
}
layer {
  name: "conv6_2_mbox_loc_perm"
  type: "Permute"
  bottom: "conv6_2_mbox_loc"
  top: "conv6_2_mbox_loc_perm"
  permute_param {
    order: 0
    order: 2
    order: 3
    order: 1
  }
}
layer {
  name: "conv6_2_mbox_loc_flat"
  type: "Flatten"
  bottom: "conv6_2_mbox_loc_perm"
  top: "conv6_2_mbox_loc_flat"
  flatten_param {
    axis: 1
  }
}
layer {
  name: "conv6_2_mbox_conf"
  type: "Convolution"
  bottom: "conv6_2"
  top: "conv6_2_mbox_conf"
  param {
    lr_mult: 1
    decay_mult: 1
  }
  param {
    lr_mult: 2
    decay_mult: 0
  }
  convolution_param {
    num_output: 354
    pad: 1
    kernel_size: 3
    stride: 1
    weight_filler {
      type: "xavier"
    }
    bias_filler {
      type: "constant"
      value: 0
    }
  }
}
layer {
  name: "conv6_2_mbox_conf_perm"
  type: "Permute"
  bottom: "conv6_2_mbox_conf"
  top: "conv6_2_mbox_conf_perm"
  permute_param {
    order: 0
    order: 2
    order: 3
    order: 1
  }
}
layer {
  name: "conv6_2_mbox_conf_flat"
  type: "Flatten"
  bottom: "conv6_2_mbox_conf_perm"
  top: "conv6_2_mbox_conf_flat"
  flatten_param {
    axis: 1
  }
}
layer {
  name: "conv6_2_mbox_priorbox"
  type: "PriorBox"
  bottom: "conv6_2"
  bottom: "data"
  top: "conv6_2_mbox_priorbox"
  prior_box_param {
    min_size: 111
    max_size: 162
    aspect_ratio: 2
    aspect_ratio: 3
    flip: true
    clip: false
    variance: 0.1
    variance: 0.1
    variance: 0.2
    variance: 0.2
    step: 32
    offset: 0.5
  }
}
layer {
  name: "conv7_2_mbox_loc"
  type: "Convolution"
  bottom: "conv7_2"
  top: "conv7_2_mbox_loc"
  param {
    lr_mult: 1
    decay_mult: 1
  }
  param {
    lr_mult: 2
    decay_mult: 0
  }
  convolution_param {
    num_output: 24
    pad: 1
    kernel_size: 3
    stride: 1
    weight_filler {
      type: "xavier"
    }
    bias_filler {
      type: "constant"
      value: 0
    }
  }
}
layer {
  name: "conv7_2_mbox_loc_perm"
  type: "Permute"
  bottom: "conv7_2_mbox_loc"
  top: "conv7_2_mbox_loc_perm"
  permute_param {
    order: 0
    order: 2
    order: 3
    order: 1
  }
}
layer {
  name: "conv7_2_mbox_loc_flat"
  type: "Flatten"
  bottom: "conv7_2_mbox_loc_perm"
  top: "conv7_2_mbox_loc_flat"
  flatten_param {
    axis: 1
  }
}
layer {
  name: "conv7_2_mbox_conf"
  type: "Convolution"
  bottom: "conv7_2"
  top: "conv7_2_mbox_conf"
  param {
    lr_mult: 1
    decay_mult: 1
  }
  param {
    lr_mult: 2
    decay_mult: 0
  }
  convolution_param {
    num_output: 354
    pad: 1
    kernel_size: 3
    stride: 1
    weight_filler {
      type: "xavier"
    }
    bias_filler {
      type: "constant"
      value: 0
    }
  }
}
layer {
  name: "conv7_2_mbox_conf_perm"
  type: "Permute"
  bottom: "conv7_2_mbox_conf"
  top: "conv7_2_mbox_conf_perm"
  permute_param {
    order: 0
    order: 2
    order: 3
    order: 1
  }
}
layer {
  name: "conv7_2_mbox_conf_flat"
  type: "Flatten"
  bottom: "conv7_2_mbox_conf_perm"
  top: "conv7_2_mbox_conf_flat"
  flatten_param {
    axis: 1
  }
}
layer {
  name: "conv7_2_mbox_priorbox"
  type: "PriorBox"
  bottom: "conv7_2"
  bottom: "data"
  top: "conv7_2_mbox_priorbox"
  prior_box_param {
    min_size: 162
    max_size: 213
    aspect_ratio: 2
    aspect_ratio: 3
    flip: true
    clip: false
    variance: 0.1
    variance: 0.1
    variance: 0.2
    variance: 0.2
    step: 64
    offset: 0.5
  }
}
layer {
  name: "conv8_2_mbox_loc"
  type: "Convolution"
  bottom: "conv8_2"
  top: "conv8_2_mbox_loc"
  param {
    lr_mult: 1
    decay_mult: 1
  }
  param {
    lr_mult: 2
    decay_mult: 0
  }
  convolution_param {
    num_output: 16
    pad: 1
    kernel_size: 3
    stride: 1
    weight_filler {
      type: "xavier"
    }
    bias_filler {
      type: "constant"
      value: 0
    }
  }
}
layer {
  name: "conv8_2_mbox_loc_perm"
  type: "Permute"
  bottom: "conv8_2_mbox_loc"
  top: "conv8_2_mbox_loc_perm"
  permute_param {
    order: 0
    order: 2
    order: 3
    order: 1
  }
}
layer {
  name: "conv8_2_mbox_loc_flat"
  type: "Flatten"
  bottom: "conv8_2_mbox_loc_perm"
  top: "conv8_2_mbox_loc_flat"
  flatten_param {
    axis: 1
  }
}
layer {
  name: "conv8_2_mbox_conf"
  type: "Convolution"
  bottom: "conv8_2"
  top: "conv8_2_mbox_conf"
  param {
    lr_mult: 1
    decay_mult: 1
  }
  param {
    lr_mult: 2
    decay_mult: 0
  }
  convolution_param {
    num_output: 236
    pad: 1
    kernel_size: 3
    stride: 1
    weight_filler {
      type: "xavier"
    }
    bias_filler {
      type: "constant"
      value: 0
    }
  }
}
layer {
  name: "conv8_2_mbox_conf_perm"
  type: "Permute"
  bottom: "conv8_2_mbox_conf"
  top: "conv8_2_mbox_conf_perm"
  permute_param {
    order: 0
    order: 2
    order: 3
    order: 1
  }
}
layer {
  name: "conv8_2_mbox_conf_flat"
  type: "Flatten"
  bottom: "conv8_2_mbox_conf_perm"
  top: "conv8_2_mbox_conf_flat"
  flatten_param {
    axis: 1
  }
}
layer {
  name: "conv8_2_mbox_priorbox"
  type: "PriorBox"
  bottom: "conv8_2"
  bottom: "data"
  top: "conv8_2_mbox_priorbox"
  prior_box_param {
    min_size: 213
    max_size: 264
    aspect_ratio: 2
    flip: true
    clip: false
    variance: 0.1
    variance: 0.1
    variance: 0.2
    variance: 0.2
    step: 100
    offset: 0.5
  }
}
layer {
  name: "conv9_2_mbox_loc"
  type: "Convolution"
  bottom: "conv9_2"
  top: "conv9_2_mbox_loc"
  param {
    lr_mult: 1
    decay_mult: 1
  }
  param {
    lr_mult: 2
    decay_mult: 0
  }
  convolution_param {
    num_output: 16
    pad: 1
    kernel_size: 3
    stride: 1
    weight_filler {
      type: "xavier"
    }
    bias_filler {
      type: "constant"
      value: 0
    }
  }
}
layer {
  name: "conv9_2_mbox_loc_perm"
  type: "Permute"
  bottom: "conv9_2_mbox_loc"
  top: "conv9_2_mbox_loc_perm"
  permute_param {
    order: 0
    order: 2
    order: 3
    order: 1
  }
}
layer {
  name: "conv9_2_mbox_loc_flat"
  type: "Flatten"
  bottom: "conv9_2_mbox_loc_perm"
  top: "conv9_2_mbox_loc_flat"
  flatten_param {
    axis: 1
  }
}
layer {
  name: "conv9_2_mbox_conf"
  type: "Convolution"
  bottom: "conv9_2"
  top: "conv9_2_mbox_conf"
  param {
    lr_mult: 1
    decay_mult: 1
  }
  param {
    lr_mult: 2
    decay_mult: 0
  }
  convolution_param {
    num_output: 236
    pad: 1
    kernel_size: 3
    stride: 1
    weight_filler {
      type: "xavier"
    }
    bias_filler {
      type: "constant"
      value: 0
    }
  }
}
layer {
  name: "conv9_2_mbox_conf_perm"
  type: "Permute"
  bottom: "conv9_2_mbox_conf"
  top: "conv9_2_mbox_conf_perm"
  permute_param {
    order: 0
    order: 2
    order: 3
    order: 1
  }
}
layer {
  name: "conv9_2_mbox_conf_flat"
  type: "Flatten"
  bottom: "conv9_2_mbox_conf_perm"
  top: "conv9_2_mbox_conf_flat"
  flatten_param {
    axis: 1
  }
}
layer {
  name: "conv9_2_mbox_priorbox"
  type: "PriorBox"
  bottom: "conv9_2"
  bottom: "data"
  top: "conv9_2_mbox_priorbox"
  prior_box_param {
    min_size: 264
    max_size: 315
    aspect_ratio: 2
    flip: true
    clip: false
    variance: 0.1
    variance: 0.1
    variance: 0.2
    variance: 0.2
    step: 300
    offset: 0.5
  }
}
layer {
  name: "mbox_loc"
  type: "Concat"
  bottom: "conv4_3_norm_mbox_loc_flat"
  bottom: "fc7_mbox_loc_flat"
  bottom: "conv6_2_mbox_loc_flat"
  bottom: "conv7_2_mbox_loc_flat"
  bottom: "conv8_2_mbox_loc_flat"
  bottom: "conv9_2_mbox_loc_flat"
  top: "mbox_loc"
  concat_param {
    axis: 1
  }
}
layer {
  name: "mbox_conf"
  type: "Concat"
  bottom: "conv4_3_norm_mbox_conf_flat"
  bottom: "fc7_mbox_conf_flat"
  bottom: "conv6_2_mbox_conf_flat"
  bottom: "conv7_2_mbox_conf_flat"
  bottom: "conv8_2_mbox_conf_flat"
  bottom: "conv9_2_mbox_conf_flat"
  top: "mbox_conf"
  concat_param {
    axis: 1
  }
}
layer {
  name: "mbox_priorbox"
  type: "Concat"
  bottom: "conv4_3_norm_mbox_priorbox"
  bottom: "fc7_mbox_priorbox"
  bottom: "conv6_2_mbox_priorbox"
  bottom: "conv7_2_mbox_priorbox"
  bottom: "conv8_2_mbox_priorbox"
  bottom: "conv9_2_mbox_priorbox"
  top: "mbox_priorbox"
  concat_param {
    axis: 2
  }
}
layer {
  name: "mbox_loss"
  type: "MultiBoxLoss"
  bottom: "mbox_loc"
  bottom: "mbox_conf"
  bottom: "mbox_priorbox"
  bottom: "label"
  top: "mbox_loss"
  include {
    phase: TRAIN
  }
  propagate_down: true
  propagate_down: true
  propagate_down: false
  propagate_down: false
  loss_param {
    normalization: VALID
  }
  multibox_loss_param {
    loc_loss_type: SMOOTH_L1
    conf_loss_type: SOFTMAX
    loc_weight: 1
    num_classes: 59
    share_location: true
    match_type: PER_PREDICTION
    overlap_threshold: 0.5
    use_prior_for_matching: true
    background_label_id: 0
    use_difficult_gt: true
    neg_pos_ratio: 3
    neg_overlap: 0.5
    code_type: CENTER_SIZE
    ignore_cross_boundary_bbox: false
    mining_type: MAX_NEGATIVE
  }
}
I0727 22:32:40.533290  5214 layer_factory.hpp:77] Creating layer data
I0727 22:32:40.533741  5214 net.cpp:100] Creating Layer data
I0727 22:32:40.533751  5214 net.cpp:408] data -> data
I0727 22:32:40.533850  5214 net.cpp:408] data -> label
I0727 22:32:40.534399  5220 db_lmdb.cpp:35] Opened lmdb data/SHOPPE_2017/lmdb/SHOPPE_2017_trainval_lmdb
I0727 22:32:42.518365  5214 annotated_data_layer.cpp:62] output data size: 8,3,300,300
I0727 22:32:42.545058  5214 net.cpp:150] Setting up data
I0727 22:32:42.545142  5214 net.cpp:157] Top shape: 8 3 300 300 (2160000)
I0727 22:32:42.545146  5214 net.cpp:157] Top shape: 1 1 9 8 (72)
I0727 22:32:42.545192  5214 net.cpp:165] Memory required for data: 8640288
I0727 22:32:42.545217  5214 layer_factory.hpp:77] Creating layer data_data_0_split
I0727 22:32:42.545277  5214 net.cpp:100] Creating Layer data_data_0_split
I0727 22:32:42.545292  5214 net.cpp:434] data_data_0_split <- data
I0727 22:32:42.545357  5214 net.cpp:408] data_data_0_split -> data_data_0_split_0
I0727 22:32:42.545387  5214 net.cpp:408] data_data_0_split -> data_data_0_split_1
I0727 22:32:42.545399  5214 net.cpp:408] data_data_0_split -> data_data_0_split_2
I0727 22:32:42.545406  5214 net.cpp:408] data_data_0_split -> data_data_0_split_3
I0727 22:32:42.545413  5214 net.cpp:408] data_data_0_split -> data_data_0_split_4
I0727 22:32:42.545416  5214 net.cpp:408] data_data_0_split -> data_data_0_split_5
I0727 22:32:42.545423  5214 net.cpp:408] data_data_0_split -> data_data_0_split_6
I0727 22:32:42.545593  5214 net.cpp:150] Setting up data_data_0_split
I0727 22:32:42.545599  5214 net.cpp:157] Top shape: 8 3 300 300 (2160000)
I0727 22:32:42.545603  5214 net.cpp:157] Top shape: 8 3 300 300 (2160000)
I0727 22:32:42.545605  5214 net.cpp:157] Top shape: 8 3 300 300 (2160000)
I0727 22:32:42.545608  5214 net.cpp:157] Top shape: 8 3 300 300 (2160000)
I0727 22:32:42.545611  5214 net.cpp:157] Top shape: 8 3 300 300 (2160000)
I0727 22:32:42.545614  5214 net.cpp:157] Top shape: 8 3 300 300 (2160000)
I0727 22:32:42.545615  5214 net.cpp:157] Top shape: 8 3 300 300 (2160000)
I0727 22:32:42.545617  5214 net.cpp:165] Memory required for data: 69120288
I0727 22:32:42.545625  5214 layer_factory.hpp:77] Creating layer conv1_1
I0727 22:32:42.545691  5214 net.cpp:100] Creating Layer conv1_1
I0727 22:32:42.545701  5214 net.cpp:434] conv1_1 <- data_data_0_split_0
I0727 22:32:42.545706  5214 net.cpp:408] conv1_1 -> conv1_1
I0727 22:32:42.549240  5214 net.cpp:150] Setting up conv1_1
I0727 22:32:42.549329  5214 net.cpp:157] Top shape: 8 64 300 300 (46080000)
I0727 22:32:42.549335  5214 net.cpp:165] Memory required for data: 253440288
I0727 22:32:42.549381  5214 layer_factory.hpp:77] Creating layer relu1_1
I0727 22:32:42.549404  5214 net.cpp:100] Creating Layer relu1_1
I0727 22:32:42.549435  5214 net.cpp:434] relu1_1 <- conv1_1
I0727 22:32:42.549453  5214 net.cpp:395] relu1_1 -> conv1_1 (in-place)
I0727 22:32:42.549495  5214 net.cpp:150] Setting up relu1_1
I0727 22:32:42.549501  5214 net.cpp:157] Top shape: 8 64 300 300 (46080000)
I0727 22:32:42.549504  5214 net.cpp:165] Memory required for data: 437760288
I0727 22:32:42.549507  5214 layer_factory.hpp:77] Creating layer conv1_2
I0727 22:32:42.549535  5214 net.cpp:100] Creating Layer conv1_2
I0727 22:32:42.549540  5214 net.cpp:434] conv1_2 <- conv1_1
I0727 22:32:42.549546  5214 net.cpp:408] conv1_2 -> conv1_2
I0727 22:32:42.551345  5214 net.cpp:150] Setting up conv1_2
I0727 22:32:42.551373  5214 net.cpp:157] Top shape: 8 64 300 300 (46080000)
I0727 22:32:42.551376  5214 net.cpp:165] Memory required for data: 622080288
I0727 22:32:42.551388  5214 layer_factory.hpp:77] Creating layer relu1_2
I0727 22:32:42.551400  5214 net.cpp:100] Creating Layer relu1_2
I0727 22:32:42.551409  5214 net.cpp:434] relu1_2 <- conv1_2
I0727 22:32:42.551477  5214 net.cpp:395] relu1_2 -> conv1_2 (in-place)
I0727 22:32:42.551535  5214 net.cpp:150] Setting up relu1_2
I0727 22:32:42.551550  5214 net.cpp:157] Top shape: 8 64 300 300 (46080000)
I0727 22:32:42.551561  5214 net.cpp:165] Memory required for data: 806400288
I0727 22:32:42.551573  5214 layer_factory.hpp:77] Creating layer pool1
I0727 22:32:42.551599  5214 net.cpp:100] Creating Layer pool1
I0727 22:32:42.551605  5214 net.cpp:434] pool1 <- conv1_2
I0727 22:32:42.551614  5214 net.cpp:408] pool1 -> pool1
I0727 22:32:42.551740  5214 net.cpp:150] Setting up pool1
I0727 22:32:42.551748  5214 net.cpp:157] Top shape: 8 64 150 150 (11520000)
I0727 22:32:42.551751  5214 net.cpp:165] Memory required for data: 852480288
I0727 22:32:42.551754  5214 layer_factory.hpp:77] Creating layer conv2_1
I0727 22:32:42.551774  5214 net.cpp:100] Creating Layer conv2_1
I0727 22:32:42.551779  5214 net.cpp:434] conv2_1 <- pool1
I0727 22:32:42.551823  5214 net.cpp:408] conv2_1 -> conv2_1
I0727 22:32:42.553983  5214 net.cpp:150] Setting up conv2_1
I0727 22:32:42.553995  5214 net.cpp:157] Top shape: 8 128 150 150 (23040000)
I0727 22:32:42.553999  5214 net.cpp:165] Memory required for data: 944640288
I0727 22:32:42.554009  5214 layer_factory.hpp:77] Creating layer relu2_1
I0727 22:32:42.554028  5214 net.cpp:100] Creating Layer relu2_1
I0727 22:32:42.554040  5214 net.cpp:434] relu2_1 <- conv2_1
I0727 22:32:42.554059  5214 net.cpp:395] relu2_1 -> conv2_1 (in-place)
I0727 22:32:42.554075  5214 net.cpp:150] Setting up relu2_1
I0727 22:32:42.554087  5214 net.cpp:157] Top shape: 8 128 150 150 (23040000)
I0727 22:32:42.554100  5214 net.cpp:165] Memory required for data: 1036800288
I0727 22:32:42.554110  5214 layer_factory.hpp:77] Creating layer conv2_2
I0727 22:32:42.554126  5214 net.cpp:100] Creating Layer conv2_2
I0727 22:32:42.554137  5214 net.cpp:434] conv2_2 <- conv2_1
I0727 22:32:42.554153  5214 net.cpp:408] conv2_2 -> conv2_2
I0727 22:32:42.555320  5214 net.cpp:150] Setting up conv2_2
I0727 22:32:42.555328  5214 net.cpp:157] Top shape: 8 128 150 150 (23040000)
I0727 22:32:42.555331  5214 net.cpp:165] Memory required for data: 1128960288
I0727 22:32:42.555338  5214 layer_factory.hpp:77] Creating layer relu2_2
I0727 22:32:42.555352  5214 net.cpp:100] Creating Layer relu2_2
I0727 22:32:42.555363  5214 net.cpp:434] relu2_2 <- conv2_2
I0727 22:32:42.555377  5214 net.cpp:395] relu2_2 -> conv2_2 (in-place)
I0727 22:32:42.555385  5214 net.cpp:150] Setting up relu2_2
I0727 22:32:42.555392  5214 net.cpp:157] Top shape: 8 128 150 150 (23040000)
I0727 22:32:42.555394  5214 net.cpp:165] Memory required for data: 1221120288
I0727 22:32:42.555397  5214 layer_factory.hpp:77] Creating layer pool2
I0727 22:32:42.555403  5214 net.cpp:100] Creating Layer pool2
I0727 22:32:42.555407  5214 net.cpp:434] pool2 <- conv2_2
I0727 22:32:42.555411  5214 net.cpp:408] pool2 -> pool2
I0727 22:32:42.555479  5214 net.cpp:150] Setting up pool2
I0727 22:32:42.555485  5214 net.cpp:157] Top shape: 8 128 75 75 (5760000)
I0727 22:32:42.555488  5214 net.cpp:165] Memory required for data: 1244160288
I0727 22:32:42.555498  5214 layer_factory.hpp:77] Creating layer conv3_1
I0727 22:32:42.555513  5214 net.cpp:100] Creating Layer conv3_1
I0727 22:32:42.555519  5214 net.cpp:434] conv3_1 <- pool2
I0727 22:32:42.555527  5214 net.cpp:408] conv3_1 -> conv3_1
I0727 22:32:42.559279  5214 net.cpp:150] Setting up conv3_1
I0727 22:32:42.559300  5214 net.cpp:157] Top shape: 8 256 75 75 (11520000)
I0727 22:32:42.559304  5214 net.cpp:165] Memory required for data: 1290240288
I0727 22:32:42.559324  5214 layer_factory.hpp:77] Creating layer relu3_1
I0727 22:32:42.559332  5214 net.cpp:100] Creating Layer relu3_1
I0727 22:32:42.559340  5214 net.cpp:434] relu3_1 <- conv3_1
I0727 22:32:42.559392  5214 net.cpp:395] relu3_1 -> conv3_1 (in-place)
I0727 22:32:42.559406  5214 net.cpp:150] Setting up relu3_1
I0727 22:32:42.559412  5214 net.cpp:157] Top shape: 8 256 75 75 (11520000)
I0727 22:32:42.559428  5214 net.cpp:165] Memory required for data: 1336320288
I0727 22:32:42.559433  5214 layer_factory.hpp:77] Creating layer conv3_2
I0727 22:32:42.559455  5214 net.cpp:100] Creating Layer conv3_2
I0727 22:32:42.559460  5214 net.cpp:434] conv3_2 <- conv3_1
I0727 22:32:42.559466  5214 net.cpp:408] conv3_2 -> conv3_2
I0727 22:32:42.564345  5214 net.cpp:150] Setting up conv3_2
I0727 22:32:42.564362  5214 net.cpp:157] Top shape: 8 256 75 75 (11520000)
I0727 22:32:42.564364  5214 net.cpp:165] Memory required for data: 1382400288
I0727 22:32:42.564373  5214 layer_factory.hpp:77] Creating layer relu3_2
I0727 22:32:42.564393  5214 net.cpp:100] Creating Layer relu3_2
I0727 22:32:42.564404  5214 net.cpp:434] relu3_2 <- conv3_2
I0727 22:32:42.564417  5214 net.cpp:395] relu3_2 -> conv3_2 (in-place)
I0727 22:32:42.564441  5214 net.cpp:150] Setting up relu3_2
I0727 22:32:42.564460  5214 net.cpp:157] Top shape: 8 256 75 75 (11520000)
I0727 22:32:42.564471  5214 net.cpp:165] Memory required for data: 1428480288
I0727 22:32:42.564499  5214 layer_factory.hpp:77] Creating layer conv3_3
I0727 22:32:42.564538  5214 net.cpp:100] Creating Layer conv3_3
I0727 22:32:42.564550  5214 net.cpp:434] conv3_3 <- conv3_2
I0727 22:32:42.564580  5214 net.cpp:408] conv3_3 -> conv3_3
I0727 22:32:42.572173  5214 net.cpp:150] Setting up conv3_3
I0727 22:32:42.572227  5214 net.cpp:157] Top shape: 8 256 75 75 (11520000)
I0727 22:32:42.572230  5214 net.cpp:165] Memory required for data: 1474560288
I0727 22:32:42.572240  5214 layer_factory.hpp:77] Creating layer relu3_3
I0727 22:32:42.572249  5214 net.cpp:100] Creating Layer relu3_3
I0727 22:32:42.572254  5214 net.cpp:434] relu3_3 <- conv3_3
I0727 22:32:42.572262  5214 net.cpp:395] relu3_3 -> conv3_3 (in-place)
I0727 22:32:42.572273  5214 net.cpp:150] Setting up relu3_3
I0727 22:32:42.572288  5214 net.cpp:157] Top shape: 8 256 75 75 (11520000)
I0727 22:32:42.572294  5214 net.cpp:165] Memory required for data: 1520640288
I0727 22:32:42.572300  5214 layer_factory.hpp:77] Creating layer pool3
I0727 22:32:42.572305  5214 net.cpp:100] Creating Layer pool3
I0727 22:32:42.572309  5214 net.cpp:434] pool3 <- conv3_3
I0727 22:32:42.572319  5214 net.cpp:408] pool3 -> pool3
I0727 22:32:42.572363  5214 net.cpp:150] Setting up pool3
I0727 22:32:42.572369  5214 net.cpp:157] Top shape: 8 256 38 38 (2957312)
I0727 22:32:42.572372  5214 net.cpp:165] Memory required for data: 1532469536
I0727 22:32:42.572376  5214 layer_factory.hpp:77] Creating layer conv4_1
I0727 22:32:42.572386  5214 net.cpp:100] Creating Layer conv4_1
I0727 22:32:42.572389  5214 net.cpp:434] conv4_1 <- pool3
I0727 22:32:42.572396  5214 net.cpp:408] conv4_1 -> conv4_1
I0727 22:32:42.592896  5214 net.cpp:150] Setting up conv4_1
I0727 22:32:42.592983  5214 net.cpp:157] Top shape: 8 512 38 38 (5914624)
I0727 22:32:42.592985  5214 net.cpp:165] Memory required for data: 1556128032
I0727 22:32:42.593009  5214 layer_factory.hpp:77] Creating layer relu4_1
I0727 22:32:42.593029  5214 net.cpp:100] Creating Layer relu4_1
I0727 22:32:42.593037  5214 net.cpp:434] relu4_1 <- conv4_1
I0727 22:32:42.593052  5214 net.cpp:395] relu4_1 -> conv4_1 (in-place)
I0727 22:32:42.593085  5214 net.cpp:150] Setting up relu4_1
I0727 22:32:42.593091  5214 net.cpp:157] Top shape: 8 512 38 38 (5914624)
I0727 22:32:42.593097  5214 net.cpp:165] Memory required for data: 1579786528
I0727 22:32:42.593101  5214 layer_factory.hpp:77] Creating layer conv4_2
I0727 22:32:42.593114  5214 net.cpp:100] Creating Layer conv4_2
I0727 22:32:42.593119  5214 net.cpp:434] conv4_2 <- conv4_1
I0727 22:32:42.593127  5214 net.cpp:408] conv4_2 -> conv4_2
I0727 22:32:42.629833  5214 net.cpp:150] Setting up conv4_2
I0727 22:32:42.630007  5214 net.cpp:157] Top shape: 8 512 38 38 (5914624)
I0727 22:32:42.630043  5214 net.cpp:165] Memory required for data: 1603445024
I0727 22:32:42.630087  5214 layer_factory.hpp:77] Creating layer relu4_2
I0727 22:32:42.630106  5214 net.cpp:100] Creating Layer relu4_2
I0727 22:32:42.630120  5214 net.cpp:434] relu4_2 <- conv4_2
I0727 22:32:42.630136  5214 net.cpp:395] relu4_2 -> conv4_2 (in-place)
I0727 22:32:42.630154  5214 net.cpp:150] Setting up relu4_2
I0727 22:32:42.630161  5214 net.cpp:157] Top shape: 8 512 38 38 (5914624)
I0727 22:32:42.630163  5214 net.cpp:165] Memory required for data: 1627103520
I0727 22:32:42.630167  5214 layer_factory.hpp:77] Creating layer conv4_3
I0727 22:32:42.630182  5214 net.cpp:100] Creating Layer conv4_3
I0727 22:32:42.630187  5214 net.cpp:434] conv4_3 <- conv4_2
I0727 22:32:42.630194  5214 net.cpp:408] conv4_3 -> conv4_3
I0727 22:32:42.674464  5214 net.cpp:150] Setting up conv4_3
I0727 22:32:42.674604  5214 net.cpp:157] Top shape: 8 512 38 38 (5914624)
I0727 22:32:42.674610  5214 net.cpp:165] Memory required for data: 1650762016
I0727 22:32:42.674645  5214 layer_factory.hpp:77] Creating layer relu4_3
I0727 22:32:42.674700  5214 net.cpp:100] Creating Layer relu4_3
I0727 22:32:42.674717  5214 net.cpp:434] relu4_3 <- conv4_3
I0727 22:32:42.674741  5214 net.cpp:395] relu4_3 -> conv4_3 (in-place)
I0727 22:32:42.674772  5214 net.cpp:150] Setting up relu4_3
I0727 22:32:42.674775  5214 net.cpp:157] Top shape: 8 512 38 38 (5914624)
I0727 22:32:42.674836  5214 net.cpp:165] Memory required for data: 1674420512
I0727 22:32:42.674841  5214 layer_factory.hpp:77] Creating layer conv4_3_relu4_3_0_split
I0727 22:32:42.674854  5214 net.cpp:100] Creating Layer conv4_3_relu4_3_0_split
I0727 22:32:42.674861  5214 net.cpp:434] conv4_3_relu4_3_0_split <- conv4_3
I0727 22:32:42.674870  5214 net.cpp:408] conv4_3_relu4_3_0_split -> conv4_3_relu4_3_0_split_0
I0727 22:32:42.674881  5214 net.cpp:408] conv4_3_relu4_3_0_split -> conv4_3_relu4_3_0_split_1
I0727 22:32:42.674940  5214 net.cpp:150] Setting up conv4_3_relu4_3_0_split
I0727 22:32:42.674958  5214 net.cpp:157] Top shape: 8 512 38 38 (5914624)
I0727 22:32:42.674968  5214 net.cpp:157] Top shape: 8 512 38 38 (5914624)
I0727 22:32:42.674970  5214 net.cpp:165] Memory required for data: 1721737504
I0727 22:32:42.674974  5214 layer_factory.hpp:77] Creating layer pool4
I0727 22:32:42.674986  5214 net.cpp:100] Creating Layer pool4
I0727 22:32:42.674990  5214 net.cpp:434] pool4 <- conv4_3_relu4_3_0_split_0
I0727 22:32:42.675001  5214 net.cpp:408] pool4 -> pool4
I0727 22:32:42.675045  5214 net.cpp:150] Setting up pool4
I0727 22:32:42.675050  5214 net.cpp:157] Top shape: 8 512 19 19 (1478656)
I0727 22:32:42.675055  5214 net.cpp:165] Memory required for data: 1727652128
I0727 22:32:42.675057  5214 layer_factory.hpp:77] Creating layer conv5_1
I0727 22:32:42.675076  5214 net.cpp:100] Creating Layer conv5_1
I0727 22:32:42.675081  5214 net.cpp:434] conv5_1 <- pool4
I0727 22:32:42.675089  5214 net.cpp:408] conv5_1 -> conv5_1
I0727 22:32:42.719035  5214 net.cpp:150] Setting up conv5_1
I0727 22:32:42.719097  5214 net.cpp:157] Top shape: 8 512 19 19 (1478656)
I0727 22:32:42.719103  5214 net.cpp:165] Memory required for data: 1733566752
I0727 22:32:42.719120  5214 layer_factory.hpp:77] Creating layer relu5_1
I0727 22:32:42.719133  5214 net.cpp:100] Creating Layer relu5_1
I0727 22:32:42.719142  5214 net.cpp:434] relu5_1 <- conv5_1
I0727 22:32:42.719156  5214 net.cpp:395] relu5_1 -> conv5_1 (in-place)
I0727 22:32:42.719177  5214 net.cpp:150] Setting up relu5_1
I0727 22:32:42.719182  5214 net.cpp:157] Top shape: 8 512 19 19 (1478656)
I0727 22:32:42.719185  5214 net.cpp:165] Memory required for data: 1739481376
I0727 22:32:42.719189  5214 layer_factory.hpp:77] Creating layer conv5_2
I0727 22:32:42.719207  5214 net.cpp:100] Creating Layer conv5_2
I0727 22:32:42.719210  5214 net.cpp:434] conv5_2 <- conv5_1
I0727 22:32:42.719216  5214 net.cpp:408] conv5_2 -> conv5_2
I0727 22:32:42.750885  5214 net.cpp:150] Setting up conv5_2
I0727 22:32:42.750934  5214 net.cpp:157] Top shape: 8 512 19 19 (1478656)
I0727 22:32:42.750939  5214 net.cpp:165] Memory required for data: 1745396000
I0727 22:32:42.750962  5214 layer_factory.hpp:77] Creating layer relu5_2
I0727 22:32:42.750982  5214 net.cpp:100] Creating Layer relu5_2
I0727 22:32:42.750989  5214 net.cpp:434] relu5_2 <- conv5_2
I0727 22:32:42.751004  5214 net.cpp:395] relu5_2 -> conv5_2 (in-place)
I0727 22:32:42.751026  5214 net.cpp:150] Setting up relu5_2
I0727 22:32:42.751031  5214 net.cpp:157] Top shape: 8 512 19 19 (1478656)
I0727 22:32:42.751044  5214 net.cpp:165] Memory required for data: 1751310624
I0727 22:32:42.751055  5214 layer_factory.hpp:77] Creating layer conv5_3
I0727 22:32:42.751068  5214 net.cpp:100] Creating Layer conv5_3
I0727 22:32:42.751073  5214 net.cpp:434] conv5_3 <- conv5_2
I0727 22:32:42.751082  5214 net.cpp:408] conv5_3 -> conv5_3
I0727 22:32:42.781090  5214 net.cpp:150] Setting up conv5_3
I0727 22:32:42.781152  5214 net.cpp:157] Top shape: 8 512 19 19 (1478656)
I0727 22:32:42.781155  5214 net.cpp:165] Memory required for data: 1757225248
I0727 22:32:42.781173  5214 layer_factory.hpp:77] Creating layer relu5_3
I0727 22:32:42.781211  5214 net.cpp:100] Creating Layer relu5_3
I0727 22:32:42.781220  5214 net.cpp:434] relu5_3 <- conv5_3
I0727 22:32:42.781239  5214 net.cpp:395] relu5_3 -> conv5_3 (in-place)
I0727 22:32:42.781263  5214 net.cpp:150] Setting up relu5_3
I0727 22:32:42.781270  5214 net.cpp:157] Top shape: 8 512 19 19 (1478656)
I0727 22:32:42.781370  5214 net.cpp:165] Memory required for data: 1763139872
I0727 22:32:42.781376  5214 layer_factory.hpp:77] Creating layer pool5
I0727 22:32:42.781425  5214 net.cpp:100] Creating Layer pool5
I0727 22:32:42.781438  5214 net.cpp:434] pool5 <- conv5_3
I0727 22:32:42.781452  5214 net.cpp:408] pool5 -> pool5
I0727 22:32:42.781550  5214 net.cpp:150] Setting up pool5
I0727 22:32:42.781560  5214 net.cpp:157] Top shape: 8 512 19 19 (1478656)
I0727 22:32:42.781564  5214 net.cpp:165] Memory required for data: 1769054496
I0727 22:32:42.781568  5214 layer_factory.hpp:77] Creating layer fc6
I0727 22:32:42.781582  5214 net.cpp:100] Creating Layer fc6
I0727 22:32:42.781587  5214 net.cpp:434] fc6 <- pool5
I0727 22:32:42.781594  5214 net.cpp:408] fc6 -> fc6
I0727 22:32:42.838697  5214 net.cpp:150] Setting up fc6
I0727 22:32:42.838726  5214 net.cpp:157] Top shape: 8 1024 19 19 (2957312)
I0727 22:32:42.838732  5214 net.cpp:165] Memory required for data: 1780883744
I0727 22:32:42.838742  5214 layer_factory.hpp:77] Creating layer relu6
I0727 22:32:42.838752  5214 net.cpp:100] Creating Layer relu6
I0727 22:32:42.838758  5214 net.cpp:434] relu6 <- fc6
I0727 22:32:42.838769  5214 net.cpp:395] relu6 -> fc6 (in-place)
I0727 22:32:42.838783  5214 net.cpp:150] Setting up relu6
I0727 22:32:42.838788  5214 net.cpp:157] Top shape: 8 1024 19 19 (2957312)
I0727 22:32:42.838791  5214 net.cpp:165] Memory required for data: 1792712992
I0727 22:32:42.838794  5214 layer_factory.hpp:77] Creating layer fc7
I0727 22:32:42.838804  5214 net.cpp:100] Creating Layer fc7
I0727 22:32:42.838809  5214 net.cpp:434] fc7 <- fc6
I0727 22:32:42.838814  5214 net.cpp:408] fc7 -> fc7
I0727 22:32:42.852603  5214 net.cpp:150] Setting up fc7
I0727 22:32:42.852887  5214 net.cpp:157] Top shape: 8 1024 19 19 (2957312)
I0727 22:32:42.852929  5214 net.cpp:165] Memory required for data: 1804542240
I0727 22:32:42.853035  5214 layer_factory.hpp:77] Creating layer relu7
I0727 22:32:42.853242  5214 net.cpp:100] Creating Layer relu7
I0727 22:32:42.853329  5214 net.cpp:434] relu7 <- fc7
I0727 22:32:42.853380  5214 net.cpp:395] relu7 -> fc7 (in-place)
I0727 22:32:42.853461  5214 net.cpp:150] Setting up relu7
I0727 22:32:42.853493  5214 net.cpp:157] Top shape: 8 1024 19 19 (2957312)
I0727 22:32:42.853502  5214 net.cpp:165] Memory required for data: 1816371488
I0727 22:32:42.853509  5214 layer_factory.hpp:77] Creating layer fc7_relu7_0_split
I0727 22:32:42.853531  5214 net.cpp:100] Creating Layer fc7_relu7_0_split
I0727 22:32:42.853544  5214 net.cpp:434] fc7_relu7_0_split <- fc7
I0727 22:32:42.853565  5214 net.cpp:408] fc7_relu7_0_split -> fc7_relu7_0_split_0
I0727 22:32:42.853586  5214 net.cpp:408] fc7_relu7_0_split -> fc7_relu7_0_split_1
I0727 22:32:42.853647  5214 net.cpp:408] fc7_relu7_0_split -> fc7_relu7_0_split_2
I0727 22:32:42.853684  5214 net.cpp:408] fc7_relu7_0_split -> fc7_relu7_0_split_3
I0727 22:32:42.854013  5214 net.cpp:150] Setting up fc7_relu7_0_split
I0727 22:32:42.854068  5214 net.cpp:157] Top shape: 8 1024 19 19 (2957312)
I0727 22:32:42.854099  5214 net.cpp:157] Top shape: 8 1024 19 19 (2957312)
I0727 22:32:42.854118  5214 net.cpp:157] Top shape: 8 1024 19 19 (2957312)
I0727 22:32:42.854132  5214 net.cpp:157] Top shape: 8 1024 19 19 (2957312)
I0727 22:32:42.854140  5214 net.cpp:165] Memory required for data: 1863688480
I0727 22:32:42.854153  5214 layer_factory.hpp:77] Creating layer conv6_1
I0727 22:32:42.854231  5214 net.cpp:100] Creating Layer conv6_1
I0727 22:32:42.854265  5214 net.cpp:434] conv6_1 <- fc7_relu7_0_split_0
I0727 22:32:42.854313  5214 net.cpp:408] conv6_1 -> conv6_1
I0727 22:32:42.859496  5214 net.cpp:150] Setting up conv6_1
I0727 22:32:42.859524  5214 net.cpp:157] Top shape: 8 256 19 19 (739328)
I0727 22:32:42.859527  5214 net.cpp:165] Memory required for data: 1866645792
I0727 22:32:42.859537  5214 layer_factory.hpp:77] Creating layer conv6_1_relu
I0727 22:32:42.859546  5214 net.cpp:100] Creating Layer conv6_1_relu
I0727 22:32:42.859552  5214 net.cpp:434] conv6_1_relu <- conv6_1
I0727 22:32:42.859562  5214 net.cpp:395] conv6_1_relu -> conv6_1 (in-place)
I0727 22:32:42.859597  5214 net.cpp:150] Setting up conv6_1_relu
I0727 22:32:42.859603  5214 net.cpp:157] Top shape: 8 256 19 19 (739328)
I0727 22:32:42.859608  5214 net.cpp:165] Memory required for data: 1869603104
I0727 22:32:42.859611  5214 layer_factory.hpp:77] Creating layer conv6_2
I0727 22:32:42.859621  5214 net.cpp:100] Creating Layer conv6_2
I0727 22:32:42.859625  5214 net.cpp:434] conv6_2 <- conv6_1
I0727 22:32:42.859635  5214 net.cpp:408] conv6_2 -> conv6_2
I0727 22:32:42.877502  5214 net.cpp:150] Setting up conv6_2
I0727 22:32:42.877574  5214 net.cpp:157] Top shape: 8 512 10 10 (409600)
I0727 22:32:42.877580  5214 net.cpp:165] Memory required for data: 1871241504
I0727 22:32:42.877619  5214 layer_factory.hpp:77] Creating layer conv6_2_relu
I0727 22:32:42.877640  5214 net.cpp:100] Creating Layer conv6_2_relu
I0727 22:32:42.877653  5214 net.cpp:434] conv6_2_relu <- conv6_2
I0727 22:32:42.877668  5214 net.cpp:395] conv6_2_relu -> conv6_2 (in-place)
I0727 22:32:42.877714  5214 net.cpp:150] Setting up conv6_2_relu
I0727 22:32:42.877720  5214 net.cpp:157] Top shape: 8 512 10 10 (409600)
I0727 22:32:42.877724  5214 net.cpp:165] Memory required for data: 1872879904
I0727 22:32:42.877728  5214 layer_factory.hpp:77] Creating layer conv6_2_conv6_2_relu_0_split
I0727 22:32:42.877738  5214 net.cpp:100] Creating Layer conv6_2_conv6_2_relu_0_split
I0727 22:32:42.877743  5214 net.cpp:434] conv6_2_conv6_2_relu_0_split <- conv6_2
I0727 22:32:42.877749  5214 net.cpp:408] conv6_2_conv6_2_relu_0_split -> conv6_2_conv6_2_relu_0_split_0
I0727 22:32:42.877759  5214 net.cpp:408] conv6_2_conv6_2_relu_0_split -> conv6_2_conv6_2_relu_0_split_1
I0727 22:32:42.877769  5214 net.cpp:408] conv6_2_conv6_2_relu_0_split -> conv6_2_conv6_2_relu_0_split_2
I0727 22:32:42.877776  5214 net.cpp:408] conv6_2_conv6_2_relu_0_split -> conv6_2_conv6_2_relu_0_split_3
I0727 22:32:42.877859  5214 net.cpp:150] Setting up conv6_2_conv6_2_relu_0_split
I0727 22:32:42.877872  5214 net.cpp:157] Top shape: 8 512 10 10 (409600)
I0727 22:32:42.877878  5214 net.cpp:157] Top shape: 8 512 10 10 (409600)
I0727 22:32:42.877883  5214 net.cpp:157] Top shape: 8 512 10 10 (409600)
I0727 22:32:42.877887  5214 net.cpp:157] Top shape: 8 512 10 10 (409600)
I0727 22:32:42.877892  5214 net.cpp:165] Memory required for data: 1879433504
I0727 22:32:42.877895  5214 layer_factory.hpp:77] Creating layer conv7_1
I0727 22:32:42.877914  5214 net.cpp:100] Creating Layer conv7_1
I0727 22:32:42.877920  5214 net.cpp:434] conv7_1 <- conv6_2_conv6_2_relu_0_split_0
I0727 22:32:42.877928  5214 net.cpp:408] conv7_1 -> conv7_1
I0727 22:32:42.879067  5214 net.cpp:150] Setting up conv7_1
I0727 22:32:42.879082  5214 net.cpp:157] Top shape: 8 128 10 10 (102400)
I0727 22:32:42.879086  5214 net.cpp:165] Memory required for data: 1879843104
I0727 22:32:42.879096  5214 layer_factory.hpp:77] Creating layer conv7_1_relu
I0727 22:32:42.879104  5214 net.cpp:100] Creating Layer conv7_1_relu
I0727 22:32:42.879109  5214 net.cpp:434] conv7_1_relu <- conv7_1
I0727 22:32:42.879117  5214 net.cpp:395] conv7_1_relu -> conv7_1 (in-place)
I0727 22:32:42.879124  5214 net.cpp:150] Setting up conv7_1_relu
I0727 22:32:42.879130  5214 net.cpp:157] Top shape: 8 128 10 10 (102400)
I0727 22:32:42.879133  5214 net.cpp:165] Memory required for data: 1880252704
I0727 22:32:42.879137  5214 layer_factory.hpp:77] Creating layer conv7_2
I0727 22:32:42.879148  5214 net.cpp:100] Creating Layer conv7_2
I0727 22:32:42.879153  5214 net.cpp:434] conv7_2 <- conv7_1
I0727 22:32:42.879160  5214 net.cpp:408] conv7_2 -> conv7_2
I0727 22:32:42.884497  5214 net.cpp:150] Setting up conv7_2
I0727 22:32:42.884526  5214 net.cpp:157] Top shape: 8 256 5 5 (51200)
I0727 22:32:42.884531  5214 net.cpp:165] Memory required for data: 1880457504
I0727 22:32:42.884542  5214 layer_factory.hpp:77] Creating layer conv7_2_relu
I0727 22:32:42.884572  5214 net.cpp:100] Creating Layer conv7_2_relu
I0727 22:32:42.884578  5214 net.cpp:434] conv7_2_relu <- conv7_2
I0727 22:32:42.884588  5214 net.cpp:395] conv7_2_relu -> conv7_2 (in-place)
I0727 22:32:42.884627  5214 net.cpp:150] Setting up conv7_2_relu
I0727 22:32:42.884634  5214 net.cpp:157] Top shape: 8 256 5 5 (51200)
I0727 22:32:42.884639  5214 net.cpp:165] Memory required for data: 1880662304
I0727 22:32:42.884644  5214 layer_factory.hpp:77] Creating layer conv7_2_conv7_2_relu_0_split
I0727 22:32:42.884649  5214 net.cpp:100] Creating Layer conv7_2_conv7_2_relu_0_split
I0727 22:32:42.884654  5214 net.cpp:434] conv7_2_conv7_2_relu_0_split <- conv7_2
I0727 22:32:42.884660  5214 net.cpp:408] conv7_2_conv7_2_relu_0_split -> conv7_2_conv7_2_relu_0_split_0
I0727 22:32:42.884670  5214 net.cpp:408] conv7_2_conv7_2_relu_0_split -> conv7_2_conv7_2_relu_0_split_1
I0727 22:32:42.884677  5214 net.cpp:408] conv7_2_conv7_2_relu_0_split -> conv7_2_conv7_2_relu_0_split_2
I0727 22:32:42.884685  5214 net.cpp:408] conv7_2_conv7_2_relu_0_split -> conv7_2_conv7_2_relu_0_split_3
I0727 22:32:42.884747  5214 net.cpp:150] Setting up conv7_2_conv7_2_relu_0_split
I0727 22:32:42.884755  5214 net.cpp:157] Top shape: 8 256 5 5 (51200)
I0727 22:32:42.884760  5214 net.cpp:157] Top shape: 8 256 5 5 (51200)
I0727 22:32:42.884765  5214 net.cpp:157] Top shape: 8 256 5 5 (51200)
I0727 22:32:42.884769  5214 net.cpp:157] Top shape: 8 256 5 5 (51200)
I0727 22:32:42.884773  5214 net.cpp:165] Memory required for data: 1881481504
I0727 22:32:42.884778  5214 layer_factory.hpp:77] Creating layer conv8_1
I0727 22:32:42.884788  5214 net.cpp:100] Creating Layer conv8_1
I0727 22:32:42.884793  5214 net.cpp:434] conv8_1 <- conv7_2_conv7_2_relu_0_split_0
I0727 22:32:42.884800  5214 net.cpp:408] conv8_1 -> conv8_1
I0727 22:32:42.885505  5214 net.cpp:150] Setting up conv8_1
I0727 22:32:42.885546  5214 net.cpp:157] Top shape: 8 128 5 5 (25600)
I0727 22:32:42.885563  5214 net.cpp:165] Memory required for data: 1881583904
I0727 22:32:42.885586  5214 layer_factory.hpp:77] Creating layer conv8_1_relu
I0727 22:32:42.885603  5214 net.cpp:100] Creating Layer conv8_1_relu
I0727 22:32:42.885618  5214 net.cpp:434] conv8_1_relu <- conv8_1
I0727 22:32:42.885633  5214 net.cpp:395] conv8_1_relu -> conv8_1 (in-place)
I0727 22:32:42.885653  5214 net.cpp:150] Setting up conv8_1_relu
I0727 22:32:42.885668  5214 net.cpp:157] Top shape: 8 128 5 5 (25600)
I0727 22:32:42.885682  5214 net.cpp:165] Memory required for data: 1881686304
I0727 22:32:42.885696  5214 layer_factory.hpp:77] Creating layer conv8_2
I0727 22:32:42.885720  5214 net.cpp:100] Creating Layer conv8_2
I0727 22:32:42.885738  5214 net.cpp:434] conv8_2 <- conv8_1
I0727 22:32:42.885756  5214 net.cpp:408] conv8_2 -> conv8_2
I0727 22:32:42.892030  5214 net.cpp:150] Setting up conv8_2
I0727 22:32:42.892175  5214 net.cpp:157] Top shape: 8 256 3 3 (18432)
I0727 22:32:42.892194  5214 net.cpp:165] Memory required for data: 1881760032
I0727 22:32:42.892220  5214 layer_factory.hpp:77] Creating layer conv8_2_relu
I0727 22:32:42.892262  5214 net.cpp:100] Creating Layer conv8_2_relu
I0727 22:32:42.892282  5214 net.cpp:434] conv8_2_relu <- conv8_2
I0727 22:32:42.892305  5214 net.cpp:395] conv8_2_relu -> conv8_2 (in-place)
I0727 22:32:42.892334  5214 net.cpp:150] Setting up conv8_2_relu
I0727 22:32:42.892348  5214 net.cpp:157] Top shape: 8 256 3 3 (18432)
I0727 22:32:42.892359  5214 net.cpp:165] Memory required for data: 1881833760
I0727 22:32:42.892370  5214 layer_factory.hpp:77] Creating layer conv8_2_conv8_2_relu_0_split
I0727 22:32:42.892387  5214 net.cpp:100] Creating Layer conv8_2_conv8_2_relu_0_split
I0727 22:32:42.892400  5214 net.cpp:434] conv8_2_conv8_2_relu_0_split <- conv8_2
I0727 22:32:42.892418  5214 net.cpp:408] conv8_2_conv8_2_relu_0_split -> conv8_2_conv8_2_relu_0_split_0
I0727 22:32:42.892437  5214 net.cpp:408] conv8_2_conv8_2_relu_0_split -> conv8_2_conv8_2_relu_0_split_1
I0727 22:32:42.892457  5214 net.cpp:408] conv8_2_conv8_2_relu_0_split -> conv8_2_conv8_2_relu_0_split_2
I0727 22:32:42.892473  5214 net.cpp:408] conv8_2_conv8_2_relu_0_split -> conv8_2_conv8_2_relu_0_split_3
I0727 22:32:42.892593  5214 net.cpp:150] Setting up conv8_2_conv8_2_relu_0_split
I0727 22:32:42.892628  5214 net.cpp:157] Top shape: 8 256 3 3 (18432)
I0727 22:32:42.892658  5214 net.cpp:157] Top shape: 8 256 3 3 (18432)
I0727 22:32:42.892670  5214 net.cpp:157] Top shape: 8 256 3 3 (18432)
I0727 22:32:42.892683  5214 net.cpp:157] Top shape: 8 256 3 3 (18432)
I0727 22:32:42.892694  5214 net.cpp:165] Memory required for data: 1882128672
I0727 22:32:42.892709  5214 layer_factory.hpp:77] Creating layer conv9_1
I0727 22:32:42.892729  5214 net.cpp:100] Creating Layer conv9_1
I0727 22:32:42.892742  5214 net.cpp:434] conv9_1 <- conv8_2_conv8_2_relu_0_split_0
I0727 22:32:42.892756  5214 net.cpp:408] conv9_1 -> conv9_1
I0727 22:32:42.893687  5214 net.cpp:150] Setting up conv9_1
I0727 22:32:42.893813  5214 net.cpp:157] Top shape: 8 128 3 3 (9216)
I0727 22:32:42.893923  5214 net.cpp:165] Memory required for data: 1882165536
I0727 22:32:42.894014  5214 layer_factory.hpp:77] Creating layer conv9_1_relu
I0727 22:32:42.894094  5214 net.cpp:100] Creating Layer conv9_1_relu
I0727 22:32:42.894158  5214 net.cpp:434] conv9_1_relu <- conv9_1
I0727 22:32:42.894242  5214 net.cpp:395] conv9_1_relu -> conv9_1 (in-place)
I0727 22:32:42.894322  5214 net.cpp:150] Setting up conv9_1_relu
I0727 22:32:42.894409  5214 net.cpp:157] Top shape: 8 128 3 3 (9216)
I0727 22:32:42.894444  5214 net.cpp:165] Memory required for data: 1882202400
I0727 22:32:42.894459  5214 layer_factory.hpp:77] Creating layer conv9_2
I0727 22:32:42.894477  5214 net.cpp:100] Creating Layer conv9_2
I0727 22:32:42.894491  5214 net.cpp:434] conv9_2 <- conv9_1
I0727 22:32:42.894522  5214 net.cpp:408] conv9_2 -> conv9_2
I0727 22:32:42.900884  5214 net.cpp:150] Setting up conv9_2
I0727 22:32:42.901139  5214 net.cpp:157] Top shape: 8 256 1 1 (2048)
I0727 22:32:42.901167  5214 net.cpp:165] Memory required for data: 1882210592
I0727 22:32:42.901207  5214 layer_factory.hpp:77] Creating layer conv9_2_relu
I0727 22:32:42.901262  5214 net.cpp:100] Creating Layer conv9_2_relu
I0727 22:32:42.901296  5214 net.cpp:434] conv9_2_relu <- conv9_2
I0727 22:32:42.901327  5214 net.cpp:395] conv9_2_relu -> conv9_2 (in-place)
I0727 22:32:42.901377  5214 net.cpp:150] Setting up conv9_2_relu
I0727 22:32:42.901410  5214 net.cpp:157] Top shape: 8 256 1 1 (2048)
I0727 22:32:42.901430  5214 net.cpp:165] Memory required for data: 1882218784
I0727 22:32:42.901448  5214 layer_factory.hpp:77] Creating layer conv9_2_conv9_2_relu_0_split
I0727 22:32:42.901468  5214 net.cpp:100] Creating Layer conv9_2_conv9_2_relu_0_split
I0727 22:32:42.901474  5214 net.cpp:434] conv9_2_conv9_2_relu_0_split <- conv9_2
I0727 22:32:42.901485  5214 net.cpp:408] conv9_2_conv9_2_relu_0_split -> conv9_2_conv9_2_relu_0_split_0
I0727 22:32:42.901525  5214 net.cpp:408] conv9_2_conv9_2_relu_0_split -> conv9_2_conv9_2_relu_0_split_1
I0727 22:32:42.901535  5214 net.cpp:408] conv9_2_conv9_2_relu_0_split -> conv9_2_conv9_2_relu_0_split_2
I0727 22:32:42.901636  5214 net.cpp:150] Setting up conv9_2_conv9_2_relu_0_split
I0727 22:32:42.901646  5214 net.cpp:157] Top shape: 8 256 1 1 (2048)
I0727 22:32:42.901654  5214 net.cpp:157] Top shape: 8 256 1 1 (2048)
I0727 22:32:42.901657  5214 net.cpp:157] Top shape: 8 256 1 1 (2048)
I0727 22:32:42.901664  5214 net.cpp:165] Memory required for data: 1882243360
I0727 22:32:42.901691  5214 layer_factory.hpp:77] Creating layer conv4_3_norm
I0727 22:32:42.901747  5214 net.cpp:100] Creating Layer conv4_3_norm
I0727 22:32:42.901789  5214 net.cpp:434] conv4_3_norm <- conv4_3_relu4_3_0_split_1
I0727 22:32:42.901804  5214 net.cpp:408] conv4_3_norm -> conv4_3_norm
I0727 22:32:42.902058  5214 net.cpp:150] Setting up conv4_3_norm
I0727 22:32:42.902081  5214 net.cpp:157] Top shape: 8 512 38 38 (5914624)
I0727 22:32:42.902094  5214 net.cpp:165] Memory required for data: 1905901856
I0727 22:32:42.902112  5214 layer_factory.hpp:77] Creating layer conv4_3_norm_conv4_3_norm_0_split
I0727 22:32:42.902137  5214 net.cpp:100] Creating Layer conv4_3_norm_conv4_3_norm_0_split
I0727 22:32:42.902150  5214 net.cpp:434] conv4_3_norm_conv4_3_norm_0_split <- conv4_3_norm
I0727 22:32:42.902165  5214 net.cpp:408] conv4_3_norm_conv4_3_norm_0_split -> conv4_3_norm_conv4_3_norm_0_split_0
I0727 22:32:42.902223  5214 net.cpp:408] conv4_3_norm_conv4_3_norm_0_split -> conv4_3_norm_conv4_3_norm_0_split_1
I0727 22:32:42.902240  5214 net.cpp:408] conv4_3_norm_conv4_3_norm_0_split -> conv4_3_norm_conv4_3_norm_0_split_2
I0727 22:32:42.902302  5214 net.cpp:150] Setting up conv4_3_norm_conv4_3_norm_0_split
I0727 22:32:42.902318  5214 net.cpp:157] Top shape: 8 512 38 38 (5914624)
I0727 22:32:42.902333  5214 net.cpp:157] Top shape: 8 512 38 38 (5914624)
I0727 22:32:42.902344  5214 net.cpp:157] Top shape: 8 512 38 38 (5914624)
I0727 22:32:42.902355  5214 net.cpp:165] Memory required for data: 1976877344
I0727 22:32:42.902366  5214 layer_factory.hpp:77] Creating layer conv4_3_norm_mbox_loc
I0727 22:32:42.902393  5214 net.cpp:100] Creating Layer conv4_3_norm_mbox_loc
I0727 22:32:42.902418  5214 net.cpp:434] conv4_3_norm_mbox_loc <- conv4_3_norm_conv4_3_norm_0_split_0
I0727 22:32:42.902434  5214 net.cpp:408] conv4_3_norm_mbox_loc -> conv4_3_norm_mbox_loc
I0727 22:32:42.903712  5214 net.cpp:150] Setting up conv4_3_norm_mbox_loc
I0727 22:32:42.903785  5214 net.cpp:157] Top shape: 8 16 38 38 (184832)
I0727 22:32:42.903800  5214 net.cpp:165] Memory required for data: 1977616672
I0727 22:32:42.903817  5214 layer_factory.hpp:77] Creating layer conv4_3_norm_mbox_loc_perm
I0727 22:32:42.903858  5214 net.cpp:100] Creating Layer conv4_3_norm_mbox_loc_perm
I0727 22:32:42.903873  5214 net.cpp:434] conv4_3_norm_mbox_loc_perm <- conv4_3_norm_mbox_loc
I0727 22:32:42.903890  5214 net.cpp:408] conv4_3_norm_mbox_loc_perm -> conv4_3_norm_mbox_loc_perm
I0727 22:32:42.904033  5214 net.cpp:150] Setting up conv4_3_norm_mbox_loc_perm
I0727 22:32:42.904052  5214 net.cpp:157] Top shape: 8 38 38 16 (184832)
I0727 22:32:42.904064  5214 net.cpp:165] Memory required for data: 1978356000
I0727 22:32:42.904075  5214 layer_factory.hpp:77] Creating layer conv4_3_norm_mbox_loc_flat
I0727 22:32:42.904093  5214 net.cpp:100] Creating Layer conv4_3_norm_mbox_loc_flat
I0727 22:32:42.904105  5214 net.cpp:434] conv4_3_norm_mbox_loc_flat <- conv4_3_norm_mbox_loc_perm
I0727 22:32:42.904120  5214 net.cpp:408] conv4_3_norm_mbox_loc_flat -> conv4_3_norm_mbox_loc_flat
I0727 22:32:42.904192  5214 net.cpp:150] Setting up conv4_3_norm_mbox_loc_flat
I0727 22:32:42.904222  5214 net.cpp:157] Top shape: 8 23104 (184832)
I0727 22:32:42.904235  5214 net.cpp:165] Memory required for data: 1979095328
I0727 22:32:42.904250  5214 layer_factory.hpp:77] Creating layer conv4_3_norm_mbox_conf
I0727 22:32:42.904283  5214 net.cpp:100] Creating Layer conv4_3_norm_mbox_conf
I0727 22:32:42.904296  5214 net.cpp:434] conv4_3_norm_mbox_conf <- conv4_3_norm_conv4_3_norm_0_split_1
I0727 22:32:42.904314  5214 net.cpp:408] conv4_3_norm_mbox_conf -> conv4_3_norm_mbox_conf
I0727 22:32:42.921792  5214 net.cpp:150] Setting up conv4_3_norm_mbox_conf
I0727 22:32:42.921830  5214 net.cpp:157] Top shape: 8 236 38 38 (2726272)
I0727 22:32:42.921835  5214 net.cpp:165] Memory required for data: 1990000416
I0727 22:32:42.921850  5214 layer_factory.hpp:77] Creating layer conv4_3_norm_mbox_conf_perm
I0727 22:32:42.921869  5214 net.cpp:100] Creating Layer conv4_3_norm_mbox_conf_perm
I0727 22:32:42.921882  5214 net.cpp:434] conv4_3_norm_mbox_conf_perm <- conv4_3_norm_mbox_conf
I0727 22:32:42.921895  5214 net.cpp:408] conv4_3_norm_mbox_conf_perm -> conv4_3_norm_mbox_conf_perm
I0727 22:32:42.922035  5214 net.cpp:150] Setting up conv4_3_norm_mbox_conf_perm
I0727 22:32:42.922045  5214 net.cpp:157] Top shape: 8 38 38 236 (2726272)
I0727 22:32:42.922049  5214 net.cpp:165] Memory required for data: 2000905504
I0727 22:32:42.922052  5214 layer_factory.hpp:77] Creating layer conv4_3_norm_mbox_conf_flat
I0727 22:32:42.922060  5214 net.cpp:100] Creating Layer conv4_3_norm_mbox_conf_flat
I0727 22:32:42.922065  5214 net.cpp:434] conv4_3_norm_mbox_conf_flat <- conv4_3_norm_mbox_conf_perm
I0727 22:32:42.922071  5214 net.cpp:408] conv4_3_norm_mbox_conf_flat -> conv4_3_norm_mbox_conf_flat
I0727 22:32:42.922096  5214 net.cpp:150] Setting up conv4_3_norm_mbox_conf_flat
I0727 22:32:42.922132  5214 net.cpp:157] Top shape: 8 340784 (2726272)
I0727 22:32:42.922164  5214 net.cpp:165] Memory required for data: 2011810592
I0727 22:32:42.922168  5214 layer_factory.hpp:77] Creating layer conv4_3_norm_mbox_priorbox
I0727 22:32:42.922183  5214 net.cpp:100] Creating Layer conv4_3_norm_mbox_priorbox
I0727 22:32:42.922189  5214 net.cpp:434] conv4_3_norm_mbox_priorbox <- conv4_3_norm_conv4_3_norm_0_split_2
I0727 22:32:42.922199  5214 net.cpp:434] conv4_3_norm_mbox_priorbox <- data_data_0_split_1
I0727 22:32:42.922219  5214 net.cpp:408] conv4_3_norm_mbox_priorbox -> conv4_3_norm_mbox_priorbox
I0727 22:32:42.922267  5214 net.cpp:150] Setting up conv4_3_norm_mbox_priorbox
I0727 22:32:42.922274  5214 net.cpp:157] Top shape: 1 2 23104 (46208)
I0727 22:32:42.922277  5214 net.cpp:165] Memory required for data: 2011995424
I0727 22:32:42.922281  5214 layer_factory.hpp:77] Creating layer fc7_mbox_loc
I0727 22:32:42.922297  5214 net.cpp:100] Creating Layer fc7_mbox_loc
I0727 22:32:42.922303  5214 net.cpp:434] fc7_mbox_loc <- fc7_relu7_0_split_1
I0727 22:32:42.922312  5214 net.cpp:408] fc7_mbox_loc -> fc7_mbox_loc
I0727 22:32:42.924279  5214 net.cpp:150] Setting up fc7_mbox_loc
I0727 22:32:42.924289  5214 net.cpp:157] Top shape: 8 24 19 19 (69312)
I0727 22:32:42.924293  5214 net.cpp:165] Memory required for data: 2012272672
I0727 22:32:42.924300  5214 layer_factory.hpp:77] Creating layer fc7_mbox_loc_perm
I0727 22:32:42.924310  5214 net.cpp:100] Creating Layer fc7_mbox_loc_perm
I0727 22:32:42.924316  5214 net.cpp:434] fc7_mbox_loc_perm <- fc7_mbox_loc
I0727 22:32:42.924324  5214 net.cpp:408] fc7_mbox_loc_perm -> fc7_mbox_loc_perm
I0727 22:32:42.924397  5214 net.cpp:150] Setting up fc7_mbox_loc_perm
I0727 22:32:42.924403  5214 net.cpp:157] Top shape: 8 19 19 24 (69312)
I0727 22:32:42.924407  5214 net.cpp:165] Memory required for data: 2012549920
I0727 22:32:42.924409  5214 layer_factory.hpp:77] Creating layer fc7_mbox_loc_flat
I0727 22:32:42.924414  5214 net.cpp:100] Creating Layer fc7_mbox_loc_flat
I0727 22:32:42.924420  5214 net.cpp:434] fc7_mbox_loc_flat <- fc7_mbox_loc_perm
I0727 22:32:42.924425  5214 net.cpp:408] fc7_mbox_loc_flat -> fc7_mbox_loc_flat
I0727 22:32:42.924450  5214 net.cpp:150] Setting up fc7_mbox_loc_flat
I0727 22:32:42.924459  5214 net.cpp:157] Top shape: 8 8664 (69312)
I0727 22:32:42.924468  5214 net.cpp:165] Memory required for data: 2012827168
I0727 22:32:42.924473  5214 layer_factory.hpp:77] Creating layer fc7_mbox_conf
I0727 22:32:42.924482  5214 net.cpp:100] Creating Layer fc7_mbox_conf
I0727 22:32:42.924487  5214 net.cpp:434] fc7_mbox_conf <- fc7_relu7_0_split_2
I0727 22:32:42.924496  5214 net.cpp:408] fc7_mbox_conf -> fc7_mbox_conf
I0727 22:32:42.958648  5214 net.cpp:150] Setting up fc7_mbox_conf
I0727 22:32:42.958670  5214 net.cpp:157] Top shape: 8 354 19 19 (1022352)
I0727 22:32:42.958673  5214 net.cpp:165] Memory required for data: 2016916576
I0727 22:32:42.958683  5214 layer_factory.hpp:77] Creating layer fc7_mbox_conf_perm
I0727 22:32:42.958693  5214 net.cpp:100] Creating Layer fc7_mbox_conf_perm
I0727 22:32:42.958700  5214 net.cpp:434] fc7_mbox_conf_perm <- fc7_mbox_conf
I0727 22:32:42.958709  5214 net.cpp:408] fc7_mbox_conf_perm -> fc7_mbox_conf_perm
I0727 22:32:42.958818  5214 net.cpp:150] Setting up fc7_mbox_conf_perm
I0727 22:32:42.958825  5214 net.cpp:157] Top shape: 8 19 19 354 (1022352)
I0727 22:32:42.958827  5214 net.cpp:165] Memory required for data: 2021005984
I0727 22:32:42.958828  5214 layer_factory.hpp:77] Creating layer fc7_mbox_conf_flat
I0727 22:32:42.958833  5214 net.cpp:100] Creating Layer fc7_mbox_conf_flat
I0727 22:32:42.958837  5214 net.cpp:434] fc7_mbox_conf_flat <- fc7_mbox_conf_perm
I0727 22:32:42.958842  5214 net.cpp:408] fc7_mbox_conf_flat -> fc7_mbox_conf_flat
I0727 22:32:42.958863  5214 net.cpp:150] Setting up fc7_mbox_conf_flat
I0727 22:32:42.958871  5214 net.cpp:157] Top shape: 8 127794 (1022352)
I0727 22:32:42.958875  5214 net.cpp:165] Memory required for data: 2025095392
I0727 22:32:42.958880  5214 layer_factory.hpp:77] Creating layer fc7_mbox_priorbox
I0727 22:32:42.958904  5214 net.cpp:100] Creating Layer fc7_mbox_priorbox
I0727 22:32:42.958922  5214 net.cpp:434] fc7_mbox_priorbox <- fc7_relu7_0_split_3
I0727 22:32:42.958930  5214 net.cpp:434] fc7_mbox_priorbox <- data_data_0_split_2
I0727 22:32:42.958936  5214 net.cpp:408] fc7_mbox_priorbox -> fc7_mbox_priorbox
I0727 22:32:42.958964  5214 net.cpp:150] Setting up fc7_mbox_priorbox
I0727 22:32:42.958972  5214 net.cpp:157] Top shape: 1 2 8664 (17328)
I0727 22:32:42.958976  5214 net.cpp:165] Memory required for data: 2025164704
I0727 22:32:42.958978  5214 layer_factory.hpp:77] Creating layer conv6_2_mbox_loc
I0727 22:32:42.958988  5214 net.cpp:100] Creating Layer conv6_2_mbox_loc
I0727 22:32:42.958994  5214 net.cpp:434] conv6_2_mbox_loc <- conv6_2_conv6_2_relu_0_split_1
I0727 22:32:42.959002  5214 net.cpp:408] conv6_2_mbox_loc -> conv6_2_mbox_loc
I0727 22:32:42.959902  5214 net.cpp:150] Setting up conv6_2_mbox_loc
I0727 22:32:42.959910  5214 net.cpp:157] Top shape: 8 24 10 10 (19200)
I0727 22:32:42.959914  5214 net.cpp:165] Memory required for data: 2025241504
I0727 22:32:42.959920  5214 layer_factory.hpp:77] Creating layer conv6_2_mbox_loc_perm
I0727 22:32:42.959928  5214 net.cpp:100] Creating Layer conv6_2_mbox_loc_perm
I0727 22:32:42.959931  5214 net.cpp:434] conv6_2_mbox_loc_perm <- conv6_2_mbox_loc
I0727 22:32:42.959938  5214 net.cpp:408] conv6_2_mbox_loc_perm -> conv6_2_mbox_loc_perm
I0727 22:32:42.960007  5214 net.cpp:150] Setting up conv6_2_mbox_loc_perm
I0727 22:32:42.960014  5214 net.cpp:157] Top shape: 8 10 10 24 (19200)
I0727 22:32:42.960017  5214 net.cpp:165] Memory required for data: 2025318304
I0727 22:32:42.960021  5214 layer_factory.hpp:77] Creating layer conv6_2_mbox_loc_flat
I0727 22:32:42.960026  5214 net.cpp:100] Creating Layer conv6_2_mbox_loc_flat
I0727 22:32:42.960031  5214 net.cpp:434] conv6_2_mbox_loc_flat <- conv6_2_mbox_loc_perm
I0727 22:32:42.960036  5214 net.cpp:408] conv6_2_mbox_loc_flat -> conv6_2_mbox_loc_flat
I0727 22:32:42.960057  5214 net.cpp:150] Setting up conv6_2_mbox_loc_flat
I0727 22:32:42.960063  5214 net.cpp:157] Top shape: 8 2400 (19200)
I0727 22:32:42.960067  5214 net.cpp:165] Memory required for data: 2025395104
I0727 22:32:42.960070  5214 layer_factory.hpp:77] Creating layer conv6_2_mbox_conf
I0727 22:32:42.960080  5214 net.cpp:100] Creating Layer conv6_2_mbox_conf
I0727 22:32:42.960088  5214 net.cpp:434] conv6_2_mbox_conf <- conv6_2_conv6_2_relu_0_split_2
I0727 22:32:42.960099  5214 net.cpp:408] conv6_2_mbox_conf -> conv6_2_mbox_conf
I0727 22:32:42.973280  5214 net.cpp:150] Setting up conv6_2_mbox_conf
I0727 22:32:42.973348  5214 net.cpp:157] Top shape: 8 354 10 10 (283200)
I0727 22:32:42.973352  5214 net.cpp:165] Memory required for data: 2026527904
I0727 22:32:42.973368  5214 layer_factory.hpp:77] Creating layer conv6_2_mbox_conf_perm
I0727 22:32:42.973384  5214 net.cpp:100] Creating Layer conv6_2_mbox_conf_perm
I0727 22:32:42.973412  5214 net.cpp:434] conv6_2_mbox_conf_perm <- conv6_2_mbox_conf
I0727 22:32:42.973433  5214 net.cpp:408] conv6_2_mbox_conf_perm -> conv6_2_mbox_conf_perm
I0727 22:32:42.973536  5214 net.cpp:150] Setting up conv6_2_mbox_conf_perm
I0727 22:32:42.973544  5214 net.cpp:157] Top shape: 8 10 10 354 (283200)
I0727 22:32:42.973547  5214 net.cpp:165] Memory required for data: 2027660704
I0727 22:32:42.973551  5214 layer_factory.hpp:77] Creating layer conv6_2_mbox_conf_flat
I0727 22:32:42.973562  5214 net.cpp:100] Creating Layer conv6_2_mbox_conf_flat
I0727 22:32:42.973570  5214 net.cpp:434] conv6_2_mbox_conf_flat <- conv6_2_mbox_conf_perm
I0727 22:32:42.973580  5214 net.cpp:408] conv6_2_mbox_conf_flat -> conv6_2_mbox_conf_flat
I0727 22:32:42.973601  5214 net.cpp:150] Setting up conv6_2_mbox_conf_flat
I0727 22:32:42.973608  5214 net.cpp:157] Top shape: 8 35400 (283200)
I0727 22:32:42.973611  5214 net.cpp:165] Memory required for data: 2028793504
I0727 22:32:42.973616  5214 layer_factory.hpp:77] Creating layer conv6_2_mbox_priorbox
I0727 22:32:42.973623  5214 net.cpp:100] Creating Layer conv6_2_mbox_priorbox
I0727 22:32:42.973629  5214 net.cpp:434] conv6_2_mbox_priorbox <- conv6_2_conv6_2_relu_0_split_3
I0727 22:32:42.973667  5214 net.cpp:434] conv6_2_mbox_priorbox <- data_data_0_split_3
I0727 22:32:42.973677  5214 net.cpp:408] conv6_2_mbox_priorbox -> conv6_2_mbox_priorbox
I0727 22:32:42.973711  5214 net.cpp:150] Setting up conv6_2_mbox_priorbox
I0727 22:32:42.973718  5214 net.cpp:157] Top shape: 1 2 2400 (4800)
I0727 22:32:42.973721  5214 net.cpp:165] Memory required for data: 2028812704
I0727 22:32:42.973726  5214 layer_factory.hpp:77] Creating layer conv7_2_mbox_loc
I0727 22:32:42.973744  5214 net.cpp:100] Creating Layer conv7_2_mbox_loc
I0727 22:32:42.973753  5214 net.cpp:434] conv7_2_mbox_loc <- conv7_2_conv7_2_relu_0_split_1
I0727 22:32:42.973762  5214 net.cpp:408] conv7_2_mbox_loc -> conv7_2_mbox_loc
I0727 22:32:42.974313  5214 net.cpp:150] Setting up conv7_2_mbox_loc
I0727 22:32:42.974320  5214 net.cpp:157] Top shape: 8 24 5 5 (4800)
I0727 22:32:42.974323  5214 net.cpp:165] Memory required for data: 2028831904
I0727 22:32:42.974330  5214 layer_factory.hpp:77] Creating layer conv7_2_mbox_loc_perm
I0727 22:32:42.974337  5214 net.cpp:100] Creating Layer conv7_2_mbox_loc_perm
I0727 22:32:42.974341  5214 net.cpp:434] conv7_2_mbox_loc_perm <- conv7_2_mbox_loc
I0727 22:32:42.974347  5214 net.cpp:408] conv7_2_mbox_loc_perm -> conv7_2_mbox_loc_perm
I0727 22:32:42.974418  5214 net.cpp:150] Setting up conv7_2_mbox_loc_perm
I0727 22:32:42.974426  5214 net.cpp:157] Top shape: 8 5 5 24 (4800)
I0727 22:32:42.974428  5214 net.cpp:165] Memory required for data: 2028851104
I0727 22:32:42.974431  5214 layer_factory.hpp:77] Creating layer conv7_2_mbox_loc_flat
I0727 22:32:42.974438  5214 net.cpp:100] Creating Layer conv7_2_mbox_loc_flat
I0727 22:32:42.974443  5214 net.cpp:434] conv7_2_mbox_loc_flat <- conv7_2_mbox_loc_perm
I0727 22:32:42.974448  5214 net.cpp:408] conv7_2_mbox_loc_flat -> conv7_2_mbox_loc_flat
I0727 22:32:42.974468  5214 net.cpp:150] Setting up conv7_2_mbox_loc_flat
I0727 22:32:42.974475  5214 net.cpp:157] Top shape: 8 600 (4800)
I0727 22:32:42.974479  5214 net.cpp:165] Memory required for data: 2028870304
I0727 22:32:42.974483  5214 layer_factory.hpp:77] Creating layer conv7_2_mbox_conf
I0727 22:32:42.974491  5214 net.cpp:100] Creating Layer conv7_2_mbox_conf
I0727 22:32:42.974496  5214 net.cpp:434] conv7_2_mbox_conf <- conv7_2_conv7_2_relu_0_split_2
I0727 22:32:42.974503  5214 net.cpp:408] conv7_2_mbox_conf -> conv7_2_mbox_conf
I0727 22:32:42.982806  5214 net.cpp:150] Setting up conv7_2_mbox_conf
I0727 22:32:42.982913  5214 net.cpp:157] Top shape: 8 354 5 5 (70800)
I0727 22:32:42.982929  5214 net.cpp:165] Memory required for data: 2029153504
I0727 22:32:42.982973  5214 layer_factory.hpp:77] Creating layer conv7_2_mbox_conf_perm
I0727 22:32:42.983028  5214 net.cpp:100] Creating Layer conv7_2_mbox_conf_perm
I0727 22:32:42.983103  5214 net.cpp:434] conv7_2_mbox_conf_perm <- conv7_2_mbox_conf
I0727 22:32:42.983157  5214 net.cpp:408] conv7_2_mbox_conf_perm -> conv7_2_mbox_conf_perm
I0727 22:32:42.983487  5214 net.cpp:150] Setting up conv7_2_mbox_conf_perm
I0727 22:32:42.983516  5214 net.cpp:157] Top shape: 8 5 5 354 (70800)
I0727 22:32:42.983528  5214 net.cpp:165] Memory required for data: 2029436704
I0727 22:32:42.983534  5214 layer_factory.hpp:77] Creating layer conv7_2_mbox_conf_flat
I0727 22:32:42.983553  5214 net.cpp:100] Creating Layer conv7_2_mbox_conf_flat
I0727 22:32:42.983568  5214 net.cpp:434] conv7_2_mbox_conf_flat <- conv7_2_mbox_conf_perm
I0727 22:32:42.983588  5214 net.cpp:408] conv7_2_mbox_conf_flat -> conv7_2_mbox_conf_flat
I0727 22:32:42.983705  5214 net.cpp:150] Setting up conv7_2_mbox_conf_flat
I0727 22:32:42.983724  5214 net.cpp:157] Top shape: 8 8850 (70800)
I0727 22:32:42.983733  5214 net.cpp:165] Memory required for data: 2029719904
I0727 22:32:42.983741  5214 layer_factory.hpp:77] Creating layer conv7_2_mbox_priorbox
I0727 22:32:42.983764  5214 net.cpp:100] Creating Layer conv7_2_mbox_priorbox
I0727 22:32:42.983778  5214 net.cpp:434] conv7_2_mbox_priorbox <- conv7_2_conv7_2_relu_0_split_3
I0727 22:32:42.983804  5214 net.cpp:434] conv7_2_mbox_priorbox <- data_data_0_split_4
I0727 22:32:42.983829  5214 net.cpp:408] conv7_2_mbox_priorbox -> conv7_2_mbox_priorbox
I0727 22:32:42.983981  5214 net.cpp:150] Setting up conv7_2_mbox_priorbox
I0727 22:32:42.984010  5214 net.cpp:157] Top shape: 1 2 600 (1200)
I0727 22:32:42.984019  5214 net.cpp:165] Memory required for data: 2029724704
I0727 22:32:42.984028  5214 layer_factory.hpp:77] Creating layer conv8_2_mbox_loc
I0727 22:32:42.984071  5214 net.cpp:100] Creating Layer conv8_2_mbox_loc
I0727 22:32:42.984108  5214 net.cpp:434] conv8_2_mbox_loc <- conv8_2_conv8_2_relu_0_split_1
I0727 22:32:42.984133  5214 net.cpp:408] conv8_2_mbox_loc -> conv8_2_mbox_loc
I0727 22:32:42.984866  5214 net.cpp:150] Setting up conv8_2_mbox_loc
I0727 22:32:42.984874  5214 net.cpp:157] Top shape: 8 16 3 3 (1152)
I0727 22:32:42.984879  5214 net.cpp:165] Memory required for data: 2029729312
I0727 22:32:42.984895  5214 layer_factory.hpp:77] Creating layer conv8_2_mbox_loc_perm
I0727 22:32:42.984900  5214 net.cpp:100] Creating Layer conv8_2_mbox_loc_perm
I0727 22:32:42.984905  5214 net.cpp:434] conv8_2_mbox_loc_perm <- conv8_2_mbox_loc
I0727 22:32:42.984912  5214 net.cpp:408] conv8_2_mbox_loc_perm -> conv8_2_mbox_loc_perm
I0727 22:32:42.984973  5214 net.cpp:150] Setting up conv8_2_mbox_loc_perm
I0727 22:32:42.984979  5214 net.cpp:157] Top shape: 8 3 3 16 (1152)
I0727 22:32:42.984983  5214 net.cpp:165] Memory required for data: 2029733920
I0727 22:32:42.984988  5214 layer_factory.hpp:77] Creating layer conv8_2_mbox_loc_flat
I0727 22:32:42.984999  5214 net.cpp:100] Creating Layer conv8_2_mbox_loc_flat
I0727 22:32:42.985004  5214 net.cpp:434] conv8_2_mbox_loc_flat <- conv8_2_mbox_loc_perm
I0727 22:32:42.985013  5214 net.cpp:408] conv8_2_mbox_loc_flat -> conv8_2_mbox_loc_flat
I0727 22:32:42.985030  5214 net.cpp:150] Setting up conv8_2_mbox_loc_flat
I0727 22:32:42.985036  5214 net.cpp:157] Top shape: 8 144 (1152)
I0727 22:32:42.985040  5214 net.cpp:165] Memory required for data: 2029738528
I0727 22:32:42.985045  5214 layer_factory.hpp:77] Creating layer conv8_2_mbox_conf
I0727 22:32:42.985060  5214 net.cpp:100] Creating Layer conv8_2_mbox_conf
I0727 22:32:42.985064  5214 net.cpp:434] conv8_2_mbox_conf <- conv8_2_conv8_2_relu_0_split_2
I0727 22:32:42.985074  5214 net.cpp:408] conv8_2_mbox_conf -> conv8_2_mbox_conf
I0727 22:32:42.991144  5214 net.cpp:150] Setting up conv8_2_mbox_conf
I0727 22:32:42.991363  5214 net.cpp:157] Top shape: 8 236 3 3 (16992)
I0727 22:32:42.991384  5214 net.cpp:165] Memory required for data: 2029806496
I0727 22:32:42.991411  5214 layer_factory.hpp:77] Creating layer conv8_2_mbox_conf_perm
I0727 22:32:42.991479  5214 net.cpp:100] Creating Layer conv8_2_mbox_conf_perm
I0727 22:32:42.991497  5214 net.cpp:434] conv8_2_mbox_conf_perm <- conv8_2_mbox_conf
I0727 22:32:42.991515  5214 net.cpp:408] conv8_2_mbox_conf_perm -> conv8_2_mbox_conf_perm
I0727 22:32:42.991647  5214 net.cpp:150] Setting up conv8_2_mbox_conf_perm
I0727 22:32:42.991654  5214 net.cpp:157] Top shape: 8 3 3 236 (16992)
I0727 22:32:42.991658  5214 net.cpp:165] Memory required for data: 2029874464
I0727 22:32:42.991663  5214 layer_factory.hpp:77] Creating layer conv8_2_mbox_conf_flat
I0727 22:32:42.991670  5214 net.cpp:100] Creating Layer conv8_2_mbox_conf_flat
I0727 22:32:42.991675  5214 net.cpp:434] conv8_2_mbox_conf_flat <- conv8_2_mbox_conf_perm
I0727 22:32:42.991683  5214 net.cpp:408] conv8_2_mbox_conf_flat -> conv8_2_mbox_conf_flat
I0727 22:32:42.991706  5214 net.cpp:150] Setting up conv8_2_mbox_conf_flat
I0727 22:32:42.991714  5214 net.cpp:157] Top shape: 8 2124 (16992)
I0727 22:32:42.991716  5214 net.cpp:165] Memory required for data: 2029942432
I0727 22:32:42.991721  5214 layer_factory.hpp:77] Creating layer conv8_2_mbox_priorbox
I0727 22:32:42.991732  5214 net.cpp:100] Creating Layer conv8_2_mbox_priorbox
I0727 22:32:42.991739  5214 net.cpp:434] conv8_2_mbox_priorbox <- conv8_2_conv8_2_relu_0_split_3
I0727 22:32:42.991745  5214 net.cpp:434] conv8_2_mbox_priorbox <- data_data_0_split_5
I0727 22:32:42.991753  5214 net.cpp:408] conv8_2_mbox_priorbox -> conv8_2_mbox_priorbox
I0727 22:32:42.991850  5214 net.cpp:150] Setting up conv8_2_mbox_priorbox
I0727 22:32:42.991899  5214 net.cpp:157] Top shape: 1 2 144 (288)
I0727 22:32:42.991910  5214 net.cpp:165] Memory required for data: 2029943584
I0727 22:32:42.991921  5214 layer_factory.hpp:77] Creating layer conv9_2_mbox_loc
I0727 22:32:42.991946  5214 net.cpp:100] Creating Layer conv9_2_mbox_loc
I0727 22:32:42.991957  5214 net.cpp:434] conv9_2_mbox_loc <- conv9_2_conv9_2_relu_0_split_0
I0727 22:32:42.991972  5214 net.cpp:408] conv9_2_mbox_loc -> conv9_2_mbox_loc
I0727 22:32:42.992440  5214 net.cpp:150] Setting up conv9_2_mbox_loc
I0727 22:32:42.992449  5214 net.cpp:157] Top shape: 8 16 1 1 (128)
I0727 22:32:42.992451  5214 net.cpp:165] Memory required for data: 2029944096
I0727 22:32:42.992457  5214 layer_factory.hpp:77] Creating layer conv9_2_mbox_loc_perm
I0727 22:32:42.992465  5214 net.cpp:100] Creating Layer conv9_2_mbox_loc_perm
I0727 22:32:42.992470  5214 net.cpp:434] conv9_2_mbox_loc_perm <- conv9_2_mbox_loc
I0727 22:32:42.992475  5214 net.cpp:408] conv9_2_mbox_loc_perm -> conv9_2_mbox_loc_perm
I0727 22:32:42.992561  5214 net.cpp:150] Setting up conv9_2_mbox_loc_perm
I0727 22:32:42.992568  5214 net.cpp:157] Top shape: 8 1 1 16 (128)
I0727 22:32:42.992570  5214 net.cpp:165] Memory required for data: 2029944608
I0727 22:32:42.992573  5214 layer_factory.hpp:77] Creating layer conv9_2_mbox_loc_flat
I0727 22:32:42.992580  5214 net.cpp:100] Creating Layer conv9_2_mbox_loc_flat
I0727 22:32:42.992585  5214 net.cpp:434] conv9_2_mbox_loc_flat <- conv9_2_mbox_loc_perm
I0727 22:32:42.992590  5214 net.cpp:408] conv9_2_mbox_loc_flat -> conv9_2_mbox_loc_flat
I0727 22:32:42.992611  5214 net.cpp:150] Setting up conv9_2_mbox_loc_flat
I0727 22:32:42.992617  5214 net.cpp:157] Top shape: 8 16 (128)
I0727 22:32:42.992621  5214 net.cpp:165] Memory required for data: 2029945120
I0727 22:32:42.992625  5214 layer_factory.hpp:77] Creating layer conv9_2_mbox_conf
I0727 22:32:42.992635  5214 net.cpp:100] Creating Layer conv9_2_mbox_conf
I0727 22:32:42.992640  5214 net.cpp:434] conv9_2_mbox_conf <- conv9_2_conv9_2_relu_0_split_1
I0727 22:32:42.992647  5214 net.cpp:408] conv9_2_mbox_conf -> conv9_2_mbox_conf
I0727 22:32:42.997438  5214 net.cpp:150] Setting up conv9_2_mbox_conf
I0727 22:32:42.997454  5214 net.cpp:157] Top shape: 8 236 1 1 (1888)
I0727 22:32:42.997457  5214 net.cpp:165] Memory required for data: 2029952672
I0727 22:32:42.997467  5214 layer_factory.hpp:77] Creating layer conv9_2_mbox_conf_perm
I0727 22:32:42.997475  5214 net.cpp:100] Creating Layer conv9_2_mbox_conf_perm
I0727 22:32:42.997483  5214 net.cpp:434] conv9_2_mbox_conf_perm <- conv9_2_mbox_conf
I0727 22:32:42.997491  5214 net.cpp:408] conv9_2_mbox_conf_perm -> conv9_2_mbox_conf_perm
I0727 22:32:42.997596  5214 net.cpp:150] Setting up conv9_2_mbox_conf_perm
I0727 22:32:42.997606  5214 net.cpp:157] Top shape: 8 1 1 236 (1888)
I0727 22:32:42.997608  5214 net.cpp:165] Memory required for data: 2029960224
I0727 22:32:42.997612  5214 layer_factory.hpp:77] Creating layer conv9_2_mbox_conf_flat
I0727 22:32:42.997619  5214 net.cpp:100] Creating Layer conv9_2_mbox_conf_flat
I0727 22:32:42.997624  5214 net.cpp:434] conv9_2_mbox_conf_flat <- conv9_2_mbox_conf_perm
I0727 22:32:42.997630  5214 net.cpp:408] conv9_2_mbox_conf_flat -> conv9_2_mbox_conf_flat
I0727 22:32:42.997651  5214 net.cpp:150] Setting up conv9_2_mbox_conf_flat
I0727 22:32:42.997659  5214 net.cpp:157] Top shape: 8 236 (1888)
I0727 22:32:42.997663  5214 net.cpp:165] Memory required for data: 2029967776
I0727 22:32:42.997666  5214 layer_factory.hpp:77] Creating layer conv9_2_mbox_priorbox
I0727 22:32:42.997673  5214 net.cpp:100] Creating Layer conv9_2_mbox_priorbox
I0727 22:32:42.997678  5214 net.cpp:434] conv9_2_mbox_priorbox <- conv9_2_conv9_2_relu_0_split_2
I0727 22:32:42.997684  5214 net.cpp:434] conv9_2_mbox_priorbox <- data_data_0_split_6
I0727 22:32:42.997689  5214 net.cpp:408] conv9_2_mbox_priorbox -> conv9_2_mbox_priorbox
I0727 22:32:42.997717  5214 net.cpp:150] Setting up conv9_2_mbox_priorbox
I0727 22:32:42.997725  5214 net.cpp:157] Top shape: 1 2 16 (32)
I0727 22:32:42.997745  5214 net.cpp:165] Memory required for data: 2029967904
I0727 22:32:42.997748  5214 layer_factory.hpp:77] Creating layer mbox_loc
I0727 22:32:42.997759  5214 net.cpp:100] Creating Layer mbox_loc
I0727 22:32:42.997767  5214 net.cpp:434] mbox_loc <- conv4_3_norm_mbox_loc_flat
I0727 22:32:42.997776  5214 net.cpp:434] mbox_loc <- fc7_mbox_loc_flat
I0727 22:32:42.997782  5214 net.cpp:434] mbox_loc <- conv6_2_mbox_loc_flat
I0727 22:32:42.997788  5214 net.cpp:434] mbox_loc <- conv7_2_mbox_loc_flat
I0727 22:32:42.997793  5214 net.cpp:434] mbox_loc <- conv8_2_mbox_loc_flat
I0727 22:32:42.997798  5214 net.cpp:434] mbox_loc <- conv9_2_mbox_loc_flat
I0727 22:32:42.997803  5214 net.cpp:408] mbox_loc -> mbox_loc
I0727 22:32:42.997834  5214 net.cpp:150] Setting up mbox_loc
I0727 22:32:42.997841  5214 net.cpp:157] Top shape: 8 34928 (279424)
I0727 22:32:42.997843  5214 net.cpp:165] Memory required for data: 2031085600
I0727 22:32:42.997848  5214 layer_factory.hpp:77] Creating layer mbox_conf
I0727 22:32:42.997851  5214 net.cpp:100] Creating Layer mbox_conf
I0727 22:32:42.997859  5214 net.cpp:434] mbox_conf <- conv4_3_norm_mbox_conf_flat
I0727 22:32:42.997864  5214 net.cpp:434] mbox_conf <- fc7_mbox_conf_flat
I0727 22:32:42.997869  5214 net.cpp:434] mbox_conf <- conv6_2_mbox_conf_flat
I0727 22:32:42.997872  5214 net.cpp:434] mbox_conf <- conv7_2_mbox_conf_flat
I0727 22:32:42.997877  5214 net.cpp:434] mbox_conf <- conv8_2_mbox_conf_flat
I0727 22:32:42.997882  5214 net.cpp:434] mbox_conf <- conv9_2_mbox_conf_flat
I0727 22:32:42.997887  5214 net.cpp:408] mbox_conf -> mbox_conf
I0727 22:32:42.997910  5214 net.cpp:150] Setting up mbox_conf
I0727 22:32:42.997917  5214 net.cpp:157] Top shape: 8 515188 (4121504)
I0727 22:32:42.997920  5214 net.cpp:165] Memory required for data: 2047571616
I0727 22:32:42.997923  5214 layer_factory.hpp:77] Creating layer mbox_priorbox
I0727 22:32:42.997928  5214 net.cpp:100] Creating Layer mbox_priorbox
I0727 22:32:42.997933  5214 net.cpp:434] mbox_priorbox <- conv4_3_norm_mbox_priorbox
I0727 22:32:42.997938  5214 net.cpp:434] mbox_priorbox <- fc7_mbox_priorbox
I0727 22:32:42.997942  5214 net.cpp:434] mbox_priorbox <- conv6_2_mbox_priorbox
I0727 22:32:42.997946  5214 net.cpp:434] mbox_priorbox <- conv7_2_mbox_priorbox
I0727 22:32:42.997953  5214 net.cpp:434] mbox_priorbox <- conv8_2_mbox_priorbox
I0727 22:32:42.997961  5214 net.cpp:434] mbox_priorbox <- conv9_2_mbox_priorbox
I0727 22:32:42.997966  5214 net.cpp:408] mbox_priorbox -> mbox_priorbox
I0727 22:32:42.997987  5214 net.cpp:150] Setting up mbox_priorbox
I0727 22:32:42.997993  5214 net.cpp:157] Top shape: 1 2 34928 (69856)
I0727 22:32:42.997997  5214 net.cpp:165] Memory required for data: 2047851040
I0727 22:32:42.998000  5214 layer_factory.hpp:77] Creating layer mbox_loss
I0727 22:32:42.998013  5214 net.cpp:100] Creating Layer mbox_loss
I0727 22:32:42.998019  5214 net.cpp:434] mbox_loss <- mbox_loc
I0727 22:32:42.998024  5214 net.cpp:434] mbox_loss <- mbox_conf
I0727 22:32:42.998028  5214 net.cpp:434] mbox_loss <- mbox_priorbox
…
  phase: TEST
}
layer {
  name: "data"
  type: "AnnotatedData"
  top: "data"
  top: "label"
  include {
    phase: TEST
  }
  transform_param {
    mean_value: 104
    mean_value: 117
    mean_value: 123
    resize_param {
      prob: 1
      resize_mode: WARP
      height: 300
      width: 300
      interp_mode: LINEAR
    }
  }
  data_param {
    source: "data/SHOPPE_2017/lmdb/SHOPPE_2017_test_lmdb"
    batch_size: 8
    backend: LMDB
  }
  annotated_data_param {
    batch_sampler {
    }
    label_map_file: "data/SHOPPE_2017/labelmap_voc.prototxt"
  }
}
layer {
  name: "conv1_1"
  type: "Convolution"
  bottom: "data"
  top: "conv1_1"
  param {
    lr_mult: 1
    decay_mult: 1
  }
  param {
    lr_mult: 2
    decay_mult: 0
  }
  convolution_param {
    num_output: 64
    pad: 1
    kernel_size: 3
    weight_filler {
      type: "xavier"
    }
    bias_filler {
      type: "constant"
      value: 0
    }
  }
}
layer {
  name: "relu1_1"
  type: "ReLU"
  bottom: "conv1_1"
  top: "conv1_1"
}
layer {
  name: "conv1_2"
  type: "Convolution"
  bottom: "conv1_1"
  top: "conv1_2"
  param {
    lr_mult: 1
    decay_mult: 1
  }
  param {
    lr_mult: 2
    decay_mult: 0
  }
  convolution_param {
    num_output: 64
    pad: 1
    kernel_size: 3
    weight_filler {
      type: "xavier"
    }
    bias_filler {
      type: "constant"
      value: 0
    }
  }
}
layer {
  name: "relu1_2"
  type: "ReLU"
  bottom: "conv1_2"
  top: "conv1_2"
}
layer {
  name: "pool1"
  type: "Pooling"
  bottom: "conv1_2"
  top: "pool1"
  pooling_param {
    pool: MAX
    kernel_size: 2
    stride: 2
  }
}
layer {
  name: "conv2_1"
  type: "Convolution"
  bottom: "pool1"
  top: "conv2_1"
  param {
    lr_mult: 1
    decay_mult: 1
  }
  param {
    lr_mult: 2
    decay_mult: 0
  }
  convolution_param {
    num_output: 128
    pad: 1
    kernel_size: 3
    weight_filler {
      type: "xavier"
    }
    bias_filler {
      type: "constant"
      value: 0
    }
  }
}
layer {
  name: "relu2_1"
  type: "ReLU"
  bottom: "conv2_1"
  top: "conv2_1"
}
layer {
  name: "conv2_2"
  type: "Convolution"
  bottom: "conv2_1"
  top: "conv2_2"
  param {
    lr_mult: 1
    decay_mult: 1
  }
  param {
    lr_mult: 2
    decay_mult: 0
  }
  convolution_param {
    num_output: 128
    pad: 1
    kernel_size: 3
    weight_filler {
      type: "xavier"
    }
    bias_filler {
      type: "constant"
      value: 0
    }
  }
}
layer {
  name: "relu2_2"
  type: "ReLU"
  bottom: "conv2_2"
  top: "conv2_2"
}
layer {
  name: "pool2"
  type: "Pooling"
  bottom: "conv2_2"
  top: "pool2"
  pooling_param {
    pool: MAX
    kernel_size: 2
    stride: 2
  }
}
layer {
  name: "conv3_1"
  type: "Convolution"
  bottom: "pool2"
  top: "conv3_1"
  param {
    lr_mult: 1
    decay_mult: 1
  }
  param {
    lr_mult: 2
    decay_mult: 0
  }
  convolution_param {
    num_output: 256
    pad: 1
    kernel_size: 3
    weight_filler {
      type: "xavier"
    }
    bias_filler {
      type: "constant"
      value: 0
    }
  }
}
layer {
  name: "relu3_1"
  type: "ReLU"
  bottom: "conv3_1"
  top: "conv3_1"
}
layer {
  name: "conv3_2"
  type: "Convolution"
  bottom: "conv3_1"
  top: "conv3_2"
  param {
    lr_mult: 1
    decay_mult: 1
  }
  param {
    lr_mult: 2
    decay_mult: 0
  }
  convolution_param {
    num_output: 256
    pad: 1
    kernel_size: 3
    weight_filler {
      type: "xavier"
    }
    bias_filler {
      type: "constant"
      value: 0
    }
  }
}
layer {
  name: "relu3_2"
  type: "ReLU"
  bottom: "conv3_2"
  top: "conv3_2"
}
layer {
  name: "conv3_3"
  type: "Convolution"
  bottom: "conv3_2"
  top: "conv3_3"
  param {
    lr_mult: 1
    decay_mult: 1
  }
  param {
    lr_mult: 2
    decay_mult: 0
  }
  convolution_param {
    num_output: 256
    pad: 1
    kernel_size: 3
    weight_filler {
      type: "xavier"
    }
    bias_filler {
      type: "constant"
      value: 0
    }
  }
}
layer {
  name: "relu3_3"
  type: "ReLU"
  bottom: "conv3_3"
  top: "conv3_3"
}
layer {
  name: "pool3"
  type: "Pooling"
  bottom: "conv3_3"
  top: "pool3"
  pooling_param {
    pool: MAX
    kernel_size: 2
    stride: 2
  }
}
layer {
  name: "conv4_1"
  type: "Convolution"
  bottom: "pool3"
  top: "conv4_1"
  param {
    lr_mult: 1
    decay_mult: 1
  }
  param {
    lr_mult: 2
    decay_mult: 0
  }
  convolution_param {
    num_output: 512
    pad: 1
    kernel_size: 3
    weight_filler {
      type: "xavier"
    }
    bias_filler {
      type: "constant"
      value: 0
    }
  }
}
layer {
  name: "relu4_1"
  type: "ReLU"
  bottom: "conv4_1"
  top: "conv4_1"
}
layer {
  name: "conv4_2"
  type: "Convolution"
  bottom: "conv4_1"
  top: "conv4_2"
  param {
    lr_mult: 1
    decay_mult: 1
  }
  param {
    lr_mult: 2
    decay_mult: 0
  }
  convolution_param {
    num_output: 512
    pad: 1
    kernel_size: 3
    weight_filler {
      type: "xavier"
    }
    bias_filler {
      type: "constant"
      value: 0
    }
  }
}
layer {
  name: "relu4_2"
  type: "ReLU"
  bottom: "conv4_2"
  top: "conv4_2"
}
layer {
  name: "conv4_3"
  type: "Convolution"
  bottom: "conv4_2"
  top: "conv4_3"
  param {
    lr_mult: 1
    decay_mult: 1
  }
  param {
    lr_mult: 2
    decay_mult: 0
  }
  convolution_param {
    num_output: 512
    pad: 1
    kernel_size: 3
    weight_filler {
      type: "xavier"
    }
    bias_filler {
      type: "constant"
      value: 0
    }
  }
}
layer {
  name: "relu4_3"
  type: "ReLU"
  bottom: "conv4_3"
  top: "conv4_3"
}
layer {
  name: "pool4"
  type: "Pooling"
  bottom: "conv4_3"
  top: "pool4"
  pooling_param {
    pool: MAX
    kernel_size: 2
    stride: 2
  }
}
layer {
  name: "conv5_1"
  type: "Convolution"
  bottom: "pool4"
  top: "conv5_1"
  param {
    lr_mult: 1
    decay_mult: 1
  }
  param {
    lr_mult: 2
    decay_mult: 0
  }
  convolution_param {
    num_output: 512
    pad: 1
    kernel_size: 3
    weight_filler {
      type: "xavier"
    }
    bias_filler {
      type: "constant"
      value: 0
    }
    dilation: 1
  }
}
layer {
  name: "relu5_1"
  type: "ReLU"
  bottom: "conv5_1"
  top: "conv5_1"
}
layer {
  name: "conv5_2"
  type: "Convolution"
  bottom: "conv5_1"
  top: "conv5_2"
  param {
    lr_mult: 1
    decay_mult: 1
  }
  param {
    lr_mult: 2
    decay_mult: 0
  }
  convolution_param {
    num_output: 512
    pad: 1
    kernel_size: 3
    weight_filler {
      type: "xavier"
    }
    bias_filler {
      type: "constant"
      value: 0
    }
    dilation: 1
  }
}
layer {
  name: "relu5_2"
  type: "ReLU"
  bottom: "conv5_2"
  top: "conv5_2"
}
layer {
  name: "conv5_3"
  type: "Convolution"
  bottom: "conv5_2"
  top: "conv5_3"
  param {
    lr_mult: 1
    decay_mult: 1
  }
  param {
    lr_mult: 2
    decay_mult: 0
  }
  convolution_param {
    num_output: 512
    pad: 1
    kernel_size: 3
    weight_filler {
      type: "xavier"
    }
    bias_filler {
      type: "constant"
      value: 0
    }
    dilation: 1
  }
}
layer {
  name: "relu5_3"
  type: "ReLU"
  bottom: "conv5_3"
  top: "conv5_3"
}
layer {
  name: "pool5"
  type: "Pooling"
  bottom: "conv5_3"
  top: "pool5"
  pooling_param {
    pool: MAX
    kernel_size: 3
    stride: 1
    pad: 1
  }
}
layer {
  name: "fc6"
  type: "Convolution"
  bottom: "pool5"
  top: "fc6"
  param {
    lr_mult: 1
    decay_mult: 1
  }
  param {
    lr_mult: 2
    decay_mult: 0
  }
  convolution_param {
    num_output: 1024
    pad: 6
    kernel_size: 3
    weight_filler {
      type: "xavier"
    }
    bias_filler {
      type: "constant"
      value: 0
    }
    dilation: 6
  }
}
layer {
  name: "relu6"
  type: "ReLU"
  bottom: "fc6"
  top: "fc6"
}
layer {
  name: "fc7"
  type: "Convolution"
  bottom: "fc6"
  top: "fc7"
  param {
    lr_mult: 1
    decay_mult: 1
  }
  param {
    lr_mult: 2
    decay_mult: 0
  }
  convolution_param {
    num_output: 1024
    kernel_size: 1
    weight_filler {
      type: "xavier"
    }
    bias_filler {
      type: "constant"
      value: 0
    }
  }
}
layer {
  name: "relu7"
  type: "ReLU"
  bottom: "fc7"
  top: "fc7"
}
layer {
  name: "conv6_1"
  type: "Convolution"
  bottom: "fc7"
  top: "conv6_1"
  param {
    lr_mult: 1
    decay_mult: 1
  }
  param {
    lr_mult: 2
    decay_mult: 0
  }
  convolution_param {
    num_output: 256
    pad: 0
    kernel_size: 1
    stride: 1
    weight_filler {
      type: "xavier"
    }
    bias_filler {
      type: "constant"
      value: 0
    }
  }
}
layer {
  name: "conv6_1_relu"
  type: "ReLU"
  bottom: "conv6_1"
  top: "conv6_1"
}
layer {
  name: "conv6_2"
  type: "Convolution"
  bottom: "conv6_1"
  top: "conv6_2"
  param {
    lr_mult: 1
    decay_mult: 1
  }
  param {
    lr_mult: 2
    decay_mult: 0
  }
  convolution_param {
    num_output: 512
    pad: 1
    kernel_size: 3
    stride: 2
    weight_filler {
      type: "xavier"
    }
    bias_filler {
      type: "constant"
      value: 0
    }
  }
}
layer {
  name: "conv6_2_relu"
  type: "ReLU"
  bottom: "conv6_2"
  top: "conv6_2"
}
layer {
  name: "conv7_1"
  type: "Convolution"
  bottom: "conv6_2"
  top: "conv7_1"
  param {
    lr_mult: 1
    decay_mult: 1
  }
  param {
    lr_mult: 2
    decay_mult: 0
  }
  convolution_param {
    num_output: 128
    pad: 0
    kernel_size: 1
    stride: 1
    weight_filler {
      type: "xavier"
    }
    bias_filler {
      type: "constant"
      value: 0
    }
  }
}
layer {
  name: "conv7_1_relu"
  type: "ReLU"
  bottom: "conv7_1"
  top: "conv7_1"
}
layer {
  name: "conv7_2"
  type: "Convolution"
  bottom: "conv7_1"
  top: "conv7_2"
  param {
    lr_mult: 1
    decay_mult: 1
  }
  param {
    lr_mult: 2
    decay_mult: 0
  }
  convolution_param {
    num_output: 256
    pad: 1
    kernel_size: 3
    stride: 2
    weight_filler {
      type: "xavier"
    }
    bias_filler {
      type: "constant"
      value: 0
    }
  }
}
layer {
  name: "conv7_2_relu"
  type: "ReLU"
  bottom: "conv7_2"
  top: "conv7_2"
}
layer {
  name: "conv8_1"
  type: "Convolution"
  bottom: "conv7_2"
  top: "conv8_1"
  param {
    lr_mult: 1
    decay_mult: 1
  }
  param {
    lr_mult: 2
    decay_mult: 0
  }
  convolution_param {
    num_output: 128
    pad: 0
    kernel_size: 1
    stride: 1
    weight_filler {
      type: "xavier"
    }
    bias_filler {
      type: "constant"
      value: 0
    }
  }
}
layer {
  name: "conv8_1_relu"
  type: "ReLU"
  bottom: "conv8_1"
  top: "conv8_1"
}
layer {
  name: "conv8_2"
  type: "Convolution"
  bottom: "conv8_1"
  top: "conv8_2"
  param {
    lr_mult: 1
    decay_mult: 1
  }
  param {
    lr_mult: 2
    decay_mult: 0
  }
  convolution_param {
    num_output: 256
    pad: 0
    kernel_size: 3
    stride: 1
    weight_filler {
      type: "xavier"
    }
    bias_filler {
      type: "constant"
      value: 0
    }
  }
}
layer {
  name: "conv8_2_relu"
  type: "ReLU"
  bottom: "conv8_2"
  top: "conv8_2"
}
layer {
  name: "conv9_1"
  type: "Convolution"
  bottom: "conv8_2"
  top: "conv9_1"
  param {
    lr_mult: 1
    decay_mult: 1
  }
  param {
    lr_mult: 2
    decay_mult: 0
  }
  convolution_param {
    num_output: 128
    pad: 0
    kernel_size: 1
    stride: 1
    weight_filler {
      type: "xavier"
    }
    bias_filler {
      type: "constant"
      value: 0
    }
  }
}
layer {
  name: "conv9_1_relu"
  type: "ReLU"
  bottom: "conv9_1"
  top: "conv9_1"
}
layer {
  name: "conv9_2"
  type: "Convolution"
  bottom: "conv9_1"
  top: "conv9_2"
  param {
    lr_mult: 1
    decay_mult: 1
  }
  param {
    lr_mult: 2
    decay_mult: 0
  }
  convolution_param {
    num_output: 256
    pad: 0
    kernel_size: 3
    stride: 1
    weight_filler {
      type: "xavier"
    }
    bias_filler {
      type: "constant"
      value: 0
    }
  }
}
layer {
  name: "conv9_2_relu"
  type: "ReLU"
  bottom: "conv9_2"
  top: "conv9_2"
}
layer {
  name: "conv4_3_norm"
  type: "Normalize"
  bottom: "conv4_3"
  top: "conv4_3_norm"
  norm_param {
    across_spatial: false
    scale_filler {
      type: "constant"
      value: 20
    }
    channel_shared: false
  }
}
layer {
  name: "conv4_3_norm_mbox_loc"
  type: "Convolution"
  bottom: "conv4_3_norm"
  top: "conv4_3_norm_mbox_loc"
  param {
    lr_mult: 1
    decay_mult: 1
  }
  param {
    lr_mult: 2
    decay_mult: 0
  }
  convolution_param {
    num_output: 16
    pad: 1
    kernel_size: 3
    stride: 1
    weight_filler {
      type: "xavier"
    }
    bias_filler {
      type: "constant"
      value: 0
    }
  }
}
layer {
  name: "conv4_3_norm_mbox_loc_perm"
  type: "Permute"
  bottom: "conv4_3_norm_mbox_loc"
  top: "conv4_3_norm_mbox_loc_perm"
  permute_param {
    order: 0
    order: 2
    order: 3
    order: 1
  }
}
layer {
  name: "conv4_3_norm_mbox_loc_flat"
  type: "Flatten"
  bottom: "conv4_3_norm_mbox_loc_perm"
  top: "conv4_3_norm_mbox_loc_flat"
  flatten_param {
    axis: 1
  }
}
layer {
  name: "conv4_3_norm_mbox_conf"
  type: "Convolution"
  bottom: "conv4_3_norm"
  top: "conv4_3_norm_mbox_conf"
  param {
    lr_mult: 1
    decay_mult: 1
  }
  param {
    lr_mult: 2
    decay_mult: 0
  }
  convolution_param {
    num_output: 236
    pad: 1
    kernel_size: 3
    stride: 1
    weight_filler {
      type: "xavier"
    }
    bias_filler {
      type: "constant"
      value: 0
    }
  }
}
layer {
  name: "conv4_3_norm_mbox_conf_perm"
  type: "Permute"
  bottom: "conv4_3_norm_mbox_conf"
  top: "conv4_3_norm_mbox_conf_perm"
  permute_param {
    order: 0
    order: 2
    order: 3
    order: 1
  }
}
layer {
  name: "conv4_3_norm_mbox_conf_flat"
  type: "Flatten"
  bottom: "conv4_3_norm_mbox_conf_perm"
  top: "conv4_3_norm_mbox_conf_flat"
  flatten_param {
    axis: 1
  }
}
layer {
  name: "conv4_3_norm_mbox_priorbox"
  type: "PriorBox"
  bottom: "conv4_3_norm"
  bottom: "data"
  top: "conv4_3_norm_mbox_priorbox"
  prior_box_param {
    min_size: 30
    max_size: 60
    aspect_ratio: 2
    flip: true
    clip: false
    variance: 0.1
    variance: 0.1
    variance: 0.2
    variance: 0.2
    step: 8
    offset: 0.5
  }
}
layer {
  name: "fc7_mbox_loc"
  type: "Convolution"
  bottom: "fc7"
  top: "fc7_mbox_loc"
  param {
    lr_mult: 1
    decay_mult: 1
  }
  param {
    lr_mult: 2
    decay_mult: 0
  }
  convolution_param {
    num_output: 24
    pad: 1
    kernel_size: 3
    stride: 1
    weight_filler {
      type: "xavier"
    }
    bias_filler {
      type: "constant"
      value: 0
    }
  }
}
layer {
  name: "fc7_mbox_loc_perm"
  type: "Permute"
  bottom: "fc7_mbox_loc"
  top: "fc7_mbox_loc_perm"
  permute_param {
    order: 0
    order: 2
    order: 3
    order: 1
  }
}
layer {
  name: "fc7_mbox_loc_flat"
  type: "Flatten"
  bottom: "fc7_mbox_loc_perm"
  top: "fc7_mbox_loc_flat"
  flatten_param {
    axis: 1
  }
}
layer {
  name: "fc7_mbox_conf"
  type: "Convolution"
  bottom: "fc7"
  top: "fc7_mbox_conf"
  param {
    lr_mult: 1
    decay_mult: 1
  }
  param {
    lr_mult: 2
    decay_mult: 0
  }
  convolution_param {
    num_output: 354
    pad: 1
    kernel_size: 3
    stride: 1
    weight_filler {
      type: "xavier"
    }
    bias_filler {
      type: "constant"
      value: 0
    }
  }
}
layer {
  name: "fc7_mbox_conf_perm"
  type: "Permute"
  bottom: "fc7_mbox_conf"
  top: "fc7_mbox_conf_perm"
  permute_param {
    order: 0
    order: 2
    order: 3
    order: 1
  }
}
layer {
  name: "fc7_mbox_conf_flat"
  type: "Flatten"
  bottom: "fc7_mbox_conf_perm"
  top: "fc7_mbox_conf_flat"
  flatten_param {
    axis: 1
  }
}
layer {
  name: "fc7_mbox_priorbox"
  type: "PriorBox"
  bottom: "fc7"
  bottom: "data"
  top: "fc7_mbox_priorbox"
  prior_box_param {
    min_size: 60
    max_size: 111
    aspect_ratio: 2
    aspect_ratio: 3
    flip: true
    clip: false
    variance: 0.1
    variance: 0.1
    variance: 0.2
    variance: 0.2
    step: 16
    offset: 0.5
  }
}
layer {
  name: "conv6_2_mbox_loc"
  type: "Convolution"
  bottom: "conv6_2"
  top: "conv6_2_mbox_loc"
  param {
    lr_mult: 1
    decay_mult: 1
  }
  param {
    lr_mult: 2
    decay_mult: 0
  }
  convolution_param {
    num_output: 24
    pad: 1
    kernel_size: 3
    stride: 1
    weight_filler {
      type: "xavier"
    }
    bias_filler {
      type: "constant"
      value: 0
    }
  }
}
layer {
  name: "conv6_2_mbox_loc_perm"
  type: "Permute"
  bottom: "conv6_2_mbox_loc"
  top: "conv6_2_mbox_loc_perm"
  permute_param {
    order: 0
    order: 2
    order: 3
    order: 1
  }
}
layer {
  name: "conv6_2_mbox_loc_flat"
  type: "Flatten"
  bottom: "conv6_2_mbox_loc_perm"
  top: "conv6_2_mbox_loc_flat"
  flatten_param {
    axis: 1
  }
}
layer {
  name: "conv6_2_mbox_conf"
  type: "Convolution"
  bottom: "conv6_2"
  top: "conv6_2_mbox_conf"
  param {
    lr_mult: 1
    decay_mult: 1
  }
  param {
    lr_mult: 2
    decay_mult: 0
  }
  convolution_param {
    num_output: 354
    pad: 1
    kernel_size: 3
    stride: 1
    weight_filler {
      type: "xavier"
    }
    bias_filler {
      type: "constant"
      value: 0
    }
  }
}
layer {
  name: "conv6_2_mbox_conf_perm"
  type: "Permute"
  bottom: "conv6_2_mbox_conf"
  top: "conv6_2_mbox_conf_perm"
  permute_param {
    order: 0
    order: 2
    order: 3
    order: 1
  }
}
layer {
  name: "conv6_2_mbox_conf_flat"
  type: "Flatten"
  bottom: "conv6_2_mbox_conf_perm"
  top: "conv6_2_mbox_conf_flat"
  flatten_param {
    axis: 1
  }
}
layer {
  name: "conv6_2_mbox_priorbox"
  type: "PriorBox"
  bottom: "conv6_2"
  bottom: "data"
  top: "conv6_2_mbox_priorbox"
  prior_box_param {
    min_size: 111
    max_size: 162
    aspect_ratio: 2
    aspect_ratio: 3
    flip: true
    clip: false
    variance: 0.1
    variance: 0.1
    variance: 0.2
    variance: 0.2
    step: 32
    offset: 0.5
  }
}
layer {
  name: "conv7_2_mbox_loc"
  type: "Convolution"
  bottom: "conv7_2"
  top: "conv7_2_mbox_loc"
  param {
    lr_mult: 1
    decay_mult: 1
  }
  param {
    lr_mult: 2
    decay_mult: 0
  }
  convolution_param {
    num_output: 24
    pad: 1
    kernel_size: 3
    stride: 1
    weight_filler {
      type: "xavier"
    }
    bias_filler {
      type: "constant"
      value: 0
    }
  }
}
layer {
  name: "conv7_2_mbox_loc_perm"
  type: "Permute"
  bottom: "conv7_2_mbox_loc"
  top: "conv7_2_mbox_loc_perm"
  permute_param {
    order: 0
    order: 2
    order: 3
    order: 1
  }
}
layer {
  name: "conv7_2_mbox_loc_flat"
  type: "Flatten"
  bottom: "conv7_2_mbox_loc_perm"
  top: "conv7_2_mbox_loc_flat"
  flatten_param {
    axis: 1
  }
}
layer {
  name: "conv7_2_mbox_conf"
  type: "Convolution"
  bottom: "conv7_2"
  top: "conv7_2_mbox_conf"
  param {
    lr_mult: 1
    decay_mult: 1
  }
  param {
    lr_mult: 2
    decay_mult: 0
  }
  convolution_param {
    num_output: 354
    pad: 1
    kernel_size: 3
    stride: 1
    weight_filler {
      type: "xavier"
    }
    bias_filler {
      type: "constant"
      value: 0
    }
  }
}
layer {
  name: "conv7_2_mbox_conf_perm"
  type: "Permute"
  bottom: "conv7_2_mbox_conf"
  top: "conv7_2_mbox_conf_perm"
  permute_param {
    order: 0
    order: 2
    order: 3
    order: 1
  }
}
layer {
  name: "conv7_2_mbox_conf_flat"
  type: "Flatten"
  bottom: "conv7_2_mbox_conf_perm"
  top: "conv7_2_mbox_conf_flat"
  flatten_param {
    axis: 1
  }
}
layer {
  name: "conv7_2_mbox_priorbox"
  type: "PriorBox"
  bottom: "conv7_2"
  bottom: "data"
  top: "conv7_2_mbox_priorbox"
  prior_box_param {
    min_size: 162
    max_size: 213
    aspect_ratio: 2
    aspect_ratio: 3
    flip: true
    clip: false
    variance: 0.1
    variance: 0.1
    variance: 0.2
    variance: 0.2
    step: 64
    offset: 0.5
  }
}
layer {
  name: "conv8_2_mbox_loc"
  type: "Convolution"
  bottom: "conv8_2"
  top: "conv8_2_mbox_loc"
  param {
    lr_mult: 1
    decay_mult: 1
  }
  param {
    lr_mult: 2
    decay_mult: 0
  }
  convolution_param {
    num_output: 16
    pad: 1
    kernel_size: 3
    stride: 1
    weight_filler {
      type: "xavier"
    }
    bias_filler {
      type: "constant"
      value: 0
    }
  }
}
layer {
  name: "conv8_2_mbox_loc_perm"
  type: "Permute"
  bottom: "conv8_2_mbox_loc"
  top: "conv8_2_mbox_loc_perm"
  permute_param {
    order: 0
    order: 2
    order: 3
    order: 1
  }
}
layer {
  name: "conv8_2_mbox_loc_flat"
  type: "Flatten"
  bottom: "conv8_2_mbox_loc_perm"
  top: "conv8_2_mbox_loc_flat"
  flatten_param {
    axis: 1
  }
}
layer {
  name: "conv8_2_mbox_conf"
  type: "Convolution"
  bottom: "conv8_2"
  top: "conv8_2_mbox_conf"
  param {
    lr_mult: 1
    decay_mult: 1
  }
  param {
    lr_mult: 2
    decay_mult: 0
  }
  convolution_param {
    num_output: 236
    pad: 1
    kernel_size: 3
    stride: 1
    weight_filler {
      type: "xavier"
    }
    bias_filler {
      type: "constant"
      value: 0
    }
  }
}
layer {
  name: "conv8_2_mbox_conf_perm"
  type: "Permute"
  bottom: "conv8_2_mbox_conf"
  top: "conv8_2_mbox_conf_perm"
  permute_param {
    order: 0
    order: 2
    order: 3
    order: 1
  }
}
layer {
  name: "conv8_2_mbox_conf_flat"
  type: "Flatten"
  bottom: "conv8_2_mbox_conf_perm"
  top: "conv8_2_mbox_conf_flat"
  flatten_param {
    axis: 1
  }
}
layer {
  name: "conv8_2_mbox_priorbox"
  type: "PriorBox"
  bottom: "conv8_2"
  bottom: "data"
  top: "conv8_2_mbox_priorbox"
  prior_box_param {
    min_size: 213
    max_size: 264
    aspect_ratio: 2
    flip: true
    clip: false
    variance: 0.1
    variance: 0.1
    variance: 0.2
    variance: 0.2
    step: 100
    offset: 0.5
  }
}
layer {
  name: "conv9_2_mbox_loc"
  type: "Convolution"
  bottom: "conv9_2"
  top: "conv9_2_mbox_loc"
  param {
    lr_mult: 1
    decay_mult: 1
  }
  param {
    lr_mult: 2
    decay_mult: 0
  }
  convolution_param {
    num_output: 16
    pad: 1
    kernel_size: 3
    stride: 1
    weight_filler {
      type: "xavier"
    }
    bias_filler {
      type: "constant"
      value: 0
    }
  }
}
layer {
  name: "conv9_2_mbox_loc_perm"
  type: "Permute"
  bottom: "conv9_2_mbox_loc"
  top: "conv9_2_mbox_loc_perm"
  permute_param {
    order: 0
    order: 2
    order: 3
    order: 1
  }
}
layer {
  name: "conv9_2_mbox_loc_flat"
  type: "Flatten"
  bottom: "conv9_2_mbox_loc_perm"
  top: "conv9_2_mbox_loc_flat"
  flatten_param {
    axis: 1
  }
}
layer {
  name: "conv9_2_mbox_conf"
  type: "Convolution"
  bottom: "conv9_2"
  top: "conv9_2_mbox_conf"
  param {
    lr_mult: 1
    decay_mult: 1
  }
  param {
    lr_mult: 2
    decay_mult: 0
  }
  convolution_param {
    num_output: 236
    pad: 1
    kernel_size: 3
    stride: 1
    weight_filler {
      type: "xavier"
    }
    bias_filler {
      type: "constant"
      value: 0
    }
  }
}
layer {
  name: "conv9_2_mbox_conf_perm"
  type: "Permute"
  bottom: "conv9_2_mbox_conf"
  top: "conv9_2_mbox_conf_perm"
  permute_param {
    order: 0
    order: 2
    order: 3
    order: 1
  }
}
layer {
  name: "conv9_2_mbox_conf_flat"
  type: "Flatten"
  bottom: "conv9_2_mbox_conf_perm"
  top: "conv9_2_mbox_conf_flat"
  flatten_param {
    axis: 1
  }
}
layer {
  name: "conv9_2_mbox_priorbox"
  type: "PriorBox"
  bottom: "conv9_2"
  bottom: "data"
  top: "conv9_2_mbox_priorbox"
  prior_box_param {
    min_size: 264
    max_size: 315
    aspect_ratio: 2
    flip: true
    clip: false
    variance: 0.1
    variance: 0.1
    variance: 0.2
    variance: 0.2
    step: 300
    offset: 0.5
  }
}
layer {
  name: "mbox_loc"
  type: "Concat"
  bottom: "conv4_3_norm_mbox_loc_flat"
  bottom: "fc7_mbox_loc_flat"
  bottom: "conv6_2_mbox_loc_flat"
  bottom: "conv7_2_mbox_loc_flat"
  bottom: "conv8_2_mbox_loc_flat"
  bottom: "conv9_2_mbox_loc_flat"
  top: "mbox_loc"
  concat_param {
    axis: 1
  }
}
layer {
  name: "mbox_conf"
  type: "Concat"
  bottom: "conv4_3_norm_mbox_conf_flat"
  bottom: "fc7_mbox_conf_flat"
  bottom: "conv6_2_mbox_conf_flat"
  bottom: "conv7_2_mbox_conf_flat"
  bottom: "conv8_2_mbox_conf_flat"
  bottom: "conv9_2_mbox_conf_flat"
  top: "mbox_conf"
  concat_param {
    axis: 1
  }
}
layer {
  name: "mbox_priorbox"
  type: "Concat"
  bottom: "conv4_3_norm_mbox_priorbox"
  bottom: "fc7_mbox_priorbox"
  bottom: "conv6_2_mbox_priorbox"
  bottom: "conv7_2_mbox_priorbox"
  bottom: "conv8_2_mbox_priorbox"
  bottom: "conv9_2_mbox_priorbox"
  top: "mbox_priorbox"
  concat_param {
    axis: 2
  }
}
layer {
  name: "mbox_conf_reshape"
  type: "Reshape"
  bottom: "mbox_conf"
  top: "mbox_conf_reshape"
  reshape_param {
    shape {
      dim: 0
      dim: -1
      dim: 59
    }
  }
}
layer {
  name: "mbox_conf_softmax"
  type: "Softmax"
  bottom: "mbox_conf_reshape"
  top: "mbox_conf_softmax"
  softmax_param {
    axis: 2
  }
}
layer {
  name: "mbox_conf_flatten"
  type: "Flatten"
  bottom: "mbox_conf_softmax"
  top: "mbox_conf_flatten"
  flatten_param {
    axis: 1
  }
}
layer {
  name: "detection_out"
  type: "DetectionOutput"
  bottom: "mbox_loc"
  bottom: "mbox_conf_flatten"
  bottom: "mbox_priorbox"
  top: "detection_out"
  include {
    phase: TEST
  }
  detection_output_param {
    num_classes: 59
    share_location: true
    background_label_id: 0
    nms_param {
      nms_threshold: 0.45
      top_k: 400
    }
    save_output_param {
      output_directory: "/home/legion/data/SHOPPE_2017/results/SSD_300x300/Main"
      output_name_prefix: "comp4_det_test_"
      output_format: "VOC"
      label_map_file: "data/SHOPPE_2017/labelmap_voc.prototxt"
      name_size_file: "data/SHOPPE_2017/test_name_size.txt"
      num_test_image: 100
    }
    code_type: CENTER_SIZE
    keep_top_k: 200
    confidence_threshold: 0.01
  }
}
layer {
  name: "detection_eval"
  type: "DetectionEvaluate"
  bottom: "detection_out"
  bottom: "label"
  top: "detection_eval"
  include {
    phase: TEST
  }
  detection_evaluate_param {
    num_classes: 59
    background_label_id: 0
    overlap_threshold: 0.5
    evaluate_difficult_gt: false
    name_size_file: "data/SHOPPE_2017/test_name_size.txt"
  }
}
I0727 22:32:43.001826  5214 layer_factory.hpp:77] Creating layer data
I0727 22:32:43.001905  5214 net.cpp:100] Creating Layer data
I0727 22:32:43.001914  5214 net.cpp:408] data -> data
I0727 22:32:43.001925  5214 net.cpp:408] data -> label
I0727 22:32:43.002645  5229 db_lmdb.cpp:35] Opened lmdb data/SHOPPE_2017/lmdb/SHOPPE_2017_test_lmdb
I0727 22:32:43.006072  5214 annotated_data_layer.cpp:62] output data size: 8,3,300,300
I0727 22:32:43.023519  5214 net.cpp:150] Setting up data
I0727 22:32:43.023566  5214 net.cpp:157] Top shape: 8 3 300 300 (2160000)
I0727 22:32:43.023581  5214 net.cpp:157] Top shape: 1 1 13 8 (104)
I0727 22:32:43.023600  5214 net.cpp:165] Memory required for data: 8640416
I0727 22:32:43.023612  5214 layer_factory.hpp:77] Creating layer data_data_0_split
I0727 22:32:43.023632  5214 net.cpp:100] Creating Layer data_data_0_split
I0727 22:32:43.023643  5214 net.cpp:434] data_data_0_split <- data
I0727 22:32:43.023656  5214 net.cpp:408] data_data_0_split -> data_data_0_split_0
I0727 22:32:43.023674  5214 net.cpp:408] data_data_0_split -> data_data_0_split_1
I0727 22:32:43.023686  5214 net.cpp:408] data_data_0_split -> data_data_0_split_2
I0727 22:32:43.023699  5214 net.cpp:408] data_data_0_split -> data_data_0_split_3
I0727 22:32:43.023712  5214 net.cpp:408] data_data_0_split -> data_data_0_split_4
I0727 22:32:43.023723  5214 net.cpp:408] data_data_0_split -> data_data_0_split_5
I0727 22:32:43.023736  5214 net.cpp:408] data_data_0_split -> data_data_0_split_6
I0727 22:32:43.023864  5214 net.cpp:150] Setting up data_data_0_split
I0727 22:32:43.023880  5214 net.cpp:157] Top shape: 8 3 300 300 (2160000)
I0727 22:32:43.023890  5214 net.cpp:157] Top shape: 8 3 300 300 (2160000)
I0727 22:32:43.023897  5214 net.cpp:157] Top shape: 8 3 300 300 (2160000)
I0727 22:32:43.023906  5214 net.cpp:157] Top shape: 8 3 300 300 (2160000)
I0727 22:32:43.023916  5214 net.cpp:157] Top shape: 8 3 300 300 (2160000)
I0727 22:32:43.023924  5214 net.cpp:157] Top shape: 8 3 300 300 (2160000)
I0727 22:32:43.023932  5214 net.cpp:157] Top shape: 8 3 300 300 (2160000)
I0727 22:32:43.023946  5214 net.cpp:165] Memory required for data: 69120416
I0727 22:32:43.023963  5214 layer_factory.hpp:77] Creating layer conv1_1
I0727 22:32:43.023980  5214 net.cpp:100] Creating Layer conv1_1
I0727 22:32:43.023988  5214 net.cpp:434] conv1_1 <- data_data_0_split_0
I0727 22:32:43.023999  5214 net.cpp:408] conv1_1 -> conv1_1
I0727 22:32:43.024309  5214 net.cpp:150] Setting up conv1_1
I0727 22:32:43.024327  5214 net.cpp:157] Top shape: 8 64 300 300 (46080000)
I0727 22:32:43.024338  5214 net.cpp:165] Memory required for data: 253440416
I0727 22:32:43.024353  5214 layer_factory.hpp:77] Creating layer relu1_1
I0727 22:32:43.024369  5214 net.cpp:100] Creating Layer relu1_1
I0727 22:32:43.024379  5214 net.cpp:434] relu1_1 <- conv1_1
I0727 22:32:43.024390  5214 net.cpp:395] relu1_1 -> conv1_1 (in-place)
I0727 22:32:43.024404  5214 net.cpp:150] Setting up relu1_1
I0727 22:32:43.024415  5214 net.cpp:157] Top shape: 8 64 300 300 (46080000)
I0727 22:32:43.024425  5214 net.cpp:165] Memory required for data: 437760416
I0727 22:32:43.024433  5214 layer_factory.hpp:77] Creating layer conv1_2
I0727 22:32:43.024448  5214 net.cpp:100] Creating Layer conv1_2
I0727 22:32:43.024459  5214 net.cpp:434] conv1_2 <- conv1_1
I0727 22:32:43.024471  5214 net.cpp:408] conv1_2 -> conv1_2
I0727 22:32:43.025108  5214 net.cpp:150] Setting up conv1_2
I0727 22:32:43.025127  5214 net.cpp:157] Top shape: 8 64 300 300 (46080000)
I0727 22:32:43.025138  5214 net.cpp:165] Memory required for data: 622080416
I0727 22:32:43.025152  5214 layer_factory.hpp:77] Creating layer relu1_2
I0727 22:32:43.025164  5214 net.cpp:100] Creating Layer relu1_2
I0727 22:32:43.025173  5214 net.cpp:434] relu1_2 <- conv1_2
I0727 22:32:43.025185  5214 net.cpp:395] relu1_2 -> conv1_2 (in-place)
I0727 22:32:43.025198  5214 net.cpp:150] Setting up relu1_2
I0727 22:32:43.025209  5214 net.cpp:157] Top shape: 8 64 300 300 (46080000)
I0727 22:32:43.025218  5214 net.cpp:165] Memory required for data: 806400416
I0727 22:32:43.025228  5214 layer_factory.hpp:77] Creating layer pool1
I0727 22:32:43.025240  5214 net.cpp:100] Creating Layer pool1
I0727 22:32:43.025250  5214 net.cpp:434] pool1 <- conv1_2
I0727 22:32:43.025262  5214 net.cpp:408] pool1 -> pool1
I0727 22:32:43.025306  5214 net.cpp:150] Setting up pool1
I0727 22:32:43.025319  5214 net.cpp:157] Top shape: 8 64 150 150 (11520000)
I0727 22:32:43.025328  5214 net.cpp:165] Memory required for data: 852480416
I0727 22:32:43.025338  5214 layer_factory.hpp:77] Creating layer conv2_1
I0727 22:32:43.025352  5214 net.cpp:100] Creating Layer conv2_1
I0727 22:32:43.025362  5214 net.cpp:434] conv2_1 <- pool1
I0727 22:32:43.025374  5214 net.cpp:408] conv2_1 -> conv2_1
I0727 22:32:43.026288  5214 net.cpp:150] Setting up conv2_1
I0727 22:32:43.026317  5214 net.cpp:157] Top shape: 8 128 150 150 (23040000)
I0727 22:32:43.026329  5214 net.cpp:165] Memory required for data: 944640416
I0727 22:32:43.026345  5214 layer_factory.hpp:77] Creating layer relu2_1
I0727 22:32:43.026357  5214 net.cpp:100] Creating Layer relu2_1
I0727 22:32:43.026367  5214 net.cpp:434] relu2_1 <- conv2_1
I0727 22:32:43.026379  5214 net.cpp:395] relu2_1 -> conv2_1 (in-place)
I0727 22:32:43.026392  5214 net.cpp:150] Setting up relu2_1
I0727 22:32:43.026403  5214 net.cpp:157] Top shape: 8 128 150 150 (23040000)
I0727 22:32:43.026413  5214 net.cpp:165] Memory required for data: 1036800416
I0727 22:32:43.026422  5214 layer_factory.hpp:77] Creating layer conv2_2
I0727 22:32:43.026437  5214 net.cpp:100] Creating Layer conv2_2
I0727 22:32:43.026446  5214 net.cpp:434] conv2_2 <- conv2_1
I0727 22:32:43.026461  5214 net.cpp:408] conv2_2 -> conv2_2
I0727 22:32:43.028105  5214 net.cpp:150] Setting up conv2_2
I0727 22:32:43.028131  5214 net.cpp:157] Top shape: 8 128 150 150 (23040000)
I0727 22:32:43.028141  5214 net.cpp:165] Memory required for data: 1128960416
I0727 22:32:43.028154  5214 layer_factory.hpp:77] Creating layer relu2_2
I0727 22:32:43.028165  5214 net.cpp:100] Creating Layer relu2_2
I0727 22:32:43.028175  5214 net.cpp:434] relu2_2 <- conv2_2
I0727 22:32:43.028187  5214 net.cpp:395] relu2_2 -> conv2_2 (in-place)
I0727 22:32:43.028219  5214 net.cpp:150] Setting up relu2_2
I0727 22:32:43.028231  5214 net.cpp:157] Top shape: 8 128 150 150 (23040000)
I0727 22:32:43.028240  5214 net.cpp:165] Memory required for data: 1221120416
I0727 22:32:43.028249  5214 layer_factory.hpp:77] Creating layer pool2
I0727 22:32:43.028282  5214 net.cpp:100] Creating Layer pool2
I0727 22:32:43.028292  5214 net.cpp:434] pool2 <- conv2_2
I0727 22:32:43.028306  5214 net.cpp:408] pool2 -> pool2
I0727 22:32:43.030067  5214 net.cpp:150] Setting up pool2
I0727 22:32:43.030163  5214 net.cpp:157] Top shape: 8 128 75 75 (5760000)
I0727 22:32:43.030210  5214 net.cpp:165] Memory required for data: 1244160416
I0727 22:32:43.030268  5214 layer_factory.hpp:77] Creating layer conv3_1
I0727 22:32:43.030346  5214 net.cpp:100] Creating Layer conv3_1
I0727 22:32:43.030403  5214 net.cpp:434] conv3_1 <- pool2
I0727 22:32:43.030462  5214 net.cpp:408] conv3_1 -> conv3_1
I0727 22:32:43.036655  5214 net.cpp:150] Setting up conv3_1
I0727 22:32:43.036721  5214 net.cpp:157] Top shape: 8 256 75 75 (11520000)
I0727 22:32:43.036739  5214 net.cpp:165] Memory required for data: 1290240416
I0727 22:32:43.036761  5214 layer_factory.hpp:77] Creating layer relu3_1
I0727 22:32:43.036777  5214 net.cpp:100] Creating Layer relu3_1
I0727 22:32:43.036788  5214 net.cpp:434] relu3_1 <- conv3_1
I0727 22:32:43.036803  5214 net.cpp:395] relu3_1 -> conv3_1 (in-place)
I0727 22:32:43.036839  5214 net.cpp:150] Setting up relu3_1
I0727 22:32:43.036849  5214 net.cpp:157] Top shape: 8 256 75 75 (11520000)
I0727 22:32:43.036859  5214 net.cpp:165] Memory required for data: 1336320416
I0727 22:32:43.036870  5214 layer_factory.hpp:77] Creating layer conv3_2
I0727 22:32:43.036885  5214 net.cpp:100] Creating Layer conv3_2
I0727 22:32:43.036895  5214 net.cpp:434] conv3_2 <- conv3_1
I0727 22:32:43.036908  5214 net.cpp:408] conv3_2 -> conv3_2
I0727 22:32:43.044095  5214 net.cpp:150] Setting up conv3_2
I0727 22:32:43.044155  5214 net.cpp:157] Top shape: 8 256 75 75 (11520000)
I0727 22:32:43.044167  5214 net.cpp:165] Memory required for data: 1382400416
I0727 22:32:43.044183  5214 layer_factory.hpp:77] Creating layer relu3_2
I0727 22:32:43.044200  5214 net.cpp:100] Creating Layer relu3_2
I0727 22:32:43.044212  5214 net.cpp:434] relu3_2 <- conv3_2
I0727 22:32:43.044227  5214 net.cpp:395] relu3_2 -> conv3_2 (in-place)
I0727 22:32:43.044246  5214 net.cpp:150] Setting up relu3_2
I0727 22:32:43.044258  5214 net.cpp:157] Top shape: 8 256 75 75 (11520000)
I0727 22:32:43.044268  5214 net.cpp:165] Memory required for data: 1428480416
I0727 22:32:43.044277  5214 layer_factory.hpp:77] Creating layer conv3_3
I0727 22:32:43.044297  5214 net.cpp:100] Creating Layer conv3_3
I0727 22:32:43.044308  5214 net.cpp:434] conv3_3 <- conv3_2
I0727 22:32:43.044323  5214 net.cpp:408] conv3_3 -> conv3_3
I0727 22:32:43.051632  5214 net.cpp:150] Setting up conv3_3
I0727 22:32:43.051765  5214 net.cpp:157] Top shape: 8 256 75 75 (11520000)
I0727 22:32:43.051780  5214 net.cpp:165] Memory required for data: 1474560416
I0727 22:32:43.051805  5214 layer_factory.hpp:77] Creating layer relu3_3
I0727 22:32:43.051827  5214 net.cpp:100] Creating Layer relu3_3
I0727 22:32:43.051843  5214 net.cpp:434] relu3_3 <- conv3_3
I0727 22:32:43.051864  5214 net.cpp:395] relu3_3 -> conv3_3 (in-place)
I0727 22:32:43.051887  5214 net.cpp:150] Setting up relu3_3
I0727 22:32:43.051898  5214 net.cpp:157] Top shape: 8 256 75 75 (11520000)
I0727 22:32:43.051908  5214 net.cpp:165] Memory required for data: 1520640416
I0727 22:32:43.051916  5214 layer_factory.hpp:77] Creating layer pool3
I0727 22:32:43.051930  5214 net.cpp:100] Creating Layer pool3
I0727 22:32:43.051942  5214 net.cpp:434] pool3 <- conv3_3
I0727 22:32:43.051964  5214 net.cpp:408] pool3 -> pool3
I0727 22:32:43.052021  5214 net.cpp:150] Setting up pool3
I0727 22:32:43.052033  5214 net.cpp:157] Top shape: 8 256 38 38 (2957312)
I0727 22:32:43.052043  5214 net.cpp:165] Memory required for data: 1532469664
I0727 22:32:43.052052  5214 layer_factory.hpp:77] Creating layer conv4_1
I0727 22:32:43.052089  5214 net.cpp:100] Creating Layer conv4_1
I0727 22:32:43.052139  5214 net.cpp:434] conv4_1 <- pool3
I0727 22:32:43.052151  5214 net.cpp:408] conv4_1 -> conv4_1
I0727 22:32:43.066375  5214 net.cpp:150] Setting up conv4_1
I0727 22:32:43.066465  5214 net.cpp:157] Top shape: 8 512 38 38 (5914624)
I0727 22:32:43.066480  5214 net.cpp:165] Memory required for data: 1556128160
I0727 22:32:43.066500  5214 layer_factory.hpp:77] Creating layer relu4_1
I0727 22:32:43.066536  5214 net.cpp:100] Creating Layer relu4_1
I0727 22:32:43.066555  5214 net.cpp:434] relu4_1 <- conv4_1
I0727 22:32:43.066568  5214 net.cpp:395] relu4_1 -> conv4_1 (in-place)
I0727 22:32:43.066586  5214 net.cpp:150] Setting up relu4_1
I0727 22:32:43.066597  5214 net.cpp:157] Top shape: 8 512 38 38 (5914624)
I0727 22:32:43.066608  5214 net.cpp:165] Memory required for data: 1579786656
I0727 22:32:43.066623  5214 layer_factory.hpp:77] Creating layer conv4_2
I0727 22:32:43.066648  5214 net.cpp:100] Creating Layer conv4_2
I0727 22:32:43.066658  5214 net.cpp:434] conv4_2 <- conv4_1
I0727 22:32:43.066670  5214 net.cpp:408] conv4_2 -> conv4_2
I0727 22:32:43.105469  5214 net.cpp:150] Setting up conv4_2
I0727 22:32:43.105568  5214 net.cpp:157] Top shape: 8 512 38 38 (5914624)
I0727 22:32:43.105574  5214 net.cpp:165] Memory required for data: 1603445152
I0727 22:32:43.105618  5214 layer_factory.hpp:77] Creating layer relu4_2
I0727 22:32:43.105641  5214 net.cpp:100] Creating Layer relu4_2
I0727 22:32:43.105665  5214 net.cpp:434] relu4_2 <- conv4_2
I0727 22:32:43.105682  5214 net.cpp:395] relu4_2 -> conv4_2 (in-place)
I0727 22:32:43.105778  5214 net.cpp:150] Setting up relu4_2
I0727 22:32:43.105794  5214 net.cpp:157] Top shape: 8 512 38 38 (5914624)
I0727 22:32:43.105804  5214 net.cpp:165] Memory required for data: 1627103648
I0727 22:32:43.105818  5214 layer_factory.hpp:77] Creating layer conv4_3
I0727 22:32:43.105844  5214 net.cpp:100] Creating Layer conv4_3
I0727 22:32:43.105861  5214 net.cpp:434] conv4_3 <- conv4_2
I0727 22:32:43.105880  5214 net.cpp:408] conv4_3 -> conv4_3
I0727 22:32:43.142225  5214 net.cpp:150] Setting up conv4_3
I0727 22:32:43.142325  5214 net.cpp:157] Top shape: 8 512 38 38 (5914624)
I0727 22:32:43.142339  5214 net.cpp:165] Memory required for data: 1650762144
I0727 22:32:43.142357  5214 layer_factory.hpp:77] Creating layer relu4_3
I0727 22:32:43.142374  5214 net.cpp:100] Creating Layer relu4_3
I0727 22:32:43.142386  5214 net.cpp:434] relu4_3 <- conv4_3
I0727 22:32:43.142400  5214 net.cpp:395] relu4_3 -> conv4_3 (in-place)
I0727 22:32:43.142421  5214 net.cpp:150] Setting up relu4_3
I0727 22:32:43.142433  5214 net.cpp:157] Top shape: 8 512 38 38 (5914624)
I0727 22:32:43.142444  5214 net.cpp:165] Memory required for data: 1674420640
I0727 22:32:43.142455  5214 layer_factory.hpp:77] Creating layer conv4_3_relu4_3_0_split
I0727 22:32:43.142467  5214 net.cpp:100] Creating Layer conv4_3_relu4_3_0_split
I0727 22:32:43.142477  5214 net.cpp:434] conv4_3_relu4_3_0_split <- conv4_3
I0727 22:32:43.142496  5214 net.cpp:408] conv4_3_relu4_3_0_split -> conv4_3_relu4_3_0_split_0
I0727 22:32:43.142513  5214 net.cpp:408] conv4_3_relu4_3_0_split -> conv4_3_relu4_3_0_split_1
I0727 22:32:43.142582  5214 net.cpp:150] Setting up conv4_3_relu4_3_0_split
I0727 22:32:43.142598  5214 net.cpp:157] Top shape: 8 512 38 38 (5914624)
I0727 22:32:43.142611  5214 net.cpp:157] Top shape: 8 512 38 38 (5914624)
I0727 22:32:43.142621  5214 net.cpp:165] Memory required for data: 1721737632
I0727 22:32:43.142632  5214 layer_factory.hpp:77] Creating layer pool4
I0727 22:32:43.142645  5214 net.cpp:100] Creating Layer pool4
I0727 22:32:43.142657  5214 net.cpp:434] pool4 <- conv4_3_relu4_3_0_split_0
I0727 22:32:43.142671  5214 net.cpp:408] pool4 -> pool4
I0727 22:32:43.142734  5214 net.cpp:150] Setting up pool4
I0727 22:32:43.142750  5214 net.cpp:157] Top shape: 8 512 19 19 (1478656)
I0727 22:32:43.142760  5214 net.cpp:165] Memory required for data: 1727652256
I0727 22:32:43.142771  5214 layer_factory.hpp:77] Creating layer conv5_1
I0727 22:32:43.142796  5214 net.cpp:100] Creating Layer conv5_1
I0727 22:32:43.142824  5214 net.cpp:434] conv5_1 <- pool4
I0727 22:32:43.142870  5214 net.cpp:408] conv5_1 -> conv5_1
I0727 22:32:43.175431  5214 net.cpp:150] Setting up conv5_1
I0727 22:32:43.175531  5214 net.cpp:157] Top shape: 8 512 19 19 (1478656)
I0727 22:32:43.175545  5214 net.cpp:165] Memory required for data: 1733566880
I0727 22:32:43.175585  5214 layer_factory.hpp:77] Creating layer relu5_1
I0727 22:32:43.175601  5214 net.cpp:100] Creating Layer relu5_1
I0727 22:32:43.175614  5214 net.cpp:434] relu5_1 <- conv5_1
I0727 22:32:43.175631  5214 net.cpp:395] relu5_1 -> conv5_1 (in-place)
I0727 22:32:43.175652  5214 net.cpp:150] Setting up relu5_1
I0727 22:32:43.175663  5214 net.cpp:157] Top shape: 8 512 19 19 (1478656)
I0727 22:32:43.175674  5214 net.cpp:165] Memory required for data: 1739481504
I0727 22:32:43.175689  5214 layer_factory.hpp:77] Creating layer conv5_2
I0727 22:32:43.175732  5214 net.cpp:100] Creating Layer conv5_2
I0727 22:32:43.175743  5214 net.cpp:434] conv5_2 <- conv5_1
I0727 22:32:43.175760  5214 net.cpp:408] conv5_2 -> conv5_2
I0727 22:32:43.207311  5214 net.cpp:150] Setting up conv5_2
I0727 22:32:43.207382  5214 net.cpp:157] Top shape: 8 512 19 19 (1478656)
I0727 22:32:43.207394  5214 net.cpp:165] Memory required for data: 1745396128
I0727 22:32:43.207411  5214 layer_factory.hpp:77] Creating layer relu5_2
I0727 22:32:43.207432  5214 net.cpp:100] Creating Layer relu5_2
I0727 22:32:43.207444  5214 net.cpp:434] relu5_2 <- conv5_2
I0727 22:32:43.207458  5214 net.cpp:395] relu5_2 -> conv5_2 (in-place)
I0727 22:32:43.207474  5214 net.cpp:150] Setting up relu5_2
I0727 22:32:43.207486  5214 net.cpp:157] Top shape: 8 512 19 19 (1478656)
I0727 22:32:43.207496  5214 net.cpp:165] Memory required for data: 1751310752
I0727 22:32:43.207505  5214 layer_factory.hpp:77] Creating layer conv5_3
I0727 22:32:43.207533  5214 net.cpp:100] Creating Layer conv5_3
I0727 22:32:43.207543  5214 net.cpp:434] conv5_3 <- conv5_2
I0727 22:32:43.207557  5214 net.cpp:408] conv5_3 -> conv5_3
I0727 22:32:43.236269  5214 net.cpp:150] Setting up conv5_3
I0727 22:32:43.236392  5214 net.cpp:157] Top shape: 8 512 19 19 (1478656)
I0727 22:32:43.236404  5214 net.cpp:165] Memory required for data: 1757225376
I0727 22:32:43.236425  5214 layer_factory.hpp:77] Creating layer relu5_3
I0727 22:32:43.236459  5214 net.cpp:100] Creating Layer relu5_3
I0727 22:32:43.236475  5214 net.cpp:434] relu5_3 <- conv5_3
I0727 22:32:43.236493  5214 net.cpp:395] relu5_3 -> conv5_3 (in-place)
I0727 22:32:43.236518  5214 net.cpp:150] Setting up relu5_3
I0727 22:32:43.236537  5214 net.cpp:157] Top shape: 8 512 19 19 (1478656)
I0727 22:32:43.236547  5214 net.cpp:165] Memory required for data: 1763140000
I0727 22:32:43.236557  5214 layer_factory.hpp:77] Creating layer pool5
I0727 22:32:43.236570  5214 net.cpp:100] Creating Layer pool5
I0727 22:32:43.236580  5214 net.cpp:434] pool5 <- conv5_3
I0727 22:32:43.236593  5214 net.cpp:408] pool5 -> pool5
I0727 22:32:43.236660  5214 net.cpp:150] Setting up pool5
I0727 22:32:43.236673  5214 net.cpp:157] Top shape: 8 512 19 19 (1478656)
I0727 22:32:43.236683  5214 net.cpp:165] Memory required for data: 1769054624
I0727 22:32:43.236692  5214 layer_factory.hpp:77] Creating layer fc6
I0727 22:32:43.236711  5214 net.cpp:100] Creating Layer fc6
I0727 22:32:43.236723  5214 net.cpp:434] fc6 <- pool5
I0727 22:32:43.236737  5214 net.cpp:408] fc6 -> fc6
I0727 22:32:43.299904  5214 net.cpp:150] Setting up fc6
I0727 22:32:43.299928  5214 net.cpp:157] Top shape: 8 1024 19 19 (2957312)
I0727 22:32:43.299932  5214 net.cpp:165] Memory required for data: 1780883872
I0727 22:32:43.299939  5214 layer_factory.hpp:77] Creating layer relu6
I0727 22:32:43.299968  5214 net.cpp:100] Creating Layer relu6
I0727 22:32:43.299973  5214 net.cpp:434] relu6 <- fc6
I0727 22:32:43.299979  5214 net.cpp:395] relu6 -> fc6 (in-place)
I0727 22:32:43.299991  5214 net.cpp:150] Setting up relu6
I0727 22:32:43.299994  5214 net.cpp:157] Top shape: 8 1024 19 19 (2957312)
I0727 22:32:43.299996  5214 net.cpp:165] Memory required for data: 1792713120
I0727 22:32:43.299998  5214 layer_factory.hpp:77] Creating layer fc7
I0727 22:32:43.300040  5214 net.cpp:100] Creating Layer fc7
I0727 22:32:43.300055  5214 net.cpp:434] fc7 <- fc6
I0727 22:32:43.300070  5214 net.cpp:408] fc7 -> fc7
I0727 22:32:43.310658  5214 net.cpp:150] Setting up fc7
I0727 22:32:43.310751  5214 net.cpp:157] Top shape: 8 1024 19 19 (2957312)
I0727 22:32:43.310756  5214 net.cpp:165] Memory required for data: 1804542368
I0727 22:32:43.310787  5214 layer_factory.hpp:77] Creating layer relu7
I0727 22:32:43.310822  5214 net.cpp:100] Creating Layer relu7
I0727 22:32:43.310840  5214 net.cpp:434] relu7 <- fc7
I0727 22:32:43.310863  5214 net.cpp:395] relu7 -> fc7 (in-place)
I0727 22:32:43.310904  5214 net.cpp:150] Setting up relu7
I0727 22:32:43.310912  5214 net.cpp:157] Top shape: 8 1024 19 19 (2957312)
I0727 22:32:43.310916  5214 net.cpp:165] Memory required for data: 1816371616
I0727 22:32:43.310921  5214 layer_factory.hpp:77] Creating layer fc7_relu7_0_split
I0727 22:32:43.310938  5214 net.cpp:100] Creating Layer fc7_relu7_0_split
I0727 22:32:43.311049  5214 net.cpp:434] fc7_relu7_0_split <- fc7
I0727 22:32:43.311079  5214 net.cpp:408] fc7_relu7_0_split -> fc7_relu7_0_split_0
I0727 22:32:43.311106  5214 net.cpp:408] fc7_relu7_0_split -> fc7_relu7_0_split_1
I0727 22:32:43.311172  5214 net.cpp:408] fc7_relu7_0_split -> fc7_relu7_0_split_2
I0727 22:32:43.311192  5214 net.cpp:408] fc7_relu7_0_split -> fc7_relu7_0_split_3
I0727 22:32:43.311321  5214 net.cpp:150] Setting up fc7_relu7_0_split
I0727 22:32:43.311334  5214 net.cpp:157] Top shape: 8 1024 19 19 (2957312)
I0727 22:32:43.311342  5214 net.cpp:157] Top shape: 8 1024 19 19 (2957312)
I0727 22:32:43.311348  5214 net.cpp:157] Top shape: 8 1024 19 19 (2957312)
I0727 22:32:43.311354  5214 net.cpp:157] Top shape: 8 1024 19 19 (2957312)
I0727 22:32:43.311358  5214 net.cpp:165] Memory required for data: 1863688608
I0727 22:32:43.311363  5214 layer_factory.hpp:77] Creating layer conv6_1
I0727 22:32:43.311393  5214 net.cpp:100] Creating Layer conv6_1
I0727 22:32:43.311398  5214 net.cpp:434] conv6_1 <- fc7_relu7_0_split_0
I0727 22:32:43.311408  5214 net.cpp:408] conv6_1 -> conv6_1
I0727 22:32:43.317090  5214 net.cpp:150] Setting up conv6_1
I0727 22:32:43.317154  5214 net.cpp:157] Top shape: 8 256 19 19 (739328)
I0727 22:32:43.317159  5214 net.cpp:165] Memory required for data: 1866645920
I0727 22:32:43.317181  5214 layer_factory.hpp:77] Creating layer conv6_1_relu
I0727 22:32:43.317212  5214 net.cpp:100] Creating Layer conv6_1_relu
I0727 22:32:43.317224  5214 net.cpp:434] conv6_1_relu <- conv6_1
I0727 22:32:43.317239  5214 net.cpp:395] conv6_1_relu -> conv6_1 (in-place)
I0727 22:32:43.317261  5214 net.cpp:150] Setting up conv6_1_relu
I0727 22:32:43.317266  5214 net.cpp:157] Top shape: 8 256 19 19 (739328)
I0727 22:32:43.317271  5214 net.cpp:165] Memory required for data: 1869603232
I0727 22:32:43.317276  5214 layer_factory.hpp:77] Creating layer conv6_2
I0727 22:32:43.317301  5214 net.cpp:100] Creating Layer conv6_2
I0727 22:32:43.317306  5214 net.cpp:434] conv6_2 <- conv6_1
I0727 22:32:43.317319  5214 net.cpp:408] conv6_2 -> conv6_2
I0727 22:32:43.335077  5214 net.cpp:150] Setting up conv6_2
I0727 22:32:43.335229  5214 net.cpp:157] Top shape: 8 512 10 10 (409600)
I0727 22:32:43.335255  5214 net.cpp:165] Memory required for data: 1871241632
I0727 22:32:43.335335  5214 layer_factory.hpp:77] Creating layer conv6_2_relu
I0727 22:32:43.335364  5214 net.cpp:100] Creating Layer conv6_2_relu
I0727 22:32:43.335384  5214 net.cpp:434] conv6_2_relu <- conv6_2
I0727 22:32:43.335404  5214 net.cpp:395] conv6_2_relu -> conv6_2 (in-place)
I0727 22:32:43.335469  5214 net.cpp:150] Setting up conv6_2_relu
I0727 22:32:43.335484  5214 net.cpp:157] Top shape: 8 512 10 10 (409600)
I0727 22:32:43.335495  5214 net.cpp:165] Memory required for data: 1872880032
I0727 22:32:43.335507  5214 layer_factory.hpp:77] Creating layer conv6_2_conv6_2_relu_0_split
I0727 22:32:43.335530  5214 net.cpp:100] Creating Layer conv6_2_conv6_2_relu_0_split
I0727 22:32:43.335541  5214 net.cpp:434] conv6_2_conv6_2_relu_0_split <- conv6_2
I0727 22:32:43.335578  5214 net.cpp:408] conv6_2_conv6_2_relu_0_split -> conv6_2_conv6_2_relu_0_split_0
I0727 22:32:43.335644  5214 net.cpp:408] conv6_2_conv6_2_relu_0_split -> conv6_2_conv6_2_relu_0_split_1
I0727 22:32:43.335664  5214 net.cpp:408] conv6_2_conv6_2_relu_0_split -> conv6_2_conv6_2_relu_0_split_2
I0727 22:32:43.335682  5214 net.cpp:408] conv6_2_conv6_2_relu_0_split -> conv6_2_conv6_2_relu_0_split_3
I0727 22:32:43.335860  5214 net.cpp:150] Setting up conv6_2_conv6_2_relu_0_split
I0727 22:32:43.335878  5214 net.cpp:157] Top shape: 8 512 10 10 (409600)
I0727 22:32:43.335893  5214 net.cpp:157] Top shape: 8 512 10 10 (409600)
I0727 22:32:43.335909  5214 net.cpp:157] Top shape: 8 512 10 10 (409600)
I0727 22:32:43.335927  5214 net.cpp:157] Top shape: 8 512 10 10 (409600)
I0727 22:32:43.335940  5214 net.cpp:165] Memory required for data: 1879433632
I0727 22:32:43.335953  5214 layer_factory.hpp:77] Creating layer conv7_1
I0727 22:32:43.335980  5214 net.cpp:100] Creating Layer conv7_1
I0727 22:32:43.335995  5214 net.cpp:434] conv7_1 <- conv6_2_conv6_2_relu_0_split_0
I0727 22:32:43.336011  5214 net.cpp:408] conv7_1 -> conv7_1
I0727 22:32:43.337352  5214 net.cpp:150] Setting up conv7_1
I0727 22:32:43.337399  5214 net.cpp:157] Top shape: 8 128 10 10 (102400)
I0727 22:32:43.337414  5214 net.cpp:165] Memory required for data: 1879843232
I0727 22:32:43.337435  5214 layer_factory.hpp:77] Creating layer conv7_1_relu
I0727 22:32:43.337453  5214 net.cpp:100] Creating Layer conv7_1_relu
I0727 22:32:43.337468  5214 net.cpp:434] conv7_1_relu <- conv7_1
I0727 22:32:43.337484  5214 net.cpp:395] conv7_1_relu -> conv7_1 (in-place)
I0727 22:32:43.337502  5214 net.cpp:150] Setting up conv7_1_relu
I0727 22:32:43.337518  5214 net.cpp:157] Top shape: 8 128 10 10 (102400)
I0727 22:32:43.337551  5214 net.cpp:165] Memory required for data: 1880252832
I0727 22:32:43.337564  5214 layer_factory.hpp:77] Creating layer conv7_2
I0727 22:32:43.337589  5214 net.cpp:100] Creating Layer conv7_2
I0727 22:32:43.337601  5214 net.cpp:434] conv7_2 <- conv7_1
I0727 22:32:43.337630  5214 net.cpp:408] conv7_2 -> conv7_2
I0727 22:32:43.348991  5214 net.cpp:150] Setting up conv7_2
I0727 22:32:43.349068  5214 net.cpp:157] Top shape: 8 256 5 5 (51200)
I0727 22:32:43.349078  5214 net.cpp:165] Memory required for data: 1880457632
I0727 22:32:43.349104  5214 layer_factory.hpp:77] Creating layer conv7_2_relu
I0727 22:32:43.349123  5214 net.cpp:100] Creating Layer conv7_2_relu
I0727 22:32:43.349134  5214 net.cpp:434] conv7_2_relu <- conv7_2
I0727 22:32:43.349149  5214 net.cpp:395] conv7_2_relu -> conv7_2 (in-place)
I0727 22:32:43.349177  5214 net.cpp:150] Setting up conv7_2_relu
I0727 22:32:43.349184  5214 net.cpp:157] Top shape: 8 256 5 5 (51200)
I0727 22:32:43.349189  5214 net.cpp:165] Memory required for data: 1880662432
I0727 22:32:43.349192  5214 layer_factory.hpp:77] Creating layer conv7_2_conv7_2_relu_0_split
I0727 22:32:43.349205  5214 net.cpp:100] Creating Layer conv7_2_conv7_2_relu_0_split
I0727 22:32:43.349210  5214 net.cpp:434] conv7_2_conv7_2_relu_0_split <- conv7_2
I0727 22:32:43.349216  5214 net.cpp:408] conv7_2_conv7_2_relu_0_split -> conv7_2_conv7_2_relu_0_split_0
I0727 22:32:43.349227  5214 net.cpp:408] conv7_2_conv7_2_relu_0_split -> conv7_2_conv7_2_relu_0_split_1
I0727 22:32:43.349236  5214 net.cpp:408] conv7_2_conv7_2_relu_0_split -> conv7_2_conv7_2_relu_0_split_2
I0727 22:32:43.349243  5214 net.cpp:408] conv7_2_conv7_2_relu_0_split -> conv7_2_conv7_2_relu_0_split_3
I0727 22:32:43.349336  5214 net.cpp:150] Setting up conv7_2_conv7_2_relu_0_split
I0727 22:32:43.349349  5214 net.cpp:157] Top shape: 8 256 5 5 (51200)
I0727 22:32:43.349355  5214 net.cpp:157] Top shape: 8 256 5 5 (51200)
I0727 22:32:43.349361  5214 net.cpp:157] Top shape: 8 256 5 5 (51200)
I0727 22:32:43.349366  5214 net.cpp:157] Top shape: 8 256 5 5 (51200)
I0727 22:32:43.349371  5214 net.cpp:165] Memory required for data: 1881481632
I0727 22:32:43.349378  5214 layer_factory.hpp:77] Creating layer conv8_1
I0727 22:32:43.349424  5214 net.cpp:100] Creating Layer conv8_1
I0727 22:32:43.349431  5214 net.cpp:434] conv8_1 <- conv7_2_conv7_2_relu_0_split_0
I0727 22:32:43.349488  5214 net.cpp:408] conv8_1 -> conv8_1
I0727 22:32:43.350234  5214 net.cpp:150] Setting up conv8_1
I0727 22:32:43.350247  5214 net.cpp:157] Top shape: 8 128 5 5 (25600)
I0727 22:32:43.350253  5214 net.cpp:165] Memory required for data: 1881584032
I0727 22:32:43.350263  5214 layer_factory.hpp:77] Creating layer conv8_1_relu
I0727 22:32:43.350273  5214 net.cpp:100] Creating Layer conv8_1_relu
I0727 22:32:43.350281  5214 net.cpp:434] conv8_1_relu <- conv8_1
I0727 22:32:43.350287  5214 net.cpp:395] conv8_1_relu -> conv8_1 (in-place)
I0727 22:32:43.350298  5214 net.cpp:150] Setting up conv8_1_relu
I0727 22:32:43.350308  5214 net.cpp:157] Top shape: 8 128 5 5 (25600)
I0727 22:32:43.350314  5214 net.cpp:165] Memory required for data: 1881686432
I0727 22:32:43.350323  5214 layer_factory.hpp:77] Creating layer conv8_2
I0727 22:32:43.350337  5214 net.cpp:100] Creating Layer conv8_2
I0727 22:32:43.350344  5214 net.cpp:434] conv8_2 <- conv8_1
I0727 22:32:43.350353  5214 net.cpp:408] conv8_2 -> conv8_2
I0727 22:32:43.357319  5214 net.cpp:150] Setting up conv8_2
I0727 22:32:43.357436  5214 net.cpp:157] Top shape: 8 256 3 3 (18432)
I0727 22:32:43.357444  5214 net.cpp:165] Memory required for data: 1881760160
I0727 22:32:43.357465  5214 layer_factory.hpp:77] Creating layer conv8_2_relu
I0727 22:32:43.357484  5214 net.cpp:100] Creating Layer conv8_2_relu
I0727 22:32:43.357496  5214 net.cpp:434] conv8_2_relu <- conv8_2
I0727 22:32:43.357568  5214 net.cpp:395] conv8_2_relu -> conv8_2 (in-place)
I0727 22:32:43.357611  5214 net.cpp:150] Setting up conv8_2_relu
I0727 22:32:43.357628  5214 net.cpp:157] Top shape: 8 256 3 3 (18432)
I0727 22:32:43.357640  5214 net.cpp:165] Memory required for data: 1881833888
I0727 22:32:43.357651  5214 layer_factory.hpp:77] Creating layer conv8_2_conv8_2_relu_0_split
I0727 22:32:43.357673  5214 net.cpp:100] Creating Layer conv8_2_conv8_2_relu_0_split
I0727 22:32:43.357688  5214 net.cpp:434] conv8_2_conv8_2_relu_0_split <- conv8_2
I0727 22:32:43.357705  5214 net.cpp:408] conv8_2_conv8_2_relu_0_split -> conv8_2_conv8_2_relu_0_split_0
I0727 22:32:43.357724  5214 net.cpp:408] conv8_2_conv8_2_relu_0_split -> conv8_2_conv8_2_relu_0_split_1
I0727 22:32:43.357740  5214 net.cpp:408] conv8_2_conv8_2_relu_0_split -> conv8_2_conv8_2_relu_0_split_2
I0727 22:32:43.357754  5214 net.cpp:408] conv8_2_conv8_2_relu_0_split -> conv8_2_conv8_2_relu_0_split_3
I0727 22:32:43.357905  5214 net.cpp:150] Setting up conv8_2_conv8_2_relu_0_split
I0727 22:32:43.357924  5214 net.cpp:157] Top shape: 8 256 3 3 (18432)
I0727 22:32:43.357938  5214 net.cpp:157] Top shape: 8 256 3 3 (18432)
I0727 22:32:43.357949  5214 net.cpp:157] Top shape: 8 256 3 3 (18432)
I0727 22:32:43.357960  5214 net.cpp:157] Top shape: 8 256 3 3 (18432)
I0727 22:32:43.357971  5214 net.cpp:165] Memory required for data: 1882128800
I0727 22:32:43.357983  5214 layer_factory.hpp:77] Creating layer conv9_1
I0727 22:32:43.358031  5214 net.cpp:100] Creating Layer conv9_1
I0727 22:32:43.358044  5214 net.cpp:434] conv9_1 <- conv8_2_conv8_2_relu_0_split_0
I0727 22:32:43.358062  5214 net.cpp:408] conv9_1 -> conv9_1
I0727 22:32:43.361390  5214 net.cpp:150] Setting up conv9_1
I0727 22:32:43.361481  5214 net.cpp:157] Top shape: 8 128 3 3 (9216)
I0727 22:32:43.361497  5214 net.cpp:165] Memory required for data: 1882165664
I0727 22:32:43.361519  5214 layer_factory.hpp:77] Creating layer conv9_1_relu
I0727 22:32:43.361539  5214 net.cpp:100] Creating Layer conv9_1_relu
I0727 22:32:43.361555  5214 net.cpp:434] conv9_1_relu <- conv9_1
I0727 22:32:43.361572  5214 net.cpp:395] conv9_1_relu -> conv9_1 (in-place)
I0727 22:32:43.361594  5214 net.cpp:150] Setting up conv9_1_relu
I0727 22:32:43.361608  5214 net.cpp:157] Top shape: 8 128 3 3 (9216)
I0727 22:32:43.361642  5214 net.cpp:165] Memory required for data: 1882202528
I0727 22:32:43.361654  5214 layer_factory.hpp:77] Creating layer conv9_2
I0727 22:32:43.361680  5214 net.cpp:100] Creating Layer conv9_2
I0727 22:32:43.361693  5214 net.cpp:434] conv9_2 <- conv9_1
I0727 22:32:43.361722  5214 net.cpp:408] conv9_2 -> conv9_2
I0727 22:32:43.366888  5214 net.cpp:150] Setting up conv9_2
I0727 22:32:43.366922  5214 net.cpp:157] Top shape: 8 256 1 1 (2048)
I0727 22:32:43.366936  5214 net.cpp:165] Memory required for data: 1882210720
I0727 22:32:43.366962  5214 layer_factory.hpp:77] Creating layer conv9_2_relu
I0727 22:32:43.366978  5214 net.cpp:100] Creating Layer conv9_2_relu
I0727 22:32:43.366993  5214 net.cpp:434] conv9_2_relu <- conv9_2
I0727 22:32:43.367008  5214 net.cpp:395] conv9_2_relu -> conv9_2 (in-place)
I0727 22:32:43.367025  5214 net.cpp:150] Setting up conv9_2_relu
I0727 22:32:43.367039  5214 net.cpp:157] Top shape: 8 256 1 1 (2048)
I0727 22:32:43.367051  5214 net.cpp:165] Memory required for data: 1882218912
I0727 22:32:43.367063  5214 layer_factory.hpp:77] Creating layer conv9_2_conv9_2_relu_0_split
I0727 22:32:43.367077  5214 net.cpp:100] Creating Layer conv9_2_conv9_2_relu_0_split
I0727 22:32:43.367089  5214 net.cpp:434] conv9_2_conv9_2_relu_0_split <- conv9_2
I0727 22:32:43.367102  5214 net.cpp:408] conv9_2_conv9_2_relu_0_split -> conv9_2_conv9_2_relu_0_split_0
I0727 22:32:43.367117  5214 net.cpp:408] conv9_2_conv9_2_relu_0_split -> conv9_2_conv9_2_relu_0_split_1
I0727 22:32:43.367132  5214 net.cpp:408] conv9_2_conv9_2_relu_0_split -> conv9_2_conv9_2_relu_0_split_2
I0727 22:32:43.367197  5214 net.cpp:150] Setting up conv9_2_conv9_2_relu_0_split
I0727 22:32:43.367213  5214 net.cpp:157] Top shape: 8 256 1 1 (2048)
I0727 22:32:43.367225  5214 net.cpp:157] Top shape: 8 256 1 1 (2048)
I0727 22:32:43.367236  5214 net.cpp:157] Top shape: 8 256 1 1 (2048)
I0727 22:32:43.367247  5214 net.cpp:165] Memory required for data: 1882243488
I0727 22:32:43.367261  5214 layer_factory.hpp:77] Creating layer conv4_3_norm
I0727 22:32:43.367277  5214 net.cpp:100] Creating Layer conv4_3_norm
I0727 22:32:43.367290  5214 net.cpp:434] conv4_3_norm <- conv4_3_relu4_3_0_split_1
I0727 22:32:43.367305  5214 net.cpp:408] conv4_3_norm -> conv4_3_norm
I0727 22:32:43.367522  5214 net.cpp:150] Setting up conv4_3_norm
I0727 22:32:43.367539  5214 net.cpp:157] Top shape: 8 512 38 38 (5914624)
I0727 22:32:43.367552  5214 net.cpp:165] Memory required for data: 1905901984
I0727 22:32:43.367566  5214 layer_factory.hpp:77] Creating layer conv4_3_norm_conv4_3_norm_0_split
I0727 22:32:43.367580  5214 net.cpp:100] Creating Layer conv4_3_norm_conv4_3_norm_0_split
I0727 22:32:43.367593  5214 net.cpp:434] conv4_3_norm_conv4_3_norm_0_split <- conv4_3_norm
I0727 22:32:43.367606  5214 net.cpp:408] conv4_3_norm_conv4_3_norm_0_split -> conv4_3_norm_conv4_3_norm_0_split_0
I0727 22:32:43.367622  5214 net.cpp:408] conv4_3_norm_conv4_3_norm_0_split -> conv4_3_norm_conv4_3_norm_0_split_1
I0727 22:32:43.367638  5214 net.cpp:408] conv4_3_norm_conv4_3_norm_0_split -> conv4_3_norm_conv4_3_norm_0_split_2
I0727 22:32:43.367717  5214 net.cpp:150] Setting up conv4_3_norm_conv4_3_norm_0_split
I0727 22:32:43.367733  5214 net.cpp:157] Top shape: 8 512 38 38 (5914624)
I0727 22:32:43.367745  5214 net.cpp:157] Top shape: 8 512 38 38 (5914624)
I0727 22:32:43.367758  5214 net.cpp:157] Top shape: 8 512 38 38 (5914624)
I0727 22:32:43.367768  5214 net.cpp:165] Memory required for data: 1976877472
I0727 22:32:43.367777  5214 layer_factory.hpp:77] Creating layer conv4_3_norm_mbox_loc
I0727 22:32:43.367794  5214 net.cpp:100] Creating Layer conv4_3_norm_mbox_loc
I0727 22:32:43.367805  5214 net.cpp:434] conv4_3_norm_mbox_loc <- conv4_3_norm_conv4_3_norm_0_split_0
I0727 22:32:43.367820  5214 net.cpp:408] conv4_3_norm_mbox_loc -> conv4_3_norm_mbox_loc
I0727 22:32:43.368927  5214 net.cpp:150] Setting up conv4_3_norm_mbox_loc
I0727 22:32:43.368948  5214 net.cpp:157] Top shape: 8 16 38 38 (184832)
I0727 22:32:43.368960  5214 net.cpp:165] Memory required for data: 1977616800
I0727 22:32:43.368974  5214 layer_factory.hpp:77] Creating layer conv4_3_norm_mbox_loc_perm
I0727 22:32:43.368988  5214 net.cpp:100] Creating Layer conv4_3_norm_mbox_loc_perm
I0727 22:32:43.368999  5214 net.cpp:434] conv4_3_norm_mbox_loc_perm <- conv4_3_norm_mbox_loc
I0727 22:32:43.369020  5214 net.cpp:408] conv4_3_norm_mbox_loc_perm -> conv4_3_norm_mbox_loc_perm
I0727 22:32:43.369170  5214 net.cpp:150] Setting up conv4_3_norm_mbox_loc_perm
I0727 22:32:43.369186  5214 net.cpp:157] Top shape: 8 38 38 16 (184832)
I0727 22:32:43.369200  5214 net.cpp:165] Memory required for data: 1978356128
I0727 22:32:43.369212  5214 layer_factory.hpp:77] Creating layer conv4_3_norm_mbox_loc_flat
I0727 22:32:43.369226  5214 net.cpp:100] Creating Layer conv4_3_norm_mbox_loc_flat
I0727 22:32:43.369237  5214 net.cpp:434] conv4_3_norm_mbox_loc_flat <- conv4_3_norm_mbox_loc_perm
I0727 22:32:43.369251  5214 net.cpp:408] conv4_3_norm_mbox_loc_flat -> conv4_3_norm_mbox_loc_flat
I0727 22:32:43.369294  5214 net.cpp:150] Setting up conv4_3_norm_mbox_loc_flat
I0727 22:32:43.369309  5214 net.cpp:157] Top shape: 8 23104 (184832)
I0727 22:32:43.369320  5214 net.cpp:165] Memory required for data: 1979095456
I0727 22:32:43.369331  5214 layer_factory.hpp:77] Creating layer conv4_3_norm_mbox_conf
I0727 22:32:43.369355  5214 net.cpp:100] Creating Layer conv4_3_norm_mbox_conf
I0727 22:32:43.369367  5214 net.cpp:434] conv4_3_norm_mbox_conf <- conv4_3_norm_conv4_3_norm_0_split_1
I0727 22:32:43.369382  5214 net.cpp:408] conv4_3_norm_mbox_conf -> conv4_3_norm_mbox_conf
I0727 22:32:43.381453  5214 net.cpp:150] Setting up conv4_3_norm_mbox_conf
I0727 22:32:43.381490  5214 net.cpp:157] Top shape: 8 236 38 38 (2726272)
I0727 22:32:43.381494  5214 net.cpp:165] Memory required for data: 1990000544
I0727 22:32:43.381510  5214 layer_factory.hpp:77] Creating layer conv4_3_norm_mbox_conf_perm
I0727 22:32:43.381521  5214 net.cpp:100] Creating Layer conv4_3_norm_mbox_conf_perm
I0727 22:32:43.381531  5214 net.cpp:434] conv4_3_norm_mbox_conf_perm <- conv4_3_norm_mbox_conf
I0727 22:32:43.381539  5214 net.cpp:408] conv4_3_norm_mbox_conf_perm -> conv4_3_norm_mbox_conf_perm
I0727 22:32:43.381649  5214 net.cpp:150] Setting up conv4_3_norm_mbox_conf_perm
I0727 22:32:43.381656  5214 net.cpp:157] Top shape: 8 38 38 236 (2726272)
I0727 22:32:43.381660  5214 net.cpp:165] Memory required for data: 2000905632
I0727 22:32:43.381665  5214 layer_factory.hpp:77] Creating layer conv4_3_norm_mbox_conf_flat
I0727 22:32:43.381671  5214 net.cpp:100] Creating Layer conv4_3_norm_mbox_conf_flat
I0727 22:32:43.381675  5214 net.cpp:434] conv4_3_norm_mbox_conf_flat <- conv4_3_norm_mbox_conf_perm
I0727 22:32:43.381681  5214 net.cpp:408] conv4_3_norm_mbox_conf_flat -> conv4_3_norm_mbox_conf_flat
I0727 22:32:43.381705  5214 net.cpp:150] Setting up conv4_3_norm_mbox_conf_flat
I0727 22:32:43.381738  5214 net.cpp:157] Top shape: 8 340784 (2726272)
I0727 22:32:43.381750  5214 net.cpp:165] Memory required for data: 2011810720
I0727 22:32:43.381762  5214 layer_factory.hpp:77] Creating layer conv4_3_norm_mbox_priorbox
I0727 22:32:43.381777  5214 net.cpp:100] Creating Layer conv4_3_norm_mbox_priorbox
I0727 22:32:43.381788  5214 net.cpp:434] conv4_3_norm_mbox_priorbox <- conv4_3_norm_conv4_3_norm_0_split_2
I0727 22:32:43.381801  5214 net.cpp:434] conv4_3_norm_mbox_priorbox <- data_data_0_split_1
I0727 22:32:43.381815  5214 net.cpp:408] conv4_3_norm_mbox_priorbox -> conv4_3_norm_mbox_priorbox
I0727 22:32:43.381865  5214 net.cpp:150] Setting up conv4_3_norm_mbox_priorbox
I0727 22:32:43.381881  5214 net.cpp:157] Top shape: 1 2 23104 (46208)
I0727 22:32:43.381893  5214 net.cpp:165] Memory required for data: 2011995552
I0727 22:32:43.381904  5214 layer_factory.hpp:77] Creating layer fc7_mbox_loc
I0727 22:32:43.381922  5214 net.cpp:100] Creating Layer fc7_mbox_loc
I0727 22:32:43.381934  5214 net.cpp:434] fc7_mbox_loc <- fc7_relu7_0_split_1
I0727 22:32:43.381949  5214 net.cpp:408] fc7_mbox_loc -> fc7_mbox_loc
I0727 22:32:43.383904  5214 net.cpp:150] Setting up fc7_mbox_loc
I0727 22:32:43.383914  5214 net.cpp:157] Top shape: 8 24 19 19 (69312)
I0727 22:32:43.383918  5214 net.cpp:165] Memory required for data: 2012272800
I0727 22:32:43.383924  5214 layer_factory.hpp:77] Creating layer fc7_mbox_loc_perm
I0727 22:32:43.383932  5214 net.cpp:100] Creating Layer fc7_mbox_loc_perm
I0727 22:32:43.383936  5214 net.cpp:434] fc7_mbox_loc_perm <- fc7_mbox_loc
I0727 22:32:43.383955  5214 net.cpp:408] fc7_mbox_loc_perm -> fc7_mbox_loc_perm
I0727 22:32:43.384066  5214 net.cpp:150] Setting up fc7_mbox_loc_perm
I0727 22:32:43.384088  5214 net.cpp:157] Top shape: 8 19 19 24 (69312)
I0727 22:32:43.384100  5214 net.cpp:165] Memory required for data: 2012550048
I0727 22:32:43.384111  5214 layer_factory.hpp:77] Creating layer fc7_mbox_loc_flat
I0727 22:32:43.384124  5214 net.cpp:100] Creating Layer fc7_mbox_loc_flat
I0727 22:32:43.384136  5214 net.cpp:434] fc7_mbox_loc_flat <- fc7_mbox_loc_perm
I0727 22:32:43.384150  5214 net.cpp:408] fc7_mbox_loc_flat -> fc7_mbox_loc_flat
I0727 22:32:43.384182  5214 net.cpp:150] Setting up fc7_mbox_loc_flat
I0727 22:32:43.384199  5214 net.cpp:157] Top shape: 8 8664 (69312)
I0727 22:32:43.384210  5214 net.cpp:165] Memory required for data: 2012827296
I0727 22:32:43.384222  5214 layer_factory.hpp:77] Creating layer fc7_mbox_conf
I0727 22:32:43.384237  5214 net.cpp:100] Creating Layer fc7_mbox_conf
I0727 22:32:43.384248  5214 net.cpp:434] fc7_mbox_conf <- fc7_relu7_0_split_2
I0727 22:32:43.384264  5214 net.cpp:408] fc7_mbox_conf -> fc7_mbox_conf
I0727 22:32:43.420545  5214 net.cpp:150] Setting up fc7_mbox_conf
I0727 22:32:43.420613  5214 net.cpp:157] Top shape: 8 354 19 19 (1022352)
I0727 22:32:43.420616  5214 net.cpp:165] Memory required for data: 2016916704
I0727 22:32:43.420629  5214 layer_factory.hpp:77] Creating layer fc7_mbox_conf_perm
I0727 22:32:43.420645  5214 net.cpp:100] Creating Layer fc7_mbox_conf_perm
I0727 22:32:43.420657  5214 net.cpp:434] fc7_mbox_conf_perm <- fc7_mbox_conf
I0727 22:32:43.420670  5214 net.cpp:408] fc7_mbox_conf_perm -> fc7_mbox_conf_perm
I0727 22:32:43.420773  5214 net.cpp:150] Setting up fc7_mbox_conf_perm
I0727 22:32:43.420779  5214 net.cpp:157] Top shape: 8 19 19 354 (1022352)
I0727 22:32:43.420783  5214 net.cpp:165] Memory required for data: 2021006112
I0727 22:32:43.420785  5214 layer_factory.hpp:77] Creating layer fc7_mbox_conf_flat
I0727 22:32:43.420794  5214 net.cpp:100] Creating Layer fc7_mbox_conf_flat
I0727 22:32:43.420797  5214 net.cpp:434] fc7_mbox_conf_flat <- fc7_mbox_conf_perm
I0727 22:32:43.420802  5214 net.cpp:408] fc7_mbox_conf_flat -> fc7_mbox_conf_flat
I0727 22:32:43.420827  5214 net.cpp:150] Setting up fc7_mbox_conf_flat
I0727 22:32:43.420833  5214 net.cpp:157] Top shape: 8 127794 (1022352)
I0727 22:32:43.420836  5214 net.cpp:165] Memory required for data: 2025095520
I0727 22:32:43.420840  5214 layer_factory.hpp:77] Creating layer fc7_mbox_priorbox
I0727 22:32:43.420864  5214 net.cpp:100] Creating Layer fc7_mbox_priorbox
I0727 22:32:43.420878  5214 net.cpp:434] fc7_mbox_priorbox <- fc7_relu7_0_split_3
I0727 22:32:43.420888  5214 net.cpp:434] fc7_mbox_priorbox <- data_data_0_split_2
I0727 22:32:43.420895  5214 net.cpp:408] fc7_mbox_priorbox -> fc7_mbox_priorbox
I0727 22:32:43.420939  5214 net.cpp:150] Setting up fc7_mbox_priorbox
I0727 22:32:43.420945  5214 net.cpp:157] Top shape: 1 2 8664 (17328)
I0727 22:32:43.420948  5214 net.cpp:165] Memory required for data: 2025164832
I0727 22:32:43.420953  5214 layer_factory.hpp:77] Creating layer conv6_2_mbox_loc
I0727 22:32:43.420969  5214 net.cpp:100] Creating Layer conv6_2_mbox_loc
I0727 22:32:43.420977  5214 net.cpp:434] conv6_2_mbox_loc <- conv6_2_conv6_2_relu_0_split_1
I0727 22:32:43.420986  5214 net.cpp:408] conv6_2_mbox_loc -> conv6_2_mbox_loc
I0727 22:32:43.421952  5214 net.cpp:150] Setting up conv6_2_mbox_loc
I0727 22:32:43.421959  5214 net.cpp:157] Top shape: 8 24 10 10 (19200)
I0727 22:32:43.421963  5214 net.cpp:165] Memory required for data: 2025241632
I0727 22:32:43.421969  5214 layer_factory.hpp:77] Creating layer conv6_2_mbox_loc_perm
I0727 22:32:43.421977  5214 net.cpp:100] Creating Layer conv6_2_mbox_loc_perm
I0727 22:32:43.421979  5214 net.cpp:434] conv6_2_mbox_loc_perm <- conv6_2_mbox_loc
I0727 22:32:43.421988  5214 net.cpp:408] conv6_2_mbox_loc_perm -> conv6_2_mbox_loc_perm
I0727 22:32:43.422061  5214 net.cpp:150] Setting up conv6_2_mbox_loc_perm
I0727 22:32:43.422067  5214 net.cpp:157] Top shape: 8 10 10 24 (19200)
I0727 22:32:43.422108  5214 net.cpp:165] Memory required for data: 2025318432
I0727 22:32:43.422112  5214 layer_factory.hpp:77] Creating layer conv6_2_mbox_loc_flat
I0727 22:32:43.422119  5214 net.cpp:100] Creating Layer conv6_2_mbox_loc_flat
I0727 22:32:43.422123  5214 net.cpp:434] conv6_2_mbox_loc_flat <- conv6_2_mbox_loc_perm
I0727 22:32:43.422129  5214 net.cpp:408] conv6_2_mbox_loc_flat -> conv6_2_mbox_loc_flat
I0727 22:32:43.422152  5214 net.cpp:150] Setting up conv6_2_mbox_loc_flat
I0727 22:32:43.422158  5214 net.cpp:157] Top shape: 8 2400 (19200)
I0727 22:32:43.422163  5214 net.cpp:165] Memory required for data: 2025395232
I0727 22:32:43.422165  5214 layer_factory.hpp:77] Creating layer conv6_2_mbox_conf
I0727 22:32:43.422175  5214 net.cpp:100] Creating Layer conv6_2_mbox_conf
I0727 22:32:43.422179  5214 net.cpp:434] conv6_2_mbox_conf <- conv6_2_conv6_2_relu_0_split_2
I0727 22:32:43.422185  5214 net.cpp:408] conv6_2_mbox_conf -> conv6_2_mbox_conf
I0727 22:32:43.436594  5214 net.cpp:150] Setting up conv6_2_mbox_conf
I0727 22:32:43.436664  5214 net.cpp:157] Top shape: 8 354 10 10 (283200)
I0727 22:32:43.436668  5214 net.cpp:165] Memory required for data: 2026528032
I0727 22:32:43.436686  5214 layer_factory.hpp:77] Creating layer conv6_2_mbox_conf_perm
I0727 22:32:43.436698  5214 net.cpp:100] Creating Layer conv6_2_mbox_conf_perm
I0727 22:32:43.436712  5214 net.cpp:434] conv6_2_mbox_conf_perm <- conv6_2_mbox_conf
I0727 22:32:43.436755  5214 net.cpp:408] conv6_2_mbox_conf_perm -> conv6_2_mbox_conf_perm
I0727 22:32:43.436870  5214 net.cpp:150] Setting up conv6_2_mbox_conf_perm
I0727 22:32:43.436877  5214 net.cpp:157] Top shape: 8 10 10 354 (283200)
I0727 22:32:43.436880  5214 net.cpp:165] Memory required for data: 2027660832
I0727 22:32:43.436883  5214 layer_factory.hpp:77] Creating layer conv6_2_mbox_conf_flat
I0727 22:32:43.436894  5214 net.cpp:100] Creating Layer conv6_2_mbox_conf_flat
I0727 22:32:43.436898  5214 net.cpp:434] conv6_2_mbox_conf_flat <- conv6_2_mbox_conf_perm
I0727 22:32:43.436905  5214 net.cpp:408] conv6_2_mbox_conf_flat -> conv6_2_mbox_conf_flat
I0727 22:32:43.436933  5214 net.cpp:150] Setting up conv6_2_mbox_conf_flat
I0727 22:32:43.436939  5214 net.cpp:157] Top shape: 8 35400 (283200)
I0727 22:32:43.436942  5214 net.cpp:165] Memory required for data: 2028793632
I0727 22:32:43.436946  5214 layer_factory.hpp:77] Creating layer conv6_2_mbox_priorbox
I0727 22:32:43.436955  5214 net.cpp:100] Creating Layer conv6_2_mbox_priorbox
I0727 22:32:43.436960  5214 net.cpp:434] conv6_2_mbox_priorbox <- conv6_2_conv6_2_relu_0_split_3
I0727 22:32:43.436966  5214 net.cpp:434] conv6_2_mbox_priorbox <- data_data_0_split_3
I0727 22:32:43.436977  5214 net.cpp:408] conv6_2_mbox_priorbox -> conv6_2_mbox_priorbox
I0727 22:32:43.437018  5214 net.cpp:150] Setting up conv6_2_mbox_priorbox
I0727 22:32:43.437024  5214 net.cpp:157] Top shape: 1 2 2400 (4800)
I0727 22:32:43.437027  5214 net.cpp:165] Memory required for data: 2028812832
I0727 22:32:43.437031  5214 layer_factory.hpp:77] Creating layer conv7_2_mbox_loc
I0727 22:32:43.437044  5214 net.cpp:100] Creating Layer conv7_2_mbox_loc
I0727 22:32:43.437049  5214 net.cpp:434] conv7_2_mbox_loc <- conv7_2_conv7_2_relu_0_split_1
I0727 22:32:43.437055  5214 net.cpp:408] conv7_2_mbox_loc -> conv7_2_mbox_loc
I0727 22:32:43.437639  5214 net.cpp:150] Setting up conv7_2_mbox_loc
I0727 22:32:43.437645  5214 net.cpp:157] Top shape: 8 24 5 5 (4800)
I0727 22:32:43.437649  5214 net.cpp:165] Memory required for data: 2028832032
I0727 22:32:43.437655  5214 layer_factory.hpp:77] Creating layer conv7_2_mbox_loc_perm
I0727 22:32:43.437661  5214 net.cpp:100] Creating Layer conv7_2_mbox_loc_perm
I0727 22:32:43.437665  5214 net.cpp:434] conv7_2_mbox_loc_perm <- conv7_2_mbox_loc
I0727 22:32:43.437670  5214 net.cpp:408] conv7_2_mbox_loc_perm -> conv7_2_mbox_loc_perm
I0727 22:32:43.437758  5214 net.cpp:150] Setting up conv7_2_mbox_loc_perm
I0727 22:32:43.437764  5214 net.cpp:157] Top shape: 8 5 5 24 (4800)
I0727 22:32:43.437768  5214 net.cpp:165] Memory required for data: 2028851232
I0727 22:32:43.437801  5214 layer_factory.hpp:77] Creating layer conv7_2_mbox_loc_flat
I0727 22:32:43.437806  5214 net.cpp:100] Creating Layer conv7_2_mbox_loc_flat
I0727 22:32:43.437813  5214 net.cpp:434] conv7_2_mbox_loc_flat <- conv7_2_mbox_loc_perm
I0727 22:32:43.437818  5214 net.cpp:408] conv7_2_mbox_loc_flat -> conv7_2_mbox_loc_flat
I0727 22:32:43.437837  5214 net.cpp:150] Setting up conv7_2_mbox_loc_flat
I0727 22:32:43.437842  5214 net.cpp:157] Top shape: 8 600 (4800)
I0727 22:32:43.437846  5214 net.cpp:165] Memory required for data: 2028870432
I0727 22:32:43.437849  5214 layer_factory.hpp:77] Creating layer conv7_2_mbox_conf
I0727 22:32:43.437858  5214 net.cpp:100] Creating Layer conv7_2_mbox_conf
I0727 22:32:43.437863  5214 net.cpp:434] conv7_2_mbox_conf <- conv7_2_conv7_2_relu_0_split_2
I0727 22:32:43.437870  5214 net.cpp:408] conv7_2_mbox_conf -> conv7_2_mbox_conf
I0727 22:32:43.449623  5214 net.cpp:150] Setting up conv7_2_mbox_conf
I0727 22:32:43.449708  5214 net.cpp:157] Top shape: 8 354 5 5 (70800)
I0727 22:32:43.449719  5214 net.cpp:165] Memory required for data: 2029153632
I0727 22:32:43.449735  5214 layer_factory.hpp:77] Creating layer conv7_2_mbox_conf_perm
I0727 22:32:43.449750  5214 net.cpp:100] Creating Layer conv7_2_mbox_conf_perm
I0727 22:32:43.449766  5214 net.cpp:434] conv7_2_mbox_conf_perm <- conv7_2_mbox_conf
I0727 22:32:43.449781  5214 net.cpp:408] conv7_2_mbox_conf_perm -> conv7_2_mbox_conf_perm
I0727 22:32:43.449892  5214 net.cpp:150] Setting up conv7_2_mbox_conf_perm
I0727 22:32:43.449905  5214 net.cpp:157] Top shape: 8 5 5 354 (70800)
I0727 22:32:43.449914  5214 net.cpp:165] Memory required for data: 2029436832
I0727 22:32:43.449923  5214 layer_factory.hpp:77] Creating layer conv7_2_mbox_conf_flat
I0727 22:32:43.449937  5214 net.cpp:100] Creating Layer conv7_2_mbox_conf_flat
I0727 22:32:43.449949  5214 net.cpp:434] conv7_2_mbox_conf_flat <- conv7_2_mbox_conf_perm
I0727 22:32:43.449970  5214 net.cpp:408] conv7_2_mbox_conf_flat -> conv7_2_mbox_conf_flat
I0727 22:32:43.450004  5214 net.cpp:150] Setting up conv7_2_mbox_conf_flat
I0727 22:32:43.450017  5214 net.cpp:157] Top shape: 8 8850 (70800)
I0727 22:32:43.450026  5214 net.cpp:165] Memory required for data: 2029720032
I0727 22:32:43.450036  5214 layer_factory.hpp:77] Creating layer conv7_2_mbox_priorbox
I0727 22:32:43.450049  5214 net.cpp:100] Creating Layer conv7_2_mbox_priorbox
I0727 22:32:43.450062  5214 net.cpp:434] conv7_2_mbox_priorbox <- conv7_2_conv7_2_relu_0_split_3
I0727 22:32:43.450075  5214 net.cpp:434] conv7_2_mbox_priorbox <- data_data_0_split_4
I0727 22:32:43.450088  5214 net.cpp:408] conv7_2_mbox_priorbox -> conv7_2_mbox_priorbox
I0727 22:32:43.450134  5214 net.cpp:150] Setting up conv7_2_mbox_priorbox
I0727 22:32:43.450146  5214 net.cpp:157] Top shape: 1 2 600 (1200)
I0727 22:32:43.450155  5214 net.cpp:165] Memory required for data: 2029724832
I0727 22:32:43.450163  5214 layer_factory.hpp:77] Creating layer conv8_2_mbox_loc
I0727 22:32:43.450183  5214 net.cpp:100] Creating Layer conv8_2_mbox_loc
I0727 22:32:43.450196  5214 net.cpp:434] conv8_2_mbox_loc <- conv8_2_conv8_2_relu_0_split_1
I0727 22:32:43.450211  5214 net.cpp:408] conv8_2_mbox_loc -> conv8_2_mbox_loc
I0727 22:32:43.450837  5214 net.cpp:150] Setting up conv8_2_mbox_loc
I0727 22:32:43.450845  5214 net.cpp:157] Top shape: 8 16 3 3 (1152)
I0727 22:32:43.450850  5214 net.cpp:165] Memory required for data: 2029729440
I0727 22:32:43.450870  5214 layer_factory.hpp:77] Creating layer conv8_2_mbox_loc_perm
I0727 22:32:43.450876  5214 net.cpp:100] Creating Layer conv8_2_mbox_loc_perm
I0727 22:32:43.450881  5214 net.cpp:434] conv8_2_mbox_loc_perm <- conv8_2_mbox_loc
I0727 22:32:43.450887  5214 net.cpp:408] conv8_2_mbox_loc_perm -> conv8_2_mbox_loc_perm
I0727 22:32:43.450994  5214 net.cpp:150] Setting up conv8_2_mbox_loc_perm
I0727 22:32:43.450999  5214 net.cpp:157] Top shape: 8 3 3 16 (1152)
I0727 22:32:43.451002  5214 net.cpp:165] Memory required for data: 2029734048
I0727 22:32:43.451006  5214 layer_factory.hpp:77] Creating layer conv8_2_mbox_loc_flat
I0727 22:32:43.451011  5214 net.cpp:100] Creating Layer conv8_2_mbox_loc_flat
I0727 22:32:43.451055  5214 net.cpp:434] conv8_2_mbox_loc_flat <- conv8_2_mbox_loc_perm
I0727 22:32:43.451061  5214 net.cpp:408] conv8_2_mbox_loc_flat -> conv8_2_mbox_loc_flat
I0727 22:32:43.451084  5214 net.cpp:150] Setting up conv8_2_mbox_loc_flat
I0727 22:32:43.451091  5214 net.cpp:157] Top shape: 8 144 (1152)
I0727 22:32:43.451093  5214 net.cpp:165] Memory required for data: 2029738656
I0727 22:32:43.451097  5214 layer_factory.hpp:77] Creating layer conv8_2_mbox_conf
I0727 22:32:43.451104  5214 net.cpp:100] Creating Layer conv8_2_mbox_conf
I0727 22:32:43.451109  5214 net.cpp:434] conv8_2_mbox_conf <- conv8_2_conv8_2_relu_0_split_2
I0727 22:32:43.451115  5214 net.cpp:408] conv8_2_mbox_conf -> conv8_2_mbox_conf
I0727 22:32:43.456914  5214 net.cpp:150] Setting up conv8_2_mbox_conf
I0727 22:32:43.456961  5214 net.cpp:157] Top shape: 8 236 3 3 (16992)
I0727 22:32:43.456964  5214 net.cpp:165] Memory required for data: 2029806624
I0727 22:32:43.456974  5214 layer_factory.hpp:77] Creating layer conv8_2_mbox_conf_perm
I0727 22:32:43.456984  5214 net.cpp:100] Creating Layer conv8_2_mbox_conf_perm
I0727 22:32:43.456992  5214 net.cpp:434] conv8_2_mbox_conf_perm <- conv8_2_mbox_conf
I0727 22:32:43.457001  5214 net.cpp:408] conv8_2_mbox_conf_perm -> conv8_2_mbox_conf_perm
I0727 22:32:43.457126  5214 net.cpp:150] Setting up conv8_2_mbox_conf_perm
I0727 22:32:43.457134  5214 net.cpp:157] Top shape: 8 3 3 236 (16992)
I0727 22:32:43.457137  5214 net.cpp:165] Memory required for data: 2029874592
I0727 22:32:43.457140  5214 layer_factory.hpp:77] Creating layer conv8_2_mbox_conf_flat
I0727 22:32:43.457145  5214 net.cpp:100] Creating Layer conv8_2_mbox_conf_flat
I0727 22:32:43.457149  5214 net.cpp:434] conv8_2_mbox_conf_flat <- conv8_2_mbox_conf_perm
I0727 22:32:43.457156  5214 net.cpp:408] conv8_2_mbox_conf_flat -> conv8_2_mbox_conf_flat
I0727 22:32:43.457180  5214 net.cpp:150] Setting up conv8_2_mbox_conf_flat
I0727 22:32:43.457185  5214 net.cpp:157] Top shape: 8 2124 (16992)
I0727 22:32:43.457188  5214 net.cpp:165] Memory required for data: 2029942560
I0727 22:32:43.457192  5214 layer_factory.hpp:77] Creating layer conv8_2_mbox_priorbox
I0727 22:32:43.457198  5214 net.cpp:100] Creating Layer conv8_2_mbox_priorbox
I0727 22:32:43.457203  5214 net.cpp:434] conv8_2_mbox_priorbox <- conv8_2_conv8_2_relu_0_split_3
I0727 22:32:43.457208  5214 net.cpp:434] conv8_2_mbox_priorbox <- data_data_0_split_5
I0727 22:32:43.457216  5214 net.cpp:408] conv8_2_mbox_priorbox -> conv8_2_mbox_priorbox
I0727 22:32:43.457257  5214 net.cpp:150] Setting up conv8_2_mbox_priorbox
I0727 22:32:43.457263  5214 net.cpp:157] Top shape: 1 2 144 (288)
I0727 22:32:43.457267  5214 net.cpp:165] Memory required for data: 2029943712
I0727 22:32:43.457270  5214 layer_factory.hpp:77] Creating layer conv9_2_mbox_loc
I0727 22:32:43.457288  5214 net.cpp:100] Creating Layer conv9_2_mbox_loc
I0727 22:32:43.457293  5214 net.cpp:434] conv9_2_mbox_loc <- conv9_2_conv9_2_relu_0_split_0
I0727 22:32:43.457298  5214 net.cpp:408] conv9_2_mbox_loc -> conv9_2_mbox_loc
I0727 22:32:43.457909  5214 net.cpp:150] Setting up conv9_2_mbox_loc
I0727 22:32:43.457916  5214 net.cpp:157] Top shape: 8 16 1 1 (128)
I0727 22:32:43.457921  5214 net.cpp:165] Memory required for data: 2029944224
I0727 22:32:43.457926  5214 layer_factory.hpp:77] Creating layer conv9_2_mbox_loc_perm
I0727 22:32:43.457932  5214 net.cpp:100] Creating Layer conv9_2_mbox_loc_perm
I0727 22:32:43.457937  5214 net.cpp:434] conv9_2_mbox_loc_perm <- conv9_2_mbox_loc
I0727 22:32:43.457942  5214 net.cpp:408] conv9_2_mbox_loc_perm -> conv9_2_mbox_loc_perm
I0727 22:32:43.458045  5214 net.cpp:150] Setting up conv9_2_mbox_loc_perm
I0727 22:32:43.458052  5214 net.cpp:157] Top shape: 8 1 1 16 (128)
I0727 22:32:43.458055  5214 net.cpp:165] Memory required for data: 2029944736
I0727 22:32:43.458058  5214 layer_factory.hpp:77] Creating layer conv9_2_mbox_loc_flat
I0727 22:32:43.458063  5214 net.cpp:100] Creating Layer conv9_2_mbox_loc_flat
I0727 22:32:43.458067  5214 net.cpp:434] conv9_2_mbox_loc_flat <- conv9_2_mbox_loc_perm
I0727 22:32:43.458088  5214 net.cpp:408] conv9_2_mbox_loc_flat -> conv9_2_mbox_loc_flat
I0727 22:32:43.458112  5214 net.cpp:150] Setting up conv9_2_mbox_loc_flat
I0727 22:32:43.458117  5214 net.cpp:157] Top shape: 8 16 (128)
I0727 22:32:43.458122  5214 net.cpp:165] Memory required for data: 2029945248
I0727 22:32:43.458124  5214 layer_factory.hpp:77] Creating layer conv9_2_mbox_conf
I0727 22:32:43.458132  5214 net.cpp:100] Creating Layer conv9_2_mbox_conf
I0727 22:32:43.458134  5214 net.cpp:434] conv9_2_mbox_conf <- conv9_2_conv9_2_relu_0_split_1
I0727 22:32:43.458142  5214 net.cpp:408] conv9_2_mbox_conf -> conv9_2_mbox_conf
I0727 22:32:43.464011  5214 net.cpp:150] Setting up conv9_2_mbox_conf
I0727 22:32:43.464053  5214 net.cpp:157] Top shape: 8 236 1 1 (1888)
I0727 22:32:43.464058  5214 net.cpp:165] Memory required for data: 2029952800
I0727 22:32:43.464071  5214 layer_factory.hpp:77] Creating layer conv9_2_mbox_conf_perm
I0727 22:32:43.464085  5214 net.cpp:100] Creating Layer conv9_2_mbox_conf_perm
I0727 22:32:43.464095  5214 net.cpp:434] conv9_2_mbox_conf_perm <- conv9_2_mbox_conf
I0727 22:32:43.464109  5214 net.cpp:408] conv9_2_mbox_conf_perm -> conv9_2_mbox_conf_perm
I0727 22:32:43.464252  5214 net.cpp:150] Setting up conv9_2_mbox_conf_perm
I0727 22:32:43.464263  5214 net.cpp:157] Top shape: 8 1 1 236 (1888)
I0727 22:32:43.464267  5214 net.cpp:165] Memory required for data: 2029960352
I0727 22:32:43.464270  5214 layer_factory.hpp:77] Creating layer conv9_2_mbox_conf_flat
I0727 22:32:43.464279  5214 net.cpp:100] Creating Layer conv9_2_mbox_conf_flat
I0727 22:32:43.464283  5214 net.cpp:434] conv9_2_mbox_conf_flat <- conv9_2_mbox_conf_perm
I0727 22:32:43.464290  5214 net.cpp:408] conv9_2_mbox_conf_flat -> conv9_2_mbox_conf_flat
I0727 22:32:43.464314  5214 net.cpp:150] Setting up conv9_2_mbox_conf_flat
I0727 22:32:43.464320  5214 net.cpp:157] Top shape: 8 236 (1888)
I0727 22:32:43.464324  5214 net.cpp:165] Memory required for data: 2029967904
I0727 22:32:43.464328  5214 layer_factory.hpp:77] Creating layer conv9_2_mbox_priorbox
I0727 22:32:43.464339  5214 net.cpp:100] Creating Layer conv9_2_mbox_priorbox
I0727 22:32:43.464345  5214 net.cpp:434] conv9_2_mbox_priorbox <- conv9_2_conv9_2_relu_0_split_2
I0727 22:32:43.464352  5214 net.cpp:434] conv9_2_mbox_priorbox <- data_data_0_split_6
I0727 22:32:43.464359  5214 net.cpp:408] conv9_2_mbox_priorbox -> conv9_2_mbox_priorbox
I0727 22:32:43.464411  5214 net.cpp:150] Setting up conv9_2_mbox_priorbox
I0727 22:32:43.464417  5214 net.cpp:157] Top shape: 1 2 16 (32)
I0727 22:32:43.464421  5214 net.cpp:165] Memory required for data: 2029968032
I0727 22:32:43.464424  5214 layer_factory.hpp:77] Creating layer mbox_loc
I0727 22:32:43.464439  5214 net.cpp:100] Creating Layer mbox_loc
I0727 22:32:43.464447  5214 net.cpp:434] mbox_loc <- conv4_3_norm_mbox_loc_flat
I0727 22:32:43.464454  5214 net.cpp:434] mbox_loc <- fc7_mbox_loc_flat
I0727 22:32:43.464460  5214 net.cpp:434] mbox_loc <- conv6_2_mbox_loc_flat
I0727 22:32:43.464468  5214 net.cpp:434] mbox_loc <- conv7_2_mbox_loc_flat
I0727 22:32:43.464474  5214 net.cpp:434] mbox_loc <- conv8_2_mbox_loc_flat
I0727 22:32:43.464478  5214 net.cpp:434] mbox_loc <- conv9_2_mbox_loc_flat
I0727 22:32:43.464486  5214 net.cpp:408] mbox_loc -> mbox_loc
I0727 22:32:43.464517  5214 net.cpp:150] Setting up mbox_loc
I0727 22:32:43.464524  5214 net.cpp:157] Top shape: 8 34928 (279424)
I0727 22:32:43.464527  5214 net.cpp:165] Memory required for data: 2031085728
I0727 22:32:43.464530  5214 layer_factory.hpp:77] Creating layer mbox_conf
I0727 22:32:43.464535  5214 net.cpp:100] Creating Layer mbox_conf
I0727 22:32:43.464540  5214 net.cpp:434] mbox_conf <- conv4_3_norm_mbox_conf_flat
I0727 22:32:43.464546  5214 net.cpp:434] mbox_conf <- fc7_mbox_conf_flat
I0727 22:32:43.464551  5214 net.cpp:434] mbox_conf <- conv6_2_mbox_conf_flat
I0727 22:32:43.464555  5214 net.cpp:434] mbox_conf <- conv7_2_mbox_conf_flat
I0727 22:32:43.464560  5214 net.cpp:434] mbox_conf <- conv8_2_mbox_conf_flat
I0727 22:32:43.464565  5214 net.cpp:434] mbox_conf <- conv9_2_mbox_conf_flat
I0727 22:32:43.464596  5214 net.cpp:408] mbox_conf -> mbox_conf
I0727 22:32:43.464625  5214 net.cpp:150] Setting up mbox_conf
I0727 22:32:43.464632  5214 net.cpp:157] Top shape: 8 515188 (4121504)
I0727 22:32:43.464635  5214 net.cpp:165] Memory required for data: 2047571744
I0727 22:32:43.464639  5214 layer_factory.hpp:77] Creating layer mbox_priorbox
I0727 22:32:43.464644  5214 net.cpp:100] Creating Layer mbox_priorbox
I0727 22:32:43.464648  5214 net.cpp:434] mbox_priorbox <- conv4_3_norm_mbox_priorbox
I0727 22:32:43.464653  5214 net.cpp:434] mbox_priorbox <- fc7_mbox_priorbox
I0727 22:32:43.464658  5214 net.cpp:434] mbox_priorbox <- conv6_2_mbox_priorbox
I0727 22:32:43.464661  5214 net.cpp:434] mbox_priorbox <- conv7_2_mbox_priorbox
I0727 22:32:43.464665  5214 net.cpp:434] mbox_priorbox <- conv8_2_mbox_priorbox
I0727 22:32:43.464670  5214 net.cpp:434] mbox_priorbox <- conv9_2_mbox_priorbox
I0727 22:32:43.464675  5214 net.cpp:408] mbox_priorbox -> mbox_priorbox
I0727 22:32:43.464699  5214 net.cpp:150] Setting up mbox_priorbox
I0727 22:32:43.464709  5214 net.cpp:157] Top shape: 1 2 34928 (69856)
I0727 22:32:43.464711  5214 net.cpp:165] Memory required for data: 2047851168
I0727 22:32:43.464715  5214 layer_factory.hpp:77] Creating layer mbox_conf_reshape
I0727 22:32:43.464727  5214 net.cpp:100] Creating Layer mbox_conf_reshape
I0727 22:32:43.464732  5214 net.cpp:434] mbox_conf_reshape <- mbox_conf
I0727 22:32:43.464737  5214 net.cpp:408] mbox_conf_reshape -> mbox_conf_reshape
I0727 22:32:43.464772  5214 net.cpp:150] Setting up mbox_conf_reshape
I0727 22:32:43.464778  5214 net.cpp:157] Top shape: 8 8732 59 (4121504)
I0727 22:32:43.464782  5214 net.cpp:165] Memory required for data: 2064337184
I0727 22:32:43.464785  5214 layer_factory.hpp:77] Creating layer mbox_conf_softmax
I0727 22:32:43.464792  5214 net.cpp:100] Creating Layer mbox_conf_softmax
I0727 22:32:43.464795  5214 net.cpp:434] mbox_conf_softmax <- mbox_conf_reshape
I0727 22:32:43.464802  5214 net.cpp:408] mbox_conf_softmax -> mbox_conf_softmax
I0727 22:32:43.464887  5214 net.cpp:150] Setting up mbox_conf_softmax
I0727 22:32:43.464893  5214 net.cpp:157] Top shape: 8 8732 59 (4121504)
I0727 22:32:43.464896  5214 net.cpp:165] Memory required for data: 2080823200
I0727 22:32:43.464900  5214 layer_factory.hpp:77] Creating layer mbox_conf_flatten
I0727 22:32:43.464905  5214 net.cpp:100] Creating Layer mbox_conf_flatten
I0727 22:32:43.464908  5214 net.cpp:434] mbox_conf_flatten <- mbox_conf_softmax
I0727 22:32:43.464913  5214 net.cpp:408] mbox_conf_flatten -> mbox_conf_flatten
I0727 22:32:43.464936  5214 net.cpp:150] Setting up mbox_conf_flatten
I0727 22:32:43.464941  5214 net.cpp:157] Top shape: 8 515188 (4121504)
I0727 22:32:43.464946  5214 net.cpp:165] Memory required for data: 2097309216
I0727 22:32:43.464948  5214 layer_factory.hpp:77] Creating layer detection_out
I0727 22:32:43.464983  5214 net.cpp:100] Creating Layer detection_out
I0727 22:32:43.464988  5214 net.cpp:434] detection_out <- mbox_loc
I0727 22:32:43.464993  5214 net.cpp:434] detection_out <- mbox_conf_flatten
I0727 22:32:43.464998  5214 net.cpp:434] detection_out <- mbox_priorbox
I0727 22:32:43.465003  5214 net.cpp:408] detection_out -> detection_out
I0727 22:32:43.469003  5214 net.cpp:150] Setting up detection_out
I0727 22:32:43.469027  5214 net.cpp:157] Top shape: 1 1 1 7 (7)
I0727 22:32:43.469032  5214 net.cpp:165] Memory required for data: 2097309244
I0727 22:32:43.469096  5214 layer_factory.hpp:77] Creating layer detection_eval
I0727 22:32:43.469130  5214 net.cpp:100] Creating Layer detection_eval
I0727 22:32:43.469138  5214 net.cpp:434] detection_eval <- detection_out
I0727 22:32:43.469178  5214 net.cpp:434] detection_eval <- label
I0727 22:32:43.469203  5214 net.cpp:408] detection_eval -> detection_eval
I0727 22:32:43.469612  5214 net.cpp:150] Setting up detection_eval
I0727 22:32:43.469642  5214 net.cpp:157] Top shape: 1 1 59 5 (295)
I0727 22:32:43.469646  5214 net.cpp:165] Memory required for data: 2097310424
I0727 22:32:43.469697  5214 net.cpp:228] detection_eval does not need backward computation.
I0727 22:32:43.469728  5214 net.cpp:228] detection_out does not need backward computation.
I0727 22:32:43.469765  5214 net.cpp:228] mbox_conf_flatten does not need backward computation.
I0727 22:32:43.469772  5214 net.cpp:228] mbox_conf_softmax does not need backward computation.
…
