…
      sampler {
        min_scale: 0.3
        max_scale: 1
        min_aspect_ratio: 0.5
        max_aspect_ratio: 2
      }
      sample_constraint {
        min_jaccard_overlap: 0.9
      }
      max_sample: 1
      max_trials: 50
    }
    batch_sampler {
      sampler {
        min_scale: 0.3
        max_scale: 1
        min_aspect_ratio: 0.5
        max_aspect_ratio: 2
      }
      sample_constraint {
        max_jaccard_overlap: 1
      }
      max_sample: 1
      max_trials: 50
    }
    label_map_file: "data/VOC0712/labelmap_voc.prototxt"
  }
}
layer {
  name: "conv1_1"
  type: "Convolution"
  bottom: "data"
  top: "conv1_1"
  param {
    lr_mult: 1
    decay_mult: 1
  }
  param {
    lr_mult: 2
    decay_mult: 0
  }
  convolution_param {
    num_output: 64
    pad: 1
    kernel_size: 3
    weight_filler {
      type: "xavier"
    }
    bias_filler {
      type: "constant"
      value: 0
    }
  }
}
layer {
  name: "relu1_1"
  type: "ReLU"
  bottom: "conv1_1"
  top: "conv1_1"
}
layer {
  name: "conv1_2"
  type: "Convolution"
  bottom: "conv1_1"
  top: "conv1_2"
  param {
    lr_mult: 1
    decay_mult: 1
  }
  param {
    lr_mult: 2
    decay_mult: 0
  }
  convolution_param {
    num_output: 64
    pad: 1
    kernel_size: 3
    weight_filler {
      type: "xavier"
    }
    bias_filler {
      type: "constant"
      value: 0
    }
  }
}
layer {
  name: "relu1_2"
  type: "ReLU"
  bottom: "conv1_2"
  top: "conv1_2"
}
layer {
  name: "pool1"
  type: "Pooling"
  bottom: "conv1_2"
  top: "pool1"
  pooling_param {
    pool: MAX
    kernel_size: 2
    stride: 2
  }
}
layer {
  name: "conv2_1"
  type: "Convolution"
  bottom: "pool1"
  top: "conv2_1"
  param {
    lr_mult: 1
    decay_mult: 1
  }
  param {
    lr_mult: 2
    decay_mult: 0
  }
  convolution_param {
    num_output: 128
    pad: 1
    kernel_size: 3
    weight_filler {
      type: "xavier"
    }
    bias_filler {
      type: "constant"
      value: 0
    }
  }
}
layer {
  name: "relu2_1"
  type: "ReLU"
  bottom: "conv2_1"
  top: "conv2_1"
}
layer {
  name: "conv2_2"
  type: "Convolution"
  bottom: "conv2_1"
  top: "conv2_2"
  param {
    lr_mult: 1
    decay_mult: 1
  }
  param {
    lr_mult: 2
    decay_mult: 0
  }
  convolution_param {
    num_output: 128
    pad: 1
    kernel_size: 3
    weight_filler {
      type: "xavier"
    }
    bias_filler {
      type: "constant"
      value: 0
    }
  }
}
layer {
  name: "relu2_2"
  type: "ReLU"
  bottom: "conv2_2"
  top: "conv2_2"
}
layer {
  name: "pool2"
  type: "Pooling"
  bottom: "conv2_2"
  top: "pool2"
  pooling_param {
    pool: MAX
    kernel_size: 2
    stride: 2
  }
}
layer {
  name: "conv3_1"
  type: "Convolution"
  bottom: "pool2"
  top: "conv3_1"
  param {
    lr_mult: 1
    decay_mult: 1
  }
  param {
    lr_mult: 2
    decay_mult: 0
  }
  convolution_param {
    num_output: 256
    pad: 1
    kernel_size: 3
    weight_filler {
      type: "xavier"
    }
    bias_filler {
      type: "constant"
      value: 0
    }
  }
}
layer {
  name: "relu3_1"
  type: "ReLU"
  bottom: "conv3_1"
  top: "conv3_1"
}
layer {
  name: "conv3_2"
  type: "Convolution"
  bottom: "conv3_1"
  top: "conv3_2"
  param {
    lr_mult: 1
    decay_mult: 1
  }
  param {
    lr_mult: 2
    decay_mult: 0
  }
  convolution_param {
    num_output: 256
    pad: 1
    kernel_size: 3
    weight_filler {
      type: "xavier"
    }
    bias_filler {
      type: "constant"
      value: 0
    }
  }
}
layer {
  name: "relu3_2"
  type: "ReLU"
  bottom: "conv3_2"
  top: "conv3_2"
}
layer {
  name: "conv3_3"
  type: "Convolution"
  bottom: "conv3_2"
  top: "conv3_3"
  param {
    lr_mult: 1
    decay_mult: 1
  }
  param {
    lr_mult: 2
    decay_mult: 0
  }
  convolution_param {
    num_output: 256
    pad: 1
    kernel_size: 3
    weight_filler {
      type: "xavier"
    }
    bias_filler {
      type: "constant"
      value: 0
    }
  }
}
layer {
  name: "relu3_3"
  type: "ReLU"
  bottom: "conv3_3"
  top: "conv3_3"
}
layer {
  name: "pool3"
  type: "Pooling"
  bottom: "conv3_3"
  top: "pool3"
  pooling_param {
    pool: MAX
    kernel_size: 2
    stride: 2
  }
}
layer {
  name: "conv4_1"
  type: "Convolution"
  bottom: "pool3"
  top: "conv4_1"
  param {
    lr_mult: 1
    decay_mult: 1
  }
  param {
    lr_mult: 2
    decay_mult: 0
  }
  convolution_param {
    num_output: 512
    pad: 1
    kernel_size: 3
    weight_filler {
      type: "xavier"
    }
    bias_filler {
      type: "constant"
      value: 0
    }
  }
}
layer {
  name: "relu4_1"
  type: "ReLU"
  bottom: "conv4_1"
  top: "conv4_1"
}
layer {
  name: "conv4_2"
  type: "Convolution"
  bottom: "conv4_1"
  top: "conv4_2"
  param {
    lr_mult: 1
    decay_mult: 1
  }
  param {
    lr_mult: 2
    decay_mult: 0
  }
  convolution_param {
    num_output: 512
    pad: 1
    kernel_size: 3
    weight_filler {
      type: "xavier"
    }
    bias_filler {
      type: "constant"
      value: 0
    }
  }
}
layer {
  name: "relu4_2"
  type: "ReLU"
  bottom: "conv4_2"
  top: "conv4_2"
}
layer {
  name: "conv4_3"
  type: "Convolution"
  bottom: "conv4_2"
  top: "conv4_3"
  param {
    lr_mult: 1
    decay_mult: 1
  }
  param {
    lr_mult: 2
    decay_mult: 0
  }
  convolution_param {
    num_output: 512
    pad: 1
    kernel_size: 3
    weight_filler {
      type: "xavier"
    }
    bias_filler {
      type: "constant"
      value: 0
    }
  }
}
layer {
  name: "relu4_3"
  type: "ReLU"
  bottom: "conv4_3"
  top: "conv4_3"
}
layer {
  name: "pool4"
  type: "Pooling"
  bottom: "conv4_3"
  top: "pool4"
  pooling_param {
    pool: MAX
    kernel_size: 2
    stride: 2
  }
}
layer {
  name: "conv5_1"
  type: "Convolution"
  bottom: "pool4"
  top: "conv5_1"
  param {
    lr_mult: 1
    decay_mult: 1
  }
  param {
    lr_mult: 2
    decay_mult: 0
  }
  convolution_param {
    num_output: 512
    pad: 1
    kernel_size: 3
    weight_filler {
      type: "xavier"
    }
    bias_filler {
      type: "constant"
      value: 0
    }
    dilation: 1
  }
}
layer {
  name: "relu5_1"
  type: "ReLU"
  bottom: "conv5_1"
  top: "conv5_1"
}
layer {
  name: "conv5_2"
  type: "Convolution"
  bottom: "conv5_1"
  top: "conv5_2"
  param {
    lr_mult: 1
    decay_mult: 1
  }
  param {
    lr_mult: 2
    decay_mult: 0
  }
  convolution_param {
    num_output: 512
    pad: 1
    kernel_size: 3
    weight_filler {
      type: "xavier"
    }
    bias_filler {
      type: "constant"
      value: 0
    }
    dilation: 1
  }
}
layer {
  name: "relu5_2"
  type: "ReLU"
  bottom: "conv5_2"
  top: "conv5_2"
}
layer {
  name: "conv5_3"
  type: "Convolution"
  bottom: "conv5_2"
  top: "conv5_3"
  param {
    lr_mult: 1
    decay_mult: 1
  }
  param {
    lr_mult: 2
    decay_mult: 0
  }
  convolution_param {
    num_output: 512
    pad: 1
    kernel_size: 3
    weight_filler {
      type: "xavier"
    }
    bias_filler {
      type: "constant"
      value: 0
    }
    dilation: 1
  }
}
layer {
  name: "relu5_3"
  type: "ReLU"
  bottom: "conv5_3"
  top: "conv5_3"
}
layer {
  name: "pool5"
  type: "Pooling"
  bottom: "conv5_3"
  top: "pool5"
  pooling_param {
    pool: MAX
    kernel_size: 3
    stride: 1
    pad: 1
  }
}
layer {
  name: "fc6"
  type: "Convolution"
  bottom: "pool5"
  top: "fc6"
  param {
    lr_mult: 1
    decay_mult: 1
  }
  param {
    lr_mult: 2
    decay_mult: 0
  }
  convolution_param {
    num_output: 1024
    pad: 6
    kernel_size: 3
    weight_filler {
      type: "xavier"
    }
    bias_filler {
      type: "constant"
      value: 0
    }
    dilation: 6
  }
}
layer {
  name: "relu6"
  type: "ReLU"
  bottom: "fc6"
  top: "fc6"
}
layer {
  name: "fc7"
  type: "Convolution"
  bottom: "fc6"
  top: "fc7"
  param {
    lr_mult: 1
    decay_mult: 1
  }
  param {
    lr_mult: 2
    decay_mult: 0
  }
  convolution_param {
    num_output: 1024
    kernel_size: 1
    weight_filler {
      type: "xavier"
    }
    bias_filler {
      type: "constant"
      value: 0
    }
  }
}
layer {
  name: "relu7"
  type: "ReLU"
  bottom: "fc7"
  top: "fc7"
}
layer {
  name: "conv6_1"
  type: "Convolution"
  bottom: "fc7"
  top: "conv6_1"
  param {
    lr_mult: 1
    decay_mult: 1
  }
  param {
    lr_mult: 2
    decay_mult: 0
  }
  convolution_param {
    num_output: 256
    pad: 0
    kernel_size: 1
    stride: 1
    weight_filler {
      type: "xavier"
    }
    bias_filler {
      type: "constant"
      value: 0
    }
  }
}
layer {
  name: "conv6_1_relu"
  type: "ReLU"
  bottom: "conv6_1"
  top: "conv6_1"
}
layer {
  name: "conv6_2"
  type: "Convolution"
  bottom: "conv6_1"
  top: "conv6_2"
  param {
    lr_mult: 1
    decay_mult: 1
  }
  param {
    lr_mult: 2
    decay_mult: 0
  }
  convolution_param {
    num_output: 512
    pad: 1
    kernel_size: 3
    stride: 2
    weight_filler {
      type: "xavier"
    }
    bias_filler {
      type: "constant"
      value: 0
    }
  }
}
layer {
  name: "conv6_2_relu"
  type: "ReLU"
  bottom: "conv6_2"
  top: "conv6_2"
}
layer {
  name: "conv7_1"
  type: "Convolution"
  bottom: "conv6_2"
  top: "conv7_1"
  param {
    lr_mult: 1
    decay_mult: 1
  }
  param {
    lr_mult: 2
    decay_mult: 0
  }
  convolution_param {
    num_output: 128
    pad: 0
    kernel_size: 1
    stride: 1
    weight_filler {
      type: "xavier"
    }
    bias_filler {
      type: "constant"
      value: 0
    }
  }
}
layer {
  name: "conv7_1_relu"
  type: "ReLU"
  bottom: "conv7_1"
  top: "conv7_1"
}
layer {
  name: "conv7_2"
  type: "Convolution"
  bottom: "conv7_1"
  top: "conv7_2"
  param {
    lr_mult: 1
    decay_mult: 1
  }
  param {
    lr_mult: 2
    decay_mult: 0
  }
  convolution_param {
    num_output: 256
    pad: 1
    kernel_size: 3
    stride: 2
    weight_filler {
      type: "xavier"
    }
    bias_filler {
      type: "constant"
      value: 0
    }
  }
}
layer {
  name: "conv7_2_relu"
  type: "ReLU"
  bottom: "conv7_2"
  top: "conv7_2"
}
layer {
  name: "conv8_1"
  type: "Convolution"
  bottom: "conv7_2"
  top: "conv8_1"
  param {
    lr_mult: 1
    decay_mult: 1
  }
  param {
    lr_mult: 2
    decay_mult: 0
  }
  convolution_param {
    num_output: 128
    pad: 0
    kernel_size: 1
    stride: 1
    weight_filler {
      type: "xavier"
    }
    bias_filler {
      type: "constant"
      value: 0
    }
  }
}
layer {
  name: "conv8_1_relu"
  type: "ReLU"
  bottom: "conv8_1"
  top: "conv8_1"
}
layer {
  name: "conv8_2"
  type: "Convolution"
  bottom: "conv8_1"
  top: "conv8_2"
  param {
    lr_mult: 1
    decay_mult: 1
  }
  param {
    lr_mult: 2
    decay_mult: 0
  }
  convolution_param {
    num_output: 256
    pad: 0
    kernel_size: 3
    stride: 1
    weight_filler {
      type: "xavier"
    }
    bias_filler {
      type: "constant"
      value: 0
    }
  }
}
layer {
  name: "conv8_2_relu"
  type: "ReLU"
  bottom: "conv8_2"
  top: "conv8_2"
}
layer {
  name: "conv9_1"
  type: "Convolution"
  bottom: "conv8_2"
  top: "conv9_1"
  param {
    lr_mult: 1
    decay_mult: 1
  }
  param {
    lr_mult: 2
    decay_mult: 0
  }
  convolution_param {
    num_output: 128
    pad: 0
    kernel_size: 1
    stride: 1
    weight_filler {
      type: "xavier"
    }
    bias_filler {
      type: "constant"
      value: 0
    }
  }
}
layer {
  name: "conv9_1_relu"
  type: "ReLU"
  bottom: "conv9_1"
  top: "conv9_1"
}
layer {
  name: "conv9_2"
  type: "Convolution"
  bottom: "conv9_1"
  top: "conv9_2"
  param {
    lr_mult: 1
    decay_mult: 1
  }
  param {
    lr_mult: 2
    decay_mult: 0
  }
  convolution_param {
    num_output: 256
    pad: 0
    kernel_size: 3
    stride: 1
    weight_filler {
      type: "xavier"
    }
    bias_filler {
      type: "constant"
      value: 0
    }
  }
}
layer {
  name: "conv9_2_relu"
  type: "ReLU"
  bottom: "conv9_2"
  top: "conv9_2"
}
layer {
  name: "conv4_3_norm"
  type: "Normalize"
  bottom: "conv4_3"
  top: "conv4_3_norm"
  norm_param {
    across_spatial: false
    scale_filler {
      type: "constant"
      value: 20
    }
    channel_shared: false
  }
}
layer {
  name: "conv4_3_norm_mbox_loc"
  type: "Convolution"
  bottom: "conv4_3_norm"
  top: "conv4_3_norm_mbox_loc"
  param {
    lr_mult: 1
    decay_mult: 1
  }
  param {
    lr_mult: 2
    decay_mult: 0
  }
  convolution_param {
    num_output: 16
    pad: 1
    kernel_size: 3
    stride: 1
    weight_filler {
      type: "xavier"
    }
    bias_filler {
      type: "constant"
      value: 0
    }
  }
}
layer {
  name: "conv4_3_norm_mbox_loc_perm"
  type: "Permute"
  bottom: "conv4_3_norm_mbox_loc"
  top: "conv4_3_norm_mbox_loc_perm"
  permute_param {
    order: 0
    order: 2
    order: 3
    order: 1
  }
}
layer {
  name: "conv4_3_norm_mbox_loc_flat"
  type: "Flatten"
  bottom: "conv4_3_norm_mbox_loc_perm"
  top: "conv4_3_norm_mbox_loc_flat"
  flatten_param {
    axis: 1
  }
}
layer {
  name: "conv4_3_norm_mbox_conf"
  type: "Convolution"
  bottom: "conv4_3_norm"
  top: "conv4_3_norm_mbox_conf"
  param {
    lr_mult: 1
    decay_mult: 1
  }
  param {
    lr_mult: 2
    decay_mult: 0
  }
  convolution_param {
    num_output: 84
    pad: 1
    kernel_size: 3
    stride: 1
    weight_filler {
      type: "xavier"
    }
    bias_filler {
      type: "constant"
      value: 0
    }
  }
}
layer {
  name: "conv4_3_norm_mbox_conf_perm"
  type: "Permute"
  bottom: "conv4_3_norm_mbox_conf"
  top: "conv4_3_norm_mbox_conf_perm"
  permute_param {
    order: 0
    order: 2
    order: 3
    order: 1
  }
}
layer {
  name: "conv4_3_norm_mbox_conf_flat"
  type: "Flatten"
  bottom: "conv4_3_norm_mbox_conf_perm"
  top: "conv4_3_norm_mbox_conf_flat"
  flatten_param {
    axis: 1
  }
}
layer {
  name: "conv4_3_norm_mbox_priorbox"
  type: "PriorBox"
  bottom: "conv4_3_norm"
  bottom: "data"
  top: "conv4_3_norm_mbox_priorbox"
  prior_box_param {
    min_size: 30
    max_size: 60
    aspect_ratio: 2
    flip: true
    clip: false
    variance: 0.1
    variance: 0.1
    variance: 0.2
    variance: 0.2
    step: 8
    offset: 0.5
  }
}
layer {
  name: "fc7_mbox_loc"
  type: "Convolution"
  bottom: "fc7"
  top: "fc7_mbox_loc"
  param {
    lr_mult: 1
    decay_mult: 1
  }
  param {
    lr_mult: 2
    decay_mult: 0
  }
  convolution_param {
    num_output: 24
    pad: 1
    kernel_size: 3
    stride: 1
    weight_filler {
      type: "xavier"
    }
    bias_filler {
      type: "constant"
      value: 0
    }
  }
}
layer {
  name: "fc7_mbox_loc_perm"
  type: "Permute"
  bottom: "fc7_mbox_loc"
  top: "fc7_mbox_loc_perm"
  permute_param {
    order: 0
    order: 2
    order: 3
    order: 1
  }
}
layer {
  name: "fc7_mbox_loc_flat"
  type: "Flatten"
  bottom: "fc7_mbox_loc_perm"
  top: "fc7_mbox_loc_flat"
  flatten_param {
    axis: 1
  }
}
layer {
  name: "fc7_mbox_conf"
  type: "Convolution"
  bottom: "fc7"
  top: "fc7_mbox_conf"
  param {
    lr_mult: 1
    decay_mult: 1
  }
  param {
    lr_mult: 2
    decay_mult: 0
  }
  convolution_param {
    num_output: 126
    pad: 1
    kernel_size: 3
    stride: 1
    weight_filler {
      type: "xavier"
    }
    bias_filler {
      type: "constant"
      value: 0
    }
  }
}
layer {
  name: "fc7_mbox_conf_perm"
  type: "Permute"
  bottom: "fc7_mbox_conf"
  top: "fc7_mbox_conf_perm"
  permute_param {
    order: 0
    order: 2
    order: 3
    order: 1
  }
}
layer {
  name: "fc7_mbox_conf_flat"
  type: "Flatten"
  bottom: "fc7_mbox_conf_perm"
  top: "fc7_mbox_conf_flat"
  flatten_param {
    axis: 1
  }
}
layer {
  name: "fc7_mbox_priorbox"
  type: "PriorBox"
  bottom: "fc7"
  bottom: "data"
  top: "fc7_mbox_priorbox"
  prior_box_param {
    min_size: 60
    max_size: 111
    aspect_ratio: 2
    aspect_ratio: 3
    flip: true
    clip: false
    variance: 0.1
    variance: 0.1
    variance: 0.2
    variance: 0.2
    step: 16
    offset: 0.5
  }
}
layer {
  name: "conv6_2_mbox_loc"
  type: "Convolution"
  bottom: "conv6_2"
  top: "conv6_2_mbox_loc"
  param {
    lr_mult: 1
    decay_mult: 1
  }
  param {
    lr_mult: 2
    decay_mult: 0
  }
  convolution_param {
    num_output: 24
    pad: 1
    kernel_size: 3
    stride: 1
    weight_filler {
      type: "xavier"
    }
    bias_filler {
      type: "constant"
      value: 0
    }
  }
}
layer {
  name: "conv6_2_mbox_loc_perm"
  type: "Permute"
  bottom: "conv6_2_mbox_loc"
  top: "conv6_2_mbox_loc_perm"
  permute_param {
    order: 0
    order: 2
    order: 3
    order: 1
  }
}
layer {
  name: "conv6_2_mbox_loc_flat"
  type: "Flatten"
  bottom: "conv6_2_mbox_loc_perm"
  top: "conv6_2_mbox_loc_flat"
  flatten_param {
    axis: 1
  }
}
layer {
  name: "conv6_2_mbox_conf"
  type: "Convolution"
  bottom: "conv6_2"
  top: "conv6_2_mbox_conf"
  param {
    lr_mult: 1
    decay_mult: 1
  }
  param {
    lr_mult: 2
    decay_mult: 0
  }
  convolution_param {
    num_output: 126
    pad: 1
    kernel_size: 3
    stride: 1
    weight_filler {
      type: "xavier"
    }
    bias_filler {
      type: "constant"
      value: 0
    }
  }
}
layer {
  name: "conv6_2_mbox_conf_perm"
  type: "Permute"
  bottom: "conv6_2_mbox_conf"
  top: "conv6_2_mbox_conf_perm"
  permute_param {
    order: 0
    order: 2
    order: 3
    order: 1
  }
}
layer {
  name: "conv6_2_mbox_conf_flat"
  type: "Flatten"
  bottom: "conv6_2_mbox_conf_perm"
  top: "conv6_2_mbox_conf_flat"
  flatten_param {
    axis: 1
  }
}
layer {
  name: "conv6_2_mbox_priorbox"
  type: "PriorBox"
  bottom: "conv6_2"
  bottom: "data"
  top: "conv6_2_mbox_priorbox"
  prior_box_param {
    min_size: 111
    max_size: 162
    aspect_ratio: 2
    aspect_ratio: 3
    flip: true
    clip: false
    variance: 0.1
    variance: 0.1
    variance: 0.2
    variance: 0.2
    step: 32
    offset: 0.5
  }
}
layer {
  name: "conv7_2_mbox_loc"
  type: "Convolution"
  bottom: "conv7_2"
  top: "conv7_2_mbox_loc"
  param {
    lr_mult: 1
    decay_mult: 1
  }
  param {
    lr_mult: 2
    decay_mult: 0
  }
  convolution_param {
    num_output: 24
    pad: 1
    kernel_size: 3
    stride: 1
    weight_filler {
      type: "xavier"
    }
    bias_filler {
      type: "constant"
      value: 0
    }
  }
}
layer {
  name: "conv7_2_mbox_loc_perm"
  type: "Permute"
  bottom: "conv7_2_mbox_loc"
  top: "conv7_2_mbox_loc_perm"
  permute_param {
    order: 0
    order: 2
    order: 3
    order: 1
  }
}
layer {
  name: "conv7_2_mbox_loc_flat"
  type: "Flatten"
  bottom: "conv7_2_mbox_loc_perm"
  top: "conv7_2_mbox_loc_flat"
  flatten_param {
    axis: 1
  }
}
layer {
  name: "conv7_2_mbox_conf"
  type: "Convolution"
  bottom: "conv7_2"
  top: "conv7_2_mbox_conf"
  param {
    lr_mult: 1
    decay_mult: 1
  }
  param {
    lr_mult: 2
    decay_mult: 0
  }
  convolution_param {
    num_output: 126
    pad: 1
    kernel_size: 3
    stride: 1
    weight_filler {
      type: "xavier"
    }
    bias_filler {
      type: "constant"
      value: 0
    }
  }
}
layer {
  name: "conv7_2_mbox_conf_perm"
  type: "Permute"
  bottom: "conv7_2_mbox_conf"
  top: "conv7_2_mbox_conf_perm"
  permute_param {
    order: 0
    order: 2
    order: 3
    order: 1
  }
}
layer {
  name: "conv7_2_mbox_conf_flat"
  type: "Flatten"
  bottom: "conv7_2_mbox_conf_perm"
  top: "conv7_2_mbox_conf_flat"
  flatten_param {
    axis: 1
  }
}
layer {
  name: "conv7_2_mbox_priorbox"
  type: "PriorBox"
  bottom: "conv7_2"
  bottom: "data"
  top: "conv7_2_mbox_priorbox"
  prior_box_param {
    min_size: 162
    max_size: 213
    aspect_ratio: 2
    aspect_ratio: 3
    flip: true
    clip: false
    variance: 0.1
    variance: 0.1
    variance: 0.2
    variance: 0.2
    step: 64
    offset: 0.5
  }
}
layer {
  name: "conv8_2_mbox_loc"
  type: "Convolution"
  bottom: "conv8_2"
  top: "conv8_2_mbox_loc"
  param {
    lr_mult: 1
    decay_mult: 1
  }
  param {
    lr_mult: 2
    decay_mult: 0
  }
  convolution_param {
    num_output: 16
    pad: 1
    kernel_size: 3
    stride: 1
    weight_filler {
      type: "xavier"
    }
    bias_filler {
      type: "constant"
      value: 0
    }
  }
}
layer {
  name: "conv8_2_mbox_loc_perm"
  type: "Permute"
  bottom: "conv8_2_mbox_loc"
  top: "conv8_2_mbox_loc_perm"
  permute_param {
    order: 0
    order: 2
    order: 3
    order: 1
  }
}
layer {
  name: "conv8_2_mbox_loc_flat"
  type: "Flatten"
  bottom: "conv8_2_mbox_loc_perm"
  top: "conv8_2_mbox_loc_flat"
  flatten_param {
    axis: 1
  }
}
layer {
  name: "conv8_2_mbox_conf"
  type: "Convolution"
  bottom: "conv8_2"
  top: "conv8_2_mbox_conf"
  param {
    lr_mult: 1
    decay_mult: 1
  }
  param {
    lr_mult: 2
    decay_mult: 0
  }
  convolution_param {
    num_output: 84
    pad: 1
    kernel_size: 3
    stride: 1
    weight_filler {
      type: "xavier"
    }
    bias_filler {
      type: "constant"
      value: 0
    }
  }
}
layer {
  name: "conv8_2_mbox_conf_perm"
  type: "Permute"
  bottom: "conv8_2_mbox_conf"
  top: "conv8_2_mbox_conf_perm"
  permute_param {
    order: 0
    order: 2
    order: 3
    order: 1
  }
}
layer {
  name: "conv8_2_mbox_conf_flat"
  type: "Flatten"
  bottom: "conv8_2_mbox_conf_perm"
  top: "conv8_2_mbox_conf_flat"
  flatten_param {
    axis: 1
  }
}
layer {
  name: "conv8_2_mbox_priorbox"
  type: "PriorBox"
  bottom: "conv8_2"
  bottom: "data"
  top: "conv8_2_mbox_priorbox"
  prior_box_param {
    min_size: 213
    max_size: 264
    aspect_ratio: 2
    flip: true
    clip: false
    variance: 0.1
    variance: 0.1
    variance: 0.2
    variance: 0.2
    step: 100
    offset: 0.5
  }
}
layer {
  name: "conv9_2_mbox_loc"
  type: "Convolution"
  bottom: "conv9_2"
  top: "conv9_2_mbox_loc"
  param {
    lr_mult: 1
    decay_mult: 1
  }
  param {
    lr_mult: 2
    decay_mult: 0
  }
  convolution_param {
    num_output: 16
    pad: 1
    kernel_size: 3
    stride: 1
    weight_filler {
      type: "xavier"
    }
    bias_filler {
      type: "constant"
      value: 0
    }
  }
}
layer {
  name: "conv9_2_mbox_loc_perm"
  type: "Permute"
  bottom: "conv9_2_mbox_loc"
  top: "conv9_2_mbox_loc_perm"
  permute_param {
    order: 0
    order: 2
    order: 3
    order: 1
  }
}
layer {
  name: "conv9_2_mbox_loc_flat"
  type: "Flatten"
  bottom: "conv9_2_mbox_loc_perm"
  top: "conv9_2_mbox_loc_flat"
  flatten_param {
    axis: 1
  }
}
layer {
  name: "conv9_2_mbox_conf"
  type: "Convolution"
  bottom: "conv9_2"
  top: "conv9_2_mbox_conf"
  param {
    lr_mult: 1
    decay_mult: 1
  }
  param {
    lr_mult: 2
    decay_mult: 0
  }
  convolution_param {
    num_output: 84
    pad: 1
    kernel_size: 3
    stride: 1
    weight_filler {
      type: "xavier"
    }
    bias_filler {
      type: "constant"
      value: 0
    }
  }
}
layer {
  name: "conv9_2_mbox_conf_perm"
  type: "Permute"
  bottom: "conv9_2_mbox_conf"
  top: "conv9_2_mbox_conf_perm"
  permute_param {
    order: 0
    order: 2
    order: 3
    order: 1
  }
}
layer {
  name: "conv9_2_mbox_conf_flat"
  type: "Flatten"
  bottom: "conv9_2_mbox_conf_perm"
  top: "conv9_2_mbox_conf_flat"
  flatten_param {
    axis: 1
  }
}
layer {
  name: "conv9_2_mbox_priorbox"
  type: "PriorBox"
  bottom: "conv9_2"
  bottom: "data"
  top: "conv9_2_mbox_priorbox"
  prior_box_param {
    min_size: 264
    max_size: 315
    aspect_ratio: 2
    flip: true
    clip: false
    variance: 0.1
    variance: 0.1
    variance: 0.2
    variance: 0.2
    step: 300
    offset: 0.5
  }
}
layer {
  name: "mbox_loc"
  type: "Concat"
  bottom: "conv4_3_norm_mbox_loc_flat"
  bottom: "fc7_mbox_loc_flat"
  bottom: "conv6_2_mbox_loc_flat"
  bottom: "conv7_2_mbox_loc_flat"
  bottom: "conv8_2_mbox_loc_flat"
  bottom: "conv9_2_mbox_loc_flat"
  top: "mbox_loc"
  concat_param {
    axis: 1
  }
}
layer {
  name: "mbox_conf"
  type: "Concat"
  bottom: "conv4_3_norm_mbox_conf_flat"
  bottom: "fc7_mbox_conf_flat"
  bottom: "conv6_2_mbox_conf_flat"
  bottom: "conv7_2_mbox_conf_flat"
  bottom: "conv8_2_mbox_conf_flat"
  bottom: "conv9_2_mbox_conf_flat"
  top: "mbox_conf"
  concat_param {
    axis: 1
  }
}
layer {
  name: "mbox_priorbox"
  type: "Concat"
  bottom: "conv4_3_norm_mbox_priorbox"
  bottom: "fc7_mbox_priorbox"
  bottom: "conv6_2_mbox_priorbox"
  bottom: "conv7_2_mbox_priorbox"
  bottom: "conv8_2_mbox_priorbox"
  bottom: "conv9_2_mbox_priorbox"
  top: "mbox_priorbox"
  concat_param {
    axis: 2
  }
}
layer {
  name: "mbox_loss"
  type: "MultiBoxLoss"
  bottom: "mbox_loc"
  bottom: "mbox_conf"
  bottom: "mbox_priorbox"
  bottom: "label"
  top: "mbox_loss"
  include {
    phase: TRAIN
  }
  propagate_down: true
  propagate_down: true
  propagate_down: false
  propagate_down: false
  loss_param {
    normalization: VALID
  }
  multibox_loss_param {
    loc_loss_type: SMOOTH_L1
    conf_loss_type: SOFTMAX
    loc_weight: 1
    num_classes: 21
    share_location: true
    match_type: PER_PREDICTION
    overlap_threshold: 0.5
    use_prior_for_matching: true
    background_label_id: 0
    use_difficult_gt: true
    neg_pos_ratio: 3
    neg_overlap: 0.5
    code_type: CENTER_SIZE
    ignore_cross_boundary_bbox: false
    mining_type: MAX_NEGATIVE
  }
}
I0711 18:44:10.655025  7973 layer_factory.hpp:77] Creating layer data
I0711 18:44:10.657306  7973 net.cpp:100] Creating Layer data
I0711 18:44:10.657327  7973 net.cpp:408] data -> data
I0711 18:44:10.657675  7973 net.cpp:408] data -> label
I0711 18:44:10.659040  7979 db_lmdb.cpp:35] Opened lmdb examples/VOC0712/VOC0712_trainval_lmdb
I0711 18:44:12.494449  7973 annotated_data_layer.cpp:62] output data size: 8,3,300,300
I0711 18:44:12.505772  7973 net.cpp:150] Setting up data
I0711 18:44:12.505806  7973 net.cpp:157] Top shape: 8 3 300 300 (2160000)
I0711 18:44:12.505810  7973 net.cpp:157] Top shape: 1 1 1 8 (8)
I0711 18:44:12.505812  7973 net.cpp:165] Memory required for data: 8640032
I0711 18:44:12.505848  7973 layer_factory.hpp:77] Creating layer data_data_0_split
I0711 18:44:12.507704  7973 net.cpp:100] Creating Layer data_data_0_split
I0711 18:44:12.507717  7973 net.cpp:434] data_data_0_split <- data
I0711 18:44:12.507733  7973 net.cpp:408] data_data_0_split -> data_data_0_split_0
I0711 18:44:12.507746  7973 net.cpp:408] data_data_0_split -> data_data_0_split_1
I0711 18:44:12.507752  7973 net.cpp:408] data_data_0_split -> data_data_0_split_2
I0711 18:44:12.507761  7973 net.cpp:408] data_data_0_split -> data_data_0_split_3
I0711 18:44:12.507766  7973 net.cpp:408] data_data_0_split -> data_data_0_split_4
I0711 18:44:12.507774  7973 net.cpp:408] data_data_0_split -> data_data_0_split_5
I0711 18:44:12.507781  7973 net.cpp:408] data_data_0_split -> data_data_0_split_6
I0711 18:44:12.508523  7973 net.cpp:150] Setting up data_data_0_split
I0711 18:44:12.508530  7973 net.cpp:157] Top shape: 8 3 300 300 (2160000)
I0711 18:44:12.508538  7973 net.cpp:157] Top shape: 8 3 300 300 (2160000)
I0711 18:44:12.508541  7973 net.cpp:157] Top shape: 8 3 300 300 (2160000)
I0711 18:44:12.508546  7973 net.cpp:157] Top shape: 8 3 300 300 (2160000)
I0711 18:44:12.508551  7973 net.cpp:157] Top shape: 8 3 300 300 (2160000)
I0711 18:44:12.508555  7973 net.cpp:157] Top shape: 8 3 300 300 (2160000)
I0711 18:44:12.508560  7973 net.cpp:157] Top shape: 8 3 300 300 (2160000)
I0711 18:44:12.508563  7973 net.cpp:165] Memory required for data: 69120032
I0711 18:44:12.508566  7973 layer_factory.hpp:77] Creating layer conv1_1
I0711 18:44:12.508584  7973 net.cpp:100] Creating Layer conv1_1
I0711 18:44:12.508589  7973 net.cpp:434] conv1_1 <- data_data_0_split_0
I0711 18:44:12.508594  7973 net.cpp:408] conv1_1 -> conv1_1
I0711 18:44:12.509963  7973 net.cpp:150] Setting up conv1_1
I0711 18:44:12.509975  7973 net.cpp:157] Top shape: 8 64 300 300 (46080000)
I0711 18:44:12.509979  7973 net.cpp:165] Memory required for data: 253440032
I0711 18:44:12.509994  7973 layer_factory.hpp:77] Creating layer relu1_1
I0711 18:44:12.510001  7973 net.cpp:100] Creating Layer relu1_1
I0711 18:44:12.510006  7973 net.cpp:434] relu1_1 <- conv1_1
I0711 18:44:12.510011  7973 net.cpp:395] relu1_1 -> conv1_1 (in-place)
I0711 18:44:12.510035  7973 net.cpp:150] Setting up relu1_1
I0711 18:44:12.510040  7973 net.cpp:157] Top shape: 8 64 300 300 (46080000)
I0711 18:44:12.510046  7973 net.cpp:165] Memory required for data: 437760032
I0711 18:44:12.510051  7973 layer_factory.hpp:77] Creating layer conv1_2
I0711 18:44:12.510067  7973 net.cpp:100] Creating Layer conv1_2
I0711 18:44:12.510071  7973 net.cpp:434] conv1_2 <- conv1_1
I0711 18:44:12.510078  7973 net.cpp:408] conv1_2 -> conv1_2
I0711 18:44:12.511034  7973 net.cpp:150] Setting up conv1_2
I0711 18:44:12.511042  7973 net.cpp:157] Top shape: 8 64 300 300 (46080000)
I0711 18:44:12.511046  7973 net.cpp:165] Memory required for data: 622080032
I0711 18:44:12.511055  7973 layer_factory.hpp:77] Creating layer relu1_2
I0711 18:44:12.511061  7973 net.cpp:100] Creating Layer relu1_2
I0711 18:44:12.511065  7973 net.cpp:434] relu1_2 <- conv1_2
I0711 18:44:12.511072  7973 net.cpp:395] relu1_2 -> conv1_2 (in-place)
I0711 18:44:12.511081  7973 net.cpp:150] Setting up relu1_2
I0711 18:44:12.511086  7973 net.cpp:157] Top shape: 8 64 300 300 (46080000)
I0711 18:44:12.511090  7973 net.cpp:165] Memory required for data: 806400032
I0711 18:44:12.511093  7973 layer_factory.hpp:77] Creating layer pool1
I0711 18:44:12.511101  7973 net.cpp:100] Creating Layer pool1
I0711 18:44:12.511104  7973 net.cpp:434] pool1 <- conv1_2
I0711 18:44:12.511109  7973 net.cpp:408] pool1 -> pool1
I0711 18:44:12.511142  7973 net.cpp:150] Setting up pool1
I0711 18:44:12.511147  7973 net.cpp:157] Top shape: 8 64 150 150 (11520000)
I0711 18:44:12.511150  7973 net.cpp:165] Memory required for data: 852480032
I0711 18:44:12.511154  7973 layer_factory.hpp:77] Creating layer conv2_1
I0711 18:44:12.511162  7973 net.cpp:100] Creating Layer conv2_1
I0711 18:44:12.511167  7973 net.cpp:434] conv2_1 <- pool1
I0711 18:44:12.511171  7973 net.cpp:408] conv2_1 -> conv2_1
I0711 18:44:12.511803  7973 net.cpp:150] Setting up conv2_1
I0711 18:44:12.511811  7973 net.cpp:157] Top shape: 8 128 150 150 (23040000)
I0711 18:44:12.511816  7973 net.cpp:165] Memory required for data: 944640032
I0711 18:44:12.511823  7973 layer_factory.hpp:77] Creating layer relu2_1
I0711 18:44:12.511829  7973 net.cpp:100] Creating Layer relu2_1
I0711 18:44:12.511833  7973 net.cpp:434] relu2_1 <- conv2_1
I0711 18:44:12.511839  7973 net.cpp:395] relu2_1 -> conv2_1 (in-place)
I0711 18:44:12.511845  7973 net.cpp:150] Setting up relu2_1
I0711 18:44:12.511850  7973 net.cpp:157] Top shape: 8 128 150 150 (23040000)
I0711 18:44:12.511853  7973 net.cpp:165] Memory required for data: 1036800032
I0711 18:44:12.511858  7973 layer_factory.hpp:77] Creating layer conv2_2
I0711 18:44:12.511870  7973 net.cpp:100] Creating Layer conv2_2
I0711 18:44:12.511873  7973 net.cpp:434] conv2_2 <- conv2_1
I0711 18:44:12.511879  7973 net.cpp:408] conv2_2 -> conv2_2
I0711 18:44:12.513023  7973 net.cpp:150] Setting up conv2_2
I0711 18:44:12.513031  7973 net.cpp:157] Top shape: 8 128 150 150 (23040000)
I0711 18:44:12.513033  7973 net.cpp:165] Memory required for data: 1128960032
I0711 18:44:12.513039  7973 layer_factory.hpp:77] Creating layer relu2_2
I0711 18:44:12.513044  7973 net.cpp:100] Creating Layer relu2_2
I0711 18:44:12.513048  7973 net.cpp:434] relu2_2 <- conv2_2
I0711 18:44:12.513054  7973 net.cpp:395] relu2_2 -> conv2_2 (in-place)
I0711 18:44:12.513061  7973 net.cpp:150] Setting up relu2_2
I0711 18:44:12.513065  7973 net.cpp:157] Top shape: 8 128 150 150 (23040000)
I0711 18:44:12.513069  7973 net.cpp:165] Memory required for data: 1221120032
I0711 18:44:12.513072  7973 layer_factory.hpp:77] Creating layer pool2
I0711 18:44:12.513077  7973 net.cpp:100] Creating Layer pool2
I0711 18:44:12.513082  7973 net.cpp:434] pool2 <- conv2_2
I0711 18:44:12.513087  7973 net.cpp:408] pool2 -> pool2
I0711 18:44:12.513116  7973 net.cpp:150] Setting up pool2
I0711 18:44:12.513121  7973 net.cpp:157] Top shape: 8 128 75 75 (5760000)
I0711 18:44:12.513124  7973 net.cpp:165] Memory required for data: 1244160032
I0711 18:44:12.513128  7973 layer_factory.hpp:77] Creating layer conv3_1
I0711 18:44:12.513135  7973 net.cpp:100] Creating Layer conv3_1
I0711 18:44:12.513139  7973 net.cpp:434] conv3_1 <- pool2
I0711 18:44:12.513146  7973 net.cpp:408] conv3_1 -> conv3_1
I0711 18:44:12.516472  7973 net.cpp:150] Setting up conv3_1
I0711 18:44:12.516486  7973 net.cpp:157] Top shape: 8 256 75 75 (11520000)
I0711 18:44:12.516489  7973 net.cpp:165] Memory required for data: 1290240032
I0711 18:44:12.516504  7973 layer_factory.hpp:77] Creating layer relu3_1
I0711 18:44:12.516511  7973 net.cpp:100] Creating Layer relu3_1
I0711 18:44:12.516516  7973 net.cpp:434] relu3_1 <- conv3_1
I0711 18:44:12.516523  7973 net.cpp:395] relu3_1 -> conv3_1 (in-place)
I0711 18:44:12.516531  7973 net.cpp:150] Setting up relu3_1
I0711 18:44:12.516536  7973 net.cpp:157] Top shape: 8 256 75 75 (11520000)
I0711 18:44:12.516540  7973 net.cpp:165] Memory required for data: 1336320032
I0711 18:44:12.516542  7973 layer_factory.hpp:77] Creating layer conv3_2
I0711 18:44:12.516563  7973 net.cpp:100] Creating Layer conv3_2
I0711 18:44:12.516566  7973 net.cpp:434] conv3_2 <- conv3_1
I0711 18:44:12.516572  7973 net.cpp:408] conv3_2 -> conv3_2
I0711 18:44:12.521325  7973 net.cpp:150] Setting up conv3_2
I0711 18:44:12.521337  7973 net.cpp:157] Top shape: 8 256 75 75 (11520000)
I0711 18:44:12.521340  7973 net.cpp:165] Memory required for data: 1382400032
I0711 18:44:12.521348  7973 layer_factory.hpp:77] Creating layer relu3_2
I0711 18:44:12.521355  7973 net.cpp:100] Creating Layer relu3_2
I0711 18:44:12.521361  7973 net.cpp:434] relu3_2 <- conv3_2
I0711 18:44:12.521366  7973 net.cpp:395] relu3_2 -> conv3_2 (in-place)
I0711 18:44:12.521381  7973 net.cpp:150] Setting up relu3_2
I0711 18:44:12.521390  7973 net.cpp:157] Top shape: 8 256 75 75 (11520000)
I0711 18:44:12.521394  7973 net.cpp:165] Memory required for data: 1428480032
I0711 18:44:12.521399  7973 layer_factory.hpp:77] Creating layer conv3_3
I0711 18:44:12.521435  7973 net.cpp:100] Creating Layer conv3_3
I0711 18:44:12.521438  7973 net.cpp:434] conv3_3 <- conv3_2
I0711 18:44:12.521446  7973 net.cpp:408] conv3_3 -> conv3_3
I0711 18:44:12.526512  7973 net.cpp:150] Setting up conv3_3
I0711 18:44:12.526527  7973 net.cpp:157] Top shape: 8 256 75 75 (11520000)
I0711 18:44:12.526531  7973 net.cpp:165] Memory required for data: 1474560032
I0711 18:44:12.526540  7973 layer_factory.hpp:77] Creating layer relu3_3
I0711 18:44:12.526546  7973 net.cpp:100] Creating Layer relu3_3
I0711 18:44:12.526552  7973 net.cpp:434] relu3_3 <- conv3_3
I0711 18:44:12.526559  7973 net.cpp:395] relu3_3 -> conv3_3 (in-place)
I0711 18:44:12.526569  7973 net.cpp:150] Setting up relu3_3
I0711 18:44:12.526574  7973 net.cpp:157] Top shape: 8 256 75 75 (11520000)
I0711 18:44:12.526577  7973 net.cpp:165] Memory required for data: 1520640032
I0711 18:44:12.526579  7973 layer_factory.hpp:77] Creating layer pool3
I0711 18:44:12.526587  7973 net.cpp:100] Creating Layer pool3
I0711 18:44:12.526589  7973 net.cpp:434] pool3 <- conv3_3
I0711 18:44:12.526595  7973 net.cpp:408] pool3 -> pool3
I0711 18:44:12.526623  7973 net.cpp:150] Setting up pool3
I0711 18:44:12.526629  7973 net.cpp:157] Top shape: 8 256 38 38 (2957312)
I0711 18:44:12.526633  7973 net.cpp:165] Memory required for data: 1532469280
I0711 18:44:12.526635  7973 layer_factory.hpp:77] Creating layer conv4_1
I0711 18:44:12.526643  7973 net.cpp:100] Creating Layer conv4_1
I0711 18:44:12.526648  7973 net.cpp:434] conv4_1 <- pool3
I0711 18:44:12.526654  7973 net.cpp:408] conv4_1 -> conv4_1
I0711 18:44:12.541981  7973 net.cpp:150] Setting up conv4_1
I0711 18:44:12.542007  7973 net.cpp:157] Top shape: 8 512 38 38 (5914624)
I0711 18:44:12.542019  7973 net.cpp:165] Memory required for data: 1556127776
I0711 18:44:12.542039  7973 layer_factory.hpp:77] Creating layer relu4_1
I0711 18:44:12.542050  7973 net.cpp:100] Creating Layer relu4_1
I0711 18:44:12.542055  7973 net.cpp:434] relu4_1 <- conv4_1
I0711 18:44:12.542064  7973 net.cpp:395] relu4_1 -> conv4_1 (in-place)
I0711 18:44:12.542075  7973 net.cpp:150] Setting up relu4_1
I0711 18:44:12.542079  7973 net.cpp:157] Top shape: 8 512 38 38 (5914624)
I0711 18:44:12.542081  7973 net.cpp:165] Memory required for data: 1579786272
I0711 18:44:12.542085  7973 layer_factory.hpp:77] Creating layer conv4_2
I0711 18:44:12.542095  7973 net.cpp:100] Creating Layer conv4_2
I0711 18:44:12.542099  7973 net.cpp:434] conv4_2 <- conv4_1
I0711 18:44:12.542105  7973 net.cpp:408] conv4_2 -> conv4_2
I0711 18:44:12.576490  7973 net.cpp:150] Setting up conv4_2
I0711 18:44:12.576648  7973 net.cpp:157] Top shape: 8 512 38 38 (5914624)
I0711 18:44:12.576658  7973 net.cpp:165] Memory required for data: 1603444768
I0711 18:44:12.576748  7973 layer_factory.hpp:77] Creating layer relu4_2
I0711 18:44:12.576807  7973 net.cpp:100] Creating Layer relu4_2
I0711 18:44:12.576820  7973 net.cpp:434] relu4_2 <- conv4_2
I0711 18:44:12.576840  7973 net.cpp:395] relu4_2 -> conv4_2 (in-place)
I0711 18:44:12.576869  7973 net.cpp:150] Setting up relu4_2
I0711 18:44:12.576875  7973 net.cpp:157] Top shape: 8 512 38 38 (5914624)
I0711 18:44:12.576879  7973 net.cpp:165] Memory required for data: 1627103264
I0711 18:44:12.576881  7973 layer_factory.hpp:77] Creating layer conv4_3
I0711 18:44:12.576901  7973 net.cpp:100] Creating Layer conv4_3
I0711 18:44:12.576906  7973 net.cpp:434] conv4_3 <- conv4_2
I0711 18:44:12.576915  7973 net.cpp:408] conv4_3 -> conv4_3
I0711 18:44:12.611011  7973 net.cpp:150] Setting up conv4_3
I0711 18:44:12.611042  7973 net.cpp:157] Top shape: 8 512 38 38 (5914624)
I0711 18:44:12.611047  7973 net.cpp:165] Memory required for data: 1650761760
I0711 18:44:12.611059  7973 layer_factory.hpp:77] Creating layer relu4_3
I0711 18:44:12.611069  7973 net.cpp:100] Creating Layer relu4_3
I0711 18:44:12.611076  7973 net.cpp:434] relu4_3 <- conv4_3
I0711 18:44:12.611086  7973 net.cpp:395] relu4_3 -> conv4_3 (in-place)
I0711 18:44:12.611131  7973 net.cpp:150] Setting up relu4_3
I0711 18:44:12.611670  7973 net.cpp:157] Top shape: 8 512 38 38 (5914624)
I0711 18:44:12.611733  7973 net.cpp:165] Memory required for data: 1674420256
I0711 18:44:12.611739  7973 layer_factory.hpp:77] Creating layer conv4_3_relu4_3_0_split
I0711 18:44:12.611750  7973 net.cpp:100] Creating Layer conv4_3_relu4_3_0_split
I0711 18:44:12.611755  7973 net.cpp:434] conv4_3_relu4_3_0_split <- conv4_3
I0711 18:44:12.611764  7973 net.cpp:408] conv4_3_relu4_3_0_split -> conv4_3_relu4_3_0_split_0
I0711 18:44:12.611776  7973 net.cpp:408] conv4_3_relu4_3_0_split -> conv4_3_relu4_3_0_split_1
I0711 18:44:12.611892  7973 net.cpp:150] Setting up conv4_3_relu4_3_0_split
I0711 18:44:12.611920  7973 net.cpp:157] Top shape: 8 512 38 38 (5914624)
I0711 18:44:12.611924  7973 net.cpp:157] Top shape: 8 512 38 38 (5914624)
I0711 18:44:12.611927  7973 net.cpp:165] Memory required for data: 1721737248
I0711 18:44:12.611932  7973 layer_factory.hpp:77] Creating layer pool4
I0711 18:44:12.611941  7973 net.cpp:100] Creating Layer pool4
I0711 18:44:12.611948  7973 net.cpp:434] pool4 <- conv4_3_relu4_3_0_split_0
I0711 18:44:12.611960  7973 net.cpp:408] pool4 -> pool4
I0711 18:44:12.612007  7973 net.cpp:150] Setting up pool4
I0711 18:44:12.612011  7973 net.cpp:157] Top shape: 8 512 19 19 (1478656)
I0711 18:44:12.612015  7973 net.cpp:165] Memory required for data: 1727651872
I0711 18:44:12.612017  7973 layer_factory.hpp:77] Creating layer conv5_1
I0711 18:44:12.612035  7973 net.cpp:100] Creating Layer conv5_1
I0711 18:44:12.612038  7973 net.cpp:434] conv5_1 <- pool4
I0711 18:44:12.612046  7973 net.cpp:408] conv5_1 -> conv5_1
I0711 18:44:12.632513  7973 net.cpp:150] Setting up conv5_1
I0711 18:44:12.632539  7973 net.cpp:157] Top shape: 8 512 19 19 (1478656)
I0711 18:44:12.632542  7973 net.cpp:165] Memory required for data: 1733566496
I0711 18:44:12.632552  7973 layer_factory.hpp:77] Creating layer relu5_1
I0711 18:44:12.632560  7973 net.cpp:100] Creating Layer relu5_1
I0711 18:44:12.632566  7973 net.cpp:434] relu5_1 <- conv5_1
I0711 18:44:12.632577  7973 net.cpp:395] relu5_1 -> conv5_1 (in-place)
I0711 18:44:12.632596  7973 net.cpp:150] Setting up relu5_1
I0711 18:44:12.632602  7973 net.cpp:157] Top shape: 8 512 19 19 (1478656)
I0711 18:44:12.632606  7973 net.cpp:165] Memory required for data: 1739481120
I0711 18:44:12.632609  7973 layer_factory.hpp:77] Creating layer conv5_2
I0711 18:44:12.632632  7973 net.cpp:100] Creating Layer conv5_2
I0711 18:44:12.632640  7973 net.cpp:434] conv5_2 <- conv5_1
I0711 18:44:12.632649  7973 net.cpp:408] conv5_2 -> conv5_2
I0711 18:44:12.725693  7973 net.cpp:150] Setting up conv5_2
I0711 18:44:12.725721  7973 net.cpp:157] Top shape: 8 512 19 19 (1478656)
I0711 18:44:12.725725  7973 net.cpp:165] Memory required for data: 1745395744
I0711 18:44:12.725738  7973 layer_factory.hpp:77] Creating layer relu5_2
I0711 18:44:12.725746  7973 net.cpp:100] Creating Layer relu5_2
I0711 18:44:12.725754  7973 net.cpp:434] relu5_2 <- conv5_2
I0711 18:44:12.725765  7973 net.cpp:395] relu5_2 -> conv5_2 (in-place)
I0711 18:44:12.725781  7973 net.cpp:150] Setting up relu5_2
I0711 18:44:12.725787  7973 net.cpp:157] Top shape: 8 512 19 19 (1478656)
I0711 18:44:12.725793  7973 net.cpp:165] Memory required for data: 1751310368
I0711 18:44:12.725800  7973 layer_factory.hpp:77] Creating layer conv5_3
I0711 18:44:12.725813  7973 net.cpp:100] Creating Layer conv5_3
I0711 18:44:12.725817  7973 net.cpp:434] conv5_3 <- conv5_2
I0711 18:44:12.725824  7973 net.cpp:408] conv5_3 -> conv5_3
I0711 18:44:12.884598  7973 net.cpp:150] Setting up conv5_3
I0711 18:44:12.884624  7973 net.cpp:157] Top shape: 8 512 19 19 (1478656)
I0711 18:44:12.884627  7973 net.cpp:165] Memory required for data: 1757224992
I0711 18:44:12.884639  7973 layer_factory.hpp:77] Creating layer relu5_3
I0711 18:44:12.884655  7973 net.cpp:100] Creating Layer relu5_3
I0711 18:44:12.884661  7973 net.cpp:434] relu5_3 <- conv5_3
I0711 18:44:12.884670  7973 net.cpp:395] relu5_3 -> conv5_3 (in-place)
I0711 18:44:12.884680  7973 net.cpp:150] Setting up relu5_3
I0711 18:44:12.884685  7973 net.cpp:157] Top shape: 8 512 19 19 (1478656)
I0711 18:44:12.884688  7973 net.cpp:165] Memory required for data: 1763139616
I0711 18:44:12.884713  7973 layer_factory.hpp:77] Creating layer pool5
I0711 18:44:12.884721  7973 net.cpp:100] Creating Layer pool5
I0711 18:44:12.884728  7973 net.cpp:434] pool5 <- conv5_3
I0711 18:44:12.884735  7973 net.cpp:408] pool5 -> pool5
I0711 18:44:12.884783  7973 net.cpp:150] Setting up pool5
I0711 18:44:12.884788  7973 net.cpp:157] Top shape: 8 512 19 19 (1478656)
I0711 18:44:12.884793  7973 net.cpp:165] Memory required for data: 1769054240
I0711 18:44:12.884796  7973 layer_factory.hpp:77] Creating layer fc6
I0711 18:44:12.884806  7973 net.cpp:100] Creating Layer fc6
I0711 18:44:12.884809  7973 net.cpp:434] fc6 <- pool5
I0711 18:44:12.884817  7973 net.cpp:408] fc6 -> fc6
I0711 18:44:12.984581  7973 net.cpp:150] Setting up fc6
I0711 18:44:12.984614  7973 net.cpp:157] Top shape: 8 1024 19 19 (2957312)
I0711 18:44:12.984621  7973 net.cpp:165] Memory required for data: 1780883488
I0711 18:44:12.984634  7973 layer_factory.hpp:77] Creating layer relu6
I0711 18:44:12.984647  7973 net.cpp:100] Creating Layer relu6
I0711 18:44:12.984653  7973 net.cpp:434] relu6 <- fc6
I0711 18:44:12.984663  7973 net.cpp:395] relu6 -> fc6 (in-place)
I0711 18:44:12.984683  7973 net.cpp:150] Setting up relu6
I0711 18:44:12.984688  7973 net.cpp:157] Top shape: 8 1024 19 19 (2957312)
I0711 18:44:12.984690  7973 net.cpp:165] Memory required for data: 1792712736
I0711 18:44:12.984694  7973 layer_factory.hpp:77] Creating layer fc7
I0711 18:44:12.984709  7973 net.cpp:100] Creating Layer fc7
I0711 18:44:12.984714  7973 net.cpp:434] fc7 <- fc6
I0711 18:44:12.984721  7973 net.cpp:408] fc7 -> fc7
I0711 18:44:13.011049  7973 net.cpp:150] Setting up fc7
I0711 18:44:13.011087  7973 net.cpp:157] Top shape: 8 1024 19 19 (2957312)
I0711 18:44:13.011092  7973 net.cpp:165] Memory required for data: 1804541984
I0711 18:44:13.011109  7973 layer_factory.hpp:77] Creating layer relu7
I0711 18:44:13.011129  7973 net.cpp:100] Creating Layer relu7
I0711 18:44:13.011138  7973 net.cpp:434] relu7 <- fc7
I0711 18:44:13.011152  7973 net.cpp:395] relu7 -> fc7 (in-place)
I0711 18:44:13.011164  7973 net.cpp:150] Setting up relu7
I0711 18:44:13.011170  7973 net.cpp:157] Top shape: 8 1024 19 19 (2957312)
I0711 18:44:13.011173  7973 net.cpp:165] Memory required for data: 1816371232
I0711 18:44:13.011178  7973 layer_factory.hpp:77] Creating layer fc7_relu7_0_split
I0711 18:44:13.011184  7973 net.cpp:100] Creating Layer fc7_relu7_0_split
I0711 18:44:13.011188  7973 net.cpp:434] fc7_relu7_0_split <- fc7
I0711 18:44:13.011193  7973 net.cpp:408] fc7_relu7_0_split -> fc7_relu7_0_split_0
I0711 18:44:13.011201  7973 net.cpp:408] fc7_relu7_0_split -> fc7_relu7_0_split_1
I0711 18:44:13.011214  7973 net.cpp:408] fc7_relu7_0_split -> fc7_relu7_0_split_2
I0711 18:44:13.011220  7973 net.cpp:408] fc7_relu7_0_split -> fc7_relu7_0_split_3
I0711 18:44:13.011262  7973 net.cpp:150] Setting up fc7_relu7_0_split
I0711 18:44:13.011267  7973 net.cpp:157] Top shape: 8 1024 19 19 (2957312)
I0711 18:44:13.011272  7973 net.cpp:157] Top shape: 8 1024 19 19 (2957312)
I0711 18:44:13.011276  7973 net.cpp:157] Top shape: 8 1024 19 19 (2957312)
I0711 18:44:13.011281  7973 net.cpp:157] Top shape: 8 1024 19 19 (2957312)
I0711 18:44:13.011284  7973 net.cpp:165] Memory required for data: 1863688224
I0711 18:44:13.011287  7973 layer_factory.hpp:77] Creating layer conv6_1
I0711 18:44:13.011297  7973 net.cpp:100] Creating Layer conv6_1
I0711 18:44:13.011302  7973 net.cpp:434] conv6_1 <- fc7_relu7_0_split_0
I0711 18:44:13.011312  7973 net.cpp:408] conv6_1 -> conv6_1
I0711 18:44:13.127460  7973 net.cpp:150] Setting up conv6_1
I0711 18:44:13.127560  7973 net.cpp:157] Top shape: 8 256 19 19 (739328)
I0711 18:44:13.127566  7973 net.cpp:165] Memory required for data: 1866645536
I0711 18:44:13.127642  7973 layer_factory.hpp:77] Creating layer conv6_1_relu
I0711 18:44:13.127678  7973 net.cpp:100] Creating Layer conv6_1_relu
I0711 18:44:13.127696  7973 net.cpp:434] conv6_1_relu <- conv6_1
I0711 18:44:13.127712  7973 net.cpp:395] conv6_1_relu -> conv6_1 (in-place)
I0711 18:44:13.127786  7973 net.cpp:150] Setting up conv6_1_relu
I0711 18:44:13.127792  7973 net.cpp:157] Top shape: 8 256 19 19 (739328)
I0711 18:44:13.127795  7973 net.cpp:165] Memory required for data: 1869602848
I0711 18:44:13.127799  7973 layer_factory.hpp:77] Creating layer conv6_2
I0711 18:44:13.127817  7973 net.cpp:100] Creating Layer conv6_2
I0711 18:44:13.127821  7973 net.cpp:434] conv6_2 <- conv6_1
I0711 18:44:13.127828  7973 net.cpp:408] conv6_2 -> conv6_2
I0711 18:44:13.138792  7973 net.cpp:150] Setting up conv6_2
I0711 18:44:13.138833  7973 net.cpp:157] Top shape: 8 512 10 10 (409600)
I0711 18:44:13.138837  7973 net.cpp:165] Memory required for data: 1871241248
I0711 18:44:13.138900  7973 layer_factory.hpp:77] Creating layer conv6_2_relu
I0711 18:44:13.138921  7973 net.cpp:100] Creating Layer conv6_2_relu
I0711 18:44:13.138933  7973 net.cpp:434] conv6_2_relu <- conv6_2
I0711 18:44:13.138955  7973 net.cpp:395] conv6_2_relu -> conv6_2 (in-place)
I0711 18:44:13.138977  7973 net.cpp:150] Setting up conv6_2_relu
I0711 18:44:13.138980  7973 net.cpp:157] Top shape: 8 512 10 10 (409600)
I0711 18:44:13.138988  7973 net.cpp:165] Memory required for data: 1872879648
I0711 18:44:13.139000  7973 layer_factory.hpp:77] Creating layer conv6_2_conv6_2_relu_0_split
I0711 18:44:13.139019  7973 net.cpp:100] Creating Layer conv6_2_conv6_2_relu_0_split
I0711 18:44:13.139025  7973 net.cpp:434] conv6_2_conv6_2_relu_0_split <- conv6_2
I0711 18:44:13.139039  7973 net.cpp:408] conv6_2_conv6_2_relu_0_split -> conv6_2_conv6_2_relu_0_split_0
I0711 18:44:13.139053  7973 net.cpp:408] conv6_2_conv6_2_relu_0_split -> conv6_2_conv6_2_relu_0_split_1
I0711 18:44:13.139066  7973 net.cpp:408] conv6_2_conv6_2_relu_0_split -> conv6_2_conv6_2_relu_0_split_2
I0711 18:44:13.139077  7973 net.cpp:408] conv6_2_conv6_2_relu_0_split -> conv6_2_conv6_2_relu_0_split_3
I0711 18:44:13.139184  7973 net.cpp:150] Setting up conv6_2_conv6_2_relu_0_split
I0711 18:44:13.139195  7973 net.cpp:157] Top shape: 8 512 10 10 (409600)
I0711 18:44:13.139204  7973 net.cpp:157] Top shape: 8 512 10 10 (409600)
I0711 18:44:13.139212  7973 net.cpp:157] Top shape: 8 512 10 10 (409600)
I0711 18:44:13.139219  7973 net.cpp:157] Top shape: 8 512 10 10 (409600)
I0711 18:44:13.139220  7973 net.cpp:165] Memory required for data: 1879433248
I0711 18:44:13.139226  7973 layer_factory.hpp:77] Creating layer conv7_1
I0711 18:44:13.139241  7973 net.cpp:100] Creating Layer conv7_1
I0711 18:44:13.139247  7973 net.cpp:434] conv7_1 <- conv6_2_conv6_2_relu_0_split_0
I0711 18:44:13.139257  7973 net.cpp:408] conv7_1 -> conv7_1
I0711 18:44:13.140053  7973 net.cpp:150] Setting up conv7_1
I0711 18:44:13.140059  7973 net.cpp:157] Top shape: 8 128 10 10 (102400)
I0711 18:44:13.140065  7973 net.cpp:165] Memory required for data: 1879842848
I0711 18:44:13.140074  7973 layer_factory.hpp:77] Creating layer conv7_1_relu
I0711 18:44:13.140079  7973 net.cpp:100] Creating Layer conv7_1_relu
I0711 18:44:13.140082  7973 net.cpp:434] conv7_1_relu <- conv7_1
I0711 18:44:13.140092  7973 net.cpp:395] conv7_1_relu -> conv7_1 (in-place)
I0711 18:44:13.140099  7973 net.cpp:150] Setting up conv7_1_relu
I0711 18:44:13.140105  7973 net.cpp:157] Top shape: 8 128 10 10 (102400)
I0711 18:44:13.140110  7973 net.cpp:165] Memory required for data: 1880252448
I0711 18:44:13.140115  7973 layer_factory.hpp:77] Creating layer conv7_2
I0711 18:44:13.140130  7973 net.cpp:100] Creating Layer conv7_2
I0711 18:44:13.140135  7973 net.cpp:434] conv7_2 <- conv7_1
I0711 18:44:13.140146  7973 net.cpp:408] conv7_2 -> conv7_2
I0711 18:44:13.176344  7973 net.cpp:150] Setting up conv7_2
I0711 18:44:13.176386  7973 net.cpp:157] Top shape: 8 256 5 5 (51200)
I0711 18:44:13.176389  7973 net.cpp:165] Memory required for data: 1880457248
I0711 18:44:13.176439  7973 layer_factory.hpp:77] Creating layer conv7_2_relu
I0711 18:44:13.176450  7973 net.cpp:100] Creating Layer conv7_2_relu
I0711 18:44:13.176458  7973 net.cpp:434] conv7_2_relu <- conv7_2
I0711 18:44:13.176466  7973 net.cpp:395] conv7_2_relu -> conv7_2 (in-place)
I0711 18:44:13.176477  7973 net.cpp:150] Setting up conv7_2_relu
I0711 18:44:13.176496  7973 net.cpp:157] Top shape: 8 256 5 5 (51200)
I0711 18:44:13.176499  7973 net.cpp:165] Memory required for data: 1880662048
I0711 18:44:13.176502  7973 layer_factory.hpp:77] Creating layer conv7_2_conv7_2_relu_0_split
I0711 18:44:13.176508  7973 net.cpp:100] Creating Layer conv7_2_conv7_2_relu_0_split
I0711 18:44:13.176513  7973 net.cpp:434] conv7_2_conv7_2_relu_0_split <- conv7_2
I0711 18:44:13.176518  7973 net.cpp:408] conv7_2_conv7_2_relu_0_split -> conv7_2_conv7_2_relu_0_split_0
I0711 18:44:13.176527  7973 net.cpp:408] conv7_2_conv7_2_relu_0_split -> conv7_2_conv7_2_relu_0_split_1
I0711 18:44:13.176532  7973 net.cpp:408] conv7_2_conv7_2_relu_0_split -> conv7_2_conv7_2_relu_0_split_2
I0711 18:44:13.176539  7973 net.cpp:408] conv7_2_conv7_2_relu_0_split -> conv7_2_conv7_2_relu_0_split_3
I0711 18:44:13.176584  7973 net.cpp:150] Setting up conv7_2_conv7_2_relu_0_split
I0711 18:44:13.176589  7973 net.cpp:157] Top shape: 8 256 5 5 (51200)
I0711 18:44:13.176594  7973 net.cpp:157] Top shape: 8 256 5 5 (51200)
I0711 18:44:13.176599  7973 net.cpp:157] Top shape: 8 256 5 5 (51200)
I0711 18:44:13.176604  7973 net.cpp:157] Top shape: 8 256 5 5 (51200)
I0711 18:44:13.176606  7973 net.cpp:165] Memory required for data: 1881481248
I0711 18:44:13.176609  7973 layer_factory.hpp:77] Creating layer conv8_1
I0711 18:44:13.176620  7973 net.cpp:100] Creating Layer conv8_1
I0711 18:44:13.176623  7973 net.cpp:434] conv8_1 <- conv7_2_conv7_2_relu_0_split_0
I0711 18:44:13.176630  7973 net.cpp:408] conv8_1 -> conv8_1
I0711 18:44:13.176996  7973 net.cpp:150] Setting up conv8_1
I0711 18:44:13.177003  7973 net.cpp:157] Top shape: 8 128 5 5 (25600)
I0711 18:44:13.177006  7973 net.cpp:165] Memory required for data: 1881583648
I0711 18:44:13.177013  7973 layer_factory.hpp:77] Creating layer conv8_1_relu
I0711 18:44:13.177018  7973 net.cpp:100] Creating Layer conv8_1_relu
I0711 18:44:13.177023  7973 net.cpp:434] conv8_1_relu <- conv8_1
I0711 18:44:13.177029  7973 net.cpp:395] conv8_1_relu -> conv8_1 (in-place)
I0711 18:44:13.177036  7973 net.cpp:150] Setting up conv8_1_relu
I0711 18:44:13.177040  7973 net.cpp:157] Top shape: 8 128 5 5 (25600)
I0711 18:44:13.177044  7973 net.cpp:165] Memory required for data: 1881686048
I0711 18:44:13.177047  7973 layer_factory.hpp:77] Creating layer conv8_2
I0711 18:44:13.177054  7973 net.cpp:100] Creating Layer conv8_2
I0711 18:44:13.177058  7973 net.cpp:434] conv8_2 <- conv8_1
I0711 18:44:13.177065  7973 net.cpp:408] conv8_2 -> conv8_2
I0711 18:44:13.179764  7973 net.cpp:150] Setting up conv8_2
I0711 18:44:13.179775  7973 net.cpp:157] Top shape: 8 256 3 3 (18432)
I0711 18:44:13.179778  7973 net.cpp:165] Memory required for data: 1881759776
I0711 18:44:13.179785  7973 layer_factory.hpp:77] Creating layer conv8_2_relu
I0711 18:44:13.179791  7973 net.cpp:100] Creating Layer conv8_2_relu
I0711 18:44:13.179796  7973 net.cpp:434] conv8_2_relu <- conv8_2
I0711 18:44:13.179802  7973 net.cpp:395] conv8_2_relu -> conv8_2 (in-place)
I0711 18:44:13.179812  7973 net.cpp:150] Setting up conv8_2_relu
I0711 18:44:13.179816  7973 net.cpp:157] Top shape: 8 256 3 3 (18432)
I0711 18:44:13.179819  7973 net.cpp:165] Memory required for data: 1881833504
I0711 18:44:13.179823  7973 layer_factory.hpp:77] Creating layer conv8_2_conv8_2_relu_0_split
I0711 18:44:13.179831  7973 net.cpp:100] Creating Layer conv8_2_conv8_2_relu_0_split
I0711 18:44:13.179834  7973 net.cpp:434] conv8_2_conv8_2_relu_0_split <- conv8_2
I0711 18:44:13.179839  7973 net.cpp:408] conv8_2_conv8_2_relu_0_split -> conv8_2_conv8_2_relu_0_split_0
I0711 18:44:13.179847  7973 net.cpp:408] conv8_2_conv8_2_relu_0_split -> conv8_2_conv8_2_relu_0_split_1
I0711 18:44:13.179852  7973 net.cpp:408] conv8_2_conv8_2_relu_0_split -> conv8_2_conv8_2_relu_0_split_2
I0711 18:44:13.179858  7973 net.cpp:408] conv8_2_conv8_2_relu_0_split -> conv8_2_conv8_2_relu_0_split_3
I0711 18:44:13.179908  7973 net.cpp:150] Setting up conv8_2_conv8_2_relu_0_split
I0711 18:44:13.179913  7973 net.cpp:157] Top shape: 8 256 3 3 (18432)
I0711 18:44:13.179919  7973 net.cpp:157] Top shape: 8 256 3 3 (18432)
I0711 18:44:13.179931  7973 net.cpp:157] Top shape: 8 256 3 3 (18432)
I0711 18:44:13.179936  7973 net.cpp:157] Top shape: 8 256 3 3 (18432)
I0711 18:44:13.179939  7973 net.cpp:165] Memory required for data: 1882128416
I0711 18:44:13.179944  7973 layer_factory.hpp:77] Creating layer conv9_1
I0711 18:44:13.179951  7973 net.cpp:100] Creating Layer conv9_1
I0711 18:44:13.179955  7973 net.cpp:434] conv9_1 <- conv8_2_conv8_2_relu_0_split_0
I0711 18:44:13.179961  7973 net.cpp:408] conv9_1 -> conv9_1
I0711 18:44:13.180312  7973 net.cpp:150] Setting up conv9_1
I0711 18:44:13.180318  7973 net.cpp:157] Top shape: 8 128 3 3 (9216)
I0711 18:44:13.180321  7973 net.cpp:165] Memory required for data: 1882165280
I0711 18:44:13.180330  7973 layer_factory.hpp:77] Creating layer conv9_1_relu
I0711 18:44:13.180337  7973 net.cpp:100] Creating Layer conv9_1_relu
I0711 18:44:13.180341  7973 net.cpp:434] conv9_1_relu <- conv9_1
I0711 18:44:13.180346  7973 net.cpp:395] conv9_1_relu -> conv9_1 (in-place)
I0711 18:44:13.180352  7973 net.cpp:150] Setting up conv9_1_relu
I0711 18:44:13.180357  7973 net.cpp:157] Top shape: 8 128 3 3 (9216)
I0711 18:44:13.180361  7973 net.cpp:165] Memory required for data: 1882202144
I0711 18:44:13.180364  7973 layer_factory.hpp:77] Creating layer conv9_2
I0711 18:44:13.180371  7973 net.cpp:100] Creating Layer conv9_2
I0711 18:44:13.180375  7973 net.cpp:434] conv9_2 <- conv9_1
I0711 18:44:13.180380  7973 net.cpp:408] conv9_2 -> conv9_2
I0711 18:44:13.183089  7973 net.cpp:150] Setting up conv9_2
I0711 18:44:13.183101  7973 net.cpp:157] Top shape: 8 256 1 1 (2048)
I0711 18:44:13.183105  7973 net.cpp:165] Memory required for data: 1882210336
I0711 18:44:13.183112  7973 layer_factory.hpp:77] Creating layer conv9_2_relu
I0711 18:44:13.183120  7973 net.cpp:100] Creating Layer conv9_2_relu
I0711 18:44:13.183125  7973 net.cpp:434] conv9_2_relu <- conv9_2
I0711 18:44:13.183131  7973 net.cpp:395] conv9_2_relu -> conv9_2 (in-place)
I0711 18:44:13.183138  7973 net.cpp:150] Setting up conv9_2_relu
I0711 18:44:13.183143  7973 net.cpp:157] Top shape: 8 256 1 1 (2048)
I0711 18:44:13.183146  7973 net.cpp:165] Memory required for data: 1882218528
I0711 18:44:13.183151  7973 layer_factory.hpp:77] Creating layer conv9_2_conv9_2_relu_0_split
I0711 18:44:13.183156  7973 net.cpp:100] Creating Layer conv9_2_conv9_2_relu_0_split
I0711 18:44:13.183161  7973 net.cpp:434] conv9_2_conv9_2_relu_0_split <- conv9_2
I0711 18:44:13.183166  7973 net.cpp:408] conv9_2_conv9_2_relu_0_split -> conv9_2_conv9_2_relu_0_split_0
I0711 18:44:13.183172  7973 net.cpp:408] conv9_2_conv9_2_relu_0_split -> conv9_2_conv9_2_relu_0_split_1
I0711 18:44:13.183178  7973 net.cpp:408] conv9_2_conv9_2_relu_0_split -> conv9_2_conv9_2_relu_0_split_2
I0711 18:44:13.183212  7973 net.cpp:150] Setting up conv9_2_conv9_2_relu_0_split
I0711 18:44:13.183217  7973 net.cpp:157] Top shape: 8 256 1 1 (2048)
I0711 18:44:13.183221  7973 net.cpp:157] Top shape: 8 256 1 1 (2048)
I0711 18:44:13.183226  7973 net.cpp:157] Top shape: 8 256 1 1 (2048)
I0711 18:44:13.183229  7973 net.cpp:165] Memory required for data: 1882243104
I0711 18:44:13.183233  7973 layer_factory.hpp:77] Creating layer conv4_3_norm
I0711 18:44:13.183446  7973 net.cpp:100] Creating Layer conv4_3_norm
I0711 18:44:13.183452  7973 net.cpp:434] conv4_3_norm <- conv4_3_relu4_3_0_split_1
I0711 18:44:13.183459  7973 net.cpp:408] conv4_3_norm -> conv4_3_norm
I0711 18:44:13.183559  7973 net.cpp:150] Setting up conv4_3_norm
I0711 18:44:13.183565  7973 net.cpp:157] Top shape: 8 512 38 38 (5914624)
I0711 18:44:13.183569  7973 net.cpp:165] Memory required for data: 1905901600
I0711 18:44:13.183575  7973 layer_factory.hpp:77] Creating layer conv4_3_norm_conv4_3_norm_0_split
I0711 18:44:13.183580  7973 net.cpp:100] Creating Layer conv4_3_norm_conv4_3_norm_0_split
I0711 18:44:13.183585  7973 net.cpp:434] conv4_3_norm_conv4_3_norm_0_split <- conv4_3_norm
I0711 18:44:13.183590  7973 net.cpp:408] conv4_3_norm_conv4_3_norm_0_split -> conv4_3_norm_conv4_3_norm_0_split_0
I0711 18:44:13.183596  7973 net.cpp:408] conv4_3_norm_conv4_3_norm_0_split -> conv4_3_norm_conv4_3_norm_0_split_1
I0711 18:44:13.183612  7973 net.cpp:408] conv4_3_norm_conv4_3_norm_0_split -> conv4_3_norm_conv4_3_norm_0_split_2
I0711 18:44:13.183643  7973 net.cpp:150] Setting up conv4_3_norm_conv4_3_norm_0_split
I0711 18:44:13.183648  7973 net.cpp:157] Top shape: 8 512 38 38 (5914624)
I0711 18:44:13.183653  7973 net.cpp:157] Top shape: 8 512 38 38 (5914624)
I0711 18:44:13.183657  7973 net.cpp:157] Top shape: 8 512 38 38 (5914624)
I0711 18:44:13.183661  7973 net.cpp:165] Memory required for data: 1976877088
I0711 18:44:13.183665  7973 layer_factory.hpp:77] Creating layer conv4_3_norm_mbox_loc
I0711 18:44:13.183673  7973 net.cpp:100] Creating Layer conv4_3_norm_mbox_loc
I0711 18:44:13.183677  7973 net.cpp:434] conv4_3_norm_mbox_loc <- conv4_3_norm_conv4_3_norm_0_split_0
I0711 18:44:13.183683  7973 net.cpp:408] conv4_3_norm_mbox_loc -> conv4_3_norm_mbox_loc
I0711 18:44:13.184305  7973 net.cpp:150] Setting up conv4_3_norm_mbox_loc
I0711 18:44:13.184311  7973 net.cpp:157] Top shape: 8 16 38 38 (184832)
I0711 18:44:13.184315  7973 net.cpp:165] Memory required for data: 1977616416
I0711 18:44:13.184321  7973 layer_factory.hpp:77] Creating layer conv4_3_norm_mbox_loc_perm
I0711 18:44:13.184334  7973 net.cpp:100] Creating Layer conv4_3_norm_mbox_loc_perm
I0711 18:44:13.184339  7973 net.cpp:434] conv4_3_norm_mbox_loc_perm <- conv4_3_norm_mbox_loc
I0711 18:44:13.184343  7973 net.cpp:408] conv4_3_norm_mbox_loc_perm -> conv4_3_norm_mbox_loc_perm
I0711 18:44:13.184406  7973 net.cpp:150] Setting up conv4_3_norm_mbox_loc_perm
I0711 18:44:13.184412  7973 net.cpp:157] Top shape: 8 38 38 16 (184832)
I0711 18:44:13.184414  7973 net.cpp:165] Memory required for data: 1978355744
I0711 18:44:13.184417  7973 layer_factory.hpp:77] Creating layer conv4_3_norm_mbox_loc_flat
I0711 18:44:13.184425  7973 net.cpp:100] Creating Layer conv4_3_norm_mbox_loc_flat
I0711 18:44:13.184429  7973 net.cpp:434] conv4_3_norm_mbox_loc_flat <- conv4_3_norm_mbox_loc_perm
I0711 18:44:13.184434  7973 net.cpp:408] conv4_3_norm_mbox_loc_flat -> conv4_3_norm_mbox_loc_flat
I0711 18:44:13.184747  7973 net.cpp:150] Setting up conv4_3_norm_mbox_loc_flat
I0711 18:44:13.184754  7973 net.cpp:157] Top shape: 8 23104 (184832)
I0711 18:44:13.184757  7973 net.cpp:165] Memory required for data: 1979095072
I0711 18:44:13.184762  7973 layer_factory.hpp:77] Creating layer conv4_3_norm_mbox_conf
I0711 18:44:13.184785  7973 net.cpp:100] Creating Layer conv4_3_norm_mbox_conf
I0711 18:44:13.184789  7973 net.cpp:434] conv4_3_norm_mbox_conf <- conv4_3_norm_conv4_3_norm_0_split_1
I0711 18:44:13.184795  7973 net.cpp:408] conv4_3_norm_mbox_conf -> conv4_3_norm_mbox_conf
I0711 18:44:13.188148  7973 net.cpp:150] Setting up conv4_3_norm_mbox_conf
I0711 18:44:13.188163  7973 net.cpp:157] Top shape: 8 84 38 38 (970368)
I0711 18:44:13.188166  7973 net.cpp:165] Memory required for data: 1982976544
I0711 18:44:13.188174  7973 layer_factory.hpp:77] Creating layer conv4_3_norm_mbox_conf_perm
I0711 18:44:13.188184  7973 net.cpp:100] Creating Layer conv4_3_norm_mbox_conf_perm
I0711 18:44:13.188189  7973 net.cpp:434] conv4_3_norm_mbox_conf_perm <- conv4_3_norm_mbox_conf
I0711 18:44:13.188196  7973 net.cpp:408] conv4_3_norm_mbox_conf_perm -> conv4_3_norm_mbox_conf_perm
I0711 18:44:13.188262  7973 net.cpp:150] Setting up conv4_3_norm_mbox_conf_perm
I0711 18:44:13.188268  7973 net.cpp:157] Top shape: 8 38 38 84 (970368)
I0711 18:44:13.188271  7973 net.cpp:165] Memory required for data: 1986858016
I0711 18:44:13.188274  7973 layer_factory.hpp:77] Creating layer conv4_3_norm_mbox_conf_flat
I0711 18:44:13.188280  7973 net.cpp:100] Creating Layer conv4_3_norm_mbox_conf_flat
I0711 18:44:13.188285  7973 net.cpp:434] conv4_3_norm_mbox_conf_flat <- conv4_3_norm_mbox_conf_perm
I0711 18:44:13.188290  7973 net.cpp:408] conv4_3_norm_mbox_conf_flat -> conv4_3_norm_mbox_conf_flat
I0711 18:44:13.188308  7973 net.cpp:150] Setting up conv4_3_norm_mbox_conf_flat
I0711 18:44:13.188313  7973 net.cpp:157] Top shape: 8 121296 (970368)
I0711 18:44:13.188316  7973 net.cpp:165] Memory required for data: 1990739488
I0711 18:44:13.188330  7973 layer_factory.hpp:77] Creating layer conv4_3_norm_mbox_priorbox
I0711 18:44:13.188339  7973 net.cpp:100] Creating Layer conv4_3_norm_mbox_priorbox
I0711 18:44:13.188344  7973 net.cpp:434] conv4_3_norm_mbox_priorbox <- conv4_3_norm_conv4_3_norm_0_split_2
I0711 18:44:13.188350  7973 net.cpp:434] conv4_3_norm_mbox_priorbox <- data_data_0_split_1
I0711 18:44:13.188356  7973 net.cpp:408] conv4_3_norm_mbox_priorbox -> conv4_3_norm_mbox_priorbox
I0711 18:44:13.188380  7973 net.cpp:150] Setting up conv4_3_norm_mbox_priorbox
I0711 18:44:13.188385  7973 net.cpp:157] Top shape: 1 2 23104 (46208)
I0711 18:44:13.188390  7973 net.cpp:165] Memory required for data: 1990924320
I0711 18:44:13.188392  7973 layer_factory.hpp:77] Creating layer fc7_mbox_loc
I0711 18:44:13.188417  7973 net.cpp:100] Creating Layer fc7_mbox_loc
I0711 18:44:13.188422  7973 net.cpp:434] fc7_mbox_loc <- fc7_relu7_0_split_1
I0711 18:44:13.188429  7973 net.cpp:408] fc7_mbox_loc -> fc7_mbox_loc
I0711 18:44:13.190078  7973 net.cpp:150] Setting up fc7_mbox_loc
I0711 18:44:13.190089  7973 net.cpp:157] Top shape: 8 24 19 19 (69312)
I0711 18:44:13.190093  7973 net.cpp:165] Memory required for data: 1991201568
I0711 18:44:13.190100  7973 layer_factory.hpp:77] Creating layer fc7_mbox_loc_perm
I0711 18:44:13.190109  7973 net.cpp:100] Creating Layer fc7_mbox_loc_perm
I0711 18:44:13.190114  7973 net.cpp:434] fc7_mbox_loc_perm <- fc7_mbox_loc
I0711 18:44:13.190119  7973 net.cpp:408] fc7_mbox_loc_perm -> fc7_mbox_loc_perm
I0711 18:44:13.190184  7973 net.cpp:150] Setting up fc7_mbox_loc_perm
I0711 18:44:13.190191  7973 net.cpp:157] Top shape: 8 19 19 24 (69312)
I0711 18:44:13.190193  7973 net.cpp:165] Memory required for data: 1991478816
I0711 18:44:13.190196  7973 layer_factory.hpp:77] Creating layer fc7_mbox_loc_flat
I0711 18:44:13.190202  7973 net.cpp:100] Creating Layer fc7_mbox_loc_flat
I0711 18:44:13.190207  7973 net.cpp:434] fc7_mbox_loc_flat <- fc7_mbox_loc_perm
I0711 18:44:13.190214  7973 net.cpp:408] fc7_mbox_loc_flat -> fc7_mbox_loc_flat
I0711 18:44:13.190239  7973 net.cpp:150] Setting up fc7_mbox_loc_flat
I0711 18:44:13.190244  7973 net.cpp:157] Top shape: 8 8664 (69312)
I0711 18:44:13.190248  7973 net.cpp:165] Memory required for data: 1991756064
I0711 18:44:13.190255  7973 layer_factory.hpp:77] Creating layer fc7_mbox_conf
I0711 18:44:13.190275  7973 net.cpp:100] Creating Layer fc7_mbox_conf
I0711 18:44:13.190280  7973 net.cpp:434] fc7_mbox_conf <- fc7_relu7_0_split_2
I0711 18:44:13.190287  7973 net.cpp:408] fc7_mbox_conf -> fc7_mbox_conf
I0711 18:44:13.206033  7973 net.cpp:150] Setting up fc7_mbox_conf
I0711 18:44:13.206131  7973 net.cpp:157] Top shape: 8 126 19 19 (363888)
I0711 18:44:13.206138  7973 net.cpp:165] Memory required for data: 1993211616
I0711 18:44:13.206163  7973 layer_factory.hpp:77] Creating layer fc7_mbox_conf_perm
I0711 18:44:13.206188  7973 net.cpp:100] Creating Layer fc7_mbox_conf_perm
I0711 18:44:13.206207  7973 net.cpp:434] fc7_mbox_conf_perm <- fc7_mbox_conf
I0711 18:44:13.206223  7973 net.cpp:408] fc7_mbox_conf_perm -> fc7_mbox_conf_perm
I0711 18:44:13.206337  7973 net.cpp:150] Setting up fc7_mbox_conf_perm
I0711 18:44:13.206346  7973 net.cpp:157] Top shape: 8 19 19 126 (363888)
I0711 18:44:13.206349  7973 net.cpp:165] Memory required for data: 1994667168
I0711 18:44:13.206352  7973 layer_factory.hpp:77] Creating layer fc7_mbox_conf_flat
I0711 18:44:13.206364  7973 net.cpp:100] Creating Layer fc7_mbox_conf_flat
I0711 18:44:13.206368  7973 net.cpp:434] fc7_mbox_conf_flat <- fc7_mbox_conf_perm
I0711 18:44:13.206372  7973 net.cpp:408] fc7_mbox_conf_flat -> fc7_mbox_conf_flat
I0711 18:44:13.206396  7973 net.cpp:150] Setting up fc7_mbox_conf_flat
I0711 18:44:13.206401  7973 net.cpp:157] Top shape: 8 45486 (363888)
I0711 18:44:13.206404  7973 net.cpp:165] Memory required for data: 1996122720
I0711 18:44:13.206408  7973 layer_factory.hpp:77] Creating layer fc7_mbox_priorbox
I0711 18:44:13.206419  7973 net.cpp:100] Creating Layer fc7_mbox_priorbox
I0711 18:44:13.206463  7973 net.cpp:434] fc7_mbox_priorbox <- fc7_relu7_0_split_3
I0711 18:44:13.206538  7973 net.cpp:434] fc7_mbox_priorbox <- data_data_0_split_2
I0711 18:44:13.206547  7973 net.cpp:408] fc7_mbox_priorbox -> fc7_mbox_priorbox
I0711 18:44:13.206580  7973 net.cpp:150] Setting up fc7_mbox_priorbox
I0711 18:44:13.206588  7973 net.cpp:157] Top shape: 1 2 8664 (17328)
I0711 18:44:13.206590  7973 net.cpp:165] Memory required for data: 1996192032
I0711 18:44:13.206594  7973 layer_factory.hpp:77] Creating layer conv6_2_mbox_loc
I0711 18:44:13.206607  7973 net.cpp:100] Creating Layer conv6_2_mbox_loc
I0711 18:44:13.206616  7973 net.cpp:434] conv6_2_mbox_loc <- conv6_2_conv6_2_relu_0_split_1
I0711 18:44:13.206624  7973 net.cpp:408] conv6_2_mbox_loc -> conv6_2_mbox_loc
I0711 18:44:13.207525  7973 net.cpp:150] Setting up conv6_2_mbox_loc
I0711 18:44:13.207530  7973 net.cpp:157] Top shape: 8 24 10 10 (19200)
I0711 18:44:13.207532  7973 net.cpp:165] Memory required for data: 1996268832
I0711 18:44:13.207537  7973 layer_factory.hpp:77] Creating layer conv6_2_mbox_loc_perm
I0711 18:44:13.207540  7973 net.cpp:100] Creating Layer conv6_2_mbox_loc_perm
I0711 18:44:13.207543  7973 net.cpp:434] conv6_2_mbox_loc_perm <- conv6_2_mbox_loc
I0711 18:44:13.207547  7973 net.cpp:408] conv6_2_mbox_loc_perm -> conv6_2_mbox_loc_perm
I0711 18:44:13.207615  7973 net.cpp:150] Setting up conv6_2_mbox_loc_perm
I0711 18:44:13.207620  7973 net.cpp:157] Top shape: 8 10 10 24 (19200)
I0711 18:44:13.207623  7973 net.cpp:165] Memory required for data: 1996345632
I0711 18:44:13.207624  7973 layer_factory.hpp:77] Creating layer conv6_2_mbox_loc_flat
I0711 18:44:13.207628  7973 net.cpp:100] Creating Layer conv6_2_mbox_loc_flat
I0711 18:44:13.207629  7973 net.cpp:434] conv6_2_mbox_loc_flat <- conv6_2_mbox_loc_perm
I0711 18:44:13.207633  7973 net.cpp:408] conv6_2_mbox_loc_flat -> conv6_2_mbox_loc_flat
I0711 18:44:13.207646  7973 net.cpp:150] Setting up conv6_2_mbox_loc_flat
I0711 18:44:13.207649  7973 net.cpp:157] Top shape: 8 2400 (19200)
I0711 18:44:13.207650  7973 net.cpp:165] Memory required for data: 1996422432
I0711 18:44:13.207653  7973 layer_factory.hpp:77] Creating layer conv6_2_mbox_conf
I0711 18:44:13.207657  7973 net.cpp:100] Creating Layer conv6_2_mbox_conf
I0711 18:44:13.207661  7973 net.cpp:434] conv6_2_mbox_conf <- conv6_2_conv6_2_relu_0_split_2
I0711 18:44:13.207665  7973 net.cpp:408] conv6_2_mbox_conf -> conv6_2_mbox_conf
I0711 18:44:13.212476  7973 net.cpp:150] Setting up conv6_2_mbox_conf
I0711 18:44:13.212487  7973 net.cpp:157] Top shape: 8 126 10 10 (100800)
I0711 18:44:13.212489  7973 net.cpp:165] Memory required for data: 1996825632
I0711 18:44:13.212494  7973 layer_factory.hpp:77] Creating layer conv6_2_mbox_conf_perm
I0711 18:44:13.212498  7973 net.cpp:100] Creating Layer conv6_2_mbox_conf_perm
I0711 18:44:13.212502  7973 net.cpp:434] conv6_2_mbox_conf_perm <- conv6_2_mbox_conf
I0711 18:44:13.212507  7973 net.cpp:408] conv6_2_mbox_conf_perm -> conv6_2_mbox_conf_perm
I0711 18:44:13.212577  7973 net.cpp:150] Setting up conv6_2_mbox_conf_perm
I0711 18:44:13.212582  7973 net.cpp:157] Top shape: 8 10 10 126 (100800)
I0711 18:44:13.212584  7973 net.cpp:165] Memory required for data: 1997228832
I0711 18:44:13.212586  7973 layer_factory.hpp:77] Creating layer conv6_2_mbox_conf_flat
I0711 18:44:13.212589  7973 net.cpp:100] Creating Layer conv6_2_mbox_conf_flat
I0711 18:44:13.212592  7973 net.cpp:434] conv6_2_mbox_conf_flat <- conv6_2_mbox_conf_perm
I0711 18:44:13.212595  7973 net.cpp:408] conv6_2_mbox_conf_flat -> conv6_2_mbox_conf_flat
I0711 18:44:13.212610  7973 net.cpp:150] Setting up conv6_2_mbox_conf_flat
I0711 18:44:13.212612  7973 net.cpp:157] Top shape: 8 12600 (100800)
I0711 18:44:13.212615  7973 net.cpp:165] Memory required for data: 1997632032
I0711 18:44:13.212616  7973 layer_factory.hpp:77] Creating layer conv6_2_mbox_priorbox
I0711 18:44:13.212621  7973 net.cpp:100] Creating Layer conv6_2_mbox_priorbox
I0711 18:44:13.212625  7973 net.cpp:434] conv6_2_mbox_priorbox <- conv6_2_conv6_2_relu_0_split_3
I0711 18:44:13.212630  7973 net.cpp:434] conv6_2_mbox_priorbox <- data_data_0_split_3
I0711 18:44:13.212649  7973 net.cpp:408] conv6_2_mbox_priorbox -> conv6_2_mbox_priorbox
I0711 18:44:13.212667  7973 net.cpp:150] Setting up conv6_2_mbox_priorbox
I0711 18:44:13.212671  7973 net.cpp:157] Top shape: 1 2 2400 (4800)
I0711 18:44:13.212673  7973 net.cpp:165] Memory required for data: 1997651232
I0711 18:44:13.212676  7973 layer_factory.hpp:77] Creating layer conv7_2_mbox_loc
I0711 18:44:13.212682  7973 net.cpp:100] Creating Layer conv7_2_mbox_loc
I0711 18:44:13.212684  7973 net.cpp:434] conv7_2_mbox_loc <- conv7_2_conv7_2_relu_0_split_1
I0711 18:44:13.212690  7973 net.cpp:408] conv7_2_mbox_loc -> conv7_2_mbox_loc
I0711 18:44:13.213241  7973 net.cpp:150] Setting up conv7_2_mbox_loc
I0711 18:44:13.213249  7973 net.cpp:157] Top shape: 8 24 5 5 (4800)
I0711 18:44:13.213251  7973 net.cpp:165] Memory required for data: 1997670432
I0711 18:44:13.213255  7973 layer_factory.hpp:77] Creating layer conv7_2_mbox_loc_perm
I0711 18:44:13.213260  7973 net.cpp:100] Creating Layer conv7_2_mbox_loc_perm
I0711 18:44:13.213265  7973 net.cpp:434] conv7_2_mbox_loc_perm <- conv7_2_mbox_loc
I0711 18:44:13.213270  7973 net.cpp:408] conv7_2_mbox_loc_perm -> conv7_2_mbox_loc_perm
I0711 18:44:13.213336  7973 net.cpp:150] Setting up conv7_2_mbox_loc_perm
I0711 18:44:13.213342  7973 net.cpp:157] Top shape: 8 5 5 24 (4800)
I0711 18:44:13.213345  7973 net.cpp:165] Memory required for data: 1997689632
I0711 18:44:13.213346  7973 layer_factory.hpp:77] Creating layer conv7_2_mbox_loc_flat
I0711 18:44:13.213351  7973 net.cpp:100] Creating Layer conv7_2_mbox_loc_flat
I0711 18:44:13.213356  7973 net.cpp:434] conv7_2_mbox_loc_flat <- conv7_2_mbox_loc_perm
I0711 18:44:13.213361  7973 net.cpp:408] conv7_2_mbox_loc_flat -> conv7_2_mbox_loc_flat
I0711 18:44:13.213382  7973 net.cpp:150] Setting up conv7_2_mbox_loc_flat
I0711 18:44:13.213387  7973 net.cpp:157] Top shape: 8 600 (4800)
I0711 18:44:13.213390  7973 net.cpp:165] Memory required for data: 1997708832
I0711 18:44:13.213393  7973 layer_factory.hpp:77] Creating layer conv7_2_mbox_conf
I0711 18:44:13.213402  7973 net.cpp:100] Creating Layer conv7_2_mbox_conf
I0711 18:44:13.213407  7973 net.cpp:434] conv7_2_mbox_conf <- conv7_2_conv7_2_relu_0_split_2
I0711 18:44:13.213414  7973 net.cpp:408] conv7_2_mbox_conf -> conv7_2_mbox_conf
I0711 18:44:13.216272  7973 net.cpp:150] Setting up conv7_2_mbox_conf
I0711 18:44:13.216290  7973 net.cpp:157] Top shape: 8 126 5 5 (25200)
I0711 18:44:13.216294  7973 net.cpp:165] Memory required for data: 1997809632
I0711 18:44:13.216300  7973 layer_factory.hpp:77] Creating layer conv7_2_mbox_conf_perm
I0711 18:44:13.216307  7973 net.cpp:100] Creating Layer conv7_2_mbox_conf_perm
I0711 18:44:13.216310  7973 net.cpp:434] conv7_2_mbox_conf_perm <- conv7_2_mbox_conf
I0711 18:44:13.216316  7973 net.cpp:408] conv7_2_mbox_conf_perm -> conv7_2_mbox_conf_perm
I0711 18:44:13.216401  7973 net.cpp:150] Setting up conv7_2_mbox_conf_perm
I0711 18:44:13.216411  7973 net.cpp:157] Top shape: 8 5 5 126 (25200)
I0711 18:44:13.216413  7973 net.cpp:165] Memory required for data: 1997910432
I0711 18:44:13.216416  7973 layer_factory.hpp:77] Creating layer conv7_2_mbox_conf_flat
I0711 18:44:13.216423  7973 net.cpp:100] Creating Layer conv7_2_mbox_conf_flat
I0711 18:44:13.216429  7973 net.cpp:434] conv7_2_mbox_conf_flat <- conv7_2_mbox_conf_perm
I0711 18:44:13.216436  7973 net.cpp:408] conv7_2_mbox_conf_flat -> conv7_2_mbox_conf_flat
I0711 18:44:13.216462  7973 net.cpp:150] Setting up conv7_2_mbox_conf_flat
I0711 18:44:13.216467  7973 net.cpp:157] Top shape: 8 3150 (25200)
I0711 18:44:13.216470  7973 net.cpp:165] Memory required for data: 1998011232
I0711 18:44:13.216470  7973 layer_factory.hpp:77] Creating layer conv7_2_mbox_priorbox
I0711 18:44:13.216475  7973 net.cpp:100] Creating Layer conv7_2_mbox_priorbox
I0711 18:44:13.216480  7973 net.cpp:434] conv7_2_mbox_priorbox <- conv7_2_conv7_2_relu_0_split_3
I0711 18:44:13.216486  7973 net.cpp:434] conv7_2_mbox_priorbox <- data_data_0_split_4
I0711 18:44:13.216492  7973 net.cpp:408] conv7_2_mbox_priorbox -> conv7_2_mbox_priorbox
I0711 18:44:13.216531  7973 net.cpp:150] Setting up conv7_2_mbox_priorbox
I0711 18:44:13.216538  7973 net.cpp:157] Top shape: 1 2 600 (1200)
I0711 18:44:13.216540  7973 net.cpp:165] Memory required for data: 1998016032
I0711 18:44:13.216542  7973 layer_factory.hpp:77] Creating layer conv8_2_mbox_loc
I0711 18:44:13.216548  7973 net.cpp:100] Creating Layer conv8_2_mbox_loc
I0711 18:44:13.216552  7973 net.cpp:434] conv8_2_mbox_loc <- conv8_2_conv8_2_relu_0_split_1
I0711 18:44:13.216560  7973 net.cpp:408] conv8_2_mbox_loc -> conv8_2_mbox_loc
I0711 18:44:13.216961  7973 net.cpp:150] Setting up conv8_2_mbox_loc
I0711 18:44:13.216967  7973 net.cpp:157] Top shape: 8 16 3 3 (1152)
I0711 18:44:13.216969  7973 net.cpp:165] Memory required for data: 1998020640
I0711 18:44:13.216984  7973 layer_factory.hpp:77] Creating layer conv8_2_mbox_loc_perm
I0711 18:44:13.216990  7973 net.cpp:100] Creating Layer conv8_2_mbox_loc_perm
I0711 18:44:13.216995  7973 net.cpp:434] conv8_2_mbox_loc_perm <- conv8_2_mbox_loc
I0711 18:44:13.217000  7973 net.cpp:408] conv8_2_mbox_loc_perm -> conv8_2_mbox_loc_perm
I0711 18:44:13.217061  7973 net.cpp:150] Setting up conv8_2_mbox_loc_perm
I0711 18:44:13.217067  7973 net.cpp:157] Top shape: 8 3 3 16 (1152)
I0711 18:44:13.217067  7973 net.cpp:165] Memory required for data: 1998025248
I0711 18:44:13.217069  7973 layer_factory.hpp:77] Creating layer conv8_2_mbox_loc_flat
I0711 18:44:13.217074  7973 net.cpp:100] Creating Layer conv8_2_mbox_loc_flat
I0711 18:44:13.217077  7973 net.cpp:434] conv8_2_mbox_loc_flat <- conv8_2_mbox_loc_perm
I0711 18:44:13.217080  7973 net.cpp:408] conv8_2_mbox_loc_flat -> conv8_2_mbox_loc_flat
I0711 18:44:13.217093  7973 net.cpp:150] Setting up conv8_2_mbox_loc_flat
I0711 18:44:13.217097  7973 net.cpp:157] Top shape: 8 144 (1152)
I0711 18:44:13.217099  7973 net.cpp:165] Memory required for data: 1998029856
I0711 18:44:13.217100  7973 layer_factory.hpp:77] Creating layer conv8_2_mbox_conf
I0711 18:44:13.217105  7973 net.cpp:100] Creating Layer conv8_2_mbox_conf
I0711 18:44:13.217109  7973 net.cpp:434] conv8_2_mbox_conf <- conv8_2_conv8_2_relu_0_split_2
I0711 18:44:13.217113  7973 net.cpp:408] conv8_2_mbox_conf -> conv8_2_mbox_conf
I0711 18:44:13.218544  7973 net.cpp:150] Setting up conv8_2_mbox_conf
I0711 18:44:13.218551  7973 net.cpp:157] Top shape: 8 84 3 3 (6048)
I0711 18:44:13.218554  7973 net.cpp:165] Memory required for data: 1998054048
I0711 18:44:13.218557  7973 layer_factory.hpp:77] Creating layer conv8_2_mbox_conf_perm
I0711 18:44:13.218561  7973 net.cpp:100] Creating Layer conv8_2_mbox_conf_perm
I0711 18:44:13.218565  7973 net.cpp:434] conv8_2_mbox_conf_perm <- conv8_2_mbox_conf
I0711 18:44:13.218569  7973 net.cpp:408] conv8_2_mbox_conf_perm -> conv8_2_mbox_conf_perm
I0711 18:44:13.218627  7973 net.cpp:150] Setting up conv8_2_mbox_conf_perm
I0711 18:44:13.218631  7973 net.cpp:157] Top shape: 8 3 3 84 (6048)
I0711 18:44:13.218633  7973 net.cpp:165] Memory required for data: 1998078240
I0711 18:44:13.218636  7973 layer_factory.hpp:77] Creating layer conv8_2_mbox_conf_flat
I0711 18:44:13.218638  7973 net.cpp:100] Creating Layer conv8_2_mbox_conf_flat
I0711 18:44:13.218641  7973 net.cpp:434] conv8_2_mbox_conf_flat <- conv8_2_mbox_conf_perm
I0711 18:44:13.218643  7973 net.cpp:408] conv8_2_mbox_conf_flat -> conv8_2_mbox_conf_flat
I0711 18:44:13.218657  7973 net.cpp:150] Setting up conv8_2_mbox_conf_flat
I0711 18:44:13.218662  7973 net.cpp:157] Top shape: 8 756 (6048)
I0711 18:44:13.218664  7973 net.cpp:165] Memory required for data: 1998102432
I0711 18:44:13.218667  7973 layer_factory.hpp:77] Creating layer conv8_2_mbox_priorbox
I0711 18:44:13.218678  7973 net.cpp:100] Creating Layer conv8_2_mbox_priorbox
I0711 18:44:13.218683  7973 net.cpp:434] conv8_2_mbox_priorbox <- conv8_2_conv8_2_relu_0_split_3
I0711 18:44:13.218688  7973 net.cpp:434] conv8_2_mbox_priorbox <- data_data_0_split_5
I0711 18:44:13.218691  7973 net.cpp:408] conv8_2_mbox_priorbox -> conv8_2_mbox_priorbox
I0711 18:44:13.218709  7973 net.cpp:150] Setting up conv8_2_mbox_priorbox
I0711 18:44:13.218713  7973 net.cpp:157] Top shape: 1 2 144 (288)
I0711 18:44:13.218725  7973 net.cpp:165] Memory required for data: 1998103584
I0711 18:44:13.218727  7973 layer_factory.hpp:77] Creating layer conv9_2_mbox_loc
I0711 18:44:13.218734  7973 net.cpp:100] Creating Layer conv9_2_mbox_loc
I0711 18:44:13.218735  7973 net.cpp:434] conv9_2_mbox_loc <- conv9_2_conv9_2_relu_0_split_0
I0711 18:44:13.218739  7973 net.cpp:408] conv9_2_mbox_loc -> conv9_2_mbox_loc
I0711 18:44:13.219121  7973 net.cpp:150] Setting up conv9_2_mbox_loc
I0711 18:44:13.219130  7973 net.cpp:157] Top shape: 8 16 1 1 (128)
I0711 18:44:13.219130  7973 net.cpp:165] Memory required for data: 1998104096
I0711 18:44:13.219138  7973 layer_factory.hpp:77] Creating layer conv9_2_mbox_loc_perm
I0711 18:44:13.219144  7973 net.cpp:100] Creating Layer conv9_2_mbox_loc_perm
I0711 18:44:13.219148  7973 net.cpp:434] conv9_2_mbox_loc_perm <- conv9_2_mbox_loc
I0711 18:44:13.219153  7973 net.cpp:408] conv9_2_mbox_loc_perm -> conv9_2_mbox_loc_perm
I0711 18:44:13.219219  7973 net.cpp:150] Setting up conv9_2_mbox_loc_perm
I0711 18:44:13.219226  7973 net.cpp:157] Top shape: 8 1 1 16 (128)
I0711 18:44:13.219229  7973 net.cpp:165] Memory required for data: 1998104608
I0711 18:44:13.219233  7973 layer_factory.hpp:77] Creating layer conv9_2_mbox_loc_flat
I0711 18:44:13.219238  7973 net.cpp:100] Creating Layer conv9_2_mbox_loc_flat
I0711 18:44:13.219243  7973 net.cpp:434] conv9_2_mbox_loc_flat <- conv9_2_mbox_loc_perm
I0711 18:44:13.219249  7973 net.cpp:408] conv9_2_mbox_loc_flat -> conv9_2_mbox_loc_flat
I0711 18:44:13.219266  7973 net.cpp:150] Setting up conv9_2_mbox_loc_flat
I0711 18:44:13.219272  7973 net.cpp:157] Top shape: 8 16 (128)
I0711 18:44:13.219277  7973 net.cpp:165] Memory required for data: 1998105120
I0711 18:44:13.219282  7973 layer_factory.hpp:77] Creating layer conv9_2_mbox_conf
I0711 18:44:13.219290  7973 net.cpp:100] Creating Layer conv9_2_mbox_conf
I0711 18:44:13.219293  7973 net.cpp:434] conv9_2_mbox_conf <- conv9_2_conv9_2_relu_0_split_1
I0711 18:44:13.219302  7973 net.cpp:408] conv9_2_mbox_conf -> conv9_2_mbox_conf
I0711 18:44:13.220736  7973 net.cpp:150] Setting up conv9_2_mbox_conf
I0711 18:44:13.220742  7973 net.cpp:157] Top shape: 8 84 1 1 (672)
I0711 18:44:13.220744  7973 net.cpp:165] Memory required for data: 1998107808
I0711 18:44:13.220748  7973 layer_factory.hpp:77] Creating layer conv9_2_mbox_conf_perm
I0711 18:44:13.220753  7973 net.cpp:100] Creating Layer conv9_2_mbox_conf_perm
I0711 18:44:13.220757  7973 net.cpp:434] conv9_2_mbox_conf_perm <- conv9_2_mbox_conf
I0711 18:44:13.220762  7973 net.cpp:408] conv9_2_mbox_conf_perm -> conv9_2_mbox_conf_perm
I0711 18:44:13.220819  7973 net.cpp:150] Setting up conv9_2_mbox_conf_perm
I0711 18:44:13.220824  7973 net.cpp:157] Top shape: 8 1 1 84 (672)
I0711 18:44:13.220825  7973 net.cpp:165] Memory required for data: 1998110496
I0711 18:44:13.220827  7973 layer_factory.hpp:77] Creating layer conv9_2_mbox_conf_flat
I0711 18:44:13.220832  7973 net.cpp:100] Creating Layer conv9_2_mbox_conf_flat
I0711 18:44:13.220837  7973 net.cpp:434] conv9_2_mbox_conf_flat <- conv9_2_mbox_conf_perm
I0711 18:44:13.220841  7973 net.cpp:408] conv9_2_mbox_conf_flat -> conv9_2_mbox_conf_flat
I0711 18:44:13.220856  7973 net.cpp:150] Setting up conv9_2_mbox_conf_flat
I0711 18:44:13.220860  7973 net.cpp:157] Top shape: 8 84 (672)
I0711 18:44:13.220862  7973 net.cpp:165] Memory required for data: 1998113184
I0711 18:44:13.220863  7973 layer_factory.hpp:77] Creating layer conv9_2_mbox_priorbox
I0711 18:44:13.220867  7973 net.cpp:100] Creating Layer conv9_2_mbox_priorbox
I0711 18:44:13.220870  7973 net.cpp:434] conv9_2_mbox_priorbox <- conv9_2_conv9_2_relu_0_split_2
I0711 18:44:13.220875  7973 net.cpp:434] conv9_2_mbox_priorbox <- data_data_0_split_6
I0711 18:44:13.220877  7973 net.cpp:408] conv9_2_mbox_priorbox -> conv9_2_mbox_priorbox
I0711 18:44:13.220892  7973 net.cpp:150] Setting up conv9_2_mbox_priorbox
I0711 18:44:13.220896  7973 net.cpp:157] Top shape: 1 2 16 (32)
I0711 18:44:13.220898  7973 net.cpp:165] Memory required for data: 1998113312
I0711 18:44:13.220909  7973 layer_factory.hpp:77] Creating layer mbox_loc
I0711 18:44:13.220916  7973 net.cpp:100] Creating Layer mbox_loc
I0711 18:44:13.220921  7973 net.cpp:434] mbox_loc <- conv4_3_norm_mbox_loc_flat
I0711 18:44:13.220926  7973 net.cpp:434] mbox_loc <- fc7_mbox_loc_flat
I0711 18:44:13.220929  7973 net.cpp:434] mbox_loc <- conv6_2_mbox_loc_flat
I0711 18:44:13.220932  7973 net.cpp:434] mbox_loc <- conv7_2_mbox_loc_flat
I0711 18:44:13.220937  7973 net.cpp:434] mbox_loc <- conv8_2_mbox_loc_flat
I0711 18:44:13.220939  7973 net.cpp:434] mbox_loc <- conv9_2_mbox_loc_flat
I0711 18:44:13.220947  7973 net.cpp:408] mbox_loc -> mbox_loc
I0711 18:44:13.220975  7973 net.cpp:150] Setting up mbox_loc
I0711 18:44:13.220979  7973 net.cpp:157] Top shape: 8 34928 (279424)
I0711 18:44:13.220981  7973 net.cpp:165] Memory required for data: 1999231008
I0711 18:44:13.220983  7973 layer_factory.hpp:77] Creating layer mbox_conf
I0711 18:44:13.220986  7973 net.cpp:100] Creating Layer mbox_conf
I0711 18:44:13.220989  7973 net.cpp:434] mbox_conf <- conv4_3_norm_mbox_conf_flat
I0711 18:44:13.220994  7973 net.cpp:434] mbox_conf <- fc7_mbox_conf_flat
I0711 18:44:13.220998  7973 net.cpp:434] mbox_conf <- conv6_2_mbox_conf_flat
I0711 18:44:13.221000  7973 net.cpp:434] mbox_conf <- conv7_2_mbox_conf_flat
I0711 18:44:13.221002  7973 net.cpp:434] mbox_conf <- conv8_2_mbox_conf_flat
I0711 18:44:13.221005  7973 net.cpp:434] mbox_conf <- conv9_2_mbox_conf_flat
I0711 18:44:13.221009  7973 net.cpp:408] mbox_conf -> mbox_conf
I0711 18:44:13.221021  7973 net.cpp:150] Setting up mbox_conf
I0711 18:44:13.221025  7973 net.cpp:157] Top shape: 8 183372 (1466976)
I0711 18:44:13.221027  7973 net.cpp:165] Memory required for data: 2005098912
I0711 18:44:13.221029  7973 layer_factory.hpp:77] Creating layer mbox_priorbox
I0711 18:44:13.221032  7973 net.cpp:100] Creating Layer mbox_priorbox
I0711 18:44:13.221035  7973 net.cpp:434] mbox_priorbox <- conv4_3_norm_mbox_priorbox
I0711 18:44:13.221038  7973 net.cpp:434] mbox_priorbox <- fc7_mbox_priorbox
I0711 18:44:13.221041  7973 net.cpp:434] mbox_priorbox <- conv6_2_mbox_priorbox
I0711 18:44:13.221045  7973 net.cpp:434] mbox_priorbox <- conv7_2_mbox_priorbox
I0711 18:44:13.221047  7973 net.cpp:434] mbox_priorbox <- conv8_2_mbox_priorbox
I0711 18:44:13.221050  7973 net.cpp:434] mbox_priorbox <- conv9_2_mbox_priorbox
I0711 18:44:13.221052  7973 net.cpp:408] mbox_priorbox -> mbox_priorbox
I0711 18:44:13.221065  7973 net.cpp:150] Setting up mbox_priorbox
I0711 18:44:13.221070  7973 net.cpp:157] Top shape: 1 2 34928 (69856)
I0711 18:44:13.221071  7973 net.cpp:165] Memory required for data: 2005378336
I0711 18:44:13.221072  7973 layer_factory.hpp:77] Creating layer mbox_loss
I0711 18:44:13.221081  7973 net.cpp:100] Creating Layer mbox_loss
I0711 18:44:13.221084  7973 net.cpp:434] mbox_loss <- mbox_loc
I0711 18:44:13.221088  7973 net.cpp:434] mbox_loss <- mbox_conf
I0711 18:44:13.221091  7973 net.cpp:434] mbox_loss <- mbox_priorbox
…
state {
  phase: TEST
}
layer {
  name: "data"
  type: "AnnotatedData"
  top: "data"
  top: "label"
  include {
    phase: TEST
  }
  transform_param {
    mean_value: 104
    mean_value: 117
    mean_value: 123
    resize_param {
      prob: 1
      resize_mode: WARP
      height: 300
      width: 300
      interp_mode: LINEAR
    }
  }
  data_param {
    source: "examples/VOC0712/VOC0712_test_lmdb"
    batch_size: 8
    backend: LMDB
  }
  annotated_data_param {
    batch_sampler {
    }
    label_map_file: "data/VOC0712/labelmap_voc.prototxt"
  }
}
layer {
  name: "conv1_1"
  type: "Convolution"
  bottom: "data"
  top: "conv1_1"
  param {
    lr_mult: 1
    decay_mult: 1
  }
  param {
    lr_mult: 2
    decay_mult: 0
  }
  convolution_param {
    num_output: 64
    pad: 1
    kernel_size: 3
    weight_filler {
      type: "xavier"
    }
    bias_filler {
      type: "constant"
      value: 0
    }
  }
}
layer {
  name: "relu1_1"
  type: "ReLU"
  bottom: "conv1_1"
  top: "conv1_1"
}
layer {
  name: "conv1_2"
  type: "Convolution"
  bottom: "conv1_1"
  top: "conv1_2"
  param {
    lr_mult: 1
    decay_mult: 1
  }
  param {
    lr_mult: 2
    decay_mult: 0
  }
  convolution_param {
    num_output: 64
    pad: 1
    kernel_size: 3
    weight_filler {
      type: "xavier"
    }
    bias_filler {
      type: "constant"
      value: 0
    }
  }
}
layer {
  name: "relu1_2"
  type: "ReLU"
  bottom: "conv1_2"
  top: "conv1_2"
}
layer {
  name: "pool1"
  type: "Pooling"
  bottom: "conv1_2"
  top: "pool1"
  pooling_param {
    pool: MAX
    kernel_size: 2
    stride: 2
  }
}
layer {
  name: "conv2_1"
  type: "Convolution"
  bottom: "pool1"
  top: "conv2_1"
  param {
    lr_mult: 1
    decay_mult: 1
  }
  param {
    lr_mult: 2
    decay_mult: 0
  }
  convolution_param {
    num_output: 128
    pad: 1
    kernel_size: 3
    weight_filler {
      type: "xavier"
    }
    bias_filler {
      type: "constant"
      value: 0
    }
  }
}
layer {
  name: "relu2_1"
  type: "ReLU"
  bottom: "conv2_1"
  top: "conv2_1"
}
layer {
  name: "conv2_2"
  type: "Convolution"
  bottom: "conv2_1"
  top: "conv2_2"
  param {
    lr_mult: 1
    decay_mult: 1
  }
  param {
    lr_mult: 2
    decay_mult: 0
  }
  convolution_param {
    num_output: 128
    pad: 1
    kernel_size: 3
    weight_filler {
      type: "xavier"
    }
    bias_filler {
      type: "constant"
      value: 0
    }
  }
}
layer {
  name: "relu2_2"
  type: "ReLU"
  bottom: "conv2_2"
  top: "conv2_2"
}
layer {
  name: "pool2"
  type: "Pooling"
  bottom: "conv2_2"
  top: "pool2"
  pooling_param {
    pool: MAX
    kernel_size: 2
    stride: 2
  }
}
layer {
  name: "conv3_1"
  type: "Convolution"
  bottom: "pool2"
  top: "conv3_1"
  param {
    lr_mult: 1
    decay_mult: 1
  }
  param {
    lr_mult: 2
    decay_mult: 0
  }
  convolution_param {
    num_output: 256
    pad: 1
    kernel_size: 3
    weight_filler {
      type: "xavier"
    }
    bias_filler {
      type: "constant"
      value: 0
    }
  }
}
layer {
  name: "relu3_1"
  type: "ReLU"
  bottom: "conv3_1"
  top: "conv3_1"
}
layer {
  name: "conv3_2"
  type: "Convolution"
  bottom: "conv3_1"
  top: "conv3_2"
  param {
    lr_mult: 1
    decay_mult: 1
  }
  param {
    lr_mult: 2
    decay_mult: 0
  }
  convolution_param {
    num_output: 256
    pad: 1
    kernel_size: 3
    weight_filler {
      type: "xavier"
    }
    bias_filler {
      type: "constant"
      value: 0
    }
  }
}
layer {
  name: "relu3_2"
  type: "ReLU"
  bottom: "conv3_2"
  top: "conv3_2"
}
layer {
  name: "conv3_3"
  type: "Convolution"
  bottom: "conv3_2"
  top: "conv3_3"
  param {
    lr_mult: 1
    decay_mult: 1
  }
  param {
    lr_mult: 2
    decay_mult: 0
  }
  convolution_param {
    num_output: 256
    pad: 1
    kernel_size: 3
    weight_filler {
      type: "xavier"
    }
    bias_filler {
      type: "constant"
      value: 0
    }
  }
}
layer {
  name: "relu3_3"
  type: "ReLU"
  bottom: "conv3_3"
  top: "conv3_3"
}
layer {
  name: "pool3"
  type: "Pooling"
  bottom: "conv3_3"
  top: "pool3"
  pooling_param {
    pool: MAX
    kernel_size: 2
    stride: 2
  }
}
layer {
  name: "conv4_1"
  type: "Convolution"
  bottom: "pool3"
  top: "conv4_1"
  param {
    lr_mult: 1
    decay_mult: 1
  }
  param {
    lr_mult: 2
    decay_mult: 0
  }
  convolution_param {
    num_output: 512
    pad: 1
    kernel_size: 3
    weight_filler {
      type: "xavier"
    }
    bias_filler {
      type: "constant"
      value: 0
    }
  }
}
layer {
  name: "relu4_1"
  type: "ReLU"
  bottom: "conv4_1"
  top: "conv4_1"
}
layer {
  name: "conv4_2"
  type: "Convolution"
  bottom: "conv4_1"
  top: "conv4_2"
  param {
    lr_mult: 1
    decay_mult: 1
  }
  param {
    lr_mult: 2
    decay_mult: 0
  }
  convolution_param {
    num_output: 512
    pad: 1
    kernel_size: 3
    weight_filler {
      type: "xavier"
    }
    bias_filler {
      type: "constant"
      value: 0
    }
  }
}
layer {
  name: "relu4_2"
  type: "ReLU"
  bottom: "conv4_2"
  top: "conv4_2"
}
layer {
  name: "conv4_3"
  type: "Convolution"
  bottom: "conv4_2"
  top: "conv4_3"
  param {
    lr_mult: 1
    decay_mult: 1
  }
  param {
    lr_mult: 2
    decay_mult: 0
  }
  convolution_param {
    num_output: 512
    pad: 1
    kernel_size: 3
    weight_filler {
      type: "xavier"
    }
    bias_filler {
      type: "constant"
      value: 0
    }
  }
}
layer {
  name: "relu4_3"
  type: "ReLU"
  bottom: "conv4_3"
  top: "conv4_3"
}
layer {
  name: "pool4"
  type: "Pooling"
  bottom: "conv4_3"
  top: "pool4"
  pooling_param {
    pool: MAX
    kernel_size: 2
    stride: 2
  }
}
layer {
  name: "conv5_1"
  type: "Convolution"
  bottom: "pool4"
  top: "conv5_1"
  param {
    lr_mult: 1
    decay_mult: 1
  }
  param {
    lr_mult: 2
    decay_mult: 0
  }
  convolution_param {
    num_output: 512
    pad: 1
    kernel_size: 3
    weight_filler {
      type: "xavier"
    }
    bias_filler {
      type: "constant"
      value: 0
    }
    dilation: 1
  }
}
layer {
  name: "relu5_1"
  type: "ReLU"
  bottom: "conv5_1"
  top: "conv5_1"
}
layer {
  name: "conv5_2"
  type: "Convolution"
  bottom: "conv5_1"
  top: "conv5_2"
  param {
    lr_mult: 1
    decay_mult: 1
  }
  param {
    lr_mult: 2
    decay_mult: 0
  }
  convolution_param {
    num_output: 512
    pad: 1
    kernel_size: 3
    weight_filler {
      type: "xavier"
    }
    bias_filler {
      type: "constant"
      value: 0
    }
    dilation: 1
  }
}
layer {
  name: "relu5_2"
  type: "ReLU"
  bottom: "conv5_2"
  top: "conv5_2"
}
layer {
  name: "conv5_3"
  type: "Convolution"
  bottom: "conv5_2"
  top: "conv5_3"
  param {
    lr_mult: 1
    decay_mult: 1
  }
  param {
    lr_mult: 2
    decay_mult: 0
  }
  convolution_param {
    num_output: 512
    pad: 1
    kernel_size: 3
    weight_filler {
      type: "xavier"
    }
    bias_filler {
      type: "constant"
      value: 0
    }
    dilation: 1
  }
}
layer {
  name: "relu5_3"
  type: "ReLU"
  bottom: "conv5_3"
  top: "conv5_3"
}
layer {
  name: "pool5"
  type: "Pooling"
  bottom: "conv5_3"
  top: "pool5"
  pooling_param {
    pool: MAX
    kernel_size: 3
    stride: 1
    pad: 1
  }
}
layer {
  name: "fc6"
  type: "Convolution"
  bottom: "pool5"
  top: "fc6"
  param {
    lr_mult: 1
    decay_mult: 1
  }
  param {
    lr_mult: 2
    decay_mult: 0
  }
  convolution_param {
    num_output: 1024
    pad: 6
    kernel_size: 3
    weight_filler {
      type: "xavier"
    }
    bias_filler {
      type: "constant"
      value: 0
    }
    dilation: 6
  }
}
layer {
  name: "relu6"
  type: "ReLU"
  bottom: "fc6"
  top: "fc6"
}
layer {
  name: "fc7"
  type: "Convolution"
  bottom: "fc6"
  top: "fc7"
  param {
    lr_mult: 1
    decay_mult: 1
  }
  param {
    lr_mult: 2
    decay_mult: 0
  }
  convolution_param {
    num_output: 1024
    kernel_size: 1
    weight_filler {
      type: "xavier"
    }
    bias_filler {
      type: "constant"
      value: 0
    }
  }
}
layer {
  name: "relu7"
  type: "ReLU"
  bottom: "fc7"
  top: "fc7"
}
layer {
  name: "conv6_1"
  type: "Convolution"
  bottom: "fc7"
  top: "conv6_1"
  param {
    lr_mult: 1
    decay_mult: 1
  }
  param {
    lr_mult: 2
    decay_mult: 0
  }
  convolution_param {
    num_output: 256
    pad: 0
    kernel_size: 1
    stride: 1
    weight_filler {
      type: "xavier"
    }
    bias_filler {
      type: "constant"
      value: 0
    }
  }
}
layer {
  name: "conv6_1_relu"
  type: "ReLU"
  bottom: "conv6_1"
  top: "conv6_1"
}
layer {
  name: "conv6_2"
  type: "Convolution"
  bottom: "conv6_1"
  top: "conv6_2"
  param {
    lr_mult: 1
    decay_mult: 1
  }
  param {
    lr_mult: 2
    decay_mult: 0
  }
  convolution_param {
    num_output: 512
    pad: 1
    kernel_size: 3
    stride: 2
    weight_filler {
      type: "xavier"
    }
    bias_filler {
      type: "constant"
      value: 0
    }
  }
}
layer {
  name: "conv6_2_relu"
  type: "ReLU"
  bottom: "conv6_2"
  top: "conv6_2"
}
layer {
  name: "conv7_1"
  type: "Convolution"
  bottom: "conv6_2"
  top: "conv7_1"
  param {
    lr_mult: 1
    decay_mult: 1
  }
  param {
    lr_mult: 2
    decay_mult: 0
  }
  convolution_param {
    num_output: 128
    pad: 0
    kernel_size: 1
    stride: 1
    weight_filler {
      type: "xavier"
    }
    bias_filler {
      type: "constant"
      value: 0
    }
  }
}
layer {
  name: "conv7_1_relu"
  type: "ReLU"
  bottom: "conv7_1"
  top: "conv7_1"
}
layer {
  name: "conv7_2"
  type: "Convolution"
  bottom: "conv7_1"
  top: "conv7_2"
  param {
    lr_mult: 1
    decay_mult: 1
  }
  param {
    lr_mult: 2
    decay_mult: 0
  }
  convolution_param {
    num_output: 256
    pad: 1
    kernel_size: 3
    stride: 2
    weight_filler {
      type: "xavier"
    }
    bias_filler {
      type: "constant"
      value: 0
    }
  }
}
layer {
  name: "conv7_2_relu"
  type: "ReLU"
  bottom: "conv7_2"
  top: "conv7_2"
}
layer {
  name: "conv8_1"
  type: "Convolution"
  bottom: "conv7_2"
  top: "conv8_1"
  param {
    lr_mult: 1
    decay_mult: 1
  }
  param {
    lr_mult: 2
    decay_mult: 0
  }
  convolution_param {
    num_output: 128
    pad: 0
    kernel_size: 1
    stride: 1
    weight_filler {
      type: "xavier"
    }
    bias_filler {
      type: "constant"
      value: 0
    }
  }
}
layer {
  name: "conv8_1_relu"
  type: "ReLU"
  bottom: "conv8_1"
  top: "conv8_1"
}
layer {
  name: "conv8_2"
  type: "Convolution"
  bottom: "conv8_1"
  top: "conv8_2"
  param {
    lr_mult: 1
    decay_mult: 1
  }
  param {
    lr_mult: 2
    decay_mult: 0
  }
  convolution_param {
    num_output: 256
    pad: 0
    kernel_size: 3
    stride: 1
    weight_filler {
      type: "xavier"
    }
    bias_filler {
      type: "constant"
      value: 0
    }
  }
}
layer {
  name: "conv8_2_relu"
  type: "ReLU"
  bottom: "conv8_2"
  top: "conv8_2"
}
layer {
  name: "conv9_1"
  type: "Convolution"
  bottom: "conv8_2"
  top: "conv9_1"
  param {
    lr_mult: 1
    decay_mult: 1
  }
  param {
    lr_mult: 2
    decay_mult: 0
  }
  convolution_param {
    num_output: 128
    pad: 0
    kernel_size: 1
    stride: 1
    weight_filler {
      type: "xavier"
    }
    bias_filler {
      type: "constant"
      value: 0
    }
  }
}
layer {
  name: "conv9_1_relu"
  type: "ReLU"
  bottom: "conv9_1"
  top: "conv9_1"
}
layer {
  name: "conv9_2"
  type: "Convolution"
  bottom: "conv9_1"
  top: "conv9_2"
  param {
    lr_mult: 1
    decay_mult: 1
  }
  param {
    lr_mult: 2
    decay_mult: 0
  }
  convolution_param {
    num_output: 256
    pad: 0
    kernel_size: 3
    stride: 1
    weight_filler {
      type: "xavier"
    }
    bias_filler {
      type: "constant"
      value: 0
    }
  }
}
layer {
  name: "conv9_2_relu"
  type: "ReLU"
  bottom: "conv9_2"
  top: "conv9_2"
}
layer {
  name: "conv4_3_norm"
  type: "Normalize"
  bottom: "conv4_3"
  top: "conv4_3_norm"
  norm_param {
    across_spatial: false
    scale_filler {
      type: "constant"
      value: 20
    }
    channel_shared: false
  }
}
layer {
  name: "conv4_3_norm_mbox_loc"
  type: "Convolution"
  bottom: "conv4_3_norm"
  top: "conv4_3_norm_mbox_loc"
  param {
    lr_mult: 1
    decay_mult: 1
  }
  param {
    lr_mult: 2
    decay_mult: 0
  }
  convolution_param {
    num_output: 16
    pad: 1
    kernel_size: 3
    stride: 1
    weight_filler {
      type: "xavier"
    }
    bias_filler {
      type: "constant"
      value: 0
    }
  }
}
layer {
  name: "conv4_3_norm_mbox_loc_perm"
  type: "Permute"
  bottom: "conv4_3_norm_mbox_loc"
  top: "conv4_3_norm_mbox_loc_perm"
  permute_param {
    order: 0
    order: 2
    order: 3
    order: 1
  }
}
layer {
  name: "conv4_3_norm_mbox_loc_flat"
  type: "Flatten"
  bottom: "conv4_3_norm_mbox_loc_perm"
  top: "conv4_3_norm_mbox_loc_flat"
  flatten_param {
    axis: 1
  }
}
layer {
  name: "conv4_3_norm_mbox_conf"
  type: "Convolution"
  bottom: "conv4_3_norm"
  top: "conv4_3_norm_mbox_conf"
  param {
    lr_mult: 1
    decay_mult: 1
  }
  param {
    lr_mult: 2
    decay_mult: 0
  }
  convolution_param {
    num_output: 84
    pad: 1
    kernel_size: 3
    stride: 1
    weight_filler {
      type: "xavier"
    }
    bias_filler {
      type: "constant"
      value: 0
    }
  }
}
layer {
  name: "conv4_3_norm_mbox_conf_perm"
  type: "Permute"
  bottom: "conv4_3_norm_mbox_conf"
  top: "conv4_3_norm_mbox_conf_perm"
  permute_param {
    order: 0
    order: 2
    order: 3
    order: 1
  }
}
layer {
  name: "conv4_3_norm_mbox_conf_flat"
  type: "Flatten"
  bottom: "conv4_3_norm_mbox_conf_perm"
  top: "conv4_3_norm_mbox_conf_flat"
  flatten_param {
    axis: 1
  }
}
layer {
  name: "conv4_3_norm_mbox_priorbox"
  type: "PriorBox"
  bottom: "conv4_3_norm"
  bottom: "data"
  top: "conv4_3_norm_mbox_priorbox"
  prior_box_param {
    min_size: 30
    max_size: 60
    aspect_ratio: 2
    flip: true
    clip: false
    variance: 0.1
    variance: 0.1
    variance: 0.2
    variance: 0.2
    step: 8
    offset: 0.5
  }
}
layer {
  name: "fc7_mbox_loc"
  type: "Convolution"
  bottom: "fc7"
  top: "fc7_mbox_loc"
  param {
    lr_mult: 1
    decay_mult: 1
  }
  param {
    lr_mult: 2
    decay_mult: 0
  }
  convolution_param {
    num_output: 24
    pad: 1
    kernel_size: 3
    stride: 1
    weight_filler {
      type: "xavier"
    }
    bias_filler {
      type: "constant"
      value: 0
    }
  }
}
layer {
  name: "fc7_mbox_loc_perm"
  type: "Permute"
  bottom: "fc7_mbox_loc"
  top: "fc7_mbox_loc_perm"
  permute_param {
    order: 0
    order: 2
    order: 3
    order: 1
  }
}
layer {
  name: "fc7_mbox_loc_flat"
  type: "Flatten"
  bottom: "fc7_mbox_loc_perm"
  top: "fc7_mbox_loc_flat"
  flatten_param {
    axis: 1
  }
}
layer {
  name: "fc7_mbox_conf"
  type: "Convolution"
  bottom: "fc7"
  top: "fc7_mbox_conf"
  param {
    lr_mult: 1
    decay_mult: 1
  }
  param {
    lr_mult: 2
    decay_mult: 0
  }
  convolution_param {
    num_output: 126
    pad: 1
    kernel_size: 3
    stride: 1
    weight_filler {
      type: "xavier"
    }
    bias_filler {
      type: "constant"
      value: 0
    }
  }
}
layer {
  name: "fc7_mbox_conf_perm"
  type: "Permute"
  bottom: "fc7_mbox_conf"
  top: "fc7_mbox_conf_perm"
  permute_param {
    order: 0
    order: 2
    order: 3
    order: 1
  }
}
layer {
  name: "fc7_mbox_conf_flat"
  type: "Flatten"
  bottom: "fc7_mbox_conf_perm"
  top: "fc7_mbox_conf_flat"
  flatten_param {
    axis: 1
  }
}
layer {
  name: "fc7_mbox_priorbox"
  type: "PriorBox"
  bottom: "fc7"
  bottom: "data"
  top: "fc7_mbox_priorbox"
  prior_box_param {
    min_size: 60
    max_size: 111
    aspect_ratio: 2
    aspect_ratio: 3
    flip: true
    clip: false
    variance: 0.1
    variance: 0.1
    variance: 0.2
    variance: 0.2
    step: 16
    offset: 0.5
  }
}
layer {
  name: "conv6_2_mbox_loc"
  type: "Convolution"
  bottom: "conv6_2"
  top: "conv6_2_mbox_loc"
  param {
    lr_mult: 1
    decay_mult: 1
  }
  param {
    lr_mult: 2
    decay_mult: 0
  }
  convolution_param {
    num_output: 24
    pad: 1
    kernel_size: 3
    stride: 1
    weight_filler {
      type: "xavier"
    }
    bias_filler {
      type: "constant"
      value: 0
    }
  }
}
layer {
  name: "conv6_2_mbox_loc_perm"
  type: "Permute"
  bottom: "conv6_2_mbox_loc"
  top: "conv6_2_mbox_loc_perm"
  permute_param {
    order: 0
    order: 2
    order: 3
    order: 1
  }
}
layer {
  name: "conv6_2_mbox_loc_flat"
  type: "Flatten"
  bottom: "conv6_2_mbox_loc_perm"
  top: "conv6_2_mbox_loc_flat"
  flatten_param {
    axis: 1
  }
}
layer {
  name: "conv6_2_mbox_conf"
  type: "Convolution"
  bottom: "conv6_2"
  top: "conv6_2_mbox_conf"
  param {
    lr_mult: 1
    decay_mult: 1
  }
  param {
    lr_mult: 2
    decay_mult: 0
  }
  convolution_param {
    num_output: 126
    pad: 1
    kernel_size: 3
    stride: 1
    weight_filler {
      type: "xavier"
    }
    bias_filler {
      type: "constant"
      value: 0
    }
  }
}
layer {
  name: "conv6_2_mbox_conf_perm"
  type: "Permute"
  bottom: "conv6_2_mbox_conf"
  top: "conv6_2_mbox_conf_perm"
  permute_param {
    order: 0
    order: 2
    order: 3
    order: 1
  }
}
layer {
  name: "conv6_2_mbox_conf_flat"
  type: "Flatten"
  bottom: "conv6_2_mbox_conf_perm"
  top: "conv6_2_mbox_conf_flat"
  flatten_param {
    axis: 1
  }
}
layer {
  name: "conv6_2_mbox_priorbox"
  type: "PriorBox"
  bottom: "conv6_2"
  bottom: "data"
  top: "conv6_2_mbox_priorbox"
  prior_box_param {
    min_size: 111
    max_size: 162
    aspect_ratio: 2
    aspect_ratio: 3
    flip: true
    clip: false
    variance: 0.1
    variance: 0.1
    variance: 0.2
    variance: 0.2
    step: 32
    offset: 0.5
  }
}
layer {
  name: "conv7_2_mbox_loc"
  type: "Convolution"
  bottom: "conv7_2"
  top: "conv7_2_mbox_loc"
  param {
    lr_mult: 1
    decay_mult: 1
  }
  param {
    lr_mult: 2
    decay_mult: 0
  }
  convolution_param {
    num_output: 24
    pad: 1
    kernel_size: 3
    stride: 1
    weight_filler {
      type: "xavier"
    }
    bias_filler {
      type: "constant"
      value: 0
    }
  }
}
layer {
  name: "conv7_2_mbox_loc_perm"
  type: "Permute"
  bottom: "conv7_2_mbox_loc"
  top: "conv7_2_mbox_loc_perm"
  permute_param {
    order: 0
    order: 2
    order: 3
    order: 1
  }
}
layer {
  name: "conv7_2_mbox_loc_flat"
  type: "Flatten"
  bottom: "conv7_2_mbox_loc_perm"
  top: "conv7_2_mbox_loc_flat"
  flatten_param {
    axis: 1
  }
}
layer {
  name: "conv7_2_mbox_conf"
  type: "Convolution"
  bottom: "conv7_2"
  top: "conv7_2_mbox_conf"
  param {
    lr_mult: 1
    decay_mult: 1
  }
  param {
    lr_mult: 2
    decay_mult: 0
  }
  convolution_param {
    num_output: 126
    pad: 1
    kernel_size: 3
    stride: 1
    weight_filler {
      type: "xavier"
    }
    bias_filler {
      type: "constant"
      value: 0
    }
  }
}
layer {
  name: "conv7_2_mbox_conf_perm"
  type: "Permute"
  bottom: "conv7_2_mbox_conf"
  top: "conv7_2_mbox_conf_perm"
  permute_param {
    order: 0
    order: 2
    order: 3
    order: 1
  }
}
layer {
  name: "conv7_2_mbox_conf_flat"
  type: "Flatten"
  bottom: "conv7_2_mbox_conf_perm"
  top: "conv7_2_mbox_conf_flat"
  flatten_param {
    axis: 1
  }
}
layer {
  name: "conv7_2_mbox_priorbox"
  type: "PriorBox"
  bottom: "conv7_2"
  bottom: "data"
  top: "conv7_2_mbox_priorbox"
  prior_box_param {
    min_size: 162
    max_size: 213
    aspect_ratio: 2
    aspect_ratio: 3
    flip: true
    clip: false
    variance: 0.1
    variance: 0.1
    variance: 0.2
    variance: 0.2
    step: 64
    offset: 0.5
  }
}
layer {
  name: "conv8_2_mbox_loc"
  type: "Convolution"
  bottom: "conv8_2"
  top: "conv8_2_mbox_loc"
  param {
    lr_mult: 1
    decay_mult: 1
  }
  param {
    lr_mult: 2
    decay_mult: 0
  }
  convolution_param {
    num_output: 16
    pad: 1
    kernel_size: 3
    stride: 1
    weight_filler {
      type: "xavier"
    }
    bias_filler {
      type: "constant"
      value: 0
    }
  }
}
layer {
  name: "conv8_2_mbox_loc_perm"
  type: "Permute"
  bottom: "conv8_2_mbox_loc"
  top: "conv8_2_mbox_loc_perm"
  permute_param {
    order: 0
    order: 2
    order: 3
    order: 1
  }
}
layer {
  name: "conv8_2_mbox_loc_flat"
  type: "Flatten"
  bottom: "conv8_2_mbox_loc_perm"
  top: "conv8_2_mbox_loc_flat"
  flatten_param {
    axis: 1
  }
}
layer {
  name: "conv8_2_mbox_conf"
  type: "Convolution"
  bottom: "conv8_2"
  top: "conv8_2_mbox_conf"
  param {
    lr_mult: 1
    decay_mult: 1
  }
  param {
    lr_mult: 2
    decay_mult: 0
  }
  convolution_param {
    num_output: 84
    pad: 1
    kernel_size: 3
    stride: 1
    weight_filler {
      type: "xavier"
    }
    bias_filler {
      type: "constant"
      value: 0
    }
  }
}
layer {
  name: "conv8_2_mbox_conf_perm"
  type: "Permute"
  bottom: "conv8_2_mbox_conf"
  top: "conv8_2_mbox_conf_perm"
  permute_param {
    order: 0
    order: 2
    order: 3
    order: 1
  }
}
layer {
  name: "conv8_2_mbox_conf_flat"
  type: "Flatten"
  bottom: "conv8_2_mbox_conf_perm"
  top: "conv8_2_mbox_conf_flat"
  flatten_param {
    axis: 1
  }
}
layer {
  name: "conv8_2_mbox_priorbox"
  type: "PriorBox"
  bottom: "conv8_2"
  bottom: "data"
  top: "conv8_2_mbox_priorbox"
  prior_box_param {
    min_size: 213
    max_size: 264
    aspect_ratio: 2
    flip: true
    clip: false
    variance: 0.1
    variance: 0.1
    variance: 0.2
    variance: 0.2
    step: 100
    offset: 0.5
  }
}
layer {
  name: "conv9_2_mbox_loc"
  type: "Convolution"
  bottom: "conv9_2"
  top: "conv9_2_mbox_loc"
  param {
    lr_mult: 1
    decay_mult: 1
  }
  param {
    lr_mult: 2
    decay_mult: 0
  }
  convolution_param {
    num_output: 16
    pad: 1
    kernel_size: 3
    stride: 1
    weight_filler {
      type: "xavier"
    }
    bias_filler {
      type: "constant"
      value: 0
    }
  }
}
layer {
  name: "conv9_2_mbox_loc_perm"
  type: "Permute"
  bottom: "conv9_2_mbox_loc"
  top: "conv9_2_mbox_loc_perm"
  permute_param {
    order: 0
    order: 2
    order: 3
    order: 1
  }
}
layer {
  name: "conv9_2_mbox_loc_flat"
  type: "Flatten"
  bottom: "conv9_2_mbox_loc_perm"
  top: "conv9_2_mbox_loc_flat"
  flatten_param {
    axis: 1
  }
}
layer {
  name: "conv9_2_mbox_conf"
  type: "Convolution"
  bottom: "conv9_2"
  top: "conv9_2_mbox_conf"
  param {
    lr_mult: 1
    decay_mult: 1
  }
  param {
    lr_mult: 2
    decay_mult: 0
  }
  convolution_param {
    num_output: 84
    pad: 1
    kernel_size: 3
    stride: 1
    weight_filler {
      type: "xavier"
    }
    bias_filler {
      type: "constant"
      value: 0
    }
  }
}
layer {
  name: "conv9_2_mbox_conf_perm"
  type: "Permute"
  bottom: "conv9_2_mbox_conf"
  top: "conv9_2_mbox_conf_perm"
  permute_param {
    order: 0
    order: 2
    order: 3
    order: 1
  }
}
layer {
  name: "conv9_2_mbox_conf_flat"
  type: "Flatten"
  bottom: "conv9_2_mbox_conf_perm"
  top: "conv9_2_mbox_conf_flat"
  flatten_param {
    axis: 1
  }
}
layer {
  name: "conv9_2_mbox_priorbox"
  type: "PriorBox"
  bottom: "conv9_2"
  bottom: "data"
  top: "conv9_2_mbox_priorbox"
  prior_box_param {
    min_size: 264
    max_size: 315
    aspect_ratio: 2
    flip: true
    clip: false
    variance: 0.1
    variance: 0.1
    variance: 0.2
    variance: 0.2
    step: 300
    offset: 0.5
  }
}
layer {
  name: "mbox_loc"
  type: "Concat"
  bottom: "conv4_3_norm_mbox_loc_flat"
  bottom: "fc7_mbox_loc_flat"
  bottom: "conv6_2_mbox_loc_flat"
  bottom: "conv7_2_mbox_loc_flat"
  bottom: "conv8_2_mbox_loc_flat"
  bottom: "conv9_2_mbox_loc_flat"
  top: "mbox_loc"
  concat_param {
    axis: 1
  }
}
layer {
  name: "mbox_conf"
  type: "Concat"
  bottom: "conv4_3_norm_mbox_conf_flat"
  bottom: "fc7_mbox_conf_flat"
  bottom: "conv6_2_mbox_conf_flat"
  bottom: "conv7_2_mbox_conf_flat"
  bottom: "conv8_2_mbox_conf_flat"
  bottom: "conv9_2_mbox_conf_flat"
  top: "mbox_conf"
  concat_param {
    axis: 1
  }
}
layer {
  name: "mbox_priorbox"
  type: "Concat"
  bottom: "conv4_3_norm_mbox_priorbox"
  bottom: "fc7_mbox_priorbox"
  bottom: "conv6_2_mbox_priorbox"
  bottom: "conv7_2_mbox_priorbox"
  bottom: "conv8_2_mbox_priorbox"
  bottom: "conv9_2_mbox_priorbox"
  top: "mbox_priorbox"
  concat_param {
    axis: 2
  }
}
layer {
  name: "mbox_conf_reshape"
  type: "Reshape"
  bottom: "mbox_conf"
  top: "mbox_conf_reshape"
  reshape_param {
    shape {
      dim: 0
      dim: -1
      dim: 21
    }
  }
}
layer {
  name: "mbox_conf_softmax"
  type: "Softmax"
  bottom: "mbox_conf_reshape"
  top: "mbox_conf_softmax"
  softmax_param {
    axis: 2
  }
}
layer {
  name: "mbox_conf_flatten"
  type: "Flatten"
  bottom: "mbox_conf_softmax"
  top: "mbox_conf_flatten"
  flatten_param {
    axis: 1
  }
}
layer {
  name: "detection_out"
  type: "DetectionOutput"
  bottom: "mbox_loc"
  bottom: "mbox_conf_flatten"
  bottom: "mbox_priorbox"
  top: "detection_out"
  include {
    phase: TEST
  }
  detection_output_param {
    num_classes: 21
    share_location: true
    background_label_id: 0
    nms_param {
      nms_threshold: 0.45
      top_k: 400
    }
    save_output_param {
      output_directory: "/home/legion/data/VOCdevkit/results/VOC2007/SSD_300x300/Main"
      output_name_prefix: "comp4_det_test_"
      output_format: "VOC"
      label_map_file: "data/VOC0712/labelmap_voc.prototxt"
      name_size_file: "data/VOC0712/test_name_size.txt"
      num_test_image: 4952
    }
    code_type: CENTER_SIZE
    keep_top_k: 200
    confidence_threshold: 0.01
  }
}
layer {
  name: "detection_eval"
  type: "DetectionEvaluate"
  bottom: "detection_out"
  bottom: "label"
  top: "detection_eval"
  include {
    phase: TEST
  }
  detection_evaluate_param {
    num_classes: 21
    background_label_id: 0
    overlap_threshold: 0.5
    evaluate_difficult_gt: false
    name_size_file: "data/VOC0712/test_name_size.txt"
  }
}
I0711 18:44:13.224414  7973 layer_factory.hpp:77] Creating layer data
I0711 18:44:13.224499  7973 net.cpp:100] Creating Layer data
I0711 18:44:13.224505  7973 net.cpp:408] data -> data
I0711 18:44:13.224512  7973 net.cpp:408] data -> label
I0711 18:44:13.229012  7988 db_lmdb.cpp:35] Opened lmdb examples/VOC0712/VOC0712_test_lmdb
I0711 18:44:13.231885  7973 annotated_data_layer.cpp:62] output data size: 8,3,300,300
I0711 18:44:13.247035  7973 net.cpp:150] Setting up data
I0711 18:44:13.247200  7973 net.cpp:157] Top shape: 8 3 300 300 (2160000)
I0711 18:44:13.247217  7973 net.cpp:157] Top shape: 1 1 2 8 (16)
I0711 18:44:13.247225  7973 net.cpp:165] Memory required for data: 8640064
I0711 18:44:13.247252  7973 layer_factory.hpp:77] Creating layer data_data_0_split
I0711 18:44:13.247330  7973 net.cpp:100] Creating Layer data_data_0_split
I0711 18:44:13.247354  7973 net.cpp:434] data_data_0_split <- data
I0711 18:44:13.247411  7973 net.cpp:408] data_data_0_split -> data_data_0_split_0
I0711 18:44:13.247527  7973 net.cpp:408] data_data_0_split -> data_data_0_split_1
I0711 18:44:13.247556  7973 net.cpp:408] data_data_0_split -> data_data_0_split_2
I0711 18:44:13.247573  7973 net.cpp:408] data_data_0_split -> data_data_0_split_3
I0711 18:44:13.247588  7973 net.cpp:408] data_data_0_split -> data_data_0_split_4
I0711 18:44:13.247603  7973 net.cpp:408] data_data_0_split -> data_data_0_split_5
I0711 18:44:13.247612  7973 net.cpp:408] data_data_0_split -> data_data_0_split_6
I0711 18:44:13.248121  7973 net.cpp:150] Setting up data_data_0_split
I0711 18:44:13.248215  7973 net.cpp:157] Top shape: 8 3 300 300 (2160000)
I0711 18:44:13.248231  7973 net.cpp:157] Top shape: 8 3 300 300 (2160000)
I0711 18:44:13.248236  7973 net.cpp:157] Top shape: 8 3 300 300 (2160000)
I0711 18:44:13.248240  7973 net.cpp:157] Top shape: 8 3 300 300 (2160000)
I0711 18:44:13.248245  7973 net.cpp:157] Top shape: 8 3 300 300 (2160000)
I0711 18:44:13.248250  7973 net.cpp:157] Top shape: 8 3 300 300 (2160000)
I0711 18:44:13.248255  7973 net.cpp:157] Top shape: 8 3 300 300 (2160000)
I0711 18:44:13.248260  7973 net.cpp:165] Memory required for data: 69120064
I0711 18:44:13.248278  7973 layer_factory.hpp:77] Creating layer conv1_1
I0711 18:44:13.248598  7973 net.cpp:100] Creating Layer conv1_1
I0711 18:44:13.248631  7973 net.cpp:434] conv1_1 <- data_data_0_split_0
I0711 18:44:13.248661  7973 net.cpp:408] conv1_1 -> conv1_1
I0711 18:44:13.251077  7973 net.cpp:150] Setting up conv1_1
I0711 18:44:13.251308  7973 net.cpp:157] Top shape: 8 64 300 300 (46080000)
I0711 18:44:13.251313  7973 net.cpp:165] Memory required for data: 253440064
I0711 18:44:13.251384  7973 layer_factory.hpp:77] Creating layer relu1_1
I0711 18:44:13.251430  7973 net.cpp:100] Creating Layer relu1_1
I0711 18:44:13.251442  7973 net.cpp:434] relu1_1 <- conv1_1
I0711 18:44:13.251461  7973 net.cpp:395] relu1_1 -> conv1_1 (in-place)
I0711 18:44:13.251495  7973 net.cpp:150] Setting up relu1_1
I0711 18:44:13.251500  7973 net.cpp:157] Top shape: 8 64 300 300 (46080000)
I0711 18:44:13.251503  7973 net.cpp:165] Memory required for data: 437760064
I0711 18:44:13.251507  7973 layer_factory.hpp:77] Creating layer conv1_2
I0711 18:44:13.251536  7973 net.cpp:100] Creating Layer conv1_2
I0711 18:44:13.251546  7973 net.cpp:434] conv1_2 <- conv1_1
I0711 18:44:13.251567  7973 net.cpp:408] conv1_2 -> conv1_2
I0711 18:44:13.252969  7973 net.cpp:150] Setting up conv1_2
I0711 18:44:13.253044  7973 net.cpp:157] Top shape: 8 64 300 300 (46080000)
I0711 18:44:13.253051  7973 net.cpp:165] Memory required for data: 622080064
I0711 18:44:13.253111  7973 layer_factory.hpp:77] Creating layer relu1_2
I0711 18:44:13.253142  7973 net.cpp:100] Creating Layer relu1_2
I0711 18:44:13.253154  7973 net.cpp:434] relu1_2 <- conv1_2
I0711 18:44:13.253175  7973 net.cpp:395] relu1_2 -> conv1_2 (in-place)
I0711 18:44:13.253197  7973 net.cpp:150] Setting up relu1_2
I0711 18:44:13.253206  7973 net.cpp:157] Top shape: 8 64 300 300 (46080000)
I0711 18:44:13.253208  7973 net.cpp:165] Memory required for data: 806400064
I0711 18:44:13.253211  7973 layer_factory.hpp:77] Creating layer pool1
I0711 18:44:13.253350  7973 net.cpp:100] Creating Layer pool1
I0711 18:44:13.253386  7973 net.cpp:434] pool1 <- conv1_2
I0711 18:44:13.253401  7973 net.cpp:408] pool1 -> pool1
I0711 18:44:13.253721  7973 net.cpp:150] Setting up pool1
I0711 18:44:13.253751  7973 net.cpp:157] Top shape: 8 64 150 150 (11520000)
I0711 18:44:13.253758  7973 net.cpp:165] Memory required for data: 852480064
I0711 18:44:13.253768  7973 layer_factory.hpp:77] Creating layer conv2_1
I0711 18:44:13.253840  7973 net.cpp:100] Creating Layer conv2_1
I0711 18:44:13.253856  7973 net.cpp:434] conv2_1 <- pool1
I0711 18:44:13.253875  7973 net.cpp:408] conv2_1 -> conv2_1
I0711 18:44:13.255903  7973 net.cpp:150] Setting up conv2_1
I0711 18:44:13.255950  7973 net.cpp:157] Top shape: 8 128 150 150 (23040000)
I0711 18:44:13.255956  7973 net.cpp:165] Memory required for data: 944640064
I0711 18:44:13.256000  7973 layer_factory.hpp:77] Creating layer relu2_1
I0711 18:44:13.256016  7973 net.cpp:100] Creating Layer relu2_1
I0711 18:44:13.256022  7973 net.cpp:434] relu2_1 <- conv2_1
I0711 18:44:13.256033  7973 net.cpp:395] relu2_1 -> conv2_1 (in-place)
I0711 18:44:13.256047  7973 net.cpp:150] Setting up relu2_1
I0711 18:44:13.256054  7973 net.cpp:157] Top shape: 8 128 150 150 (23040000)
I0711 18:44:13.256058  7973 net.cpp:165] Memory required for data: 1036800064
I0711 18:44:13.256063  7973 layer_factory.hpp:77] Creating layer conv2_2
I0711 18:44:13.256078  7973 net.cpp:100] Creating Layer conv2_2
I0711 18:44:13.256083  7973 net.cpp:434] conv2_2 <- conv2_1
I0711 18:44:13.256098  7973 net.cpp:408] conv2_2 -> conv2_2
I0711 18:44:13.258553  7973 net.cpp:150] Setting up conv2_2
I0711 18:44:13.258569  7973 net.cpp:157] Top shape: 8 128 150 150 (23040000)
I0711 18:44:13.258572  7973 net.cpp:165] Memory required for data: 1128960064
I0711 18:44:13.258579  7973 layer_factory.hpp:77] Creating layer relu2_2
I0711 18:44:13.258585  7973 net.cpp:100] Creating Layer relu2_2
I0711 18:44:13.258590  7973 net.cpp:434] relu2_2 <- conv2_2
I0711 18:44:13.258595  7973 net.cpp:395] relu2_2 -> conv2_2 (in-place)
I0711 18:44:13.258604  7973 net.cpp:150] Setting up relu2_2
I0711 18:44:13.258608  7973 net.cpp:157] Top shape: 8 128 150 150 (23040000)
I0711 18:44:13.258631  7973 net.cpp:165] Memory required for data: 1221120064
I0711 18:44:13.258635  7973 layer_factory.hpp:77] Creating layer pool2
I0711 18:44:13.258640  7973 net.cpp:100] Creating Layer pool2
I0711 18:44:13.258642  7973 net.cpp:434] pool2 <- conv2_2
I0711 18:44:13.258649  7973 net.cpp:408] pool2 -> pool2
I0711 18:44:13.258708  7973 net.cpp:150] Setting up pool2
I0711 18:44:13.258724  7973 net.cpp:157] Top shape: 8 128 75 75 (5760000)
I0711 18:44:13.258729  7973 net.cpp:165] Memory required for data: 1244160064
I0711 18:44:13.258734  7973 layer_factory.hpp:77] Creating layer conv3_1
I0711 18:44:13.258744  7973 net.cpp:100] Creating Layer conv3_1
I0711 18:44:13.258750  7973 net.cpp:434] conv3_1 <- pool2
I0711 18:44:13.258759  7973 net.cpp:408] conv3_1 -> conv3_1
I0711 18:44:13.265002  7973 net.cpp:150] Setting up conv3_1
I0711 18:44:13.265033  7973 net.cpp:157] Top shape: 8 256 75 75 (11520000)
I0711 18:44:13.265038  7973 net.cpp:165] Memory required for data: 1290240064
I0711 18:44:13.265071  7973 layer_factory.hpp:77] Creating layer relu3_1
I0711 18:44:13.265125  7973 net.cpp:100] Creating Layer relu3_1
I0711 18:44:13.265131  7973 net.cpp:434] relu3_1 <- conv3_1
I0711 18:44:13.265144  7973 net.cpp:395] relu3_1 -> conv3_1 (in-place)
I0711 18:44:13.265158  7973 net.cpp:150] Setting up relu3_1
I0711 18:44:13.265166  7973 net.cpp:157] Top shape: 8 256 75 75 (11520000)
I0711 18:44:13.265171  7973 net.cpp:165] Memory required for data: 1336320064
I0711 18:44:13.265174  7973 layer_factory.hpp:77] Creating layer conv3_2
I0711 18:44:13.265188  7973 net.cpp:100] Creating Layer conv3_2
I0711 18:44:13.265194  7973 net.cpp:434] conv3_2 <- conv3_1
I0711 18:44:13.265203  7973 net.cpp:408] conv3_2 -> conv3_2
I0711 18:44:13.273857  7973 net.cpp:150] Setting up conv3_2
I0711 18:44:13.273880  7973 net.cpp:157] Top shape: 8 256 75 75 (11520000)
I0711 18:44:13.273883  7973 net.cpp:165] Memory required for data: 1382400064
I0711 18:44:13.273890  7973 layer_factory.hpp:77] Creating layer relu3_2
I0711 18:44:13.273896  7973 net.cpp:100] Creating Layer relu3_2
I0711 18:44:13.273901  7973 net.cpp:434] relu3_2 <- conv3_2
I0711 18:44:13.273907  7973 net.cpp:395] relu3_2 -> conv3_2 (in-place)
I0711 18:44:13.273918  7973 net.cpp:150] Setting up relu3_2
I0711 18:44:13.273921  7973 net.cpp:157] Top shape: 8 256 75 75 (11520000)
I0711 18:44:13.273923  7973 net.cpp:165] Memory required for data: 1428480064
I0711 18:44:13.273926  7973 layer_factory.hpp:77] Creating layer conv3_3
I0711 18:44:13.273936  7973 net.cpp:100] Creating Layer conv3_3
I0711 18:44:13.273941  7973 net.cpp:434] conv3_3 <- conv3_2
I0711 18:44:13.273944  7973 net.cpp:408] conv3_3 -> conv3_3
I0711 18:44:13.281553  7973 net.cpp:150] Setting up conv3_3
I0711 18:44:13.281576  7973 net.cpp:157] Top shape: 8 256 75 75 (11520000)
I0711 18:44:13.281581  7973 net.cpp:165] Memory required for data: 1474560064
I0711 18:44:13.281594  7973 layer_factory.hpp:77] Creating layer relu3_3
I0711 18:44:13.281603  7973 net.cpp:100] Creating Layer relu3_3
I0711 18:44:13.281610  7973 net.cpp:434] relu3_3 <- conv3_3
I0711 18:44:13.281617  7973 net.cpp:395] relu3_3 -> conv3_3 (in-place)
I0711 18:44:13.281628  7973 net.cpp:150] Setting up relu3_3
I0711 18:44:13.281635  7973 net.cpp:157] Top shape: 8 256 75 75 (11520000)
I0711 18:44:13.281638  7973 net.cpp:165] Memory required for data: 1520640064
I0711 18:44:13.281641  7973 layer_factory.hpp:77] Creating layer pool3
I0711 18:44:13.281647  7973 net.cpp:100] Creating Layer pool3
I0711 18:44:13.281652  7973 net.cpp:434] pool3 <- conv3_3
I0711 18:44:13.281658  7973 net.cpp:408] pool3 -> pool3
I0711 18:44:13.281702  7973 net.cpp:150] Setting up pool3
I0711 18:44:13.281708  7973 net.cpp:157] Top shape: 8 256 38 38 (2957312)
I0711 18:44:13.281713  7973 net.cpp:165] Memory required for data: 1532469312
I0711 18:44:13.281716  7973 layer_factory.hpp:77] Creating layer conv4_1
I0711 18:44:13.281733  7973 net.cpp:100] Creating Layer conv4_1
I0711 18:44:13.281736  7973 net.cpp:434] conv4_1 <- pool3
I0711 18:44:13.281744  7973 net.cpp:408] conv4_1 -> conv4_1
I0711 18:44:13.293385  7973 net.cpp:150] Setting up conv4_1
I0711 18:44:13.293406  7973 net.cpp:157] Top shape: 8 512 38 38 (5914624)
I0711 18:44:13.293408  7973 net.cpp:165] Memory required for data: 1556127808
I0711 18:44:13.293416  7973 layer_factory.hpp:77] Creating layer relu4_1
I0711 18:44:13.293427  7973 net.cpp:100] Creating Layer relu4_1
I0711 18:44:13.293434  7973 net.cpp:434] relu4_1 <- conv4_1
I0711 18:44:13.293448  7973 net.cpp:395] relu4_1 -> conv4_1 (in-place)
I0711 18:44:13.293470  7973 net.cpp:150] Setting up relu4_1
I0711 18:44:13.293473  7973 net.cpp:157] Top shape: 8 512 38 38 (5914624)
I0711 18:44:13.293474  7973 net.cpp:165] Memory required for data: 1579786304
I0711 18:44:13.293476  7973 layer_factory.hpp:77] Creating layer conv4_2
I0711 18:44:13.293484  7973 net.cpp:100] Creating Layer conv4_2
I0711 18:44:13.293491  7973 net.cpp:434] conv4_2 <- conv4_1
I0711 18:44:13.293494  7973 net.cpp:408] conv4_2 -> conv4_2
I0711 18:44:13.316766  7973 net.cpp:150] Setting up conv4_2
I0711 18:44:13.317003  7973 net.cpp:157] Top shape: 8 512 38 38 (5914624)
I0711 18:44:13.317013  7973 net.cpp:165] Memory required for data: 1603444800
I0711 18:44:13.317103  7973 layer_factory.hpp:77] Creating layer relu4_2
I0711 18:44:13.317158  7973 net.cpp:100] Creating Layer relu4_2
I0711 18:44:13.317184  7973 net.cpp:434] relu4_2 <- conv4_2
I0711 18:44:13.317256  7973 net.cpp:395] relu4_2 -> conv4_2 (in-place)
I0711 18:44:13.317368  7973 net.cpp:150] Setting up relu4_2
I0711 18:44:13.317385  7973 net.cpp:157] Top shape: 8 512 38 38 (5914624)
I0711 18:44:13.317394  7973 net.cpp:165] Memory required for data: 1627103296
I0711 18:44:13.317399  7973 layer_factory.hpp:77] Creating layer conv4_3
I0711 18:44:13.317458  7973 net.cpp:100] Creating Layer conv4_3
I0711 18:44:13.317483  7973 net.cpp:434] conv4_3 <- conv4_2
I0711 18:44:13.317512  7973 net.cpp:408] conv4_3 -> conv4_3
I0711 18:44:13.345294  7973 net.cpp:150] Setting up conv4_3
I0711 18:44:13.345333  7973 net.cpp:157] Top shape: 8 512 38 38 (5914624)
I0711 18:44:13.345336  7973 net.cpp:165] Memory required for data: 1650761792
I0711 18:44:13.345343  7973 layer_factory.hpp:77] Creating layer relu4_3
I0711 18:44:13.345350  7973 net.cpp:100] Creating Layer relu4_3
I0711 18:44:13.345355  7973 net.cpp:434] relu4_3 <- conv4_3
I0711 18:44:13.345362  7973 net.cpp:395] relu4_3 -> conv4_3 (in-place)
I0711 18:44:13.345381  7973 net.cpp:150] Setting up relu4_3
I0711 18:44:13.345383  7973 net.cpp:157] Top shape: 8 512 38 38 (5914624)
I0711 18:44:13.345384  7973 net.cpp:165] Memory required for data: 1674420288
I0711 18:44:13.345386  7973 layer_factory.hpp:77] Creating layer conv4_3_relu4_3_0_split
I0711 18:44:13.345393  7973 net.cpp:100] Creating Layer conv4_3_relu4_3_0_split
I0711 18:44:13.345396  7973 net.cpp:434] conv4_3_relu4_3_0_split <- conv4_3
I0711 18:44:13.345398  7973 net.cpp:408] conv4_3_relu4_3_0_split -> conv4_3_relu4_3_0_split_0
I0711 18:44:13.345405  7973 net.cpp:408] conv4_3_relu4_3_0_split -> conv4_3_relu4_3_0_split_1
I0711 18:44:13.345439  7973 net.cpp:150] Setting up conv4_3_relu4_3_0_split
I0711 18:44:13.345443  7973 net.cpp:157] Top shape: 8 512 38 38 (5914624)
I0711 18:44:13.345446  7973 net.cpp:157] Top shape: 8 512 38 38 (5914624)
I0711 18:44:13.345448  7973 net.cpp:165] Memory required for data: 1721737280
I0711 18:44:13.345450  7973 layer_factory.hpp:77] Creating layer pool4
I0711 18:44:13.345455  7973 net.cpp:100] Creating Layer pool4
I0711 18:44:13.345458  7973 net.cpp:434] pool4 <- conv4_3_relu4_3_0_split_0
I0711 18:44:13.345460  7973 net.cpp:408] pool4 -> pool4
I0711 18:44:13.345485  7973 net.cpp:150] Setting up pool4
I0711 18:44:13.345489  7973 net.cpp:157] Top shape: 8 512 19 19 (1478656)
I0711 18:44:13.345491  7973 net.cpp:165] Memory required for data: 1727651904
I0711 18:44:13.345492  7973 layer_factory.hpp:77] Creating layer conv5_1
I0711 18:44:13.345504  7973 net.cpp:100] Creating Layer conv5_1
I0711 18:44:13.345507  7973 net.cpp:434] conv5_1 <- pool4
I0711 18:44:13.345511  7973 net.cpp:408] conv5_1 -> conv5_1
I0711 18:44:13.368482  7973 net.cpp:150] Setting up conv5_1
I0711 18:44:13.368511  7973 net.cpp:157] Top shape: 8 512 19 19 (1478656)
I0711 18:44:13.368515  7973 net.cpp:165] Memory required for data: 1733566528
I0711 18:44:13.368527  7973 layer_factory.hpp:77] Creating layer relu5_1
I0711 18:44:13.368538  7973 net.cpp:100] Creating Layer relu5_1
I0711 18:44:13.368546  7973 net.cpp:434] relu5_1 <- conv5_1
I0711 18:44:13.368569  7973 net.cpp:395] relu5_1 -> conv5_1 (in-place)
I0711 18:44:13.368583  7973 net.cpp:150] Setting up relu5_1
I0711 18:44:13.368590  7973 net.cpp:157] Top shape: 8 512 19 19 (1478656)
I0711 18:44:13.368595  7973 net.cpp:165] Memory required for data: 1739481152
I0711 18:44:13.368602  7973 layer_factory.hpp:77] Creating layer conv5_2
I0711 18:44:13.368616  7973 net.cpp:100] Creating Layer conv5_2
I0711 18:44:13.368619  7973 net.cpp:434] conv5_2 <- conv5_1
I0711 18:44:13.368628  7973 net.cpp:408] conv5_2 -> conv5_2
I0711 18:44:13.389582  7973 net.cpp:150] Setting up conv5_2
I0711 18:44:13.389623  7973 net.cpp:157] Top shape: 8 512 19 19 (1478656)
I0711 18:44:13.389627  7973 net.cpp:165] Memory required for data: 1745395776
I0711 18:44:13.389642  7973 layer_factory.hpp:77] Creating layer relu5_2
I0711 18:44:13.389655  7973 net.cpp:100] Creating Layer relu5_2
I0711 18:44:13.389688  7973 net.cpp:434] relu5_2 <- conv5_2
I0711 18:44:13.389698  7973 net.cpp:395] relu5_2 -> conv5_2 (in-place)
I0711 18:44:13.389713  7973 net.cpp:150] Setting up relu5_2
I0711 18:44:13.389716  7973 net.cpp:157] Top shape: 8 512 19 19 (1478656)
I0711 18:44:13.389719  7973 net.cpp:165] Memory required for data: 1751310400
I0711 18:44:13.389722  7973 layer_factory.hpp:77] Creating layer conv5_3
I0711 18:44:13.389735  7973 net.cpp:100] Creating Layer conv5_3
I0711 18:44:13.389739  7973 net.cpp:434] conv5_3 <- conv5_2
I0711 18:44:13.389745  7973 net.cpp:408] conv5_3 -> conv5_3
I0711 18:44:13.411634  7973 net.cpp:150] Setting up conv5_3
I0711 18:44:13.411659  7973 net.cpp:157] Top shape: 8 512 19 19 (1478656)
I0711 18:44:13.411661  7973 net.cpp:165] Memory required for data: 1757225024
I0711 18:44:13.411691  7973 layer_factory.hpp:77] Creating layer relu5_3
I0711 18:44:13.411707  7973 net.cpp:100] Creating Layer relu5_3
I0711 18:44:13.411715  7973 net.cpp:434] relu5_3 <- conv5_3
I0711 18:44:13.411725  7973 net.cpp:395] relu5_3 -> conv5_3 (in-place)
I0711 18:44:13.411733  7973 net.cpp:150] Setting up relu5_3
I0711 18:44:13.411737  7973 net.cpp:157] Top shape: 8 512 19 19 (1478656)
I0711 18:44:13.411741  7973 net.cpp:165] Memory required for data: 1763139648
I0711 18:44:13.411743  7973 layer_factory.hpp:77] Creating layer pool5
I0711 18:44:13.411749  7973 net.cpp:100] Creating Layer pool5
I0711 18:44:13.411752  7973 net.cpp:434] pool5 <- conv5_3
I0711 18:44:13.411758  7973 net.cpp:408] pool5 -> pool5
I0711 18:44:13.411800  7973 net.cpp:150] Setting up pool5
I0711 18:44:13.411806  7973 net.cpp:157] Top shape: 8 512 19 19 (1478656)
I0711 18:44:13.411810  7973 net.cpp:165] Memory required for data: 1769054272
I0711 18:44:13.411813  7973 layer_factory.hpp:77] Creating layer fc6
I0711 18:44:13.411825  7973 net.cpp:100] Creating Layer fc6
I0711 18:44:13.411829  7973 net.cpp:434] fc6 <- pool5
I0711 18:44:13.411835  7973 net.cpp:408] fc6 -> fc6
I0711 18:44:13.466398  7973 net.cpp:150] Setting up fc6
I0711 18:44:13.466421  7973 net.cpp:157] Top shape: 8 1024 19 19 (2957312)
I0711 18:44:13.466426  7973 net.cpp:165] Memory required for data: 1780883520
I0711 18:44:13.466439  7973 layer_factory.hpp:77] Creating layer relu6
I0711 18:44:13.466445  7973 net.cpp:100] Creating Layer relu6
I0711 18:44:13.466455  7973 net.cpp:434] relu6 <- fc6
I0711 18:44:13.466464  7973 net.cpp:395] relu6 -> fc6 (in-place)
I0711 18:44:13.466475  7973 net.cpp:150] Setting up relu6
I0711 18:44:13.466480  7973 net.cpp:157] Top shape: 8 1024 19 19 (2957312)
I0711 18:44:13.466485  7973 net.cpp:165] Memory required for data: 1792712768
I0711 18:44:13.466488  7973 layer_factory.hpp:77] Creating layer fc7
I0711 18:44:13.466516  7973 net.cpp:100] Creating Layer fc7
I0711 18:44:13.466526  7973 net.cpp:434] fc7 <- fc6
I0711 18:44:13.466569  7973 net.cpp:408] fc7 -> fc7
I0711 18:44:13.478106  7973 net.cpp:150] Setting up fc7
I0711 18:44:13.478143  7973 net.cpp:157] Top shape: 8 1024 19 19 (2957312)
I0711 18:44:13.478148  7973 net.cpp:165] Memory required for data: 1804542016
I0711 18:44:13.478159  7973 layer_factory.hpp:77] Creating layer relu7
I0711 18:44:13.478168  7973 net.cpp:100] Creating Layer relu7
I0711 18:44:13.478174  7973 net.cpp:434] relu7 <- fc7
I0711 18:44:13.478183  7973 net.cpp:395] relu7 -> fc7 (in-place)
I0711 18:44:13.478194  7973 net.cpp:150] Setting up relu7
I0711 18:44:13.478199  7973 net.cpp:157] Top shape: 8 1024 19 19 (2957312)
I0711 18:44:13.478201  7973 net.cpp:165] Memory required for data: 1816371264
I0711 18:44:13.478205  7973 layer_factory.hpp:77] Creating layer fc7_relu7_0_split
I0711 18:44:13.478211  7973 net.cpp:100] Creating Layer fc7_relu7_0_split
I0711 18:44:13.478214  7973 net.cpp:434] fc7_relu7_0_split <- fc7
I0711 18:44:13.478219  7973 net.cpp:408] fc7_relu7_0_split -> fc7_relu7_0_split_0
I0711 18:44:13.478225  7973 net.cpp:408] fc7_relu7_0_split -> fc7_relu7_0_split_1
I0711 18:44:13.478238  7973 net.cpp:408] fc7_relu7_0_split -> fc7_relu7_0_split_2
I0711 18:44:13.478245  7973 net.cpp:408] fc7_relu7_0_split -> fc7_relu7_0_split_3
I0711 18:44:13.478297  7973 net.cpp:150] Setting up fc7_relu7_0_split
I0711 18:44:13.478302  7973 net.cpp:157] Top shape: 8 1024 19 19 (2957312)
I0711 18:44:13.478307  7973 net.cpp:157] Top shape: 8 1024 19 19 (2957312)
I0711 18:44:13.478312  7973 net.cpp:157] Top shape: 8 1024 19 19 (2957312)
I0711 18:44:13.478315  7973 net.cpp:157] Top shape: 8 1024 19 19 (2957312)
I0711 18:44:13.478318  7973 net.cpp:165] Memory required for data: 1863688256
I0711 18:44:13.478322  7973 layer_factory.hpp:77] Creating layer conv6_1
I0711 18:44:13.478339  7973 net.cpp:100] Creating Layer conv6_1
I0711 18:44:13.478350  7973 net.cpp:434] conv6_1 <- fc7_relu7_0_split_0
I0711 18:44:13.478359  7973 net.cpp:408] conv6_1 -> conv6_1
I0711 18:44:13.482797  7973 net.cpp:150] Setting up conv6_1
I0711 18:44:13.482825  7973 net.cpp:157] Top shape: 8 256 19 19 (739328)
I0711 18:44:13.482828  7973 net.cpp:165] Memory required for data: 1866645568
I0711 18:44:13.482843  7973 layer_factory.hpp:77] Creating layer conv6_1_relu
I0711 18:44:13.482859  7973 net.cpp:100] Creating Layer conv6_1_relu
I0711 18:44:13.482864  7973 net.cpp:434] conv6_1_relu <- conv6_1
I0711 18:44:13.482872  7973 net.cpp:395] conv6_1_relu -> conv6_1 (in-place)
I0711 18:44:13.482882  7973 net.cpp:150] Setting up conv6_1_relu
I0711 18:44:13.482889  7973 net.cpp:157] Top shape: 8 256 19 19 (739328)
I0711 18:44:13.482894  7973 net.cpp:165] Memory required for data: 1869602880
I0711 18:44:13.482899  7973 layer_factory.hpp:77] Creating layer conv6_2
I0711 18:44:13.482914  7973 net.cpp:100] Creating Layer conv6_2
I0711 18:44:13.482920  7973 net.cpp:434] conv6_2 <- conv6_1
I0711 18:44:13.482926  7973 net.cpp:408] conv6_2 -> conv6_2
I0711 18:44:13.493626  7973 net.cpp:150] Setting up conv6_2
I0711 18:44:13.493651  7973 net.cpp:157] Top shape: 8 512 10 10 (409600)
I0711 18:44:13.493654  7973 net.cpp:165] Memory required for data: 1871241280
I0711 18:44:13.493670  7973 layer_factory.hpp:77] Creating layer conv6_2_relu
I0711 18:44:13.493680  7973 net.cpp:100] Creating Layer conv6_2_relu
I0711 18:44:13.493687  7973 net.cpp:434] conv6_2_relu <- conv6_2
I0711 18:44:13.493696  7973 net.cpp:395] conv6_2_relu -> conv6_2 (in-place)
I0711 18:44:13.493710  7973 net.cpp:150] Setting up conv6_2_relu
I0711 18:44:13.493713  7973 net.cpp:157] Top shape: 8 512 10 10 (409600)
I0711 18:44:13.493716  7973 net.cpp:165] Memory required for data: 1872879680
I0711 18:44:13.493721  7973 layer_factory.hpp:77] Creating layer conv6_2_conv6_2_relu_0_split
I0711 18:44:13.493753  7973 net.cpp:100] Creating Layer conv6_2_conv6_2_relu_0_split
I0711 18:44:13.493758  7973 net.cpp:434] conv6_2_conv6_2_relu_0_split <- conv6_2
I0711 18:44:13.493768  7973 net.cpp:408] conv6_2_conv6_2_relu_0_split -> conv6_2_conv6_2_relu_0_split_0
I0711 18:44:13.493777  7973 net.cpp:408] conv6_2_conv6_2_relu_0_split -> conv6_2_conv6_2_relu_0_split_1
I0711 18:44:13.493827  7973 net.cpp:408] conv6_2_conv6_2_relu_0_split -> conv6_2_conv6_2_relu_0_split_2
I0711 18:44:13.493854  7973 net.cpp:408] conv6_2_conv6_2_relu_0_split -> conv6_2_conv6_2_relu_0_split_3
I0711 18:44:13.493994  7973 net.cpp:150] Setting up conv6_2_conv6_2_relu_0_split
I0711 18:44:13.494010  7973 net.cpp:157] Top shape: 8 512 10 10 (409600)
I0711 18:44:13.494017  7973 net.cpp:157] Top shape: 8 512 10 10 (409600)
I0711 18:44:13.494024  7973 net.cpp:157] Top shape: 8 512 10 10 (409600)
I0711 18:44:13.494029  7973 net.cpp:157] Top shape: 8 512 10 10 (409600)
I0711 18:44:13.494036  7973 net.cpp:165] Memory required for data: 1879433280
I0711 18:44:13.494040  7973 layer_factory.hpp:77] Creating layer conv7_1
I0711 18:44:13.494076  7973 net.cpp:100] Creating Layer conv7_1
I0711 18:44:13.494083  7973 net.cpp:434] conv7_1 <- conv6_2_conv6_2_relu_0_split_0
I0711 18:44:13.494104  7973 net.cpp:408] conv7_1 -> conv7_1
I0711 18:44:13.496796  7973 net.cpp:150] Setting up conv7_1
I0711 18:44:13.497083  7973 net.cpp:157] Top shape: 8 128 10 10 (102400)
I0711 18:44:13.497093  7973 net.cpp:165] Memory required for data: 1879842880
I0711 18:44:13.497153  7973 layer_factory.hpp:77] Creating layer conv7_1_relu
I0711 18:44:13.497201  7973 net.cpp:100] Creating Layer conv7_1_relu
I0711 18:44:13.497299  7973 net.cpp:434] conv7_1_relu <- conv7_1
I0711 18:44:13.497370  7973 net.cpp:395] conv7_1_relu -> conv7_1 (in-place)
I0711 18:44:13.497442  7973 net.cpp:150] Setting up conv7_1_relu
I0711 18:44:13.497475  7973 net.cpp:157] Top shape: 8 128 10 10 (102400)
I0711 18:44:13.497488  7973 net.cpp:165] Memory required for data: 1880252480
I0711 18:44:13.497510  7973 layer_factory.hpp:77] Creating layer conv7_2
I0711 18:44:13.497560  7973 net.cpp:100] Creating Layer conv7_2
I0711 18:44:13.497575  7973 net.cpp:434] conv7_2 <- conv7_1
I0711 18:44:13.497596  7973 net.cpp:408] conv7_2 -> conv7_2
I0711 18:44:13.505318  7973 net.cpp:150] Setting up conv7_2
I0711 18:44:13.505342  7973 net.cpp:157] Top shape: 8 256 5 5 (51200)
I0711 18:44:13.505345  7973 net.cpp:165] Memory required for data: 1880457280
I0711 18:44:13.505352  7973 layer_factory.hpp:77] Creating layer conv7_2_relu
I0711 18:44:13.505357  7973 net.cpp:100] Creating Layer conv7_2_relu
I0711 18:44:13.505362  7973 net.cpp:434] conv7_2_relu <- conv7_2
I0711 18:44:13.505369  7973 net.cpp:395] conv7_2_relu -> conv7_2 (in-place)
I0711 18:44:13.505383  7973 net.cpp:150] Setting up conv7_2_relu
I0711 18:44:13.505385  7973 net.cpp:157] Top shape: 8 256 5 5 (51200)
I0711 18:44:13.505388  7973 net.cpp:165] Memory required for data: 1880662080
I0711 18:44:13.505389  7973 layer_factory.hpp:77] Creating layer conv7_2_conv7_2_relu_0_split
I0711 18:44:13.505393  7973 net.cpp:100] Creating Layer conv7_2_conv7_2_relu_0_split
I0711 18:44:13.505395  7973 net.cpp:434] conv7_2_conv7_2_relu_0_split <- conv7_2
I0711 18:44:13.505400  7973 net.cpp:408] conv7_2_conv7_2_relu_0_split -> conv7_2_conv7_2_relu_0_split_0
I0711 18:44:13.505404  7973 net.cpp:408] conv7_2_conv7_2_relu_0_split -> conv7_2_conv7_2_relu_0_split_1
I0711 18:44:13.505410  7973 net.cpp:408] conv7_2_conv7_2_relu_0_split -> conv7_2_conv7_2_relu_0_split_2
I0711 18:44:13.505415  7973 net.cpp:408] conv7_2_conv7_2_relu_0_split -> conv7_2_conv7_2_relu_0_split_3
I0711 18:44:13.505465  7973 net.cpp:150] Setting up conv7_2_conv7_2_relu_0_split
I0711 18:44:13.505468  7973 net.cpp:157] Top shape: 8 256 5 5 (51200)
I0711 18:44:13.505471  7973 net.cpp:157] Top shape: 8 256 5 5 (51200)
I0711 18:44:13.505475  7973 net.cpp:157] Top shape: 8 256 5 5 (51200)
I0711 18:44:13.505476  7973 net.cpp:157] Top shape: 8 256 5 5 (51200)
I0711 18:44:13.505478  7973 net.cpp:165] Memory required for data: 1881481280
I0711 18:44:13.505481  7973 layer_factory.hpp:77] Creating layer conv8_1
I0711 18:44:13.505487  7973 net.cpp:100] Creating Layer conv8_1
I0711 18:44:13.505492  7973 net.cpp:434] conv8_1 <- conv7_2_conv7_2_relu_0_split_0
I0711 18:44:13.505496  7973 net.cpp:408] conv8_1 -> conv8_1
I0711 18:44:13.505961  7973 net.cpp:150] Setting up conv8_1
I0711 18:44:13.505969  7973 net.cpp:157] Top shape: 8 128 5 5 (25600)
I0711 18:44:13.505971  7973 net.cpp:165] Memory required for data: 1881583680
I0711 18:44:13.505975  7973 layer_factory.hpp:77] Creating layer conv8_1_relu
I0711 18:44:13.505981  7973 net.cpp:100] Creating Layer conv8_1_relu
I0711 18:44:13.505985  7973 net.cpp:434] conv8_1_relu <- conv8_1
I0711 18:44:13.505990  7973 net.cpp:395] conv8_1_relu -> conv8_1 (in-place)
I0711 18:44:13.505997  7973 net.cpp:150] Setting up conv8_1_relu
I0711 18:44:13.506011  7973 net.cpp:157] Top shape: 8 128 5 5 (25600)
I0711 18:44:13.506014  7973 net.cpp:165] Memory required for data: 1881686080
I0711 18:44:13.506019  7973 layer_factory.hpp:77] Creating layer conv8_2
I0711 18:44:13.506028  7973 net.cpp:100] Creating Layer conv8_2
I0711 18:44:13.506032  7973 net.cpp:434] conv8_2 <- conv8_1
I0711 18:44:13.506038  7973 net.cpp:408] conv8_2 -> conv8_2
I0711 18:44:13.509294  7973 net.cpp:150] Setting up conv8_2
I0711 18:44:13.509308  7973 net.cpp:157] Top shape: 8 256 3 3 (18432)
I0711 18:44:13.509312  7973 net.cpp:165] Memory required for data: 1881759808
I0711 18:44:13.509320  7973 layer_factory.hpp:77] Creating layer conv8_2_relu
I0711 18:44:13.509330  7973 net.cpp:100] Creating Layer conv8_2_relu
I0711 18:44:13.509335  7973 net.cpp:434] conv8_2_relu <- conv8_2
I0711 18:44:13.509342  7973 net.cpp:395] conv8_2_relu -> conv8_2 (in-place)
I0711 18:44:13.509351  7973 net.cpp:150] Setting up conv8_2_relu
I0711 18:44:13.509357  7973 net.cpp:157] Top shape: 8 256 3 3 (18432)
I0711 18:44:13.509361  7973 net.cpp:165] Memory required for data: 1881833536
I0711 18:44:13.509364  7973 layer_factory.hpp:77] Creating layer conv8_2_conv8_2_relu_0_split
I0711 18:44:13.509369  7973 net.cpp:100] Creating Layer conv8_2_conv8_2_relu_0_split
I0711 18:44:13.509374  7973 net.cpp:434] conv8_2_conv8_2_relu_0_split <- conv8_2
I0711 18:44:13.509380  7973 net.cpp:408] conv8_2_conv8_2_relu_0_split -> conv8_2_conv8_2_relu_0_split_0
I0711 18:44:13.509387  7973 net.cpp:408] conv8_2_conv8_2_relu_0_split -> conv8_2_conv8_2_relu_0_split_1
I0711 18:44:13.509394  7973 net.cpp:408] conv8_2_conv8_2_relu_0_split -> conv8_2_conv8_2_relu_0_split_2
I0711 18:44:13.509402  7973 net.cpp:408] conv8_2_conv8_2_relu_0_split -> conv8_2_conv8_2_relu_0_split_3
I0711 18:44:13.509460  7973 net.cpp:150] Setting up conv8_2_conv8_2_relu_0_split
I0711 18:44:13.509467  7973 net.cpp:157] Top shape: 8 256 3 3 (18432)
I0711 18:44:13.509474  7973 net.cpp:157] Top shape: 8 256 3 3 (18432)
I0711 18:44:13.509479  7973 net.cpp:157] Top shape: 8 256 3 3 (18432)
I0711 18:44:13.509485  7973 net.cpp:157] Top shape: 8 256 3 3 (18432)
I0711 18:44:13.509488  7973 net.cpp:165] Memory required for data: 1882128448
I0711 18:44:13.509492  7973 layer_factory.hpp:77] Creating layer conv9_1
I0711 18:44:13.509502  7973 net.cpp:100] Creating Layer conv9_1
I0711 18:44:13.509506  7973 net.cpp:434] conv9_1 <- conv8_2_conv8_2_relu_0_split_0
I0711 18:44:13.509513  7973 net.cpp:408] conv9_1 -> conv9_1
I0711 18:44:13.510742  7973 net.cpp:150] Setting up conv9_1
I0711 18:44:13.510756  7973 net.cpp:157] Top shape: 8 128 3 3 (9216)
I0711 18:44:13.510759  7973 net.cpp:165] Memory required for data: 1882165312
I0711 18:44:13.510767  7973 layer_factory.hpp:77] Creating layer conv9_1_relu
I0711 18:44:13.510774  7973 net.cpp:100] Creating Layer conv9_1_relu
I0711 18:44:13.510779  7973 net.cpp:434] conv9_1_relu <- conv9_1
I0711 18:44:13.510785  7973 net.cpp:395] conv9_1_relu -> conv9_1 (in-place)
I0711 18:44:13.510794  7973 net.cpp:150] Setting up conv9_1_relu
I0711 18:44:13.510799  7973 net.cpp:157] Top shape: 8 128 3 3 (9216)
I0711 18:44:13.510804  7973 net.cpp:165] Memory required for data: 1882202176
I0711 18:44:13.510807  7973 layer_factory.hpp:77] Creating layer conv9_2
I0711 18:44:13.510818  7973 net.cpp:100] Creating Layer conv9_2
I0711 18:44:13.510821  7973 net.cpp:434] conv9_2 <- conv9_1
I0711 18:44:13.510829  7973 net.cpp:408] conv9_2 -> conv9_2
I0711 18:44:13.513833  7973 net.cpp:150] Setting up conv9_2
I0711 18:44:13.513857  7973 net.cpp:157] Top shape: 8 256 1 1 (2048)
I0711 18:44:13.513861  7973 net.cpp:165] Memory required for data: 1882210368
I0711 18:44:13.513870  7973 layer_factory.hpp:77] Creating layer conv9_2_relu
I0711 18:44:13.513878  7973 net.cpp:100] Creating Layer conv9_2_relu
I0711 18:44:13.513886  7973 net.cpp:434] conv9_2_relu <- conv9_2
I0711 18:44:13.513892  7973 net.cpp:395] conv9_2_relu -> conv9_2 (in-place)
I0711 18:44:13.513902  7973 net.cpp:150] Setting up conv9_2_relu
I0711 18:44:13.513907  7973 net.cpp:157] Top shape: 8 256 1 1 (2048)
I0711 18:44:13.513911  7973 net.cpp:165] Memory required for data: 1882218560
I0711 18:44:13.513913  7973 layer_factory.hpp:77] Creating layer conv9_2_conv9_2_relu_0_split
I0711 18:44:13.513919  7973 net.cpp:100] Creating Layer conv9_2_conv9_2_relu_0_split
I0711 18:44:13.513924  7973 net.cpp:434] conv9_2_conv9_2_relu_0_split <- conv9_2
I0711 18:44:13.513931  7973 net.cpp:408] conv9_2_conv9_2_relu_0_split -> conv9_2_conv9_2_relu_0_split_0
I0711 18:44:13.513937  7973 net.cpp:408] conv9_2_conv9_2_relu_0_split -> conv9_2_conv9_2_relu_0_split_1
I0711 18:44:13.513945  7973 net.cpp:408] conv9_2_conv9_2_relu_0_split -> conv9_2_conv9_2_relu_0_split_2
I0711 18:44:13.513985  7973 net.cpp:150] Setting up conv9_2_conv9_2_relu_0_split
I0711 18:44:13.513990  7973 net.cpp:157] Top shape: 8 256 1 1 (2048)
I0711 18:44:13.513995  7973 net.cpp:157] Top shape: 8 256 1 1 (2048)
I0711 18:44:13.514000  7973 net.cpp:157] Top shape: 8 256 1 1 (2048)
I0711 18:44:13.514004  7973 net.cpp:165] Memory required for data: 1882243136
I0711 18:44:13.514008  7973 layer_factory.hpp:77] Creating layer conv4_3_norm
I0711 18:44:13.514014  7973 net.cpp:100] Creating Layer conv4_3_norm
I0711 18:44:13.514019  7973 net.cpp:434] conv4_3_norm <- conv4_3_relu4_3_0_split_1
I0711 18:44:13.514026  7973 net.cpp:408] conv4_3_norm -> conv4_3_norm
I0711 18:44:13.514160  7973 net.cpp:150] Setting up conv4_3_norm
I0711 18:44:13.514166  7973 net.cpp:157] Top shape: 8 512 38 38 (5914624)
I0711 18:44:13.514170  7973 net.cpp:165] Memory required for data: 1905901632
I0711 18:44:13.514176  7973 layer_factory.hpp:77] Creating layer conv4_3_norm_conv4_3_norm_0_split
I0711 18:44:13.514183  7973 net.cpp:100] Creating Layer conv4_3_norm_conv4_3_norm_0_split
I0711 18:44:13.514186  7973 net.cpp:434] conv4_3_norm_conv4_3_norm_0_split <- conv4_3_norm
I0711 18:44:13.514194  7973 net.cpp:408] conv4_3_norm_conv4_3_norm_0_split -> conv4_3_norm_conv4_3_norm_0_split_0
I0711 18:44:13.514201  7973 net.cpp:408] conv4_3_norm_conv4_3_norm_0_split -> conv4_3_norm_conv4_3_norm_0_split_1
I0711 18:44:13.514207  7973 net.cpp:408] conv4_3_norm_conv4_3_norm_0_split -> conv4_3_norm_conv4_3_norm_0_split_2
I0711 18:44:13.514256  7973 net.cpp:150] Setting up conv4_3_norm_conv4_3_norm_0_split
I0711 18:44:13.514261  7973 net.cpp:157] Top shape: 8 512 38 38 (5914624)
I0711 18:44:13.514267  7973 net.cpp:157] Top shape: 8 512 38 38 (5914624)
I0711 18:44:13.514271  7973 net.cpp:157] Top shape: 8 512 38 38 (5914624)
I0711 18:44:13.514274  7973 net.cpp:165] Memory required for data: 1976877120
I0711 18:44:13.514277  7973 layer_factory.hpp:77] Creating layer conv4_3_norm_mbox_loc
I0711 18:44:13.514286  7973 net.cpp:100] Creating Layer conv4_3_norm_mbox_loc
I0711 18:44:13.514291  7973 net.cpp:434] conv4_3_norm_mbox_loc <- conv4_3_norm_conv4_3_norm_0_split_0
I0711 18:44:13.514297  7973 net.cpp:408] conv4_3_norm_mbox_loc -> conv4_3_norm_mbox_loc
I0711 18:44:13.515005  7973 net.cpp:150] Setting up conv4_3_norm_mbox_loc
I0711 18:44:13.515013  7973 net.cpp:157] Top shape: 8 16 38 38 (184832)
I0711 18:44:13.515017  7973 net.cpp:165] Memory required for data: 1977616448
I0711 18:44:13.515023  7973 layer_factory.hpp:77] Creating layer conv4_3_norm_mbox_loc_perm
I0711 18:44:13.515030  7973 net.cpp:100] Creating Layer conv4_3_norm_mbox_loc_perm
I0711 18:44:13.515035  7973 net.cpp:434] conv4_3_norm_mbox_loc_perm <- conv4_3_norm_mbox_loc
I0711 18:44:13.515043  7973 net.cpp:408] conv4_3_norm_mbox_loc_perm -> conv4_3_norm_mbox_loc_perm
I0711 18:44:13.515115  7973 net.cpp:150] Setting up conv4_3_norm_mbox_loc_perm
I0711 18:44:13.515130  7973 net.cpp:157] Top shape: 8 38 38 16 (184832)
I0711 18:44:13.515135  7973 net.cpp:165] Memory required for data: 1978355776
I0711 18:44:13.515137  7973 layer_factory.hpp:77] Creating layer conv4_3_norm_mbox_loc_flat
I0711 18:44:13.515143  7973 net.cpp:100] Creating Layer conv4_3_norm_mbox_loc_flat
I0711 18:44:13.515147  7973 net.cpp:434] conv4_3_norm_mbox_loc_flat <- conv4_3_norm_mbox_loc_perm
I0711 18:44:13.515154  7973 net.cpp:408] conv4_3_norm_mbox_loc_flat -> conv4_3_norm_mbox_loc_flat
I0711 18:44:13.515180  7973 net.cpp:150] Setting up conv4_3_norm_mbox_loc_flat
I0711 18:44:13.515185  7973 net.cpp:157] Top shape: 8 23104 (184832)
I0711 18:44:13.515188  7973 net.cpp:165] Memory required for data: 1979095104
I0711 18:44:13.515193  7973 layer_factory.hpp:77] Creating layer conv4_3_norm_mbox_conf
I0711 18:44:13.515205  7973 net.cpp:100] Creating Layer conv4_3_norm_mbox_conf
I0711 18:44:13.515209  7973 net.cpp:434] conv4_3_norm_mbox_conf <- conv4_3_norm_conv4_3_norm_0_split_1
I0711 18:44:13.515216  7973 net.cpp:408] conv4_3_norm_mbox_conf -> conv4_3_norm_mbox_conf
I0711 18:44:13.520750  7973 net.cpp:150] Setting up conv4_3_norm_mbox_conf
I0711 18:44:13.520773  7973 net.cpp:157] Top shape: 8 84 38 38 (970368)
I0711 18:44:13.520776  7973 net.cpp:165] Memory required for data: 1982976576
I0711 18:44:13.520790  7973 layer_factory.hpp:77] Creating layer conv4_3_norm_mbox_conf_perm
I0711 18:44:13.520802  7973 net.cpp:100] Creating Layer conv4_3_norm_mbox_conf_perm
I0711 18:44:13.520808  7973 net.cpp:434] conv4_3_norm_mbox_conf_perm <- conv4_3_norm_mbox_conf
I0711 18:44:13.520815  7973 net.cpp:408] conv4_3_norm_mbox_conf_perm -> conv4_3_norm_mbox_conf_perm
I0711 18:44:13.520952  7973 net.cpp:150] Setting up conv4_3_norm_mbox_conf_perm
I0711 18:44:13.520963  7973 net.cpp:157] Top shape: 8 38 38 84 (970368)
I0711 18:44:13.520968  7973 net.cpp:165] Memory required for data: 1986858048
I0711 18:44:13.520972  7973 layer_factory.hpp:77] Creating layer conv4_3_norm_mbox_conf_flat
I0711 18:44:13.520987  7973 net.cpp:100] Creating Layer conv4_3_norm_mbox_conf_flat
I0711 18:44:13.520992  7973 net.cpp:434] conv4_3_norm_mbox_conf_flat <- conv4_3_norm_mbox_conf_perm
I0711 18:44:13.521000  7973 net.cpp:408] conv4_3_norm_mbox_conf_flat -> conv4_3_norm_mbox_conf_flat
I0711 18:44:13.521033  7973 net.cpp:150] Setting up conv4_3_norm_mbox_conf_flat
I0711 18:44:13.521039  7973 net.cpp:157] Top shape: 8 121296 (970368)
I0711 18:44:13.521044  7973 net.cpp:165] Memory required for data: 1990739520
I0711 18:44:13.521046  7973 layer_factory.hpp:77] Creating layer conv4_3_norm_mbox_priorbox
I0711 18:44:13.521064  7973 net.cpp:100] Creating Layer conv4_3_norm_mbox_priorbox
I0711 18:44:13.521069  7973 net.cpp:434] conv4_3_norm_mbox_priorbox <- conv4_3_norm_conv4_3_norm_0_split_2
I0711 18:44:13.521083  7973 net.cpp:434] conv4_3_norm_mbox_priorbox <- data_data_0_split_1
I0711 18:44:13.521100  7973 net.cpp:408] conv4_3_norm_mbox_priorbox -> conv4_3_norm_mbox_priorbox
I0711 18:44:13.521167  7973 net.cpp:150] Setting up conv4_3_norm_mbox_priorbox
I0711 18:44:13.521175  7973 net.cpp:157] Top shape: 1 2 23104 (46208)
I0711 18:44:13.521179  7973 net.cpp:165] Memory required for data: 1990924352
I0711 18:44:13.521184  7973 layer_factory.hpp:77] Creating layer fc7_mbox_loc
I0711 18:44:13.521298  7973 net.cpp:100] Creating Layer fc7_mbox_loc
I0711 18:44:13.521308  7973 net.cpp:434] fc7_mbox_loc <- fc7_relu7_0_split_1
I0711 18:44:13.521327  7973 net.cpp:408] fc7_mbox_loc -> fc7_mbox_loc
I0711 18:44:13.524054  7973 net.cpp:150] Setting up fc7_mbox_loc
I0711 18:44:13.524088  7973 net.cpp:157] Top shape: 8 24 19 19 (69312)
I0711 18:44:13.524096  7973 net.cpp:165] Memory required for data: 1991201600
I0711 18:44:13.524109  7973 layer_factory.hpp:77] Creating layer fc7_mbox_loc_perm
I0711 18:44:13.524119  7973 net.cpp:100] Creating Layer fc7_mbox_loc_perm
I0711 18:44:13.524127  7973 net.cpp:434] fc7_mbox_loc_perm <- fc7_mbox_loc
I0711 18:44:13.524134  7973 net.cpp:408] fc7_mbox_loc_perm -> fc7_mbox_loc_perm
I0711 18:44:13.524257  7973 net.cpp:150] Setting up fc7_mbox_loc_perm
I0711 18:44:13.524266  7973 net.cpp:157] Top shape: 8 19 19 24 (69312)
I0711 18:44:13.524271  7973 net.cpp:165] Memory required for data: 1991478848
I0711 18:44:13.524276  7973 layer_factory.hpp:77] Creating layer fc7_mbox_loc_flat
I0711 18:44:13.524283  7973 net.cpp:100] Creating Layer fc7_mbox_loc_flat
I0711 18:44:13.524288  7973 net.cpp:434] fc7_mbox_loc_flat <- fc7_mbox_loc_perm
I0711 18:44:13.524294  7973 net.cpp:408] fc7_mbox_loc_flat -> fc7_mbox_loc_flat
I0711 18:44:13.524319  7973 net.cpp:150] Setting up fc7_mbox_loc_flat
I0711 18:44:13.524327  7973 net.cpp:157] Top shape: 8 8664 (69312)
I0711 18:44:13.524330  7973 net.cpp:165] Memory required for data: 1991756096
I0711 18:44:13.524334  7973 layer_factory.hpp:77] Creating layer fc7_mbox_conf
I0711 18:44:13.524343  7973 net.cpp:100] Creating Layer fc7_mbox_conf
I0711 18:44:13.524349  7973 net.cpp:434] fc7_mbox_conf <- fc7_relu7_0_split_2
I0711 18:44:13.524356  7973 net.cpp:408] fc7_mbox_conf -> fc7_mbox_conf
I0711 18:44:13.535082  7973 net.cpp:150] Setting up fc7_mbox_conf
I0711 18:44:13.535105  7973 net.cpp:157] Top shape: 8 126 19 19 (363888)
I0711 18:44:13.535109  7973 net.cpp:165] Memory required for data: 1993211648
I0711 18:44:13.535120  7973 layer_factory.hpp:77] Creating layer fc7_mbox_conf_perm
I0711 18:44:13.535130  7973 net.cpp:100] Creating Layer fc7_mbox_conf_perm
I0711 18:44:13.535137  7973 net.cpp:434] fc7_mbox_conf_perm <- fc7_mbox_conf
I0711 18:44:13.535146  7973 net.cpp:408] fc7_mbox_conf_perm -> fc7_mbox_conf_perm
I0711 18:44:13.535235  7973 net.cpp:150] Setting up fc7_mbox_conf_perm
I0711 18:44:13.535240  7973 net.cpp:157] Top shape: 8 19 19 126 (363888)
I0711 18:44:13.535243  7973 net.cpp:165] Memory required for data: 1994667200
I0711 18:44:13.535244  7973 layer_factory.hpp:77] Creating layer fc7_mbox_conf_flat
I0711 18:44:13.535253  7973 net.cpp:100] Creating Layer fc7_mbox_conf_flat
I0711 18:44:13.535255  7973 net.cpp:434] fc7_mbox_conf_flat <- fc7_mbox_conf_perm
I0711 18:44:13.535261  7973 net.cpp:408] fc7_mbox_conf_flat -> fc7_mbox_conf_flat
I0711 18:44:13.535287  7973 net.cpp:150] Setting up fc7_mbox_conf_flat
I0711 18:44:13.535295  7973 net.cpp:157] Top shape: 8 45486 (363888)
I0711 18:44:13.535296  7973 net.cpp:165] Memory required for data: 1996122752
I0711 18:44:13.535298  7973 layer_factory.hpp:77] Creating layer fc7_mbox_priorbox
I0711 18:44:13.535305  7973 net.cpp:100] Creating Layer fc7_mbox_priorbox
I0711 18:44:13.535312  7973 net.cpp:434] fc7_mbox_priorbox <- fc7_relu7_0_split_3
I0711 18:44:13.535327  7973 net.cpp:434] fc7_mbox_priorbox <- data_data_0_split_2
I0711 18:44:13.535334  7973 net.cpp:408] fc7_mbox_priorbox -> fc7_mbox_priorbox
I0711 18:44:13.535372  7973 net.cpp:150] Setting up fc7_mbox_priorbox
I0711 18:44:13.535379  7973 net.cpp:157] Top shape: 1 2 8664 (17328)
I0711 18:44:13.535382  7973 net.cpp:165] Memory required for data: 1996192064
I0711 18:44:13.535385  7973 layer_factory.hpp:77] Creating layer conv6_2_mbox_loc
I0711 18:44:13.535394  7973 net.cpp:100] Creating Layer conv6_2_mbox_loc
I0711 18:44:13.535399  7973 net.cpp:434] conv6_2_mbox_loc <- conv6_2_conv6_2_relu_0_split_1
I0711 18:44:13.535406  7973 net.cpp:408] conv6_2_mbox_loc -> conv6_2_mbox_loc
I0711 18:44:13.536335  7973 net.cpp:150] Setting up conv6_2_mbox_loc
I0711 18:44:13.536343  7973 net.cpp:157] Top shape: 8 24 10 10 (19200)
I0711 18:44:13.536347  7973 net.cpp:165] Memory required for data: 1996268864
I0711 18:44:13.536353  7973 layer_factory.hpp:77] Creating layer conv6_2_mbox_loc_perm
I0711 18:44:13.536360  7973 net.cpp:100] Creating Layer conv6_2_mbox_loc_perm
I0711 18:44:13.536365  7973 net.cpp:434] conv6_2_mbox_loc_perm <- conv6_2_mbox_loc
I0711 18:44:13.536371  7973 net.cpp:408] conv6_2_mbox_loc_perm -> conv6_2_mbox_loc_perm
I0711 18:44:13.536449  7973 net.cpp:150] Setting up conv6_2_mbox_loc_perm
I0711 18:44:13.536455  7973 net.cpp:157] Top shape: 8 10 10 24 (19200)
I0711 18:44:13.536458  7973 net.cpp:165] Memory required for data: 1996345664
I0711 18:44:13.536463  7973 layer_factory.hpp:77] Creating layer conv6_2_mbox_loc_flat
I0711 18:44:13.536490  7973 net.cpp:100] Creating Layer conv6_2_mbox_loc_flat
I0711 18:44:13.536495  7973 net.cpp:434] conv6_2_mbox_loc_flat <- conv6_2_mbox_loc_perm
I0711 18:44:13.536501  7973 net.cpp:408] conv6_2_mbox_loc_flat -> conv6_2_mbox_loc_flat
I0711 18:44:13.536525  7973 net.cpp:150] Setting up conv6_2_mbox_loc_flat
I0711 18:44:13.536530  7973 net.cpp:157] Top shape: 8 2400 (19200)
I0711 18:44:13.536532  7973 net.cpp:165] Memory required for data: 1996422464
I0711 18:44:13.536535  7973 layer_factory.hpp:77] Creating layer conv6_2_mbox_conf
I0711 18:44:13.536545  7973 net.cpp:100] Creating Layer conv6_2_mbox_conf
I0711 18:44:13.536548  7973 net.cpp:434] conv6_2_mbox_conf <- conv6_2_conv6_2_relu_0_split_2
I0711 18:44:13.536554  7973 net.cpp:408] conv6_2_mbox_conf -> conv6_2_mbox_conf
I0711 18:44:13.541409  7973 net.cpp:150] Setting up conv6_2_mbox_conf
I0711 18:44:13.541421  7973 net.cpp:157] Top shape: 8 126 10 10 (100800)
I0711 18:44:13.541425  7973 net.cpp:165] Memory required for data: 1996825664
I0711 18:44:13.541434  7973 layer_factory.hpp:77] Creating layer conv6_2_mbox_conf_perm
I0711 18:44:13.541441  7973 net.cpp:100] Creating Layer conv6_2_mbox_conf_perm
I0711 18:44:13.541447  7973 net.cpp:434] conv6_2_mbox_conf_perm <- conv6_2_mbox_conf
I0711 18:44:13.541455  7973 net.cpp:408] conv6_2_mbox_conf_perm -> conv6_2_mbox_conf_perm
I0711 18:44:13.541528  7973 net.cpp:150] Setting up conv6_2_mbox_conf_perm
I0711 18:44:13.541534  7973 net.cpp:157] Top shape: 8 10 10 126 (100800)
I0711 18:44:13.541538  7973 net.cpp:165] Memory required for data: 1997228864
I0711 18:44:13.541541  7973 layer_factory.hpp:77] Creating layer conv6_2_mbox_conf_flat
I0711 18:44:13.541553  7973 net.cpp:100] Creating Layer conv6_2_mbox_conf_flat
I0711 18:44:13.541556  7973 net.cpp:434] conv6_2_mbox_conf_flat <- conv6_2_mbox_conf_perm
I0711 18:44:13.541563  7973 net.cpp:408] conv6_2_mbox_conf_flat -> conv6_2_mbox_conf_flat
I0711 18:44:13.541582  7973 net.cpp:150] Setting up conv6_2_mbox_conf_flat
I0711 18:44:13.541587  7973 net.cpp:157] Top shape: 8 12600 (100800)
I0711 18:44:13.541590  7973 net.cpp:165] Memory required for data: 1997632064
I0711 18:44:13.541595  7973 layer_factory.hpp:77] Creating layer conv6_2_mbox_priorbox
I0711 18:44:13.541607  7973 net.cpp:100] Creating Layer conv6_2_mbox_priorbox
I0711 18:44:13.541611  7973 net.cpp:434] conv6_2_mbox_priorbox <- conv6_2_conv6_2_relu_0_split_3
I0711 18:44:13.541617  7973 net.cpp:434] conv6_2_mbox_priorbox <- data_data_0_split_3
I0711 18:44:13.541625  7973 net.cpp:408] conv6_2_mbox_priorbox -> conv6_2_mbox_priorbox
I0711 18:44:13.541646  7973 net.cpp:150] Setting up conv6_2_mbox_priorbox
I0711 18:44:13.541651  7973 net.cpp:157] Top shape: 1 2 2400 (4800)
I0711 18:44:13.541653  7973 net.cpp:165] Memory required for data: 1997651264
I0711 18:44:13.541657  7973 layer_factory.hpp:77] Creating layer conv7_2_mbox_loc
I0711 18:44:13.541666  7973 net.cpp:100] Creating Layer conv7_2_mbox_loc
I0711 18:44:13.541669  7973 net.cpp:434] conv7_2_mbox_loc <- conv7_2_conv7_2_relu_0_split_1
I0711 18:44:13.541676  7973 net.cpp:408] conv7_2_mbox_loc -> conv7_2_mbox_loc
I0711 18:44:13.542233  7973 net.cpp:150] Setting up conv7_2_mbox_loc
I0711 18:44:13.542242  7973 net.cpp:157] Top shape: 8 24 5 5 (4800)
I0711 18:44:13.542244  7973 net.cpp:165] Memory required for data: 1997670464
I0711 18:44:13.542250  7973 layer_factory.hpp:77] Creating layer conv7_2_mbox_loc_perm
I0711 18:44:13.542256  7973 net.cpp:100] Creating Layer conv7_2_mbox_loc_perm
I0711 18:44:13.542260  7973 net.cpp:434] conv7_2_mbox_loc_perm <- conv7_2_mbox_loc
I0711 18:44:13.542264  7973 net.cpp:408] conv7_2_mbox_loc_perm -> conv7_2_mbox_loc_perm
I0711 18:44:13.542333  7973 net.cpp:150] Setting up conv7_2_mbox_loc_perm
I0711 18:44:13.542340  7973 net.cpp:157] Top shape: 8 5 5 24 (4800)
I0711 18:44:13.542342  7973 net.cpp:165] Memory required for data: 1997689664
I0711 18:44:13.542346  7973 layer_factory.hpp:77] Creating layer conv7_2_mbox_loc_flat
I0711 18:44:13.542351  7973 net.cpp:100] Creating Layer conv7_2_mbox_loc_flat
I0711 18:44:13.542364  7973 net.cpp:434] conv7_2_mbox_loc_flat <- conv7_2_mbox_loc_perm
I0711 18:44:13.542371  7973 net.cpp:408] conv7_2_mbox_loc_flat -> conv7_2_mbox_loc_flat
I0711 18:44:13.542389  7973 net.cpp:150] Setting up conv7_2_mbox_loc_flat
I0711 18:44:13.542394  7973 net.cpp:157] Top shape: 8 600 (4800)
I0711 18:44:13.542398  7973 net.cpp:165] Memory required for data: 1997708864
I0711 18:44:13.542402  7973 layer_factory.hpp:77] Creating layer conv7_2_mbox_conf
I0711 18:44:13.542409  7973 net.cpp:100] Creating Layer conv7_2_mbox_conf
I0711 18:44:13.542413  7973 net.cpp:434] conv7_2_mbox_conf <- conv7_2_conv7_2_relu_0_split_2
I0711 18:44:13.542419  7973 net.cpp:408] conv7_2_mbox_conf -> conv7_2_mbox_conf
I0711 18:44:13.545284  7973 net.cpp:150] Setting up conv7_2_mbox_conf
I0711 18:44:13.545303  7973 net.cpp:157] Top shape: 8 126 5 5 (25200)
I0711 18:44:13.545306  7973 net.cpp:165] Memory required for data: 1997809664
I0711 18:44:13.545315  7973 layer_factory.hpp:77] Creating layer conv7_2_mbox_conf_perm
I0711 18:44:13.545325  7973 net.cpp:100] Creating Layer conv7_2_mbox_conf_perm
I0711 18:44:13.545331  7973 net.cpp:434] conv7_2_mbox_conf_perm <- conv7_2_mbox_conf
I0711 18:44:13.545342  7973 net.cpp:408] conv7_2_mbox_conf_perm -> conv7_2_mbox_conf_perm
I0711 18:44:13.545430  7973 net.cpp:150] Setting up conv7_2_mbox_conf_perm
I0711 18:44:13.545435  7973 net.cpp:157] Top shape: 8 5 5 126 (25200)
I0711 18:44:13.545439  7973 net.cpp:165] Memory required for data: 1997910464
I0711 18:44:13.545442  7973 layer_factory.hpp:77] Creating layer conv7_2_mbox_conf_flat
I0711 18:44:13.545454  7973 net.cpp:100] Creating Layer conv7_2_mbox_conf_flat
I0711 18:44:13.545457  7973 net.cpp:434] conv7_2_mbox_conf_flat <- conv7_2_mbox_conf_perm
I0711 18:44:13.545464  7973 net.cpp:408] conv7_2_mbox_conf_flat -> conv7_2_mbox_conf_flat
I0711 18:44:13.545485  7973 net.cpp:150] Setting up conv7_2_mbox_conf_flat
I0711 18:44:13.545490  7973 net.cpp:157] Top shape: 8 3150 (25200)
I0711 18:44:13.545492  7973 net.cpp:165] Memory required for data: 1998011264
I0711 18:44:13.545496  7973 layer_factory.hpp:77] Creating layer conv7_2_mbox_priorbox
I0711 18:44:13.545503  7973 net.cpp:100] Creating Layer conv7_2_mbox_priorbox
I0711 18:44:13.545507  7973 net.cpp:434] conv7_2_mbox_priorbox <- conv7_2_conv7_2_relu_0_split_3
I0711 18:44:13.545513  7973 net.cpp:434] conv7_2_mbox_priorbox <- data_data_0_split_4
I0711 18:44:13.545519  7973 net.cpp:408] conv7_2_mbox_priorbox -> conv7_2_mbox_priorbox
I0711 18:44:13.545542  7973 net.cpp:150] Setting up conv7_2_mbox_priorbox
I0711 18:44:13.545547  7973 net.cpp:157] Top shape: 1 2 600 (1200)
I0711 18:44:13.545550  7973 net.cpp:165] Memory required for data: 1998016064
I0711 18:44:13.545553  7973 layer_factory.hpp:77] Creating layer conv8_2_mbox_loc
I0711 18:44:13.545562  7973 net.cpp:100] Creating Layer conv8_2_mbox_loc
I0711 18:44:13.545567  7973 net.cpp:434] conv8_2_mbox_loc <- conv8_2_conv8_2_relu_0_split_1
I0711 18:44:13.545572  7973 net.cpp:408] conv8_2_mbox_loc -> conv8_2_mbox_loc
I0711 18:44:13.546020  7973 net.cpp:150] Setting up conv8_2_mbox_loc
I0711 18:44:13.546028  7973 net.cpp:157] Top shape: 8 16 3 3 (1152)
I0711 18:44:13.546032  7973 net.cpp:165] Memory required for data: 1998020672
I0711 18:44:13.546046  7973 layer_factory.hpp:77] Creating layer conv8_2_mbox_loc_perm
I0711 18:44:13.546051  7973 net.cpp:100] Creating Layer conv8_2_mbox_loc_perm
I0711 18:44:13.546052  7973 net.cpp:434] conv8_2_mbox_loc_perm <- conv8_2_mbox_loc
I0711 18:44:13.546058  7973 net.cpp:408] conv8_2_mbox_loc_perm -> conv8_2_mbox_loc_perm
I0711 18:44:13.546150  7973 net.cpp:150] Setting up conv8_2_mbox_loc_perm
I0711 18:44:13.546156  7973 net.cpp:157] Top shape: 8 3 3 16 (1152)
I0711 18:44:13.546160  7973 net.cpp:165] Memory required for data: 1998025280
I0711 18:44:13.546164  7973 layer_factory.hpp:77] Creating layer conv8_2_mbox_loc_flat
I0711 18:44:13.546169  7973 net.cpp:100] Creating Layer conv8_2_mbox_loc_flat
I0711 18:44:13.546174  7973 net.cpp:434] conv8_2_mbox_loc_flat <- conv8_2_mbox_loc_perm
I0711 18:44:13.546191  7973 net.cpp:408] conv8_2_mbox_loc_flat -> conv8_2_mbox_loc_flat
I0711 18:44:13.546211  7973 net.cpp:150] Setting up conv8_2_mbox_loc_flat
I0711 18:44:13.546216  7973 net.cpp:157] Top shape: 8 144 (1152)
I0711 18:44:13.546219  7973 net.cpp:165] Memory required for data: 1998029888
I0711 18:44:13.546222  7973 layer_factory.hpp:77] Creating layer conv8_2_mbox_conf
I0711 18:44:13.546231  7973 net.cpp:100] Creating Layer conv8_2_mbox_conf
I0711 18:44:13.546236  7973 net.cpp:434] conv8_2_mbox_conf <- conv8_2_conv8_2_relu_0_split_2
I0711 18:44:13.546241  7973 net.cpp:408] conv8_2_mbox_conf -> conv8_2_mbox_conf
I0711 18:44:13.547684  7973 net.cpp:150] Setting up conv8_2_mbox_conf
I0711 18:44:13.547693  7973 net.cpp:157] Top shape: 8 84 3 3 (6048)
I0711 18:44:13.547695  7973 net.cpp:165] Memory required for data: 1998054080
I0711 18:44:13.547701  7973 layer_factory.hpp:77] Creating layer conv8_2_mbox_conf_perm
I0711 18:44:13.547708  7973 net.cpp:100] Creating Layer conv8_2_mbox_conf_perm
I0711 18:44:13.547713  7973 net.cpp:434] conv8_2_mbox_conf_perm <- conv8_2_mbox_conf
I0711 18:44:13.547719  7973 net.cpp:408] conv8_2_mbox_conf_perm -> conv8_2_mbox_conf_perm
I0711 18:44:13.547790  7973 net.cpp:150] Setting up conv8_2_mbox_conf_perm
I0711 18:44:13.547796  7973 net.cpp:157] Top shape: 8 3 3 84 (6048)
I0711 18:44:13.547799  7973 net.cpp:165] Memory required for data: 1998078272
I0711 18:44:13.547802  7973 layer_factory.hpp:77] Creating layer conv8_2_mbox_conf_flat
I0711 18:44:13.547807  7973 net.cpp:100] Creating Layer conv8_2_mbox_conf_flat
I0711 18:44:13.547811  7973 net.cpp:434] conv8_2_mbox_conf_flat <- conv8_2_mbox_conf_perm
I0711 18:44:13.547817  7973 net.cpp:408] conv8_2_mbox_conf_flat -> conv8_2_mbox_conf_flat
I0711 18:44:13.547838  7973 net.cpp:150] Setting up conv8_2_mbox_conf_flat
I0711 18:44:13.547842  7973 net.cpp:157] Top shape: 8 756 (6048)
I0711 18:44:13.547845  7973 net.cpp:165] Memory required for data: 1998102464
I0711 18:44:13.547849  7973 layer_factory.hpp:77] Creating layer conv8_2_mbox_priorbox
I0711 18:44:13.547854  7973 net.cpp:100] Creating Layer conv8_2_mbox_priorbox
I0711 18:44:13.547858  7973 net.cpp:434] conv8_2_mbox_priorbox <- conv8_2_conv8_2_relu_0_split_3
I0711 18:44:13.547863  7973 net.cpp:434] conv8_2_mbox_priorbox <- data_data_0_split_5
I0711 18:44:13.547875  7973 net.cpp:408] conv8_2_mbox_priorbox -> conv8_2_mbox_priorbox
I0711 18:44:13.547909  7973 net.cpp:150] Setting up conv8_2_mbox_priorbox
I0711 18:44:13.547916  7973 net.cpp:157] Top shape: 1 2 144 (288)
I0711 18:44:13.547919  7973 net.cpp:165] Memory required for data: 1998103616
I0711 18:44:13.547922  7973 layer_factory.hpp:77] Creating layer conv9_2_mbox_loc
I0711 18:44:13.547930  7973 net.cpp:100] Creating Layer conv9_2_mbox_loc
I0711 18:44:13.547935  7973 net.cpp:434] conv9_2_mbox_loc <- conv9_2_conv9_2_relu_0_split_0
I0711 18:44:13.547940  7973 net.cpp:408] conv9_2_mbox_loc -> conv9_2_mbox_loc
I0711 18:44:13.548348  7973 net.cpp:150] Setting up conv9_2_mbox_loc
I0711 18:44:13.548354  7973 net.cpp:157] Top shape: 8 16 1 1 (128)
I0711 18:44:13.548359  7973 net.cpp:165] Memory required for data: 1998104128
I0711 18:44:13.548367  7973 layer_factory.hpp:77] Creating layer conv9_2_mbox_loc_perm
I0711 18:44:13.548375  7973 net.cpp:100] Creating Layer conv9_2_mbox_loc_perm
I0711 18:44:13.548379  7973 net.cpp:434] conv9_2_mbox_loc_perm <- conv9_2_mbox_loc
I0711 18:44:13.548384  7973 net.cpp:408] conv9_2_mbox_loc_perm -> conv9_2_mbox_loc_perm
I0711 18:44:13.548452  7973 net.cpp:150] Setting up conv9_2_mbox_loc_perm
I0711 18:44:13.548457  7973 net.cpp:157] Top shape: 8 1 1 16 (128)
I0711 18:44:13.548461  7973 net.cpp:165] Memory required for data: 1998104640
I0711 18:44:13.548463  7973 layer_factory.hpp:77] Creating layer conv9_2_mbox_loc_flat
I0711 18:44:13.548468  7973 net.cpp:100] Creating Layer conv9_2_mbox_loc_flat
I0711 18:44:13.548473  7973 net.cpp:434] conv9_2_mbox_loc_flat <- conv9_2_mbox_loc_perm
I0711 18:44:13.548478  7973 net.cpp:408] conv9_2_mbox_loc_flat -> conv9_2_mbox_loc_flat
I0711 18:44:13.548508  7973 net.cpp:150] Setting up conv9_2_mbox_loc_flat
I0711 18:44:13.548513  7973 net.cpp:157] Top shape: 8 16 (128)
I0711 18:44:13.548518  7973 net.cpp:165] Memory required for data: 1998105152
I0711 18:44:13.548521  7973 layer_factory.hpp:77] Creating layer conv9_2_mbox_conf
I0711 18:44:13.548528  7973 net.cpp:100] Creating Layer conv9_2_mbox_conf
I0711 18:44:13.548532  7973 net.cpp:434] conv9_2_mbox_conf <- conv9_2_conv9_2_relu_0_split_1
I0711 18:44:13.548539  7973 net.cpp:408] conv9_2_mbox_conf -> conv9_2_mbox_conf
I0711 18:44:13.549970  7973 net.cpp:150] Setting up conv9_2_mbox_conf
I0711 18:44:13.549976  7973 net.cpp:157] Top shape: 8 84 1 1 (672)
I0711 18:44:13.549979  7973 net.cpp:165] Memory required for data: 1998107840
I0711 18:44:13.549986  7973 layer_factory.hpp:77] Creating layer conv9_2_mbox_conf_perm
I0711 18:44:13.549993  7973 net.cpp:100] Creating Layer conv9_2_mbox_conf_perm
I0711 18:44:13.549996  7973 net.cpp:434] conv9_2_mbox_conf_perm <- conv9_2_mbox_conf
I0711 18:44:13.550002  7973 net.cpp:408] conv9_2_mbox_conf_perm -> conv9_2_mbox_conf_perm
I0711 18:44:13.550071  7973 net.cpp:150] Setting up conv9_2_mbox_conf_perm
I0711 18:44:13.550076  7973 net.cpp:157] Top shape: 8 1 1 84 (672)
I0711 18:44:13.550079  7973 net.cpp:165] Memory required for data: 1998110528
I0711 18:44:13.550082  7973 layer_factory.hpp:77] Creating layer conv9_2_mbox_conf_flat
I0711 18:44:13.550087  7973 net.cpp:100] Creating Layer conv9_2_mbox_conf_flat
I0711 18:44:13.550092  7973 net.cpp:434] conv9_2_mbox_conf_flat <- conv9_2_mbox_conf_perm
I0711 18:44:13.550098  7973 net.cpp:408] conv9_2_mbox_conf_flat -> conv9_2_mbox_conf_flat
I0711 18:44:13.550117  7973 net.cpp:150] Setting up conv9_2_mbox_conf_flat
I0711 18:44:13.550122  7973 net.cpp:157] Top shape: 8 84 (672)
I0711 18:44:13.550125  7973 net.cpp:165] Memory required for data: 1998113216
I0711 18:44:13.550128  7973 layer_factory.hpp:77] Creating layer conv9_2_mbox_priorbox
I0711 18:44:13.550137  7973 net.cpp:100] Creating Layer conv9_2_mbox_priorbox
I0711 18:44:13.550143  7973 net.cpp:434] conv9_2_mbox_priorbox <- conv9_2_conv9_2_relu_0_split_2
I0711 18:44:13.550149  7973 net.cpp:434] conv9_2_mbox_priorbox <- data_data_0_split_6
I0711 18:44:13.550158  7973 net.cpp:408] conv9_2_mbox_priorbox -> conv9_2_mbox_priorbox
I0711 18:44:13.550182  7973 net.cpp:150] Setting up conv9_2_mbox_priorbox
I0711 18:44:13.550189  7973 net.cpp:157] Top shape: 1 2 16 (32)
I0711 18:44:13.550191  7973 net.cpp:165] Memory required for data: 1998113344
I0711 18:44:13.550194  7973 layer_factory.hpp:77] Creating layer mbox_loc
I0711 18:44:13.550200  7973 net.cpp:100] Creating Layer mbox_loc
I0711 18:44:13.550205  7973 net.cpp:434] mbox_loc <- conv4_3_norm_mbox_loc_flat
I0711 18:44:13.550212  7973 net.cpp:434] mbox_loc <- fc7_mbox_loc_flat
I0711 18:44:13.550217  7973 net.cpp:434] mbox_loc <- conv6_2_mbox_loc_flat
I0711 18:44:13.550223  7973 net.cpp:434] mbox_loc <- conv7_2_mbox_loc_flat
I0711 18:44:13.550230  7973 net.cpp:434] mbox_loc <- conv8_2_mbox_loc_flat
I0711 18:44:13.550235  7973 net.cpp:434] mbox_loc <- conv9_2_mbox_loc_flat
I0711 18:44:13.550240  7973 net.cpp:408] mbox_loc -> mbox_loc
I0711 18:44:13.550261  7973 net.cpp:150] Setting up mbox_loc
I0711 18:44:13.550266  7973 net.cpp:157] Top shape: 8 34928 (279424)
I0711 18:44:13.550269  7973 net.cpp:165] Memory required for data: 1999231040
I0711 18:44:13.550272  7973 layer_factory.hpp:77] Creating layer mbox_conf
I0711 18:44:13.550276  7973 net.cpp:100] Creating Layer mbox_conf
I0711 18:44:13.550282  7973 net.cpp:434] mbox_conf <- conv4_3_norm_mbox_conf_flat
I0711 18:44:13.550287  7973 net.cpp:434] mbox_conf <- fc7_mbox_conf_flat
I0711 18:44:13.550292  7973 net.cpp:434] mbox_conf <- conv6_2_mbox_conf_flat
I0711 18:44:13.550297  7973 net.cpp:434] mbox_conf <- conv7_2_mbox_conf_flat
I0711 18:44:13.550302  7973 net.cpp:434] mbox_conf <- conv8_2_mbox_conf_flat
I0711 18:44:13.550307  7973 net.cpp:434] mbox_conf <- conv9_2_mbox_conf_flat
I0711 18:44:13.550313  7973 net.cpp:408] mbox_conf -> mbox_conf
I0711 18:44:13.550334  7973 net.cpp:150] Setting up mbox_conf
I0711 18:44:13.550346  7973 net.cpp:157] Top shape: 8 183372 (1466976)
I0711 18:44:13.550349  7973 net.cpp:165] Memory required for data: 2005098944
I0711 18:44:13.550353  7973 layer_factory.hpp:77] Creating layer mbox_priorbox
I0711 18:44:13.550359  7973 net.cpp:100] Creating Layer mbox_priorbox
I0711 18:44:13.550364  7973 net.cpp:434] mbox_priorbox <- conv4_3_norm_mbox_priorbox
I0711 18:44:13.550369  7973 net.cpp:434] mbox_priorbox <- fc7_mbox_priorbox
I0711 18:44:13.550374  7973 net.cpp:434] mbox_priorbox <- conv6_2_mbox_priorbox
I0711 18:44:13.550379  7973 net.cpp:434] mbox_priorbox <- conv7_2_mbox_priorbox
I0711 18:44:13.550384  7973 net.cpp:434] mbox_priorbox <- conv8_2_mbox_priorbox
I0711 18:44:13.550388  7973 net.cpp:434] mbox_priorbox <- conv9_2_mbox_priorbox
I0711 18:44:13.550393  7973 net.cpp:408] mbox_priorbox -> mbox_priorbox
I0711 18:44:13.550413  7973 net.cpp:150] Setting up mbox_priorbox
I0711 18:44:13.550420  7973 net.cpp:157] Top shape: 1 2 34928 (69856)
I0711 18:44:13.550422  7973 net.cpp:165] Memory required for data: 2005378368
I0711 18:44:13.550426  7973 layer_factory.hpp:77] Creating layer mbox_conf_reshape
I0711 18:44:13.550433  7973 net.cpp:100] Creating Layer mbox_conf_reshape
I0711 18:44:13.550437  7973 net.cpp:434] mbox_conf_reshape <- mbox_conf
I0711 18:44:13.550442  7973 net.cpp:408] mbox_conf_reshape -> mbox_conf_reshape
I0711 18:44:13.550577  7973 net.cpp:150] Setting up mbox_conf_reshape
I0711 18:44:13.550585  7973 net.cpp:157] Top shape: 8 8732 21 (1466976)
I0711 18:44:13.550590  7973 net.cpp:165] Memory required for data: 2011246272
I0711 18:44:13.550593  7973 layer_factory.hpp:77] Creating layer mbox_conf_softmax
I0711 18:44:13.550603  7973 net.cpp:100] Creating Layer mbox_conf_softmax
I0711 18:44:13.550607  7973 net.cpp:434] mbox_conf_softmax <- mbox_conf_reshape
I0711 18:44:13.550616  7973 net.cpp:408] mbox_conf_softmax -> mbox_conf_softmax
I0711 18:44:13.550668  7973 net.cpp:150] Setting up mbox_conf_softmax
I0711 18:44:13.550673  7973 net.cpp:157] Top shape: 8 8732 21 (1466976)
I0711 18:44:13.550676  7973 net.cpp:165] Memory required for data: 2017114176
I0711 18:44:13.550681  7973 layer_factory.hpp:77] Creating layer mbox_conf_flatten
I0711 18:44:13.550685  7973 net.cpp:100] Creating Layer mbox_conf_flatten
I0711 18:44:13.550689  7973 net.cpp:434] mbox_conf_flatten <- mbox_conf_softmax
I0711 18:44:13.550694  7973 net.cpp:408] mbox_conf_flatten -> mbox_conf_flatten
I0711 18:44:13.550714  7973 net.cpp:150] Setting up mbox_conf_flatten
I0711 18:44:13.550719  7973 net.cpp:157] Top shape: 8 183372 (1466976)
I0711 18:44:13.550721  7973 net.cpp:165] Memory required for data: 2022982080
I0711 18:44:13.550724  7973 layer_factory.hpp:77] Creating layer detection_out
I0711 18:44:13.550740  7973 net.cpp:100] Creating Layer detection_out
I0711 18:44:13.550743  7973 net.cpp:434] detection_out <- mbox_loc
I0711 18:44:13.550748  7973 net.cpp:434] detection_out <- mbox_conf_flatten
I0711 18:44:13.550753  7973 net.cpp:434] detection_out <- mbox_priorbox
I0711 18:44:13.550760  7973 net.cpp:408] detection_out -> detection_out
I0711 18:44:13.556316  7973 net.cpp:150] Setting up detection_out
I0711 18:44:13.556329  7973 net.cpp:157] Top shape: 1 1 1 7 (7)
I0711 18:44:13.556332  7973 net.cpp:165] Memory required for data: 2022982108
I0711 18:44:13.556337  7973 layer_factory.hpp:77] Creating layer detection_eval
I0711 18:44:13.556349  7973 net.cpp:100] Creating Layer detection_eval
I0711 18:44:13.556352  7973 net.cpp:434] detection_eval <- detection_out
I0711 18:44:13.556358  7973 net.cpp:434] detection_eval <- label
I0711 18:44:13.556365  7973 net.cpp:408] detection_eval -> detection_eval
I0711 18:44:13.557590  7973 net.cpp:150] Setting up detection_eval
I0711 18:44:13.557601  7973 net.cpp:157] Top shape: 1 1 21 5 (105)
I0711 18:44:13.557605  7973 net.cpp:165] Memory required for data: 2022982528
I0711 18:44:13.557608  7973 net.cpp:228] detection_eval does not need backward computation.
I0711 18:44:13.557612  7973 net.cpp:228] detection_out does not need backward computation.
I0711 18:44:13.557626  7973 net.cpp:228] mbox_conf_flatten does not need backward computation.
I0711 18:44:13.557631  7973 net.cpp:228] mbox_conf_softmax does not need backward computation.
…
